PythonScripts/subjective/ONNX/cnn.onnx (onnx, 7693 bytes, 8 tensors)

cnn.0.weight f4 [4, 3, 3, 3]
0.036039047 0.33140108 0.18155494 0.024261238 0.21404484 0.15453994 -0.17712513 0.109045595
-0.06192664 -0.22413325 -0.10942353 0.1660647 0.13590191 0.18129006 0.21126361 -0.13685703
0.1751781 -0.12604491 -0.42190555 -0.11104793 -0.49771875 -0.16951957 0.11748164 -0.024094786
0.094978414 0.060381763 -0.16705501 -0.12628637 -0.05055219 -0.2262391 0.066625774 0.13214916
0.041207276 0.1023817 0.039158396 -0.14509489 -0.2738855 -0.06890322 -0.008929714 -0.12023072
-0.09932772 0.11558171 -0.16674294 -0.045038447 0.043761797 -0.08606481 -0.22800267 0.092441894
-0.14500643 0.009165809 -0.09361002 -0.05875003 -0.0908955 -0.20317365 -0.050495274 0.07045737
0.17250875 0.10232359 0.04391725 -0.13921203 0.19754413 0.3038016 0.19273558 0.081499375
0.12620437 -0.07912235 0.19509427 -0.031419884 0.11447681 -0.29218954 -0.36262465 -0.11255235
-0.049189106 0.09030842 -0.37230337 0.09773752 -0.1524261 -0.42954332 0.03247965 0.14391851
-0.29281318 0.21607882 0.1445227 0.15391466 -0.4217968 -0.5990064 -0.24750467 0.06731773
-0.30601567 0.24181406 -0.30908674 -0.3598829 -0.29939827 -0.23940663 0.1286213 -0.56829184
-0.37784725 0.0071765897 0.1745462 -0.489054 -0.5929131 -0.1438398 -0.6128878 -0.03644217
-0.5584788 -0.584448 0.004260456 0.11155405
00000000: ae9d 133d 67ad a93e 8ae9 393e 81bf c63c
00000010: 922e 5b3e b83f 1e3e 4a60 35be 4c53 df3d
00000020: caa6 7dbd 3083 65be 7219 e0bd dd0c 2a3e
00000030: df29 0b3e 1aa4 393e 7d55 583e 4024 0cbe
00000040: e361 333e eb11 01be 0104 d8be 196d e3bd
00000050: fed4 febe 8a96 2dbe 379a f03d 6e62 c5bc
00000060: 0b84 c23d de52 773d 7810 2bbe 3751 01be
00000070: d00f 4fbd 39ab 67be 1873 883d 1c52 073e
00000080: f6c8 283d 7fad d13d 8e64 203d c193 14be
00000090: b83a 8cbe 221d 8dbd ef4d 12bc 863b f6bd
000000a0: 556c cbbd 1bb6 ec3d a9be 2abe 3c7a 38bd
000000b0: 923f 333d bf42 b0bd 8879 69be 2d52 bd3d
000000c0: 917c 14be 302c 163c 9cb6 bfbd dfa3 70bd
000000d0: 6b27 babd c10c 50be 22d4 4ebd f44b 903d
000000e0: 22a6 303e 088f d13d 93e2 333d 998d 0ebe
000000f0: 0249 4a3e e28b 9b3e 7a5c 453e 25e9 a63d
00000100: b83b 013e e60a a2bd cbc6 473e 23b2 00bd
00000110: d172 ea3d de99 95be f0a9 b9be d981 e6bd
00000120: 847a 49bd 9ff3 b83d 8c9e bebe 9c2a c83d
00000130: 9615 1cbe 1aed dbbe 6209 053d 605f 133e
00000140: 9ceb 95be c443 5d3e c2fd 133e ce9b 1d3e
00000150: c0f5 d7be 7c58 19bf dd71 7dbe e1dd 893d
00000160: 16ae 9cbe 1b9e 773e 9e40 9ebe 9242 b8be
00000170: bb4a 99be 0327 75be 4db5 033e 937b 11bf
00000180: 3275 c1be 9929 eb3b 3dbc 323e 4965 fabe
00000190: 27c9 17bf be4a 13be 37e6 1cbf 6344 15bd
000001a0: 77f8 0ebf 629e 15bf 4c9b 8b3b 7376 e43d

cnn.0.bias f4 [4]
0.16462596 0.0010020564 0.031778 0.33267108
00000000: b593 283e 6f57 833a a629 023d dd53 aa3e

cnn.3.weight f4 [8, 4, 3, 3]
-0.30764395 -0.049120717 -0.19227087 0.0706574 -0.037474785 -0.47015655 0.009167539 -0.2551922
-0.46888486 -0.20746319 0.109358855 -0.1743768 0.061477203 0.037816048 -0.105606645 -0.05506671
-0.11586911 -0.020532744 -0.11450791 -0.035748005 -0.467429 0.006229892 0.122986846 -0.48778167
0.038841534 -0.13192488 -0.22569837 0.014108667 0.04913796 0.06891196 0.13061132 -0.19434108
-0.14754328 -0.054377645 0.12352139 0.0273871 -0.04381435 -0.14784208 0.08961807 -0.2270078
-0.073964775 -0.29878762 -0.37085828 -0.4348713 -0.11210235 -0.26938862 -0.2051526 -0.05510179
-0.058751322 -0.059312653 -0.082153216 -0.11147314 0.07082761 -0.18183275 -0.16322169 -0.30547717
0.010238969 0.1098288 -0.15737475 -0.11156582 0.047118507 -0.15333946 -0.12587896 0.0025866807
-0.12288483 0.08100025 0.036912635 0.0845813 0.048872057 0.19305643 -0.13889547 -0.03793847
0.067694 -0.097936675 -0.11521126 -0.17423184 -0.0632495 0.021730494 -0.0046231444 0.08480003
-0.08618169 0.15240274 -0.048962902 0.04384623 0.06303353 0.026959283 -0.1302869 -0.116048545
-0.008270438 -0.051012106 -0.10537701 -0.16842599 0.022421401 -0.048473615 -0.16353074 0.11822043
0.033711802 0.10906575 -0.17457402 0.104252174 0.0034474665 0.07650312 0.10206404 0.009662372
0.11036985 0.083456695 -0.05531588 -0.067084394 -0.34701163 -0.30047867 -0.38020885 0.058107883
-0.30750328 -0.51527965 -0.43962523 0.14461583 0.1583381 -0.13616778 -0.07455608 -0.014492408
0.10958688 0.06102484 -0.11125586 0.035021733 -0.0213391 0.014259599 -0.15826742 -0.34295398
-0.21200524 -0.11115597 0.20170105 -0.5362657 -0.19421546 0.16104308 -0.054222044 -0.19757731
-0.08483557 -0.10336832 0.062116288 -0.17603989 -0.030389389 0.11631649 0.27547503 -0.1374619
-0.29332754 0.16433717 0.1642815 -0.2145907 0.25042644 0.14058949 0.13342908 0.038765367
-0.40844208 -0.1940799 0.093247876 0.11802161 -0.20782782 -0.034047563 -0.1653229 0.028832987
0.059062842 -0.203763 -0.21661042 0.29434887 0.24218684 -0.12601261 0.100770704 -0.21693407
0.19427489 0.034807794 -0.47110063 0.20469339 -0.0015837114 0.16345622 -0.29197317 0.32774046
-0.05172649 -0.19948849 1.0404477 0.05096448 -0.4163377 -0.14405118 0.20128909 -0.109668836
-0.033524025 -0.27749184 -0.037418205 -0.09745074 -0.12944382 -0.05774058 0.08174999 -0.022268727
0.09217868 -0.03057904 0.11333635 0.10390304 -0.050582457 0.23040369 -0.07500949 -0.54521567
-0.17047639 -0.1367704 -0.046836883 -0.061930105 0.019477708 -0.18452656 -0.41095692 0.4184234
-0.1762346 -0.10889129 -0.14996733 -0.13164313 0.1614588 -0.04932612 -0.059184134 0.09086285
-0.127068 -0.62042856 -0.37195796 0.11471938 -0.28230664 -0.12656333 -0.14008684 0.008397455
-0.03932172 -0.1371712 -0.22464761 -0.11550335 -0.13693394 0.0827446 0.04288829 0.086677894
-0.051373493 -0.06787505 -0.19631773 -0.2487143 0.042694055 -0.0037318603 0.1253877 -0.044585932
-0.41367042 -0.49944645 -0.20008895 0.38716406 -0.1980048 -0.22608745 0.2849973 -0.043250713
0.075193964 0.07748278 0.26398885 -0.112645976 -0.08837024 -0.0820581 0.28685924 0.18902239
00000000: 8283 9dbe ce32 49bd a8e2 44be d4b4 903d
00000010: 297f 19bd 5cb8 f0be 7233 163c 8da8 82be
00000020: ad11 f0be 3b71 54be 89f7 df3d d58f 32be
00000030: 85cf 7b3d 00e5 1a3d 4c48 d8bd a18d 61bd
00000040: c94c edbd 4934 a8bc 2083 eabd 806c 12bd
00000050: db52 efbe 1f24 cc3b 87e0 fb3d 85be f9be
00000060: 4d18 1f3d 5117 07be 791d 67be 0a28 673c
00000070: e344 493d b721 8d3d f9be 053e 5901 47be
00000080: 9615 17be 18bb 5ebd c8f8 fc3d e95a e03c
00000090: ad76 33bd ea63 17be ae89 b73d bc74 68be
000000a0: d87a 97bd b1fa 98be 23e1 bdbe 73a7 debe
000000b0: eb95 e5bd 4eed 89be 8613 52be 6ab2 61bd
000000c0: 3aa5 70bd d3f1 72bd f23f a8bd 084c e4bd
000000d0: 110e 913d 5d32 3abe 9623 27be 8167 9cbe
000000e0: 59c1 273c eced e03d d926 21be 9f7c e4bd
000000f0: 56ff 403d 0505 1dbe 6ae6 00be 4d85 293b
00000100: 0bab fbbd 76e3 a53d b431 173d f638 ad3d
00000110: 112e 483d 96b0 453e 9d3a 0ebe 5e65 1bbd
00000120: 27a3 8a3d 0693 c8bd e2f3 ebbd d569 32be
00000130: f488 81bd 2604 b23c bf7d 97bb a3ab ad3d
00000140: 0780 b0bd 770f 1c3e 538d 48bd 1b98 333d
00000150: b917 813d b7d9 dc3c ee69 05be dcaa edbd
00000160: bb80 07bc 12f2 50bd e7cf d7bd dd77 2cbe
00000170: 16ad b73c 458c 46bd 9a74 27be 8e1d f23d
00000180: 6315 0a3d dd5d df3d 88c3 32be 2a82 d53d
00000190: e4ee 613b abad 9c3d f406 d13d ed4e 1e3c
000001a0: 9709 e23d 58eb aa3d e792 62bd 8b63 89bd
000001b0: 82ab b1be 57d8 99be bcaa c2be 8802 6e3d
000001c0: 1271 9dbe 5ee9 03bf 8f16 e1be 2c16 143e
000001d0: 6223 223e 916f 0bbe dcb0 98bd 9171 6dbc
000001e0: 166f e03d 2ff5 793d 1dda e3bd f372 0f3d
000001f0: 56cf aebc 18a1 693c db10 22be aa97 afbe
00000200: e717 59be bea5 e3bd b88a 4e3e b548 09bf
00000210: 6be0 46be 7ae8 243e ef17 5ebd b551 4abe
00000220: 45be adbd c5b2 d3bd a66d 7e3d cd43 34be
00000230: 2bf3 f8bc 5737 ee3d 100b 8d3e d0c2 0cbe
00000240: 072f 96be 0148 283e 6939 283e aabd 5bbe
00000250: e537 803e b1f6 0f3e a2a1 083e 6fc8 1e3d
00000260: 521f d1be e2bc 46be bef8 be3d 50b5 f13d
00000270: d1d0 54be 7575 0bbd 684a 29be 2833 ec3c
00000280: e1eb 713d 3fa7 50be 1fcf 5dbe e5b4 963e
00000290: d4ff 773e 7309 01be df60 ce3d f723 5ebe
000002a0: ffef 463e 9e92 0e3d 1a34 f1be 259b 513e
000002b0: 8994 cfba 1161 273e 827d 95be 99cd a73e
000002c0: 28df 53bd b646 4cbe 642d 853f 21c0 503d
000002d0: 372a d5be 2782 13be ba1e 4e3e 0e9a e0bd
000002e0: 7d50 09bd 6913 8ebe d543 19bd 4194 c7bd
000002f0: ec8c 04be 6381 6cbd 8a6c a73d e86c b6bc
00000300: 2dc8 bc3d e580 fabc e31c e83d 1ecb d43d
00000310: 8d2f 4fbd f2ee 6b3e 939e 99bd 4193 0bbf
00000320: 5d91 2ebe 8a0d 0cbe 08d8 3fbd 6caa 7dbd
00000330: b78f 9f3c 88f4 3cbe f268 d2be 983b d63e
00000340: d876 34be 6602 dfbd 0991 19be 75cd 06be
00000350: 7555 253e 300a 4abd 106b 72bd 4d16 ba3d
00000360: 1d1e 02be 68d4 1ebf 4671 bebe fff1 ea3d
00000370: 7f8a 90be d199 01be ed72 0fbe 7b95 093c
00000380: d00f 21bd 9b76 0cbe 060a 66be 058d ecbd
00000390: 6938 0cbe 0076 a93d a2ab 2f3d 2e84 b13d
000003a0: 036d 52bd 1302 8bbd 8407 49be f6ae 7ebe
000003b0: f6df 2e3d 3a92 74bb a265 003e bd9f 36bd
000003c0: 9ccc d3be 72b7 ffbe 1ee4 4cbe 5e3a c63e
000003d0: c5c1 4abe 7883 67be 2beb 913e a927 31bd
000003e0: 4bff 993d 4baf 9e3d 8c29 873e efb2 e6bd
000003f0: 75fb b4bd 140e a8bd 37df 923e 168f 413e

cnn.3.bias f4 [8]
-0.14457208 -0.087655194 -0.16922802 -0.064676955 -0.040419873 -0.18823767 -0.15967746 -0.081366576
00000000: b40a 14be 9184 b3bd 1c4a 2dbe 5a75 84bd
00000010: 4f8f 25bd 60c1 40be 7d82 23be 85a3 a6bd

cnn.6.weight f4 [8, 8, 3, 3]
-0.06822971 0.01320501 0.067209 0.052002013 -0.04970005 -0.085570686 0.039513316 0.068072855
0.01346052 -0.08060336 0.06379501 -0.0831052 -0.06824768 -0.1089248 0.099443145 -0.071688674
0.008237977 -0.110783726 -0.11034131 0.08350294 -0.019157484 0.07641395 0.042956967 -0.044028353
0.07655454 0.005886833 0.06506209 -0.15040825 -0.13291766 -0.12226344 -0.093825035 -0.108079605
-0.13165875 -0.0033405474 0.002690926 -0.13975538 -0.057529863 -0.14817528 -0.084140934 0.006003296
0.0014172883 0.04009186 0.037020214 0.029152155 0.023692828 -0.008801819 -0.03775145 -0.0517393
0.003134624 -0.16156335 -0.036903888 0.037210654 -0.037940953 0.008730183 0.049938064 0.06407553
-0.038018852 -0.11884168 -0.027534507 -0.002857761 -0.01363703 -0.04338288 -0.016619038 -0.15291004
0.028466972 0.02514227 0.051190007 -0.10312283 -0.002197884 0.019050835 -0.03861052 0.03781554
-0.006904842 0.1950001 0.05442873 -0.073152944 -0.4025407 0.018655622 0.0415508 0.010764461
-0.18037014 -0.057027068 -0.09469196 -0.024893137 0.11206498 -0.065569974 0.048103973 -0.120435454
-0.11915843 0.0025079874 0.07380749 0.09615451 -0.04955473 -0.0031018255 -0.0975241 0.038952608
0.0570755 -0.06982766 0.10024579 0.12879336 -0.23390828 -0.0029445502 0.0013159065 -0.050153017
-0.12551853 -0.3676972 -0.23183572 -0.2406351 0.29467592 -0.25521517 -0.44667095 0.26401088
-0.34099698 -0.2973351 -0.516229 -0.07010543 -0.081682354 -0.32626575 0.19750512 0.12128553
0.35831863 -0.0942473 -0.07984672 -0.21324115 -0.035298552 0.013954822 -0.04239912 0.09949886
-0.33377433 0.037866604 -0.20115504 -0.03980924 -0.38305348 -0.4015292 -0.12376265 -0.26726237
0.25801075 -0.24366848 -0.03335852 -0.2290702 -0.15368861 0.01178785 0.009044583 -0.052214947
0.18173158 -0.10700383 -0.47176912 -0.01507538 -0.02404246 -0.10497681 -0.16485938 -0.12317015
0.008010644 -0.025042966 -0.122100376 0.047464516 -0.055821374 0.08638997 0.08429867 -0.022931973
-0.13839243 -0.06777312 -0.016279403 -0.038719792 -0.01625236 -0.031672303 0.026029065 -0.018622024
0.07625489 -0.0017090968 -0.02076645 -0.15631013 0.04727714 -0.07902214 -0.04353222 -0.18089275
-0.16326357 -0.26485702 -0.15819465 0.008250764 0.020587737 -0.17822218 -0.12155616 0.3346903
0.31884778 -0.06115554 0.03680688 0.0541538 -0.22142984 -0.05787739 0.02744101 -0.0969376
-0.07463768 -0.030942913 -0.08085472 -0.20909974 -0.0835383 -0.038127773 0.11558421 0.040030785
-0.06290224 0.03511753 0.011410048 -0.07795491 -0.12678994 -0.19877301 -0.35792682 -0.19433933
0.27625224 0.073905855 -0.062360715 -0.021968253 0.101367265 -0.48558724 -0.038191836 -0.154169
0.06254102 0.042823255 0.22207259 0.08660899 -0.09999987 0.08060333 0.16684462 -0.005835918
-0.1819213 -0.17443952 -0.018772783 0.033269603 -0.09153326 0.01790471 0.050072245 -0.05911252
0.088077515 0.07192807 0.043863952 -0.100991115 0.049344815 -0.10006089 0.083705984 0.060585696
-0.09884391 -0.07774141 -0.057298556 -0.08883401 -0.0028918309 -0.10991921 0.09587891 0.05109138
-0.03432277 0.062772885 -0.023061171 0.083663404 -0.01607158 -0.19853954 -0.16081525 0.11989736
00000000: 05bc 8bbd d459 583c dfa4 893d 1000 553d
00000010: 4892 4bbd af3f afbd b7d8 213d c869 8b3d
00000020: 8389 5c3c 6013 a5bd f5a6 823d 0f33 aabd
00000030: 71c5 8bbd f713 dfbd d9a8 cb3d 83d1 92bd
00000040: 94f8 063c 94e2 e2bd a0fa e1bd 9703 ab3d
00000050: 28f0 9cbc eb7e 9c3d a5f3 2f3d 1357 34bd
00000060: a0c8 9c3d 56e6 c03b 463f 853d 9f04 1abe
00000070: 911b 08be 4165 fabd 5727 c0bd d758 ddbd
00000080: 8dd1 06be 16ed 5abb 3f5a 303b 091c 0fbe
00000090: 6fa4 6bbd 43bb 17be 1552 acbd 4cb7 c43b
000000a0: 4ec4 b93a 5d37 243d 82a2 173d 80d0 ee3c
000000b0: 7617 c23c 8135 10bc 44a1 1abd 97ec 53bd
000000c0: 446e 4d3b dd70 25be 8828 17bd 336a 183d
000000d0: f967 1bbd 0b09 0f3c db8b 4c3d 083a 833d
000000e0: a8b9 1bbd 4463 f3bd 0c90 e1bc 4649 3bbb
000000f0: d96d 5fbc 3fb2 31bd a624 88bc 7394 1cbe
00000100: 9133 e93c 29f7 cd3c 9dac 513d 1032 d3bd
00000110: 600a 10bb 7f10 9c3c 1126 1ebd 78e4 1a3d
00000120: 0342 e2bb 1bae 473e a9f0 5e3d 36d1 95bd
00000130: d119 cebe add3 983c 2c31 2a3d 6c5d 303c
00000140: f3b2 38be 3795 69bd dced c1bd b1ec cbbc
00000150: 5382 e53d 8d49 86bd ac08 453d dda6 f6bd
00000160: 5609 f4bd 0c5d 243b 6228 973d a8ec c43d
00000170: e7f9 4abd ff47 4bbb b7ba c7bd c58c 1f3d
00000180: 00c8 693d ce01 8fbd aa4d cd3d 68e2 033e
00000190: a785 6fbe 5bf9 40bb 7f7a ac3a 406d 4dbd
000001a0: ee87 00be cf42 bcbe 5866 6dbe 0c69 76be
000001b0: c3df 963e 90ab 82be 0eb2 e4be 6f2c 873e
000001c0: 2897 aebe 4e3c 98be 9527 04bf 7093 8fbd
000001d0: 1449 a7bd 4e0c a7be c83e 4a3e 8c64 f83d
000001e0: 8a75 b73e ba04 c1bd ad86 a3bd e35b 5abe
000001f0: 3795 10bd c4a2 643c b3aa 2dbd 0fc6 cb3d
00000200: 78e4 aabe 031a 1b3d 96fb 4dbe 030f 23bd
00000210: 961f c4be 3c95 cdbe 4677 fdbd 9dd6 88be
00000220: fc19 843e 3b84 79be f2a2 08bd 6191 6abe
00000230: 8c60 1dbe d421 413c bb2f 143c 57df 55bd
00000240: d817 3a3e d324 dbbd b98b f1be bafe 76bc
00000250: b1f4 c4bc 15fe d6bd e6d0 28be a240 fcbd
00000260: 133f 033c e826 cdbc c30f fabd 276a 423d
00000270: f4a4 64bd 39ed b03d c8a4 ac3d d5db bbbc
00000280: bfb6 0dbe a2cc 8abd 625c 85bc a598 1ebd
00000290: ab23 85bc d1ba 01bd e83a d53c 378d 98bc
000002a0: 862b 9c3d c603 e0ba 671e aabc c30f 20be
000002b0: ada5 413d 5cd6 a1bd d74e 32bd f33b 39be
000002c0: 912e 27be 579b 87be c7fd 21be 362e 073c
000002d0: 9da7 a83c e07f 36be 70f2 f8bd 875c ab3e
000002e0: 0440 a33e 3b7e 7abd d0c2 163d 60d0 5d3d
000002f0: 81be 62be d810 6dbd f8cb e03c 3887 c6bd
00000300: a4db 98bd fe7b fdbc 2997 a5bd 3e1e 56be
00000310: 2116 abbd de2b 1cbd 6ab7 ec3d 52f7 233d
00000320: e4d2 80bd 66d7 0f3d 36f1 3a3c d3a6 9fbd
00000330: 39d5 01be 278b 4bbe 2f42 b7be e400 47be
00000340: ef70 8d3e f45b 973d f36d 7fbd c4f6 b3bc
00000350: a499 cf3d e49e f8be 0b6f 1cbd 7ade 1dbe
00000360: 8215 803d 7067 2f3d ff66 633e 0e60 b13d
00000370: bbcc ccbd 5c13 a53d 51d9 2a3e 3a3b bfbb
00000380: 9449 3abe 46a0 32be 61c9 99bc b545 083d
00000390: ca75 bbbd e6ac 923c 8e18 4d3d f81f 72bd
000003a0: fc61 b43d 064f 933d b0aa 333d 6ed4 cebd
000003b0: ca1d 4a3d b9ec ccbd 0b6e ab3d b528 783d
000003c0: ad6e cabd e336 9fbd e4b1 6abd 9bee b5bd
000003d0: df84 3dbb 531d e1bd 295c c43d 3245 513d
000003e0: 0896 0cbd 128f 803d c8ea bcbc b857 ab3d
000003f0: 8ca8 83bc f34d 4bbe c1ac 24be bf8c f53d

cnn.6.bias f4 [8]
-0.15094452 -0.0014789577 -0.13093726 -0.18460518 -0.086442575 -0.034583185 -0.0041589076 -0.13771369
00000000: 3391 1abe 96d9 c1ba 6b14 06be 2409 3dbe
00000010: ce08 b1bd 19a7 0dbd 7247 88bb d104 0dbe

cnn.9.weight f4 [8, 8, 3, 3]
-0.097187564 0.043102015 -0.09950798 0.10068533 -0.024429832 0.07118441 -0.060263615 0.041270286
0.06159738 -0.20212586 -0.2185666 0.2587284 -0.15193963 -0.09882697 -0.025015911 -0.1353092
-0.0096441815 0.010241095 0.13321789 -0.20748828 -0.0797425 -0.20649412 -0.034305125 -0.051727243
-0.23193924 -0.12361158 -0.111763984 -0.025556311 -0.05223117 0.001315626 -0.031456377 -0.035412133
0.023289546 -0.031095201 -0.0236654 0.19874635 0.09388004 0.046709746 0.08029371 -0.020032939
-0.10094787 -0.05782834 -0.17535934 -0.14830825 0.11656356 -0.06118991 -0.18688047 -0.014615987
0.053775888 -0.013014461 -0.055276223 -0.0014278304 -0.14711809 -0.16307957 -0.09355359 0.10905059
-0.044159885 0.003985655 0.15397222 -0.088416725 -0.068807036 0.0013487674 -0.021879055 0.0020057322
0.03219092 -0.05502495 0.13455182 0.094237655 -0.055823244 0.05236515 -0.04264452 0.04237496
0.023958236 0.1269883 0.071782574 -0.047711637 -0.0027913721 -0.035960864 -0.08276761 0.05641225
-0.11301719 -0.076516636 0.26637578 -0.27066228 -0.14689517 -0.50207084 0.31539884 -0.68222296
-0.82702994 0.047494967 0.003116825 0.0522068 -0.12703262 -0.11197178 0.22430818 -0.10096575
-0.64290506 0.10623434 -0.67778563 -0.1714404 -0.020816525 -0.17730069 -0.09436638 0.012527027
-0.1705359 0.066063136 -0.03495526 -0.26781076 -0.15339324 -0.17760819 0.15340672 -0.25375295
-0.113631204 -0.13508733 -0.7908462 -0.32045096 -0.014481974 -0.047048207 -0.0060294378 0.05807686
-0.14297822 -0.18756258 -0.18740569 0.0700721 -0.07457463 -0.07518846 -0.35805896 -0.19772974
0.2753931 -0.49511498 -0.1257978 0.02916727 -0.32428366 -0.4012609 -0.15247306 -0.15758952
0.027013123 0.00867455 0.016317964 0.063390724 0.18833785 0.05472075 -0.048809018 -0.0898786
-0.06088216 0.062469766 0.13554785 -0.04924106 0.018995203 0.0061670505 0.01850255 0.047033954
0.1014881 -0.24300258 -0.11691709 -0.1583218 0.06668492 0.07683367 0.42795578 0.2754866
-0.37378955 -0.048622705 0.010516244 0.001711513 -0.14991513 -0.13920523 0.16520272 -0.08140376
-0.013518454 -0.5140659 -0.5933196 -0.019914253 0.044795178 0.1187504 -0.20411047 0.029858138
-0.18951443 -0.055651065 -0.08028698 -0.58616465 0.106194295 -0.18702142 0.2600224 -0.17785338
-0.052262995 -0.08076361 0.016702477 -0.38333344 -0.6236215 0.012446353 -0.010374632 0.028643332
0.076031275 -0.1463591 -0.056171086 -0.09309452 -0.06624323 0.008317747 -0.039360166 -0.027664391
0.16467369 -0.20007746 -0.04190996 -0.3796852 -0.12499021 -0.12993106 -0.030496005 -0.0063738693
-0.11287297 0.042866964 0.023281273 0.075346686 -0.02490158 -0.12841126 0.2117927 -0.11730157
-0.04327734 0.015312161 -0.0720486 0.10936986 -0.07388031 -0.049518235 0.024813948 -0.032648657
0.052944362 -0.2315357 -0.045660518 0.008098852 -0.5601211 -0.017242102 0.426724 0.7212038
-0.06675387 -0.70646936 -0.0021034842 -0.28789395 -0.33420876 -0.48438784 -0.21208607 -0.18130875
0.018071204 -0.45834598 -1.1779327 -0.050270457 -0.19401427 -0.057276495 -0.013582941 -0.17341848
0.15481587 -0.025245368 -0.10042658 -0.3100954 0.10285386 -0.054100852 -0.020676062 -0.2145276
00000000: 460a c7bd bd8b 303d d7ca cbbd 1c34 ce3d
00000010: 1221 c8bc 22c9 913d fbd6 76bd 080b 293d
00000020: 894d 7c3d 15fa 4ebe eccf 5fbe 0d78 843e
00000030: 1096 1bbe cb65 cabd 2bee ccbc 7f8e 0abe
00000040: a102 1ebc 44ca 273c 456a 083e cf77 54be
00000050: 0950 a3bd 3273 53be 8883 0cbd f2df 53bd
00000060: 7b81 6dbe 1128 fdbd 84e4 e4bd 785b d1bc
00000070: 5af0 55bd 1571 ac3a 67d8 00bd 500c 11bd
00000080: b8c9 be3c 5dbb febc f1dd c1bc 2a84 4b3e
00000090: 2e44 c03d b852 3f3d 0771 a43d 1e1c a4bc
000000a0: c2bd cebd 69dd 6cbd 6691 33be 1ede 17be
000000b0: e0b8 ee3d 45a2 7abd 985d 3fbe e577 6fbc
000000c0: 1b44 5c3d 9b3a 55bc 5269 62bd 0a26 bbba
000000d0: 20a6 16be 55fe 26be 0699 bfbd ea55 df3d
000000e0: ffe0 34bd 199a 823b e5aa 1d3e d413 b5bd
000000f0: b4ea 8cbd 20c9 b03a b43b b3bc 9a72 033b
00000100: a0da 033d d861 61bd f4c7 093e acff c03d
00000110: eaa6 64bd d77c 563d 05ac 2ebd 5e91 2d3d
00000120: 1044 c43c 3909 023e be02 933d 476d 43bd
00000130: 74ef 36bb b34b 13bd 1182 a9bd 8810 673d
00000140: 8e75 e7bd c1b4 9cbd 6862 883e 3f94 8abe
00000150: b06b 16be b787 00bf f57b a13e 2aa6 2ebf
00000160: 3cb8 53bf 158a 423d a543 4c3b ccd6 553d
00000170: d714 02be 7651 e5bd 0bb1 653e 22c7 cebd
00000180: 6d95 24bf 6491 d93d 5c83 2dbf 128e 2fbe
00000190: 6b87 aabc 508e 35be 2943 c1bd 293e 4d3c
000001a0: f7a0 2ebe 1c4c 873d 3f2d 0fbd 7e1e 89be
000001b0: 1e13 1dbe ecde 35be a716 1d3e e8eb 81be
000001c0: 7ab7 e8bd 5554 0abe e674 4abf 2612 a4be
000001d0: cd45 6dbc 9fb5 40bd 9792 c5bb 00e2 6d3d
000001e0: e268 12be 6810 40be 47e7 3fbe f681 8f3d
000001f0: 95ba 98bd 68fc 99bd 8153 b7be aa79 4abe
00000200: 5300 8d3e b67f fdbe 23d1 00be 33f0 ee3c
00000210: 8208 a6be 1272 cdbe e621 1cbe 265f 21be
00000220: a04a dd3c b31f 0e3c 40ad 853c ffd2 813d
00000230: a3db 403e dd22 603d f7eb 47bd 4512 b8bd
00000240: 925f 79bd 4ce0 7f3d 0ecd 0a3e feb0 49bd
00000250: d49b 9b3c f814 ca3b a992 973c ada6 403d
00000260: fed8 cf3d abd5 78be 3a72 efbd 1c1f 22be
00000270: 1a92 883d f95a 9d3d 051d db3e 940c 8d3e
00000280: 5861 bfbe 9a28 47bd 534c 2c3c d954 e03a
00000290: 5a83 19be d18b 0ebe e72a 293e 04b7 a6bd
000002a0: 817c 5dbc d399 03bf cbe3 17bf 3723 a3bc
000002b0: 267b 373d 6933 f33d 5602 51be 0e99 f43c
000002c0: 1210 42be 5ff2 63bd 806d a4bd e30e 16bf
000002d0: 657c d93d 8b82 3fbe a821 853e 321f 36be
000002e0: b911 56bd 6467 a5bd a2d3 883c 4844 c4be
000002f0: a9a5 1fbf caeb 4b3c 5cfa 29bc 6ca5 ea3c
00000300: 49b6 9b3d 29df 15be a713 66bd 57a8 bebd
00000310: 88aa 87bd 2947 083c 2038 21bd 6fa0 e2bc
00000320: 38a0 283e 1be1 4cbe c7a9 2bbd 1966 c2be
00000330: defa ffbd a60c 05be c2d2 f9bc e4db d0bb
00000340: f229 e7bd 4595 2f3d 5eb8 be3c 5d4f 9a3d
00000350: 66fe cbbc 3e7e 03be 30e0 583e ce3b f0bd
00000360: 9443 31bd dcdf 7a3c 378e 93bd 4efd df3d
00000370: 8f4e 97bd a2d3 4abd 9f46 cb3c 99ba 05bd
00000380: 30dc 583d b217 6dbe 8606 3bbd 0cb1 043c
00000390: 1964 0fbf 4f3f 8dbc 917b da3e d0a0 383f
000003a0: 41b6 88bd 2ddb 34bf 9cda 09bb d666 93be
000003b0: 691d abbe af01 f8be 172d 59be 00a9 39be
000003c0: 100a 943c 53ac eabe 80c6 96bf 65e8 4dbd
000003d0: adab 46be c29a 6abd fc8a 5ebc 9d94 31be
000003e0: 0d88 1e3e 60cf cebc 73ac cdbd d3c4 9ebe
000003f0: 0ba5 d23d db98 5dbd d860 a9bc 20ad 5bbe

cnn.9.bias f4 [8]
-0.08105739 -0.011117678 -0.031548783 -0.0009816877 -0.064478 -0.02251818 -0.0011288786 -0.12144853
00000000: 6b01 a6bd ec26 36bc 4c39 01bd f9ab 80ba
00000010: 0b0d 84bd 0c78 b8bc e1f6 93ba 02ba f8bd
