Assets/ONNX/cnn.onnx (onnx, 374396 bytes, 8 tensors)

cnn.0.weight f4 [32, 3, 3, 3]
000000 b9 da 01 bc 05 2e 85 bd 64 9e d6 bd 1c ac b8 3d
       -0.007925683 -0.06502918 -0.10479429 0.09017202
000010 55 ff 37 be b3 b5 1b 3e 77 ad 81 bd 51 cf 12 bd
       -0.17968495 0.15206032 -0.06331914 -0.035842244
000020 7e e7 45 3e 73 20 56 be bb 6e ce bd 5e f9 52 be
       0.19326589 -0.20910816 -0.10079714 -0.20602939
000030 a9 91 ba be f0 8b b9 be fb 2e c8 be 5a 11 30 bd
       -0.36439255 -0.36239576 -0.39098343 -0.042985298
000040 2d e4 46 3e bc 88 f6 bd 4b 43 ad 3c 9c 70 12 be
       0.1942298 -0.12037799 0.021150252 -0.1430077
000050 36 10 92 be 24 60 4a be c8 29 5b 3d 57 ca 9a 3c
       -0.28527993 -0.19763237 0.053506643 0.018895311
000060 14 7c 2f 3d be 6b f9 bd 58 96 aa 3c 76 51 a0 3c
       0.04284294 -0.12178753 0.020823643 0.019570094
000070 da 7e 28 be a8 ab 64 3d 4d 8e 63 3d 51 0e 88 be
       -0.1645464 0.055827767 0.05555563 -0.26573423
000080 a0 dc 7e be 0c 0f 11 be 0b bc 6f bd 85 53 63 3d
       -0.2488885 -0.14165896 -0.05852894 0.055499572
000090 c0 b7 59 bd db 72 36 be cd a1 78 be 8e 61 45 be
       -0.053153753 -0.17817251 -0.24280472 -0.19275495
0000a0 0a b6 5c be 37 c3 26 be 16 ae 1f 3e ee b2 19 3c
       -0.21553817 -0.16285406 0.15593752 0.009381039
0000b0 e4 86 d0 3d 68 2c 48 be 8c ab 68 be bc 3c 6a bd
       0.10181978 -0.1954819 -0.2272169 -0.057186827
0000c0 8c 58 9b 3b 17 9a 3e bd cd 15 1d be 8c 89 01 3c
       0.00474078 -0.04653367 -0.15340348 0.007906329
0000d0 ec 44 e0 3c e0 5d 07 be 29 12 35 be ea 19 d3 3d
       0.027376615 -0.13219404 -0.17682709 0.10307677
0000e0 ae 49 e0 bc 5b 91 c0 bd d9 e7 01 be b6 a8 9a 3d
       -0.027378883 -0.09402724 -0.12686099 0.0755171
0000f0 19 9d ec 3d ef 43 d0 3b f2 eb 3a be 99 2d 4e bd
       0.115534015 0.0063557546 -0.18254068 -0.050336454
000100 81 e7 1c be 39 f5 a8 3c 09 57 9d bd 35 67 0c be
       -0.15322687 0.020624744 -0.07682616 -0.13711245
000110 8d 77 e2 bd e0 23 40 3d 4d 6c cb 3d de 81 ec bd
       -0.11057959 0.046909213 0.09932766 -0.11548208
000120 4c 1f 98 3d 24 99 a1 bd cb 9f 06 bc 0b 59 01 3e
       0.074278444 -0.078905374 -0.008216809 0.12631623
000130 1e c1 4e be ca 30 38 be 8a 09 88 3c f7 4b dc bc
       -0.20190856 -0.17987362 0.016606111 -0.026891692
000140 a6 ec 1b bd f6 ad 1b be f2 a3 73 bd 32 5b 1f be
       -0.038067482 -0.1520308 -0.059482522 -0.15562132
000150 5c 77 31 be 94 49 37 be c4 8d 6d 3d 1f fd 38 3d
       -0.17330688 -0.17899162 0.057996526 0.04516327
000160 95 39 52 bd 2e aa 2f 3c 0f 66 b6 bd 14 3f c6 bd
       -0.051324446 0.010721726 -0.08906185 -0.0968
000170 d2 8f 21 be 4c 70 c2 3d 5a e2 18 bd 37 f7 fc 3c
       -0.1577752 0.09494075 -0.03732524 0.0308796
000180 aa cc 09 bd 1c c6 61 be 30 2e b5 bd 1c 41 de bc
       -0.03364245 -0.22048229 -0.088467 -0.027130656
000190 40 0f 3a be 74 c0 08 3e 81 1e ff bb 33 02 2b 3d
       -0.1816988 0.13354665 -0.007785619 0.041750144
0001a0 9c 7a 27 be 01 8c 3c bd 22 26 11 bd ab 22 8c 3d
       -0.16355366 -0.046031956 -0.035436757 0.0684255
0001b0 ee b6 82 be 18 89 95 be 03 fd 8a bc f5 ac 5d 3a
       -0.2553019 -0.29206157 -0.016966349 0.00084562536
0001c0 2a 8c 48 be 0e 8f 73 bd 4f 02 b6 bd 09 33 98 bd
       -0.19584718 -0.0594626 -0.08887159 -0.07431609
0001d0 52 8d aa bd cf 19 28 3d 2e 3e c0 bc a1 ff 15 bd
       -0.08327736 0.041040238 -0.02346715 -0.03662074
0001e0 6f 39 ec be 14 4c b9 bd 4a a6 91 be fd a4 95 be
       -0.46137568 -0.09047714 -0.2844718 -0.2922744
0001f0 bc c4 88 be 69 5b ff 3d e8 2c 05 be da 04 99 bd
       -0.26712596 0.12468607 -0.13005412 -0.074716285
000200 64 ad 8d 3c 54 ca c2 be a6 8d dc bd 7a fa 85 be
       0.017294593 -0.3804499 -0.10769205 -0.2616766
000210 81 a1 de bd dc e5 5a 3c 6c 9b 5e be 46 ee 80 be
       -0.10870648 0.013360467 -0.21738976 -0.25181788
000220 14 6b 9b be 90 77 02 bf ef cc 82 be 27 5c 9f bd
       -0.30355132 -0.5096369 -0.25546977 -0.077812485
000230 a4 b5 a6 be 07 31 9a be 52 1d ed be b5 72 74 be
       -0.32560456 -0.3011553 -0.46311432 -0.23871882
000240 64 0d 88 3d aa 3f 3b 3d a8 a1 27 bd 7e 9b e2 3d
       0.06643179 0.04571501 -0.04092565 0.11064814
000250 d4 8d 0c bc bb 44 97 bd 4f 1f e9 3c b6 73 14 3e
       -0.008578736 -0.07386156 0.028457312 0.14497265
000260 4e 6c 73 3d 73 2d 01 3e 6c 43 85 3d 00 01 de 3d
       0.05942946 0.12614994 0.06507 0.108400345
000270 a1 89 26 3e b3 12 38 bd 65 f3 33 3e 6a 43 d8 bc
       0.16263439 -0.044939708 0.17573316 -0.026399333
000280 69 d0 3f 3e 59 c2 a6 3d dc 57 74 be c0 19 46 be
       0.18731846 0.081425376 -0.2386164 -0.1934576
000290 9e b5 25 be 9e 9e 07 be 51 0e 0c 3d 73 67 ad 3b
       -0.16182563 -0.13244101 0.03419334 0.005291873
0002a0 20 23 30 be a4 0e b5 be 44 ad 0e 3d d4 d6 f1 bd
       -0.17200899 -0.35362732 0.034833208 -0.11808553
0002b0 65 16 80 be 71 77 3d bd 81 07 5f be 8c f6 8f be
       -0.25017086 -0.046256486 -0.21780206 -0.28117788
0002c0 e6 2c 83 be ba f9 1c bd 42 6c 0a 3e b9 7d 6d be
       -0.25620192 -0.038324095 0.1351786 -0.2319249
0002d0 80 fa ed bd 65 d3 65 be 91 2b 1b 3d 1e fc 4a be
       -0.11620045 -0.22443922 0.037883345 -0.19822738
0002e0 89 42 2f be fb 43 e4 be 6e 5d bb 3b 38 38 61 be
       -0.17115225 -0.44583115 0.005717925 -0.21994102
0002f0 a7 b9 72 bd 69 08 2f be 43 47 de bd a5 b3 a7 be
       -0.059259083 -0.17093052 -0.10853436 -0.32754245
000300 4d 82 8a be d1 45 01 be 14 f9 ed bd 3d 09 a3 be
       -0.27052537 -0.12624289 -0.116197735 -0.31842986
000310 66 77 6c be 5d a3 cd be 6d 07 1b 3d ef fa 7f be
       -0.23092422 -0.401637 0.03784888 -0.24998067
000320 3b 59 99 be 19 72 53 be bf fe 56 be 8d 57 e6 bd
       -0.2995089 -0.20648994 -0.20995615 -0.11247168
000330 82 49 91 be cf d7 34 be 04 8b 7f bd 55 cb 41 be
       -0.28376395 -0.1766045 -0.062388435 -0.18925221
000340 7b 79 39 be 03 f6 3f be 7d 89 f5 be 57 20 b6 be
       -0.18112747 -0.1874619 -0.47956458 -0.35571548
000350 99 c2 d4 bd 71 8c 89 be b7 55 6a be 32 a0 2a be
       -0.10388679 -0.2686496 -0.2288426 -0.16662672
000360 88 00 52 be 94 a5 c3 bd 77 c7 74 be 0d 9c ce be
       -0.20508015 -0.09553066 -0.23904215 -0.40353432
000370 8c 54 a2 be ce 86 54 be 22 0d 7f be b0 4e 8b be
       -0.3170513 -0.20754549 -0.24907354 -0.2720847
000380 6a a3 f6 bd 16 2d 9e bd a1 4e 88 bd 15 57 6e be
       -0.120428875 -0.07723443 -0.06655622 -0.23275407
000390 9b 14 04 be 54 a7 86 3c c3 f3 23 bd 11 50 43 be
       -0.12898485 0.01643721 -0.04002739 -0.19073512
0003a0 45 b8 97 be 76 00 b0 be e4 c7 7b 3d 96 40 02 be
       -0.29632774 -0.34375352 0.061469927 -0.1271995
0003b0 18 38 ba bc b0 08 e9 be ae eb 6a bd dc 6b 62 be
       -0.022731826 -0.4551444 -0.057353668 -0.22111458
0003c0 c5 c6 ab be 7b fd ae 3c 32 3e 75 be 1b da 83 bd
       -0.33550087 0.021361103 -0.23949507 -0.06438085
0003d0 cc 2d 48 bd 3e 94 84 ba 98 a2 82 bd f1 d2 83 be
       -0.0488718 -0.001011498 -0.063786685 -0.25746873
0003e0 12 19 dd 3d b4 0b ae 3d 59 94 7f be 42 b0 72 be
       0.107957974 0.08498326 -0.24958934 -0.2370005
0003f0 fa cb 16 bd f4 7c 85 be 61 64 d3 bd ed 5c fe bb
       -0.03681562 -0.26071894 -0.1032188 -0.0077625425

cnn.0.bias f4 [32]
000000 9d 3c 48 bd 17 98 07 be 64 19 9e bd eb 42 a9 bd
       -0.04888593 -0.13241611 -0.077196866 -0.08264717
000010 f0 d4 47 3d ff f4 a4 3e d9 fd e3 bc ee 6c 04 3e
       0.048787057 0.32218167 -0.027831005 0.12932178
000020 ea a2 3e bd 58 49 77 3b c8 7a 88 bd 6f f3 be 3c
       -0.046542086 0.0037732925 -0.06664044 0.023309438
000030 97 c0 59 bd 01 56 49 3e 09 81 f4 bc e8 31 13 bd
       -0.053162184 0.19661714 -0.029846685 -0.035936266
000040 9a fb 7f 3e c0 4d 18 3d 46 73 1e 3d f0 fb bc 3c
       0.24998322 0.037183523 0.038684152 0.023069352
000050 9b cd 83 bd 9e e6 40 bd da 88 df bd 10 bd 3c be
       -0.064357005 -0.047094934 -0.10914774 -0.18431497
000060 89 fc a5 3d a1 59 f1 bd 2a db 84 3d 54 b3 01 bd
       0.08104808 -0.117846735 0.06487115 -0.03166516
000070 f0 00 d8 3b 02 22 b7 bd ac ff dc 3c 2e b8 8a bd
       0.0065919086 -0.08942033 0.026977383 -0.06773411

cnn.3.weight f4 [64, 32, 3, 3]
000000 11 2e 28 be 89 62 04 be 1b 76 23 bd 33 2a 86 bd
       -0.16423823 -0.12928213 -0.039907556 -0.065510176
000010 c4 26 05 39 b8 4c d6 bd 2d 94 46 3d 4e be 96 3d
       0.0001269831 -0.10463852 0.048481155 0.073605165
000020 a7 3b 0a 3d 6b 92 0b bd a7 9e 10 bd 77 88 85 3c
       0.033748295 -0.034075182 -0.035307553 0.016300423
000030 96 1e 6f bd eb 92 db bc 6f 4b 9e 3c 7e 70 20 bb
       -0.05837878 -0.026803454 0.019323079 -0.0024481113
000040 af 12 53 3d 0b a6 90 3b 28 d7 3b bd ee 18 b0 3c
       0.05153149 0.004414325 -0.045859486 0.021496262
000050 4d ab 85 bc a6 ff ce 3c 65 de d3 bc 1a 5a 64 3d
       -0.016317034 0.025268387 -0.025862882 0.05574999
000060 ac 6f 3e 3d bf 1c 01 bd 2b 6e 57 3d 69 fe 82 bc
       0.046493217 -0.031521555 0.0525953 -0.015990453
000070 b6 54 1d bd 3d 4b 25 bd 1e 1d 1e bd 62 f8 9c b9
       -0.038410865 -0.040354956 -0.038601987 -0.00029939698
000080 5a d1 f8 3c 0b 75 d4 bc b9 f4 45 bd c8 79 50 3c
       0.030373264 -0.025934717 -0.04832909 0.012724347
000090 25 1a 66 bd 09 27 1b 3d d5 36 21 3b 7a a0 13 bc
       -0.056177277 0.037879024 0.0024599333 -0.009010429
0000a0 ad b0 15 3d 6e 79 41 bd 66 3e ad bc 43 a0 bf bb
       0.036545444 -0.047234945 -0.021147918 -0.005847962
0000b0 51 de e5 bb 56 7b 24 bd 26 96 fc bb 17 0a 9f 3d
       -0.0070150276 -0.040156685 -0.007708329 0.07765596
0000c0 17 d3 72 3c 1c 98 8e bd 61 19 98 bd 45 8a fb bd
       0.014820836 -0.06962606 -0.07426716 -0.12282232
0000d0 13 66 42 be 6d 4a 94 bd a9 aa 1a bd ca ec 13 3c
       -0.1898425 -0.07240758 -0.03776041 0.009028623
0000e0 29 ad a2 3d b3 45 ad bc 9b 74 91 39 42 e1 8e 3c
       0.07943184 -0.0211514 0.00027743433 0.017441396
0000f0 00 4b 45 bc 3a f2 07 bc cf b5 c7 b9 77 08 cb bc
       -0.012041807 -0.008297497 -0.00038091696 -0.02478431
000100 4b 28 52 3d b0 2a 87 bd 06 8f a1 3b b6 f3 f3 bd
       0.051307958 -0.06599939 0.00493038 -0.119117185
000110 07 d2 56 bd 65 c8 bf bc d8 bd b4 3c fb 38 79 bd
       -0.05244639 -0.023410985 0.02206318 -0.060845356
000120 af b7 de bc f2 b5 05 bd ae af 36 3d c0 93 1d bd
       -0.027187197 -0.03264422 0.044601135 -0.038470984
000130 57 8b 3f 3c c8 fa a8 3c bd bb 1d 3c fe 29 6c bd
       0.011690936 0.020627394 0.00962728 -0.057657234
000140 c6 b9 45 bd 6a f0 8a bd af 3d fa bd 48 c0 30 3e
       -0.04827287 -0.067841366 -0.122187965 0.1726085
000150 d8 c8 27 bd 23 71 42 3d fa 98 2b bd 24 3c f4 bd
       -0.040963024 0.047471177 -0.041893937 -0.119255334
000160 7a a9 fb bc f6 36 a1 bd 42 e4 a4 bd e5 4a 92 3c
       -0.030720461 -0.07871811 -0.08051349 0.017857978
000170 55 9a 8e bd 34 72 8d 3c fa 76 47 bc 6a c4 33 3b
       -0.0696303 0.01726637 -0.012174362 0.0027430304
000180 3e 48 3e bd dd af 50 3c c2 c3 94 3a 46 89 04 bd
       -0.046455614 0.012737242 0.0011349844 -0.032357477
000190 a2 98 bb bb 6e 3d 0c bd 40 3a 06 3b 2d 45 00 bd
       -0.0057249824 -0.03423827 0.0020481497 -0.03131597
0001a0 86 df 80 bd ee 48 5c bd 9b d4 f5 bc 7e 57 2a 3d
       -0.06292634 -0.05378049 -0.030008605 0.041587345
0001b0 78 bf 3a bd a7 5b 64 bd 6f ea 01 bd e9 bf 56 3c
       -0.045592755 -0.05575147 -0.031717714 0.013107278
0001c0 00 ca 1e bb c1 64 10 3c a1 b4 55 bc 01 7d 8d bd
       -0.0024229288 0.008813084 -0.013043554 -0.06908608
0001d0 82 72 d5 bc a0 98 52 3c a1 b7 d0 3c 98 0f 8c bd
       -0.026055578 0.012853771 0.025478186 -0.06838912
0001e0 35 60 95 3c f0 3b 5e 3d ba f5 40 3d 0e 5a 44 bd
       0.018234352 0.05425638 0.047109343 -0.047937445
0001f0 43 90 81 bc 1e bc 3f bd 24 78 84 3b f6 63 95 b9
       -0.01581586 -0.046810262 0.004042642 -0.0002849397
000200 ca 40 31 bd f0 61 41 bc 00 e1 bf bc ac 1b 2b 3d
       -0.04327468 -0.011803135 -0.023422718 0.041774437
000210 ec d2 c0 3c fa 07 22 bd b0 47 5e bd bf 39 54 bd
       0.023538075 -0.03955839 -0.054267585 -0.051812883
000220 f7 ba d9 bc fd a4 10 bd 04 dc b4 bb b4 ee 47 3d
       -0.02657841 -0.035313595 -0.005519392 0.04881163
000230 eb 7a 30 bc 77 9c 3a 3c df 5b 9f bd 02 a8 8b bd
       -0.010771493 0.011389843 -0.07781195 -0.06819154
000240 ad 61 02 3d 13 04 c5 bc 1f ce f4 bc d8 cf be bc
       0.031831432 -0.024049794 -0.029883442 -0.023292467
000250 1c c8 86 bd 24 1c 89 bd 0a 9e c1 bc f7 b2 7b bc
       -0.065811366 -0.066948205 -0.02363493 -0.015362493
000260 91 76 35 bb 15 26 d4 bc 8d 0a 9c bd 44 7b c6 bd
       -0.002768908 -0.025897065 -0.076192 -0.0969148
000270 f4 01 b5 bc c4 b8 ff bc 65 5f 16 3d 38 fe 1a be
       -0.022095658 -0.031216033 0.03671207 -0.1513604
000280 04 67 ba bd 93 e9 fa 3c 7e b9 2e bd 46 0f fa 3c
       -0.0910168 0.030628955 -0.042657368 0.030524861
000290 7a 6c 81 3c f9 14 74 3d 14 40 f6 3b a8 4f 6a 3c
       0.015798796 0.059590314 0.007514963 0.014301218
0002a0 05 cb 47 3b c6 43 2b 3c 28 30 39 bb 9b 37 ea bc
       0.0030486 0.01045317 -0.0028257463 -0.028590968
0002b0 10 f4 22 3d 99 c7 c4 bc 79 76 25 bd 2f 8b 94 bc
       0.039783537 -0.024020957 -0.040396187 -0.018132774
0002c0 fa a8 08 bd 40 c4 14 3d 18 e8 38 3d c2 fe 38 bc
       -0.033364274 0.03631997 0.045143217 -0.011291208
0002d0 cb 98 12 3d c2 f4 14 3c 4a 0b 8a bd e1 d2 2e bc
       0.035790246 0.009091558 -0.067404345 -0.010670395
0002e0 01 00 9e bd 6c e9 4c 3c c6 42 42 3d 77 bb d1 bb
       -0.077148445 0.012506824 0.04742696 -0.0064005214
0002f0 47 a1 af 3c 19 57 6f 3c 49 32 97 3c 4b 4c 62 ba
       0.021439208 0.014608168 0.018456595 -0.00086325844
000300 67 02 cb bc f0 77 69 bd 75 94 a5 3b b2 30 e3 3c
       -0.024781419 -0.056999147 0.005053098 0.02773318
000310 31 7a 32 3d b9 56 72 b9 e2 c8 db bd 85 60 70 be
       0.043573562 -0.00023111225 -0.10731675 -0.2347432
000320 d2 af 21 3c 18 49 b9 bd 33 fd ab bc 22 f1 0a bd
       0.009868579 -0.09047145 -0.020994758 -0.03392137
000330 97 be cb bb eb fd 8b 3d 63 d2 c1 bd 64 3f 21 3c
       -0.0062177884 0.068355404 -0.09463956 0.009841774
000340 bb c9 42 ba 23 ed 7a 3c 8e f1 65 bd cb 30 b4 3b
       -0.0007430573 0.015315327 -0.056138568 0.0054989806
000350 0c 4a 08 3d d5 4d b3 bc 48 c4 81 bd f0 3f 2e 3c
       0.03327374 -0.0218877 -0.06336266 0.010635361
000360 5d 12 ae bc 86 c7 22 3c d5 1b 3d 3d 65 9d 46 3d
       -0.02124899 0.009935265 0.04616912 0.048489947
000370 71 41 9f bb d7 25 2b bd 6b c0 53 bd c5 0f 5e bd
       -0.004860096 -0.041784134 -0.051697176 -0.054214258
000380 d9 f4 53 bd 6c 55 df bc af a4 bf 3c 86 26 1b bd
       -0.051747177 -0.027262412 0.023393957 -0.037878536
000390 a6 90 42 3d 07 77 6d bd 7a 34 34 3d 4b bb 9b bd
       0.04750123 -0.05797484 0.043995358 -0.07604083
0003a0 bb 5c 07 bd dd e5 30 bd 0f 46 99 bd ef 45 f8 bd
       -0.03304742 -0.043187965 -0.07484066 -0.12122714
0003b0 69 2a a7 bd 8d b3 14 be a8 de 02 be 8d 08 bd 3c
       -0.08162386 -0.14521618 -0.12780249 0.023075366
0003c0 fa 01 85 bd d6 aa e8 bc 96 72 eb bd 2e 10 85 bd
       -0.064945176 -0.028401773 -0.11496465 -0.06497227
0003d0 12 13 73 3b e9 83 61 3b 82 cb 9a bc 6d c4 56 bd
       0.0037090224 0.00344109 -0.018895868 -0.05243342
0003e0 ea 73 8a 3c 0e 34 b5 bc 3c e5 64 bd 5c ae b8 bc
       0.016900975 -0.022119548 -0.055882677 -0.022544079
0003f0 5c 94 ac bc a2 88 c7 3c 25 99 fc 3c 4f 20 96 bc
       -0.021066837 0.024357144 0.030834744 -0.018325953

cnn.3.bias f4 [64]
000000 cd 02 0c be b6 3d 9a bd de bb be bd b1 72 92 bd
       -0.13672943 -0.07531302 -0.093131766 -0.07150782
000010 35 bf e9 bd 1e 30 10 be 8d 22 0c be fe ee 28 be
       -0.11413423 -0.14080855 -0.13685055 -0.16497418
000020 73 4c 07 be 3c c3 01 be dc a8 1c be f8 c5 a9 bd
       -0.13212757 -0.12672132 -0.1529879 -0.08289713
000030 21 3f db bd 9f 32 c7 bd 02 e8 a7 bd cd 88 ac bd
       -0.107054 -0.09726452 -0.08198549 -0.0842453
000040 9d 47 d5 bd e1 22 f5 bd d6 04 1f be 8f 75 af be
       -0.1041405 -0.11969543 -0.15529189 -0.34269378
000050 ad dd d7 bd bb 99 bb bd c3 56 3d be f5 54 ae bd
       -0.10540328 -0.09160181 -0.18490128 -0.08512298
000060 af 58 6b be ea bf 05 be bd 41 08 be 50 3d 55 be
       -0.22983049 -0.1306149 -0.13306327 -0.2082417
000070 f2 8b 5e be 82 c2 15 be 5e aa 40 be 56 65 e0 bd
       -0.21733072 -0.1462498 -0.1881499 -0.10956828
000080 db 92 f4 bd 0c cb a7 bd eb c8 cc bd 87 44 d2 bd
       -0.11942073 -0.08193025 -0.099992596 -0.10266977
000090 92 c6 00 be b9 87 5d bd e7 b1 f0 3d 17 59 98 bd
       -0.12575749 -0.054084513 0.11752682 -0.074388675
0000a0 61 92 5b be 8c 17 e9 bd e2 62 94 be 00 97 0c be
       -0.21442558 -0.11381444 -0.28981692 -0.13729477
0000b0 10 7f 38 be c3 9c ad bd ac ce c0 bd ef d3 08 be
       -0.1801722 -0.084771655 -0.094144195 -0.13362096
0000c0 2c 74 32 be a2 c0 46 be 42 11 a3 bd 7e 69 0c be
       -0.17427129 -0.19409421 -0.07962276 -0.13712117
0000d0 b5 05 85 be d3 c9 07 be 22 6d 31 be fa c1 12 be
       -0.25980917 -0.13260584 -0.17326787 -0.14331809
0000e0 4d c6 44 be 0e 51 e2 bd 37 f2 41 be ac 20 54 be
       -0.1921627 -0.11050616 -0.18940054 -0.20715588
0000f0 68 8e 18 be 36 f1 b8 bd 97 f1 9c be 15 67 d3 bd
       -0.14898074 -0.09030382 -0.30653068 -0.10322396

cnn.6.weight f4 [64, 64, 3, 3]
000000 2e b7 0d bb 66 89 b3 3c f6 6e 22 bd ec e3 15 bc
       -0.0021624076 0.021916103 -0.0396566 -0.009148579
000010 ec fa 8c 3c bb db e5 ba fd 2d b0 3c 85 2e 6e 3c
       0.017209493 -0.0017536798 0.021506304 0.014537458
000020 80 1a 6f 3c a2 6e 51 3b 8f 97 8c bc b9 3a f7 bc
       0.01459372 0.0031956811 -0.017162113 -0.030179368
000030 c2 ee 50 3c bd 9b 12 bd b6 22 73 bc 71 35 16 3c
       0.012752237 -0.035793055 -0.014839819 0.009168015
000040 c8 af 00 3d 6e 5d c7 3c b8 94 26 bd 72 3e 19 bd
       0.031417638 0.024336543 -0.040669173 -0.037413068
000050 57 72 13 3d 36 2e f3 3b 60 c9 81 bc ab 87 09 bb
       0.035997715 0.0074212803 -0.015843093 -0.0020985405
000060 28 66 f6 bc cf 7e 21 bc 6f a4 b3 3c a0 5d 37 bc
       -0.030078009 -0.009856894 0.021928994 -0.0111917555
000070 4d 9e a2 3c 56 87 8f bc f3 af 6a bc 98 f1 c1 bc
       0.019850874 -0.017520588 -0.014324176 -0.023674771
000080 64 7e e9 3c 4e 8d 8b bc 73 c3 f2 bc bb 55 af bc
       0.02850265 -0.017035153 -0.029634213 -0.021403184
000090 44 13 8f 3c f4 71 9b 3c 46 9d 01 bd 6f 9d fe 3c
       0.017465241 0.018975236 -0.03164413 0.03108093
0000a0 88 24 88 3c 50 db 8c bb b0 a7 8f bc 80 84 f1 3c
       0.016618982 -0.004298605 -0.017536014 0.029482126
0000b0 e3 38 ce 3c fa fc 03 3d 40 f2 29 3c ce 81 d4 3c
       0.02517361 0.03222368 0.010372698 0.025940802
0000c0 0b c1 b2 bb 36 78 ce bb 7e 1d 19 bd f4 a4 0e 3d
       -0.0054551414 -0.0063009514 -0.03738164 0.03482528
0000d0 16 b0 7c bc ea b8 20 3d 88 14 44 bd 67 a0 00 3d
       -0.0154228415 0.039238848 -0.047871143 0.03140297
0000e0 fc de 0b bc 7f 5c 83 bc 77 e2 01 3d de 49 37 3c
       -0.00853705 -0.016035317 0.031710114 0.011187045
0000f0 16 27 4b bd 4a d7 9a 3c d1 37 d1 bc ea 87 e5 ba
       -0.049597822 0.018901486 -0.02553931 -0.0017511819
000100 4f c3 ac bc e8 03 81 bc 84 bc 39 bb 0f 89 50 bb
       -0.021089224 -0.015748933 -0.0028341124 -0.0031819975
000110 7d 8b f4 3c ac 7b cd bc 9b d8 fd bc bc 21 cb 3c
       0.02985167 -0.025083385 -0.030987075 0.02479636
000120 ad 94 41 3c b5 13 ad 3c 19 d4 5e bc 7e 8b 2c bc
       0.011815232 0.021127561 -0.013600373 -0.010531304
000130 2a d2 bc 3a 79 4c 8d 3c 2f 2a ac 3c 1c 3f 4a 3b
       0.0014405895 0.017248379 0.021016208 0.003086037
000140 f8 a4 28 bd 80 17 07 3b f4 df 06 3d 4b e2 9c bb
       -0.04117295 0.0020613372 0.032928422 -0.0047877184
000150 6b 39 0f 3c 36 f0 aa 3b 80 ce f3 bb 44 d3 11 bd
       0.008741717 0.0052166237 -0.007440388 -0.03560187
000160 12 98 0b 3d 90 64 48 bc 41 85 11 bd 55 6f 97 bb
       0.034080572 -0.012231007 -0.03552747 -0.004621426
000170 e0 3a 09 bd 00 ef 33 bd 87 70 ba bc 82 eb e9 bc
       -0.033503413 -0.0439291 -0.022758735 -0.028554682
000180 87 5a 3f 3c 68 8a e3 3a 41 c3 d9 bc fe 8b f1 3c
       0.011679298 0.0017359974 -0.026582362 0.029485699
000190 d3 79 71 3c d1 09 59 3c 3d 5a 11 bb 30 4c 0c bd
       0.014738518 0.013246969 -0.002217903 -0.034252346
0001a0 bd 77 de 3c 62 e8 0f bc eb b5 2b bd af ca 44 ba
       0.027156705 -0.008783432 -0.041921537 -0.0007507009
0001b0 62 92 d4 3c f9 57 9a 3b 78 64 df bc 5f 91 e2 bb
       0.025948707 0.004710194 -0.027269587 -0.0069143022
0001c0 ee dc 1c bc 05 5a 14 bc 5d 32 c2 bc c2 0c fc bb
       -0.009574158 -0.009054665 -0.023705656 -0.0076919505
0001d0 0e fc 45 bc 2c cd ec bc c6 75 e0 3c 4e 35 20 3c
       -0.01208402 -0.028906427 0.027399909 0.009778334
0001e0 95 c2 de 3c 9f e3 6f bc 00 34 18 3b d0 6e c3 3c
       0.027192393 -0.014641671 0.0023224354 0.02385655
0001f0 5e 89 82 3c 23 28 ac 3c bd 7e 1f 3b 56 7d e0 3c
       0.015934642 0.021015232 0.0024337017 0.027403515
000200 99 df 17 3c 35 e3 02 bd 18 0e 62 bc c7 bb 66 bc
       0.009269618 -0.031954963 -0.0137973055 -0.014082856
000210 33 de 08 bc d8 42 65 3a 96 bf bb 3b 2e f9 31 bc
       -0.008353758 0.0008745617 0.005729626 -0.010862632
000220 7a 4b 4b bd 25 a4 15 bd 6c 17 4f bd fa 09 18 3c
       -0.049632527 -0.036533494 -0.050559446 0.009279722
000230 c3 a8 8d bd 2b bd 6c bd c4 bc 80 bd be c3 64 3c
       -0.06916954 -0.057797592 -0.06286004 0.013962684
000240 ae a6 c2 3c 70 af 16 3c b3 9a 08 bd 80 6e 4e 3c
       0.02376112 0.009197101 -0.033350658 0.012599587
000250 b8 3b 0c 3d 56 f2 3f 3b 43 11 da bc 00 7e 0d bb
       0.03423664 0.002928873 -0.02661956 -0.0021589994
000260 56 39 00 bb 5b 06 ee 3c 46 8c 00 bd d7 3d c9 bc
       -0.0019565425 0.029055765 -0.031383775 -0.02456562
000270 b4 27 dc ba 9b cf 35 3c a8 50 2c bd d7 2d ef 3c
       -0.00167965 0.01109686 -0.042069107 0.029196663
000280 4a a4 2c 39 90 21 2f bc 36 f1 05 bc f4 16 11 bd
       0.000164644 -0.010689154 -0.008175185 -0.03542228
000290 f7 e7 05 bd 11 21 a1 3c 5f 77 c4 bb 3c d9 c6 3c
       -0.032691922 0.019669088 -0.0059956755 0.024273507
0002a0 3b 6b 99 bc 8b 78 a3 3c 90 71 0b bd d7 21 c7 bc
       -0.01872789 0.01995494 -0.03404385 -0.024308128
0002b0 a3 96 ea bc fb ea 03 3d 70 0b e0 bc d3 a9 bc 3c
       -0.028636282 0.032206517 -0.027349204 0.023030197
0002c0 f2 72 01 3c 32 cb bd 3c c8 4a 4c 3c e8 c4 42 bc
       0.00790094 0.02316818 0.012469001 -0.011887766
0002d0 f8 58 07 3d 3f 24 12 bd da e7 17 bc c1 f7 8e bc
       0.03304383 -0.0356791 -0.009271586 -0.017452123
0002e0 10 a4 2b 3c 18 25 04 bd bc 8e a2 bc 42 a3 93 bc
       0.010476127 -0.032261938 -0.019843452 -0.018022183
0002f0 92 69 1c 3d 0f 17 33 3c 2c 7b 3f bd 75 20 8f 3c
       0.038186617 0.010930791 -0.046748325 0.017471531
000300 a5 b3 07 3d 65 50 b6 3a 18 73 58 bc b2 d1 a2 3c
       0.033130307 0.0013909457 -0.013211034 0.019875381
000310 cf ee e8 bc 0d 60 77 3c e2 08 18 bc fc 49 1e bd
       -0.028434185 0.015098584 -0.009279462 -0.038644776
000320 bc 50 48 bd 03 87 e9 3c a2 cd 60 bd c9 6d e9 bc
       -0.04890512 0.028506761 -0.054883607 -0.028494732
000330 af d4 24 3c 28 a3 c3 bc 1c 76 ea bc fe b9 0b bd
       0.010060473 -0.02388151 -0.028620772 -0.034112923
000340 65 16 b6 bc b7 f7 26 3d 26 49 a0 3c e8 e2 db bb
       -0.022227475 0.040763583 0.01956613 -0.006710399
000350 e2 74 8d 3c 0a 9a 0c bc 63 27 c5 3b 43 c5 b3 bc
       0.017267648 -0.008581648 0.006016658 -0.021944648
000360 2e 63 7a 3c dc 57 af 3c 32 00 c8 3b 18 0b cc bc
       0.015282435 0.0214042 0.006103539 -0.024907634
000370 57 83 fd bc 03 eb de 3c 0a db d3 bb 66 a0 d9 bc
       -0.030946417 0.027211672 -0.0064653205 -0.026565742
000380 43 45 02 3b a5 b9 d9 3c 47 78 8e bc f1 09 a2 3b
       0.001987771 0.02657778 -0.017391337 0.0049450328
000390 b4 3e 8d bc 6c e6 1e bd 08 d5 74 bc e4 83 92 bc
       -0.017241813 -0.038793966 -0.014943369 -0.017885156
0003a0 d1 b9 b8 3b fc fa d9 3c f3 72 2f bd e5 c5 57 3c
       0.0056373854 0.026608936 -0.042834233 0.01316974
0003b0 39 90 ee bc 0f 79 15 3b 48 74 59 bb fd dc 8f 3c
       -0.029121505 0.0022807752 -0.0033180881 0.01756143
0003c0 da ca 3b bd 24 46 0d bd 43 68 1e bd c1 f9 2c bc
       -0.04584775 -0.03449072 -0.03867365 -0.010557593
0003d0 ce 73 6a 3c 23 ea e7 3c a6 57 ea bb 97 09 4b bd
       0.014309837 0.028309887 -0.007151562 -0.049569692
0003e0 c3 3a a4 bc ca aa 17 bc c8 c5 54 bc 3b da 80 bc
       -0.020047551 -0.009257028 -0.012986608 -0.01572906
0003f0 57 f0 33 bd fa fe 3e 3b ef 7f a4 bc 10 5f f3 3c
       -0.043930378 0.0029143677 -0.020080535 0.029708415

cnn.6.bias f4 [64]
000000 30 3f 5d bd ef 51 ab bd 0d 30 6c bd e7 0f 54 bd
       -0.05401534 -0.08365237 -0.057663012 -0.05177298
000010 0c 3c a2 bd 45 8c 8f bd d8 d8 9b bd 1e 43 f0 bc
       -0.07921609 -0.07009176 -0.07609719 -0.029328879
000020 c7 53 09 bd 06 28 5b bd 45 61 09 be e7 d0 2e be
       -0.033527162 -0.053504966 -0.13416012 -0.17071877
000030 0c 85 f7 3c 28 06 a9 bd f2 1c 92 bd f1 86 7c bd
       0.030214809 -0.08253127 -0.07134427 -0.061652128
000040 90 1a d2 bd 44 a3 68 bd 95 46 b2 bd ac de 9c bd
       -0.10258973 -0.056796327 -0.08704869 -0.07659659
000050 24 2c f6 bd c7 26 c1 bd 1d f5 2b 3d f6 83 40 bd
       -0.12020138 -0.09431224 0.041981805 -0.047000848
000060 98 10 65 bd 03 cd 19 bd 53 0b 68 bd 7a aa 70 bd
       -0.05592403 -0.03754903 -0.056651425 -0.05875633
000070 fa 13 ba bc fb 9d 1f bd 88 eb 54 bc f8 02 ba bd
       -0.022714604 -0.03896902 -0.012995608 -0.090825975
000080 5d 5f ae bd 11 5a 79 bd 1d ee 7b bd 15 a6 1d 3d
       -0.08514283 -0.06087691 -0.06150638 0.038488466
000090 82 99 2d bd cf 43 51 bd 7f 33 92 bd 27 a5 2f bd
       -0.042382725 -0.051090058 -0.07138728 -0.04288211
0000a0 3a 00 45 bd 23 5d 1b bd da bc 4c bd e6 cf 36 bd
       -0.04809592 -0.03793062 -0.04998479 -0.04463186
0000b0 4e f3 1a bd 6e 8e 51 be bf 27 3f bd 41 e5 e4 bd
       -0.03782969 -0.20464489 -0.046668764 -0.11176539
0000c0 6b a8 24 bd c5 cd 48 bd 53 06 5e bd 4e 01 71 bd
       -0.04019968 -0.049024362 -0.05420525 -0.058839135
0000d0 c7 21 a3 bc 45 e0 bd bd c4 cd 83 bd 05 48 46 bd
       -0.019913567 -0.09271292 -0.06435731 -0.048408527
0000e0 ee 07 93 bd 89 50 0e be b5 a2 2e be 9f 86 ac bd
       -0.07179247 -0.13897909 -0.17054255 -0.084241144
0000f0 ad 95 80 bd 74 f3 e7 bd 52 1e 90 bd c0 af 32 bc
       -0.062785484 -0.11325732 -0.07037033 -0.01090616

cnn.9.weight f4 [64, 64, 3, 3]
000000 7a de 9c 3c a2 66 af 3c f3 8b a5 3c 4c 0c 11 3a
       0.019149054 0.021411244 0.020208335 0.00055331434
000010 83 41 1e bd 52 77 48 3c 6e c0 b4 3b 1b a5 58 3c
       -0.038636696 0.012235479 0.0055161035 0.013222958
000020 80 e0 21 bc 63 9c 27 3d 0e d5 ee 3c 84 51 10 bd
       -0.009880185 0.040920626 0.029154327 -0.03523399
000030 f6 bc d7 3c 90 63 85 bc 40 01 09 3b b3 56 c0 bc
       0.02633522 -0.016282827 0.0020905286 -0.023478841
000040 8b e0 54 3c 4b d0 c0 3c ae b5 8e bc 66 9f cf bc
       0.012992988 0.023536822 -0.017420616 -0.025344562
000050 83 d0 9c 3c 27 1b 2a bd 56 a3 f4 3b 2b 0c cf 3b
       0.019142395 -0.0415298 0.00746576 0.006318589
000060 e8 e7 8d 3c 17 2a 29 3d 5e 40 ea 3c ee c0 7b 3c
       0.017322496 0.041299906 0.028595146 0.015365822
000070 bb 9b 00 3d 4d 23 fb bc 24 a9 ea bc 10 84 4f bc
       0.031398516 -0.030656481 -0.028645106 -0.0126657635
000080 1e 80 d8 bc 3b 54 11 3a be bd a2 3c 82 3b 47 bc
       -0.026428279 0.00055438624 0.019865867 -0.012160184
000090 30 8c 00 3d cd 46 f4 3c 16 c3 b1 3c c4 ad c0 39
       0.031383693 0.029818917 0.02169947 0.0003675056
0000a0 0e 8d dc 3c 60 f8 b2 3b 5d 17 6b bc ad 60 1d bd
       0.026922729 0.0054617375 -0.014348832 -0.038422275
0000b0 00 55 c1 ba 9b 35 29 3c c0 78 8d 3b 8b 5a ca 3b
       -0.0014750063 0.010327722 0.004317373 0.0061753443
0000c0 36 d6 e1 3c 7b 9d 60 bc d6 cd e2 3b 26 46 02 bc
       0.027567964 -0.013709421 0.00692151 -0.007951295
0000d0 f8 ba 1a bd 2b 14 c8 3c 0e 95 c7 bc 99 55 03 3d
       -0.037775964 0.02442368 -0.024363067 0.032064054
0000e0 50 5a 1b bc 9e 28 05 3d 62 05 dc bc 4f 58 13 3d
       -0.009481981 0.03250944 -0.026858035 0.03597289
0000f0 cc de 06 3c b8 5c 67 bb 5b 03 f1 3c d3 95 25 3d
       0.00823183 -0.0035303067 0.029420545 0.040426087
000100 bc 84 0c 3d c0 ef 44 bc 36 32 25 bd 07 da 1a 3d
       0.034306273 -0.0120200515 -0.040331088 0.037805583
000110 fe 2f ab bc e8 8e 0f 3d 83 87 80 bb 28 f8 fe 3c
       -0.020896908 0.035048395 -0.0039224043 0.03112419
000120 d6 a2 5d 3b 4b 90 07 3d 23 fd 1a 3d c0 c3 bd bc
       0.0033818982 0.033096593 0.037839066 -0.02316463
000130 9f d2 18 3d 96 85 83 3b cb 39 00 3c bb bc 23 bd
       0.03731024 0.0040137274 0.007826279 -0.03997491
000140 20 ce 15 bc 7a 89 96 bc d9 af bc 3b 58 58 16 bd
       -0.009143382 -0.0183761 0.0057582674 -0.036705345
000150 8d 40 0a bd 8f cb c4 3c 5c 75 2a bd e5 fb bd 3c
       -0.033752967 0.024022846 -0.04161583 0.023191402
000160 1b e6 8a bc 7d a0 94 3c c8 13 96 3c a7 ba 7b 3c
       -0.016955426 0.018142933 0.01831998 0.015364326
000170 c0 97 83 bc 8a a6 93 bc 64 d8 11 bd 83 b6 9e bc
       -0.016063571 -0.018023748 -0.035606757 -0.019374138
000180 34 b3 05 bd 1e e1 97 3c a0 2f 0c bd 57 b3 19 bd
       -0.032641605 0.018539961 -0.034225106 -0.037524547
000190 6e d9 6a bc 01 35 2b 3c 5a 24 a1 b9 f7 c1 25 bd
       -0.014334066 0.010449649 -0.00030735397 -0.040468182
0001a0 92 53 cf 3b f3 09 12 bd c8 e2 09 bd 9c b8 95 3c
       0.006327101 -0.03565402 -0.03366354 0.018276505
0001b0 35 27 6a bd 75 c9 2c bd a9 a1 8e bc b1 dd 0a 3d
       -0.057166297 -0.042184312 -0.01741107 0.033902828
0001c0 be 75 1f bc fd 4f e5 bc 85 10 93 bc 60 fb 90 bd
       -0.009732662 -0.027992243 -0.017952213 -0.07079196
0001d0 d8 42 ee bc 56 ae cf 3c c4 f4 b0 3c 7d 0f 64 3c
       -0.029084608 0.025351685 0.021601088 0.013919708
0001e0 a0 fa 6c bb d2 ef 4b 3c 74 e3 fd ba 01 f4 a9 bb
       -0.0036160126 0.012447314 -0.0019370154 -0.0051865582
0001f0 d8 68 35 bd 84 52 0e 3d 3e 12 42 bd 73 7e ca bc
       -0.04428944 0.03474666 -0.04738068 -0.024718499
000200 11 bb 04 3d a8 c8 ed 3c 8c 91 71 bd d2 d2 24 bd
       0.032404963 0.029026344 -0.058976695 -0.040240116
000210 d0 53 3a 3b 75 d6 26 bd 9c 7d 61 bc 72 58 1b bd
       0.0028431304 -0.040731866 -0.013762858 -0.037926145
000220 0b 9f 87 bc 0a 5b 12 3c b4 42 1a bd d0 09 a3 bc
       -0.01655533 0.008932838 -0.03766127 -0.01990214
000230 09 01 4e bc a9 22 e3 bc b9 3c aa 3c 2e 14 0b bd
       -0.012573489 -0.027726488 0.020780908 -0.03395479
000240 91 36 2d bd d4 7a 2c bc e3 fb 8b 3c 06 90 0a bd
       -0.042288367 -0.010527331 0.017087882 -0.033828758
000250 72 16 c8 bc 3e 9a 1e bd cd f3 dd 3c f4 39 d5 3c
       -0.024424765 -0.038721316 0.027093792 0.02602861
000260 2a 15 78 bc 1a eb 7c 3c 3a 7c b5 bc 93 c6 88 bc
       -0.015141765 0.015436912 -0.022153962 -0.01669625
000270 a6 1f 90 3c 8b dc ea bc 10 78 29 bd a4 c5 cc bc
       0.017593216 -0.028669616 -0.041374266 -0.024996586
000280 de f1 79 3c 20 d5 8e ba b6 1e 02 3d 4a 0a 08 3d
       0.01525542 -0.0010897256 0.03176757 0.033212937
000290 68 e5 f4 3c 2b 93 a0 3a 38 b5 c5 bc 33 ba 93 3c
       0.029894546 0.0012250891 -0.024134263 0.018033123
0002a0 00 80 dc 39 4b 0a 0d 3d 83 93 c6 3c 8f df e4 3b
       0.00042057037 0.034433644 0.024240261 0.006984658
0002b0 e5 58 a2 3b ae 7a 19 bd ff 6b 75 bc 09 fa 1a bb
       0.0049544447 -0.037470512 -0.014979362 -0.0023647568
0002c0 38 9a 84 bb 98 8a c6 3c 4c 8b c3 3c 1f 02 92 3c
       -0.0040467046 0.024236009 0.023870133 0.017823277
0002d0 db 23 44 3c e5 45 58 bb 2d 0b 19 bc dd 82 2b bd
       0.011971439 -0.0033000645 -0.009341043 -0.041872848
0002e0 0e 5d 95 bc 10 62 24 3b 10 bd c4 bc a8 24 a4 bc
       -0.018232848 0.0025082864 -0.024015933 -0.02003701
0002f0 c5 e6 45 bc 12 a7 1b bd dd cd 5d 3c 62 55 7e 3c
       -0.0120789455 -0.038001128 0.013537851 0.015523287
000300 b5 dd 79 bc 4e 76 21 3c 6a 3c 13 3c 26 68 18 bb
       -0.015250613 0.009854866 0.008986572 -0.0023255437
000310 06 e7 21 3c 50 f2 73 bc ad 88 93 bd a3 b6 83 bc
       0.00988174 -0.014889315 -0.07203803 -0.016078299
000320 54 d4 5d 3c ee 20 18 bd ad c6 fb ba 14 92 40 bd
       0.0135393925 -0.03714078 -0.001920899 -0.04701431
000330 3c fa 10 bc f5 77 c7 bc b0 15 23 3c d0 ee 36 bc
       -0.008848723 -0.024349192 0.009953901 -0.011165336
000340 25 20 ba bc f6 e7 bc bb fe 9e 16 bd d6 8c 90 bc
       -0.022720406 -0.0057649566 -0.03677272 -0.01764528
000350 1b 98 21 3d b6 e9 b8 bc e0 e3 87 3b 10 7f cc bc
       0.0394517 -0.02257238 0.004147038 -0.024962932
000360 be af 80 bc 00 f1 a8 bc d0 1e d8 3c 7b f0 51 3c
       -0.0157088 -0.02062273 0.02638188 0.012813683
000370 3c 19 0f bd 8b 44 6f bc 3c 44 0c 3c fa 0a 9c bc
       -0.034936175 -0.014603744 0.00856119 -0.019048203
000380 8f 57 04 3d eb 4a c2 ba 77 2e 47 bc 43 a0 02 3d
       0.032310065 -0.0014823353 -0.012157074 0.03189112
000390 17 5a 7f 3c 80 94 97 bc c0 35 16 bd 0f c2 67 3c
       0.015585444 -0.018503428 -0.036672354 0.014145388
0003a0 3c b0 3a bd a6 74 24 3b 56 fa a0 3b d3 26 e9 bc
       -0.045578226 0.0025093942 0.004912655 -0.028460896
0003b0 76 be 07 bc c8 83 bd 3c 06 81 7b 3c 60 40 01 bc
       -0.0082851555 0.023134127 0.015350586 -0.007888883
0003c0 2b 57 3c 3c cc 29 18 3d 3e 33 cd bc 5d d7 e5 bc
       0.011495392 0.037149236 -0.025048848 -0.028056795
0003d0 21 1a bf 3c 49 07 fa 3c 99 a4 ae bb 90 7d 31 bb
       0.023327889 0.030521052 -0.00532968 -0.0027082898
0003e0 09 c1 13 bc d1 52 12 bc 6c e8 1e bb 2b 69 05 bc
       -0.009018191 -0.008930878 -0.002424742 -0.00814275
0003f0 9d f5 18 bb 32 64 05 3d 30 11 0c bd c1 a6 43 bc
       -0.0023339756 0.032566257 -0.03419608 -0.011941613

cnn.9.bias f4 [64]
000000 2e a0 8c bd a2 cc 80 bd 8a 85 04 bd fc 15 48 3e
       -0.06866489 -0.062890306 -0.032353915 0.19539636
000010 39 d5 05 bd a3 62 82 bd eb b6 68 bd f6 78 94 bd
       -0.032674048 -0.0636647 -0.05681507 -0.07249634
000020 a0 67 91 bc 81 84 b6 bd 8e 38 ad bc b4 a0 1d bd
       -0.017749608 -0.08911992 -0.021145131 -0.038483337
000030 32 67 32 bd ba 70 96 3b b3 d0 62 bd ef c1 9b bd
       -0.043555446 0.004591075 -0.055374812 -0.07605349
000040 14 41 94 bd 03 63 96 bd 26 09 05 bd 56 40 2e bd
       -0.07238975 -0.07343104 -0.032479428 -0.042541824
000050 4a 6f 39 bc 12 71 36 bd 8e 10 77 3d 1d b5 18 bd
       -0.011318037 -0.044541426 0.060318522 -0.037282098
000060 17 72 be bc 5b 84 49 bd e8 d0 b1 bd ce eb 05 bd
       -0.023247762 -0.04919849 -0.08682424 -0.032695584
000070 c0 9c 9b bd 28 cc 88 bd 2d 36 96 bd 6a 74 a4 bd
       -0.07598257 -0.06679565 -0.07334552 -0.08030017
000080 5c a9 cc bd 19 cc 73 bd cf ca 5c bd a3 c0 4d bd
       -0.0999324 -0.059520815 -0.05390435 -0.05023254
000090 3b cc 81 bd cb d6 84 bd ad fb 3e 3d 65 d4 66 bd
       -0.06337782 -0.06486281 0.046626735 -0.0563549
0000a0 46 86 82 bd 0f 41 a9 3c 31 db ab bd 8e 61 c1 bd
       -0.06373267 0.020660905 -0.08391417 -0.09442435
0000b0 b1 17 9c 3d b3 9a 15 bd 86 5c 97 bd 9a a0 48 bd
       0.07621706 -0.036524486 -0.07390694 -0.048981287
0000c0 89 26 9b 3e f5 8a 3e b9 fd 6f 03 bd 8f 6a e3 bd
       0.30302837 -0.00018171578 -0.032089222 -0.11104309
0000d0 97 0d 74 bd bc 03 07 3e 20 f5 8f bd 59 00 27 bd
       -0.059583273 0.13185018 -0.07029176 -0.040771816
0000e0 06 bb d5 3d 06 fa a6 bd 26 0b 8b 3c 48 6d 73 bd
       0.104360625 -0.08153157 0.01697309 -0.05943039
0000f0 76 1f f8 bc 38 9b a8 bd 63 4c a8 bc 1b 86 29 bd
       -0.03028844 -0.082327306 -0.020544237 -0.04138766
