Assets/ONNX/cnn.onnx (onnx, 374396 bytes, 8 tensors)

cnn.0.weight f4 [32, 3, 3, 3]
00000000: 3f23 77bd 6004 cd3d 8b89 8a3d e499 febc
00000010: a60c d9bd 9629 273d 6515 ebbd 40f6 26be
00000020: 736a d33d cf57 f9bd c08b 373d cd8c 8439
00000030: bf7d 05bb 7b80 52bd 2037 d33d 5892 00be
00000040: e44b 2ebe 051a 11be 2f0e 183d 90f0 b1bd
00000050: 90bf dabd 5640 3abe a45e 3e3e 6adb 04be
00000060: ead3 93bc 3791 31bd 1b02 fa3d 27b8 11bf
00000070: d532 3fbe 5f20 8ebe 371b a9be 2200 edbe
00000080: 9248 26bf 3760 d4bd d7de c8bc be3d 2dbf
00000090: e78a ba3d eec0 86bc 8c2e 8b3d 4ce4 00be
000000a0: 531a bdbe 87a3 d2bd 3c54 f6bd da95 2bbe
000000b0: 6406 d9bc 57d3 133d 8b1e 21be 8146 073c
000000c0: 03dd 83bd 0bec 03bf c9fa 75bd c40a e0bd
000000d0: 9bf7 6fbd 5073 1cbe cdda c8bd 19e6 253e
000000e0: ed63 d2bc 89de 8abe 57a1 323d c9f5 96bc
000000f0: a980 86bb b248 143d 2619 77bd 2fcc babe
00000100: f89f 17bd 1985 5abd 0761 4fbe 1b06 2cbe
00000110: c57a 8bbc f1b0 fabd 7000 063d bf2a 183d
00000120: 1c60 873e e615 4ebe 6222 77be 6db0 abbe
00000130: e445 efbe 8172 d6be e46c 193e 2ce5 cc3e
00000140: 52e9 893e 72f2 1abe 90cb b3bd 8382 c13d
00000150: c737 39bc f7ab 82be b46c 8dbd 3785 17be
00000160: 4def 5ebe 4cfe 00be 0d4c a0bb c5c0 57be
00000170: 63bb 4ebe 489c c2be f72c a0be 63b2 e0be
00000180: fc57 16be 503e f8be f66e c6be 2d0c c4bd
00000190: e21d 9ebe b031 d3be e780 8cbe 77bf 0abf
000001a0: 0ee4 e7be 4e9b f63d 829c 943d 5a4c 99be
000001b0: eed4 203e 9841 9b3e 15cd 613e 361f 37bd
000001c0: 5b4d 993e 67e8 683e 95db 0b3d 5b0e 993e
000001d0: babd 823e 6b3f 153e 3f94 71be a1a5 053e
000001e0: 5172 04be 7c52 1dbe ab6a 68be 6eaf aa3c
000001f0: 2192 0d3d 81c8 4f3c 96c4 68be a61a b03e
00000200: 4ae6 123d cbbf 55be 4f35 e5be 056d bbbe
00000210: 67a1 e2be 7952 0ebf 6421 8fbe a5de 0dbe
00000220: b4d2 04bd c43f 83bd 027a bc3d be00 9f3d
00000230: 2334 b03c af3c 053e 7885 aebd f77c 8c3c
00000240: 2005 023d fd94 2abe f5dd 4d3d ac5f c1bc
00000250: db0c 81bd dc6b 203c 35e2 a0be 84e7 01be
00000260: 4029 5cbe 6046 47be cfe3 36be e2b8 84be
00000270: 2d8b 7cbe ae30 2cbe 1aba 97bd add2 183e
00000280: 5bee fa3d 1e74 1bbe cbe2 b1bd b67b 14be
00000290: 8fc8 03be 1aa8 e0bc b8f3 75bd 9bc4 18bd
000002a0: 3243 b83d 90b1 15be 5078 9abc 5449 b0be
000002b0: ca84 15be 8ad1 4cbe 5d5b c7bd 914c a2bc
000002c0: 3e44 80be 915c f2bb 8528 fa3d 1289 c8bd
000002d0: 3eca 25bd 803e a4be 3143 d3bd 1d29 b1bc
000002e0: d084 17bd 7dcb 41be 84be b238 87fc 39be
000002f0: 6648 273d 5bb1 b2bd ccde 473c e083 aabd
00000300: 0c2d 2bbe e115 e4bd 62f4 103e d048 ba3d
00000310: f5a3 dc3b cfad 093e c2d5 523d f217 87be
00000320: 6c23 fd3b 7164 3dbc 0074 8ebe 111f f2bd
00000330: 944a a43d fdba 813d c777 e3bd 8773 d3bd
00000340: 826a d2bd 4821 42be 1a6b 0d3e 4baf 80bd
00000350: 57fd 86be 979a 94bd bbd6 82be afb1 50bd
00000360: 162f 133e 19af fd3d 8b4b b0bd 61b3 73bc
00000370: 780d 27bd b10d 5cbe 6b9d cc3c f938 33be
00000380: 48c6 9dbd 1ee7 c93d 826e 1cbd a856 c33d
00000390: 3305 e7bd 1270 1a3d 84d4 6e3d 6e2a 403d
000003a0: cc78 f1bd ddb3 eabd e4c6 373b 614d 043e
000003b0: f7ea 41be 6077 143d 8c05 3abe 6d48 03bd
000003c0: 9745 60be edf6 97bd eb54 1cbd c1f5 90be
000003d0: 8f4e 4d3d 1bfc 41bc 5229 74be 137d 3cbe
000003e0: 7d27 34b9 8dd3 26be 6a89 b7be d479 81be
000003f0: d525 3dbe 431e 26be bad2 afbd 4123 41be
-0.060336348 0.100106 0.067645155 -0.03107924 -0.105981156 0.040811144 -0.1147869 -0.16304874
0.10323038 -0.12174951 0.04481101 0.00025281907 -0.002036914 -0.05139206 0.10313249 -0.12555826
-0.17021137 -0.14170082 0.0371229 -0.08688462 -0.10681069 -0.18188605 0.1859079 -0.12974325
-0.018045384 -0.04335138 0.12207433 -0.5692162 -0.18671735 -0.27759072 -0.33028576 -0.46289164
-0.64954484 -0.10369914 -0.02452032 -0.67672336 0.09108525 -0.016449418 0.067959875 -0.12587088
-0.36934146 -0.102850966 -0.12027785 -0.16756383 -0.026492305 0.03609022 -0.15734307 0.008256556
-0.06438639 -0.5153205 -0.06005362 -0.109395534 -0.058585744 -0.15278363 -0.09807358 0.16201057
-0.025682414 -0.27122906 0.043610897 -0.018427746 -0.004104693 0.03620214 -0.060326718 -0.36483905
-0.037017792 -0.053349588 -0.20251857 -0.16799204 -0.017026315 -0.1224078 0.03271526 0.03715014
0.26440513 -0.20125541 -0.2413421 -0.3353304 -0.4673301 -0.41884235 0.14982945 0.40018594
0.26935822 -0.15131548 -0.08779061 0.09448721 -0.011304802 -0.25521824 -0.06905499 -0.14796911
-0.21770974 -0.12597007 -0.0048918785 -0.2106963 -0.2018867 -0.38009858 -0.31284305 -0.43886098
-0.14682001 -0.4848504 -0.3875653 -0.09572635 -0.30882174 -0.41248846 -0.27442095 -0.541984
-0.4529118 0.12041341 0.07256414 -0.29941064 0.15706226 0.30323482 0.22050889 -0.0447075
0.2994183 0.22744904 0.034144957 0.29893765 0.25535375 0.14574973 -0.23591708 0.13051464
-0.12934233 -0.15363497 -0.2269694 0.020835605 0.034563188 0.012682081 -0.22731242 0.3439533
0.035864152 -0.20873944 -0.44767234 -0.36606613 -0.44263765 -0.55594593 -0.27955163 -0.13854463
-0.032427505 -0.06408647 0.09202959 0.077638134 0.021509236 0.1301143 -0.08521551 0.017149432
0.03174317 -0.16658397 0.050260503 -0.02360519 -0.0630128 0.009791341 -0.31422582 -0.12685972
-0.2150011 -0.1946044 -0.1786034 -0.25922304 -0.24662466 -0.16815445 -0.07408543 0.14924116
0.12252494 -0.15181014 -0.086858355 -0.14500317 -0.12869476 -0.027423907 -0.06004688 -0.037296873
0.089971915 -0.14618516 -0.018856198 -0.34430945 -0.14601436 -0.20001808 -0.09734223 -0.0198119
-0.25052065 -0.0073962887 0.1221476 -0.09791769 -0.040476076 -0.32078934 -0.1031555 -0.02162605
-0.036991894 -0.18925281 8.523188e-05 -0.18162738 0.04084053 -0.08725234 0.012199115 -0.083259344
-0.16716403 -0.111369856 0.14155725 0.09095919 0.0067334124 0.13445209 0.051473387 -0.26385456
0.00772517 -0.011559592 -0.27822876 -0.11822332 0.08022037 0.06334493 -0.1110683 -0.103247695
-0.10274221 -0.18958008 0.13810387 -0.062834345 -0.26365158 -0.07256048 -0.2555445 -0.050950702
0.1437343 0.12386913 -0.08608159 -0.01487431 -0.04078433 -0.21489598 0.024977406 -0.17502202
-0.07703835 0.09858535 -0.038191326 0.09538013 -0.112802885 0.037704535 0.05830814 0.046915464
-0.11790618 -0.114600874 0.0028042132 0.12920143 -0.18937288 0.036246657 -0.18166178 -0.032051492
-0.21901546 -0.07420144 -0.03816692 -0.28312495 0.050123747 -0.011839892 -0.23843887 -0.18407087
-0.00017180848 -0.16291638 -0.35847026 -0.2528826 -0.18471463 -0.16222481 -0.08585115 -0.18861105

cnn.0.bias f4 [32]
00000000: 7a53 37be 23ca 3abd e1d0 8a3c 2b05 813d
00000010: 8db0 1ebd cd8f b0bb 7ae7 af3a d7a5 f1bc
00000020: 1167 64be 6cec 86bc eda4 0ebd c643 38bd
00000030: cf7b 21bd cbd5 8c3c 1336 69bd 5419 15be
00000040: 9b2e 3ebe 5c6b 6abe 446f 843c f9d7 fa3d
00000050: b72b 17be 483f 83be b61a 49be f26d 863d
00000060: cab5 a83d f7f8 15be 1dda f73d d13b 40be
00000070: 22e5 f23c 02dc 24bd d533 bc3b 26b8 65be
-0.17902938 -0.04560293 0.016945304 0.06299814 -0.03874259 -0.005388236 0.0013420426 -0.029498024
-0.22304942 -0.016470157 -0.034825254 -0.04498651 -0.039424714 0.017191788 -0.056936335 -0.14560443
-0.18572466 -0.22892517 0.016166337 0.12248225 -0.1476277 -0.25634217 -0.19639096 0.06563939
0.082377985 -0.14645754 0.12102149 -0.18772818 0.029650275 -0.04024888 0.0057434835 -0.22433528

cnn.3.weight f4 [64, 32, 3, 3]
00000000: d414 563d c57e d4bc a127 603c c352 63bd
00000010: ea68 8a3c 5d5c bbbc c6d6 4fbd 2f21 713d
00000020: dada d83c 62da d4bc 8986 b33c 4fae 04bd
00000030: c98c 0cbb 5318 0d3d 062a 68bd 3aed b0bd
00000040: 0184 05bc 5ba0 78bd 7ac4 4bbd 00cf 01bc
00000050: 390b 20bd 1405 0d3c 610c 90bd 0043 033d
00000060: 56d3 80bd 262d 9c3c c8d2 71bd 5006 9bbc
00000070: 84e2 81bd 966a 90bc 01cf 67bd cfab 47bd
00000080: b2e1 813c a874 fa3b 2886 a33c 86f2 56bd
00000090: 50f3 193c f3a2 bfbd 8425 043d 7f05 a1bd
000000a0: 09f1 c7bc e220 c33c 206c 813c 2d6e 0138
000000b0: a24b a5bc 8aa1 9a3c 40d1 29bd 5755 023c
000000c0: fe5e 393b 3112 f23b 24f5 36bd 184b 023d
000000d0: fe55 9dbd 1c82 fd3c d132 2cbd 7e14 87bc
000000e0: 92e4 3dbd f2c2 80bd 3b28 46bb b276 2abd
000000f0: 641b 5a3d 4b1e 6bbc b3da 053d 9e69 70bd
00000100: 45b1 8f3c f471 84bd 28c2 b5bc 8e3c 69bd
00000110: 82ad cb3b 97c7 cfbc 8a4f 4bbd f54b 32bc
00000120: d921 89bc c266 a1bd 097a bf3c 350f 8b3c
00000130: f73c 51bc ae11 b93c 88b2 e3bc 6157 d1bc
00000140: 1b15 293d 4d8c 57bd 794c 2bbd 374f 2d3d
00000150: 90fa 65bd 4a39 dc3c 8d97 11bd bb21 0b3d
00000160: 263e 63bd 62f6 13bd a191 52bd e4af 36bd
00000170: b9e0 4fbc c6d3 37bd b72a 14bd 197e 69bd
00000180: 2b4e 3cbc 4908 bcbc 1681 163c 5748 04bc
00000190: c956 9fbd 88e4 85ba a7ef 82bd c229 a2bc
000001a0: 2517 02bd 5db2 acbd f34e d5bc c149 313d
000001b0: f126 c83c b989 dc3c cf63 32bd e04b 653c
000001c0: c1fb 05bd a903 b2bc 641d 5abd c801 bfbd
000001d0: a33d 6dbd 1f86 e33a fd31 ccbc 7a9c aa3c
000001e0: 103d 80bb 7206 1fbc 9250 28bd ba6a 32bd
000001f0: 09dc 28bc cbc0 c8bd 81ef 0ebb 7300 34bd
00000200: 8ae1 29bd 4c9c 97bd 9d7e 1dbd d7b1 84bd
00000210: 4667 ef3c 5954 933c c6e0 fe3c ef2d 87bb
00000220: b765 b1bc 5516 c13c c674 25bd cdc3 b2bd
00000230: c088 7cbd c219 29bc fb13 67bb 2881 f73a
00000240: 1361 013c 5c73 fbbb e0c6 0b3d 2307 103c
00000250: bb44 de3b f79a 1dbd c708 323c 0993 3dbc
00000260: 95fc 4bbd 9336 a7bd b786 9e3c 3bee 0cbd
00000270: b24a b53b fdd6 4b3c a88a 8bbd 46cf 653b
00000280: cb81 3ebd 7063 05bc 9a5d ad3c 6788 4abd
00000290: 1fec 50bd aec5 22bd b619 21bd a45e 613b
000002a0: 2ce9 b8bd 637c 92bd 5b96 08bd c7e8 0a3d
000002b0: 553a 223c 0b1c 523d 2ad7 62bc 042d e63c
000002c0: e420 c7bc 558d a93b 0409 3dba e0e2 8dbd
000002d0: 0825 7aba a180 9cbc 7da1 1c3c fc14 93bd
000002e0: 22ff 3fbd f3ab d03c 4e85 39bd e3b1 90bd
000002f0: 95a6 213d f3e4 813c b5ff 01bd 3559 a53c
00000300: 0b6b 7ebc 79ee 52bd 7d77 4fbc aef4 a03c
00000310: 334d 8abc b0ca 6ebb d071 893c 4b4a 0f3d
00000320: c994 933c 5cad d7bc 7054 043d 0da7 64bd
00000330: e1cc bbbc 7f5b 00bd 99ee a9bb e493 353d
00000340: 63cb aabc 5b07 60bd 4a14 46bd e80e 5b3a
00000350: 3262 4cbc 5cb7 aebc 3825 56bd 6125 613c
00000360: c238 cfbd 222a 5b3c 467b 76bd d29a 3cbd
00000370: 91a2 07bd d96f bb3c a30f e6bd 4429 89bd
00000380: f02c febb db25 413c e754 f6bb 7fee 01bd
00000390: 6bc2 243c 5dda e5bc fe6d 0fbc 655b 3fbd
000003a0: 84ad abba 7c3c b4bc 8697 9cbd 3399 49bc
000003b0: a12a 193d 12bb cabd 1b55 7dbd fc16 e23c
000003c0: 4614 97bc 7124 92bd e9bf 94bd e306 e2bc
000003d0: 369b a5bc 558f 75bd 20c0 083d 136b de3c
000003e0: 6d35 d43c 582b 6ebc 554b 173d ef05 8d3c
000003f0: 34d8 e2bc ece9 e0bc f1fe 8cbd bcf0 baba
0.052265957 -0.025939355 0.013681323 -0.05549885 0.01689573 -0.02287119 -0.050741933 0.058869537
0.026471544 -0.02598304 0.021914737 -0.032392796 -0.002144622 0.034447026 -0.0566807 -0.086389974
-0.008149148 -0.060699802 -0.04974792 -0.007922888 -0.039073203 0.008607168 -0.07033611 0.032046318
-0.06290309 0.019064497 -0.059038907 -0.018923908 -0.063420326 -0.01762895 -0.0565939 -0.048747834
0.01585469 0.007643301 0.019961432 -0.052477382 0.009396389 -0.09357252 0.03226234 -0.078623764
-0.024406927 0.02381939 0.015798628 3.0858606e-05 -0.020177666 0.018875856 -0.041459322 0.007954917
0.002828538 0.0073874225 -0.044667378 0.031809896 -0.07682417 0.03094583 -0.04204065 -0.016489264
-0.04636056 -0.06287183 -0.0030236382 -0.041617103 0.053248778 -0.014350484 0.03267927 -0.058694474
0.017540583 -0.06467047 -0.022187307 -0.056942515 0.006215752 -0.025363727 -0.0496364 -0.010882367
-0.016739773 -0.078809276 0.02337362 0.016975025 -0.012770883 0.022591438 -0.027795091 -0.02555436
0.041279893 -0.052624036 -0.041820977 0.042311873 -0.05614716 0.026882786 -0.03554492 0.033967715
-0.05547919 -0.03612364 -0.051408414 -0.044601336 -0.012687855 -0.044879697 -0.03617355 -0.05700502
-0.011493246 -0.02295317 0.00918605 -0.008073888 -0.07780225 -0.0010215202 -0.06393366 -0.019795302
-0.031760354 -0.084324576 -0.026038622 0.043283228 0.024432631 0.02692114 -0.043552216 0.013995141
-0.032710794 -0.02173026 -0.053250685 -0.093265116 -0.05792011 0.0017358697 -0.02492618 0.020826567
-0.003913529 -0.0097061265 -0.041092463 -0.043558814 -0.010306367 -0.09802397 -0.0021810236 -0.04394574
-0.041474856 -0.07402858 -0.038450826 -0.06479233 0.02922405 0.017984556 0.03111304 -0.0041253488
-0.021654947 0.023570219 -0.040394567 -0.08728752 -0.061653852 -0.010321083 -0.0035259712 0.0018883096
0.007896679 -0.007673664 0.03412521 0.008790764 0.0067830957 -0.038477864 0.0108663505 -0.0115707
-0.049801428 -0.08164706 0.019351346 -0.03440688 0.005532586 0.012441394 -0.06813556 0.0035066172
-0.0465105 -0.0081413835 0.021162797 -0.04944649 -0.051006433 -0.039739303 -0.03933116 0.0034388686
-0.09028849 -0.07152631 -0.033346515 0.0339134 0.009901603 0.051296275 -0.013845244 0.028097637
-0.024307676 0.005174319 -0.0007211121 -0.069280386 -0.0009542261 -0.019104304 0.009559986 -0.07181737
-0.046874173 0.025472617 -0.045293145 -0.07065179 0.039465506 0.015856242 -0.031738 0.020184139
-0.015528451 -0.051496956 -0.012662766 0.019647922 -0.016882515 -0.003643673 0.016777903 0.03498296
0.018015282 -0.026327781 0.03230709 -0.055823375 -0.022924842 -0.031337257 -0.0051859138 0.044330493
-0.020848935 -0.054694515 -0.048359193 0.0008356408 -0.012474583 -0.021327667 -0.05228159 0.013741822
-0.101182476 0.013376744 -0.060176156 -0.046046086 -0.03311402 0.022880482 -0.11233451 -0.06697324
-0.007756822 0.011788811 -0.0075174454 -0.03172159 0.0100561185 -0.028058225 -0.0087542515 -0.04671802
-0.0013097976 -0.022001497 -0.07646088 -0.012304592 0.03739417 -0.09898962 -0.06184874 0.02759885
-0.018442284 -0.07135857 -0.072631665 -0.027591174 -0.020215612 -0.059951145 0.03338635 0.027150666
0.025904382 -0.014536701 0.036937077 0.017214743 -0.027690984 -0.027455293 -0.06884564 -0.0014262418

cnn.3.bias f4 [64]
00000000: c63e ebbd 6acd 813c 96be e9bd 117f 30be
00000010: b0c1 8abd 4c45 bdbd e8c5 28be f807 1cbe
00000020: 101d 75be 87f6 12be c222 89be 2a8e 08be
00000030: a62f eabd 45e3 e1bd be76 9bbe 70ba e9be
00000040: 4168 09be 6cfb 58be 930d debd 9faa 04be
00000050: b4cc 9ebd 2fd7 47be 43ea 70be e8f5 c5bd
00000060: 36a2 1ebe dc47 e1bd c68b bcbd 81fd c0bd
00000070: 64f4 d7bd f07f 03be 3870 64be 38ff 1abe
00000080: 242d c2bd cbb4 36be 9fbe e5bd 8381 47be
00000090: 3f7e 39be 7ce9 31be b74f 8bbc fa21 dfbd
000000a0: 2a7b a9bd 2c90 95be e78d 15be 8d57 48be
000000b0: cf01 bcbd 2551 91be 47b0 6ebe 8312 d1bd
000000c0: 3598 c6bd c33a cabd 84c5 88bd ec31 0abe
000000d0: b8c5 bcbe 5c3f 3ebe 22f9 40be 34b0 3cbe
000000e0: 3f25 c8bd d19a 03be 2c7e 0fbe a3c9 fdbe
000000f0: f2a7 e7bd b73f 0abe 4eba aebd 060b babd
-0.114865825 0.01584502 -0.114133045 -0.17235972 -0.06775224 -0.09241733 -0.16481745 -0.15237415
-0.23936868 -0.14351855 -0.2678433 -0.13335481 -0.114348695 -0.11029676 -0.3036403 -0.45650053
-0.13418676 -0.2118966 -0.10842433 -0.12955712 -0.07753888 -0.1951568 -0.23526864 -0.096660435
-0.15491566 -0.11000034 -0.09206347 -0.09423352 -0.10544661 -0.12841773 -0.22308433 -0.1513642
-0.09481266 -0.17842405 -0.11217999 -0.19482999 -0.18114565 -0.17374223 -0.017005784 -0.108951524
-0.08275445 -0.29211557 -0.14604913 -0.19564648 -0.091800325 -0.2838222 -0.23309432 -0.10208609
-0.09697 -0.09874489 -0.06678298 -0.13495606 -0.36869597 -0.18578857 -0.18845037 -0.18426591
-0.09772729 -0.12852027 -0.14012975 -0.495679 -0.1131133 -0.13500868 -0.085316285 -0.09084134

cnn.6.weight f4 [64, 64, 3, 3]
00000000: 8571 933a 33f9 a7bc 7695 29bd 832b edbc
00000010: 5ae2 05bc bfeb ecbb 1235 cdbc f721 ccbc
00000020: e610 af3c 6ee3 46be 5f77 4f3c 7eec f7bc
00000030: 3fff 1bbe 257a 4dbd d598 cfbd 7857 00be
00000040: 99d2 37be 8c36 3bbe a516 52be f791 c0bd
00000050: 3da7 70bd 2aca dbbd fa49 99bd aff5 f5bd
00000060: 2d44 e4bd f499 acbd 25f0 87bd 6733 233d
00000070: 951a 1b3d aeb6 24bd 31a1 01bd 6834 9fbc
00000080: 160f 33bd 3a16 c9bb 4178 603b d991 b0bc
00000090: 2246 82bb 4867 cebb 9e4a d6bc 85e1 e5bc
000000a0: 397f 40bc 388c 263d 9a8e 3fbc 7d0a d2bc
000000b0: 1165 a8bc e0e5 7dbb 9ebb 2a3c 4ce6 413d
000000c0: 456d 103d b4b2 2a3b bac0 223d 4ef9 1d3d
000000d0: 333d 153d cb83 03bd 8a65 e7bc dc92 24bd
000000e0: a2ac 28bd 06f6 47bc 815b 95bd 8e6c eebd
000000f0: 97e2 80bd c30a 8dbd c9c9 b7bd 52ef 1e3d
00000100: c19a 95bc a7c4 053c 977f 8abb 8498 b63d
00000110: 978d a53d a39c 1d3a de5b 1e3c 45ed 373d
00000120: a482 4fbd 0760 c53d 05b2 5d3d 3948 bcbd
00000130: f285 46bc 49ab 543c c05e 2ebd ea60 9f3c
00000140: 777e 9f3a 9194 dabd 069d d3ba 1f91 e3bb
00000150: d372 f3bd 5465 503c ff94 303c 79f1 cdbd
00000160: 16e2 72bc 1ab9 a5bc f511 ecbd 4cf3 87bc
00000170: 638c 0cbe 7be2 f2bd fbb3 b1bd bf00 b7bc
00000180: 2f75 e3bd 06fb f5bc 6e12 40bd 230a a3bd
00000190: d24a 193d e6a0 9f3c 22d5 2bbd b855 08bc
000001a0: 8054 ccbd 1d6f 62bd b237 153d b0ac 5c3b
000001b0: 67e8 a2bb 3fac cdbc de04 bc3c 9a18 bdbc
000001c0: 0c8b 2ebd edfa 91bc 1dc1 50bb ff60 f83c
000001d0: c4f4 95bc 7c43 c13a 634b 813b b759 b5bb
000001e0: 29e6 993c cd37 303d 9457 a4bc bad7 fb3c
000001f0: d7a1 db3b cd99 823c ffd9 30be 06f3 dd3c
00000200: b16c 49bd 2c2b 0cbe 8628 0abe bbdd 47be
00000210: 8f62 0cbe 29e4 88bd 8b9a 16be 82bd c9bd
00000220: 1e73 84bd 0781 47bd 22aa b0bd 63ad 49bd
00000230: 81dd a7bd 5dcf 453c 57a8 1dbc df25 69bd
00000240: aaee 34bd 3a37 893d 6b84 593c 6252 023d
00000250: 34d6 3e3d e1a1 3fbd 01f4 7fbc ad9c 253d
00000260: 29e1 473c a4c5 b7bd 370d cdbc 869f 6ebd
00000270: 2ac1 b1bd b42c 86bd b661 0bbc c4f5 34bd
00000280: e25f 703c 580f 18bd a9fd a13c d09f 9bbd
00000290: 3c95 0cbd 33fa 063d c0a6 9d3d 1b2c 61bc
000002a0: e61f dfbc f631 913d 365a 36bd 4486 35bd
000002b0: 3377 303c 34f3 853c 9b35 e2bc bf9f c7bc
000002c0: 8779 95ba aa59 e7bc c221 86bc 368d 8c3c
000002d0: 079e 32bd 8f79 d1bb c694 2e3b 835e 93bb
000002e0: a768 15bd e01c 753c 3da5 26bc 8fc6 b03b
000002f0: 1696 aa3c 4f34 14be 3ea1 6f3d 68b9 703d
00000300: ad84 9fbd e21a c3bd f58b 4dbd 8d70 efbd
00000310: b33c a7bc 9b8b 18bd 67b9 3fbe 650e 02be
00000320: 0eb5 80bc c84d 0abe 5c79 adbd c6e0 efbd
00000330: 0cde 26be c99f d3bd 0d20 17be e199 cb3c
00000340: d718 623c 18fa 903d 835e 613c d072 fbbb
00000350: b4ab 1b3c 1508 8cbb 24a0 2a3d b3ab 2f3d
00000360: 5484 15bc cbe8 13bd 3b16 7e3b 4f78 ecbb
00000370: 3f63 b1bc 7123 18bd 794f d7bc 31e5 3f3d
00000380: 5dbb 01bd a322 1fbe 4358 d4bc a91c eabd
00000390: 35f4 28bd ed00 6f3b 7468 b9bc 4e37 35bd
000003a0: 04c5 a6bd 8616 af3c f4fd 4d39 1008 103c
000003b0: 5542 a53c 0258 33bd e1bf 88bc 2d02 92bd
000003c0: 896f f13b bd7b a33c 3e30 be3b ab77 2cbd
000003d0: ebe7 e3bc 4705 f9bb 81a7 5bbc 760b 423d
000003e0: 81c6 013d 400e 93bc 1672 173d 3ecf 1c3c
000003f0: 1acc dd3c fab6 90bd 9a69 16bc fb7f 2b3d
0.0011249041 -0.02050457 -0.041402303 -0.028951412 -0.008171642 -0.0072302516 -0.02504972 -0.02491854
0.021370362 -0.19422695 0.012662738 -0.030264135 -0.15234087 -0.050165314 -0.10136572 -0.12533367
-0.1795143 -0.18282527 -0.2051645 -0.094028406 -0.05875324 -0.10731919 -0.07484813 -0.12009751
-0.11145816 -0.08427802 -0.06637601 0.039843943 0.037867147 -0.04021328 -0.031647865 -0.019434169
-0.04371556 -0.006136683 0.0034251364 -0.02155392 -0.0039756456 -0.006298933 -0.026158627 -0.028061638
-0.011749082 0.040661067 -0.011691714 -0.025639767 -0.020556005 -0.0038741753 0.010420708 0.04733877
0.035260458 0.0026046457 0.03973458 0.038567834 0.036435317 -0.03210811 -0.02824666 -0.04017912
-0.04118026 -0.012204653 -0.072928436 -0.11641799 -0.062932186 -0.06886818 -0.08974034 0.038802452
-0.018262269 0.008164561 -0.0042266357 0.08915809 0.08083647 0.00060124154 0.0096654575 0.044904012
-0.050661698 0.096374564 0.05412485 -0.09193463 -0.012116896 0.012980291 -0.04257083 0.019455392
0.0012168427 -0.10672868 -0.0016144819 -0.00694479 -0.11887135 0.012719471 0.010777711 -0.10055823
-0.014824411 -0.020229865 -0.115268625 -0.016595505 -0.13725428 -0.11859604 -0.08676907 -0.022339223
-0.11106335 -0.030026924 -0.046892576 -0.07960918 0.03742487 0.019485902 -0.041951306 -0.008321218
-0.099770546 -0.055281747 0.03643007 0.0033672266 -0.004971552 -0.025106547 0.02295154 -0.02308302
-0.042613074 -0.017819846 -0.0031853386 0.030319689 -0.01830519 0.0014744843 0.0039457544 -0.0055343765
0.018786507 0.043021966 -0.020061292 0.030742515 0.0067026424 0.015942479 -0.17270659 0.027093422
-0.04917592 -0.13688344 -0.13492021 -0.19518177 -0.13709472 -0.06684143 -0.14707391 -0.09850599
-0.06467269 -0.048707034 -0.086262 -0.04923762 -0.081965454 0.012073365 -0.009622655 -0.056920882
-0.04417292 0.06699987 0.0132762 0.031816848 0.046591 -0.04678524 -0.01562214 0.04043262
0.012199678 -0.08973244 -0.025030715 -0.058257602 -0.08679421 -0.06551495 -0.008507183 -0.044179693
0.014671298 -0.037124008 0.019774275 -0.07598841 -0.03432201 0.032953452 0.07697821 -0.013743426
-0.02723689 0.070896074 -0.044519626 -0.0443175 0.010770607 0.01635132 -0.027613452 -0.024368165
-0.0011404016 -0.028240997 -0.016373519 0.017157178 -0.043607738 -0.0063926647 0.002663897 -0.0044973507
-0.036476757 0.014960498 -0.010171232 0.005394764 0.02082352 -0.14473079 0.058503382 0.058770567
-0.07788978 -0.09526612 -0.0501823 -0.11691389 -0.020414686 -0.037242513 -0.18723069 -0.12700804
-0.015711334 -0.13506234 -0.08470413 -0.11712794 -0.16295642 -0.10333211 -0.1475832 0.024853649
0.013799868 0.070789516 0.0137554435 -0.007673599 0.009501386 -0.0042734244 0.04165663 0.042888355
-0.009125788 -0.03611068 0.0038770575 -0.0072164903 -0.02165377 -0.037143175 -0.026283013 0.046849433
-0.031672824 -0.15540557 -0.025920993 -0.11431248 -0.04124852 0.0036469058 -0.022632815 -0.044242196
-0.081430465 0.021373045 0.00019644928 0.008790985 0.020173231 -0.043785103 -0.016693057 -0.07129321
0.0073680324 0.019956464 0.0058040908 -0.04210631 -0.027820548 -0.007599506 -0.013406635 0.04737421
0.03168345 -0.01795113 0.036974035 0.009570895 0.027074862 -0.0706615 -0.009180451 0.0418701

cnn.6.bias f4 [64]
00000000: 1672 acbd 67b1 aebb 0895 5cbd fe58 1ebe
00000010: 03c4 99bd 8eed 70bd 17eb a3bd 3bd4 5cbd
00000020: 5c5d 2dbd e0ff 2fbd 3a85 97bd 914d b3bd
00000030: 9b51 a4bd c448 87be d3fb 76bd 0f3a 8ebd
00000040: 93b0 49bc 7aa3 89bd 0497 56bd d149 03bd
00000050: 631d 0ebd 19c9 85bd 7de4 3bbd 801d 8cbd
00000060: 7d6c b0bc b389 23bd 9c70 04be f780 7cbd
00000070: b6c5 f6bd 3c3f eebd 0dcd adbd fe24 41bd
00000080: 8329 47bd 32d4 67bd bf6c b4bc 985f 6ebd
00000090: 7365 3bbd 671d 0ebd 051e aebd 0da1 dfbd
000000a0: 4505 adbd 61f1 49bd 7a99 9abd b1c3 08be
000000b0: 480f d3bc af67 4abd c6b1 9abd e223 cebd
000000c0: 362b 85bd 76f2 9ebd 3bf9 9ebd c2f7 b2bd
000000d0: e2d8 80bd 6da0 5cbd 72af 4abd 6240 56bd
000000e0: 99c5 27bd 65a8 6fbd c67e 21bc cb12 88bd
000000f0: 511a 7dbd 85da ccbd 9b4d 23bd da70 8ebd
-0.08420198 -0.0053312066 -0.053853065 -0.15463635 -0.075080894 -0.0588203 -0.08003824 -0.053913336
-0.042325363 -0.04296863 -0.07398458 -0.08755029 -0.080233775 -0.26422703 -0.060298752 -0.069446675
-0.012310165 -0.06720634 -0.052390113 -0.03205282 -0.034695994 -0.06532497 -0.0458722 -0.06841564
-0.021536106 -0.039926242 -0.12933582 -0.061646428 -0.12049429 -0.11633155 -0.08486376 -0.04715442
-0.048623573 -0.05659885 -0.02202451 -0.058196634 -0.045751046 -0.03469601 -0.085018195 -0.1091939
-0.08448271 -0.049302462 -0.075488046 -0.133559 -0.025764123 -0.049415287 -0.07553439 -0.10065438
-0.065023825 -0.077610895 -0.07762381 -0.08738662 -0.06291367 -0.05386393 -0.049483724 -0.052307494
-0.04095993 -0.058510203 -0.009856885 -0.066442095 -0.061792675 -0.10002617 -0.039868932 -0.069551185

cnn.9.weight f4 [64, 64, 3, 3]
00000000: 7516 9a3b 28d2 eabb 76bd 263c 3f52 193c
00000010: 24c3 01bd d338 8fbc 10a7 33bc 76e0 d1bc
00000020: 9211 a13a 320f c7bc 8191 3b3b 8897 4abb
00000030: 2380 8fbc a1c1 45bd 463b 0cbc b728 76bc
00000040: b96b b239 803b 97ba 486a 5c3c 69fe 02bb
00000050: ac03 1abc e501 4f3c f56f 00bd 7ea3 18bd
00000060: cc54 bfbb 36f7 dc3a a62b f3bb 2d93 a6bc
00000070: 95fe df3c 35f0 8abc d559 113c 6403 e0bc
00000080: 34a1 a5bc 2694 d8bc 3bcd 8c3b 8ff4 52bd
00000090: 30a2 1b3c 1948 14bd 879c c039 efb7 a3bc
000000a0: 11f6 0fbd 469e e13c eb0f 593c 0f7a c0bc
000000b0: fe76 7d3c 0405 6abb 99d6 dcbc 417d 0ebd
000000c0: 4af6 b0bb 9f0a 0b3d 1495 d83c 9cfa 503c
000000d0: a17d a03c f4ae 2abd 9c47 d03c 91d6 f83c
000000e0: 0f73 f03c e957 25bd e9bc 37bd 2c2e 59bd
000000f0: 33f9 1a3c d7aa c63c 678d eb3c f247 10bd
00000100: caab fcbb 3c4a b93c ac50 04bd 8895 f7bc
00000110: a414 853c a519 6ebc 21d3 3ebd d2da 55bd
00000120: 3085 b23c f418 45bc 0f9c ccbc 9e04 4bbb
00000130: 8dcc 8b3c 3be5 82bc 25ce a9bc 3246 8f3c
00000140: b63d 8cbb 7681 653c 2885 883c cadd 693a
00000150: f54a 90bb 1a59 003d eae8 153d 21ce 14bd
00000160: d6f9 01bc 1551 d9bc 5c91 0c3d 391d 063c
00000170: 92c9 aa3c 63fd 20bd 978b cd3c 9f15 d33c
00000180: 5f55 ff3c 89a1 0ebd fe0a f93b da85 c0bb
00000190: eb0b c1bc c11e c9bb 144a c73c aa78 bc3c
000001a0: d955 1fbd 8a34 bc3c f269 36bd 9604 20bd
000001b0: 8a1e 27bd 3026 2cbc 8bc6 8c3b b600 1abd
000001c0: 5e8a d73c 5ec8 f3bc eb4b 2abb ae4a 093d
000001d0: 1680 493c 78ad 38bd 3648 283c 5723 f7bc
000001e0: 9e78 dbbc 5fbf 87bd 78f8 f3bd b43f f0bc
000001f0: 24fb 8fbd 24c1 c0bd a69b 8f3c ab34 0bbd
00000200: 6e0c 983c fc83 753c d755 0cbc 7b18 a3bc
00000210: f67b 6f3b 4a0f 843c e816 fa3a eb78 b43b
00000220: f65b 3abc 9672 1d3c a21b 0dbd e82e a93c
00000230: 4908 e0bc 3667 06bd 86c4 cfbc c847 983c
00000240: ee21 1bbd 3e58 243c ba43 33bd 47ce 843c
00000250: 507c cfbd d3e8 89bd 761d cebc c370 a7bd
00000260: ff8b aebd 48e0 aa3c 5ecb f7bc 0a2b 223d
00000270: 56fb 17bd 3b16 be3c 7819 a13c 2ba8 a7ba
00000280: d6c9 853b 8017 3a3c c3ab df3c 5c9e 01bd
00000290: 8e60 e83c 6260 073d 80ac b1bb 16e2 20bc
000002a0: 3ca3 03bd bb76 e7bc 6e82 d1bc 8209 b73c
000002b0: 9466 d3bc 1d91 e9bc fbfd 62bd f873 8bbd
000002c0: d8c4 d5bc 53f8 a8bc 2140 cdbc 0be8 7abd
000002d0: 982b 323c ad7a 0a3d 9d18 913b 6699 28bd
000002e0: c239 f2bb 0fd1 903c a9bd b23c a86b 44bc
000002f0: 2898 05bd 0d71 aa3b a4ba 30bd 404b 14bd
00000300: f749 04bd 8fd1 b23c 24d3 803c 83ec ce3c
00000310: 0ec1 fdbc 6bba 0b3c fefb 2cbd 6a02 9cbc
00000320: e538 eabc 8351 09bd 272e 86bd 2a26 d6bc
00000330: 8016 3d3c a01a 353d ebe0 94bc 772f 86bc
00000340: 0a94 b63a 6d36 143a d804 afbc 4e3a 46bb
00000350: 4efd 83bc 5d0c 34bd fe4d e9bc 01bc 253c
00000360: a79d 383c ba22 2c3c 2d32 67bb dfd4 1cbb
00000370: b341 64bd 7f56 cbbc d2d1 98bc db93 c5bb
00000380: b659 0fbe 467f 9e3c 6826 b6bc de8d f43c
00000390: b8e4 073d 2be7 ddbb 2095 babb 96bc cdbc
000003a0: f002 3b3c 8080 643b 416f b6b9 6198 cabc
000003b0: dcca 7cbd f1c3 58bd bd65 01be 7abd e1bd
000003c0: 137d 43bd 6c02 4fbc d114 e0bd 8c36 cb3c
000003d0: 3f2f 6abc b01d b1bc 1d28 45bb e501 043a
000003e0: 2a2a 0ebd cf29 3e3d b143 a23c 2fe6 36bd
000003f0: e5fc bc3c 8570 093b 8b32 a8bc fa1d e3bb
0.004702384 -0.007166166 0.010177007 0.009357988 -0.03168024 -0.01748315 -0.010965124 -0.025619727
0.0012288562 -0.024299238 0.0028620663 -0.0030913074 -0.017517155 -0.048280362 -0.008559054 -0.015024356
0.00034031065 -0.0011538118 0.013453074 -0.0019988066 -0.0094002895 0.012634729 -0.03135677 -0.037265293
-0.005838966 0.0016858343 -0.007420975 -0.02033385 0.027343074 -0.016960243 0.008871515 -0.027345367
-0.02021847 -0.02643783 0.0042969263 -0.05150276 0.009499118 -0.03620157 0.00036737716 -0.019985167
-0.035146777 0.027541291 0.013248424 -0.023495702 0.0154702645 -0.0035708556 -0.026957797 -0.03478742
-0.0054004537 0.033945676 0.026438273 0.012755062 0.019591155 -0.041670755 0.025424771 0.03037575
0.02935174 -0.04036704 -0.044857893 -0.05302255 0.009458828 0.024251385 0.02875395 -0.035224862
-0.0077109085 0.022618406 -0.032303497 -0.03022267 0.016245194 -0.014532481 -0.046588067 -0.052210636
0.021792024 -0.012029875 -0.024976758 -0.0030978094 0.01706531 -0.015978446 -0.02072818 0.017489526
-0.0042798175 0.014007917 0.016665056 0.0008921294 -0.004403467 0.031334974 0.036599077 -0.036329392
-0.007933101 -0.02652792 0.034318313 0.008185678 0.02084807 -0.03930415 0.025090976 0.025767146
0.031168638 -0.03482202 0.0076001873 -0.0058753313 -0.023565253 -0.0061376994 0.024327315 0.023006756
-0.03890023 0.022974271 -0.04453463 -0.039066873 -0.04080061 -0.0105071515 0.004296129 -0.037598334
0.026311096 -0.029758628 -0.0025985192 0.033518486 0.0122986045 -0.045087308 0.010271123 -0.030168219
-0.026790913 -0.06628298 -0.11912626 -0.029327251 -0.07030323 -0.09411839 0.017530274 -0.033985775
0.018560614 0.014985081 -0.008565388 -0.019909134 0.0036542392 0.016120572 0.0019080313 0.0055075786
-0.011374464 0.009609839 -0.03445018 0.02065225 -0.0273477 -0.032813273 -0.025362264 0.018588915
-0.037874155 0.010030804 -0.04376576 0.016211642 -0.101311326 -0.06733861 -0.025160532 -0.081758045
-0.08522796 0.020858899 -0.03024834 0.039591826 -0.037104927 0.02320396 0.019665465 -0.0012791207
0.0040828986 0.011358142 0.027303582 -0.031645164 0.028366353 0.033050902 -0.005422175 -0.009819528
-0.032138094 -0.028254857 -0.025574889 0.0223434 -0.025805749 -0.028511578 -0.055417996 -0.06809229
-0.026094839 -0.020626223 -0.025054993 -0.06125645 0.010874651 0.0338084 0.004427983 -0.041161917
-0.007392139 0.017677812 0.021818953 -0.011988558 -0.03261581 0.005201465 -0.043146744 -0.036204576
-0.0322971 0.021828441 0.01572568 0.025259262 -0.030975845 0.008528332 -0.042232506 -0.01904412
-0.028591583 -0.033525 -0.065517716 -0.026141245 0.011541009 0.044214845 -0.018173655 -0.016380055
0.0013929617 0.0005653862 -0.021364614 -0.0030247155 -0.016111996 -0.043957103 -0.028479572 0.010115624
0.011268056 0.010506326 -0.003527771 -0.0023930592 -0.05572672 -0.024821518 -0.018654738 -0.0060295886
-0.13999066 0.019347798 -0.02223511 0.029852804 0.033177108 -0.006771942 -0.0056940466 -0.025114339
0.011414275 0.003486663 -0.00034796636 -0.024730863 -0.0617169 -0.05292124 -0.12636466 -0.11022468
-0.047726702 -0.012634855 -0.109414704 0.024806283 -0.014293491 -0.021620601 -0.0030083724 0.00050356827
-0.03470818 0.04642659 0.019807668 -0.044653114 0.023069808 0.0020971608 -0.020531913 -0.0069310637

cnn.9.bias f4 [64]
00000000: 4db2 28bd a60b b8bd fd9b 9cbd c40c 9bbc
00000010: 17ec 3bbd 458d 3bbd a87e bcbb a0b2 95bd
00000020: a864 07bd 5633 23bd ec61 18bd 3166 45bd
00000030: f307 7fbd d8a2 85bd 3520 23bd 7909 9bbd
00000040: abdc 96bd 81ec 82bd fd32 01be 2f7b 02bd
00000050: d409 d7bb 5d89 d8bc 2f81 26bd ea95 79bd
00000060: a73e 6ebd 7122 82bd ae87 64bd cdf1 36bd
00000070: 2da0 89bd 7948 4ebd b132 4cbc bf5d 48bd
00000080: 8432 65bd da4b e8bc 3537 67bd d13b 173e
00000090: ca8e 47bd 1f33 04bd d127 48bd 9216 4ebd
000000a0: 6456 c1bd bee4 b6bd f2bb 7fbd d826 b1bc
000000b0: 3aac 8abd c1c1 44bc 0c53 c9bd a69e 24bd
000000c0: 9349 28bd 4d43 3dbd de57 53bd 6baf 84bc
000000d0: 2795 43bd bbb1 52bd 524b b73d 7d5a 40bd
000000e0: e766 33bd f57f 53bd 9450 1f3e 3a5e 32bd
000000f0: 1e2f 17bd 0052 50bd a189 1abd 2375 cfbc
-0.041185666 -0.08986597 -0.0764694 -0.018926986 -0.04587945 -0.045789022 -0.0057524033 -0.07309461
-0.033054978 -0.03984388 -0.03720276 -0.04819316 -0.06226344 -0.065252006 -0.039825637 -0.07570166
-0.07366308 -0.06392766 -0.12617107 -0.03185576 -0.006562451 -0.026432687 -0.040650543 -0.060933985
-0.05816522 -0.063542254 -0.055793457 -0.044664193 -0.06720004 -0.050362084 -0.012463258 -0.04891753
-0.05595638 -0.028356481 -0.056449134 0.14768912 -0.04872016 -0.032275315 -0.048866097 -0.050314493
-0.09440306 -0.08930348 -0.062435098 -0.021624967 -0.06771131 -0.012009085 -0.09830293 -0.04019036
-0.04108579 -0.04620676 -0.05159747 -0.016196927 -0.047749665 -0.05143903 0.08949913 -0.046961296
-0.043799307 -0.0516357 0.15558082 -0.043546893 -0.03691017 -0.05085945 -0.03772891 -0.02532441
