Assets/ONNX/cnn.onnx (onnx, 374396 bytes, 8 tensors)

cnn.0.weight f4 [32, 3, 3, 3]
00000000: 9782 b63c adaf 0bbe 33da bcbc ab88 57be
00000010: b6b4 173d 7734 0c3e dd70 a93c dee7 adbd
00000020: 0978 133e be28 483c a041 14bd 446b 11be
00000030: 5451 bcbd dbb1 023e 20cf 1bbe 93f0 70bd
00000040: 8778 29be 1724 43be 550c 0cbd 9df3 cdbd
00000050: 0f7f ff3c 4df7 203d de15 093d f26b 33be
00000060: 3eec 08bd eaf7 fd3d 1496 17bd 0968 4fbe
00000070: 1d9f e93c bef5 1dbe 4a9b 7bbe 3bbd 213d
00000080: 745f 86bd 30b8 903d bdf2 29be cbf4 4ebe
00000090: 969f 3d3d 4598 c6bd a2c4 8abc c611 2bbe
000000a0: 7f00 8abe d3ed 8f3d a068 d63d 3e13 adbc
000000b0: 1817 55bd 9ee7 58bc f79c 54be e491 64be
000000c0: 9959 f43d f3fb 06bd 993b dcbd d31d 5abd
000000d0: 8673 49be 1ada 94be 05a7 f6bd 5e6d 7e3c
000000e0: 97ad 0a3d a888 313e 3406 82bd d214 013e
000000f0: f36b e3bd 3dd7 0e3e ca21 e2bd a6fc febd
00000100: 2efe 933c f990 36be c589 70be 672a 1fbe
00000110: 9340 4dbe 3f22 7abd 7a74 e53d 8d8b 043e
00000120: caa2 c83c cad0 d439 adff 08be cd82 3a3c
00000130: ab3d ccbd 527c f5bd 9e72 42bd 0dc8 41be
00000140: 774c 61be 81c7 7abd 4356 17bd 793b 963d
00000150: 4407 71bd 6076 ecbd dc4e 46bd ffb7 cb3d
00000160: 2996 723d f489 dcbd 4e82 d6bc be28 3fbe
00000170: 7821 533d d487 e1bd dcdf 53be 81a0 dd3c
00000180: abe9 91bd 24bd e9bd b020 a5bd 7e43 383c
00000190: f8d6 01be d4a4 08be ad62 3bbe 7231 71be
000001a0: d40d 82be 646f 5bbd d9bf 70be c06e 09bb
000001b0: c017 9bbe 8b2a cdbd 01a6 9dbe 5163 37be
000001c0: fc56 b5be 00a1 febe 4b8c 84be b5f2 c1bd
000001d0: 9d23 88be c6ab 8bbe a6c5 24be 9563 143d
000001e0: e977 7abe 3e40 05bf 1c41 9bbd fdaf 17be
000001f0: 69fc a4be 4fce 91be b6c4 acbd d9ee 40be
00000200: 08cd e5bc 1be1 593e eb6f b1be 05eb 483e
00000210: fa90 e9be 80db 2cbf 9e08 853d 16eb 713d
00000220: 603c bfbb 7a60 143d ec1f 3fbe 222c 16be
00000230: 221d 18bd 4395 5ebe 8704 d0bd f8f6 95bd
00000240: ecbc a8be a6dd e2bc a7b1 72be afc3 5d3d
00000250: 29ef 48be c324 8b3d 0836 88be a6da 293c
00000260: 64e7 13be a0b8 bebc 7607 37bd 15fa 60bc
00000270: b6aa 7cbd 616c d6bb e170 043e c352 0cbe
00000280: 1d4a d4bd bdea 483d b876 28be 6a57 a2bc
00000290: 859d 95be b16f 5bbd fd8e 7dbe 4094 32be
000002a0: d17f 2c3d eec8 f0bd 28c4 20be fdd2 313c
000002b0: 3ef2 47be 603a 22bc ad90 dd3d 33d9 70bd
000002c0: 404a 92be 52bf d3bd 0296 a93d 3470 76be
000002d0: dad3 b4be 54d2 abbe 10d5 87be 5e18 f1bd
000002e0: d59f 82bd b8bd 22bc 9495 13be febb 78bc
000002f0: d779 15bc d038 333d d133 46be 3e70 cdbd
00000300: b489 49be b88f 0cbe c651 1ebe a1bf 5bbc
00000310: 1615 b9bd 362f b13d 394f b2bc f246 2bbe
00000320: dbd4 ddbc 0185 93be 31d6 29be 6ff0 823d
00000330: 5f8a 003e f9fe 8d3c 42a1 c93b 771a 7ebc
00000340: 5c08 41be e881 41bd 4491 83be ec54 adbd
00000350: 3efd d93c f402 66bd ae45 67be 953e 75bd
00000360: d88e 503c 9829 8dbd 12c5 5dbe cc50 8dbd
00000370: 13fe a73d 15d8 4c3d e16c 043e 85d1 1abe
00000380: 7af7 173e ff47 22bd c79f 1c3e cfb4 adbd
00000390: 8eff 123d c0f9 2ebd 5f6f a73c dd3b 38be
000003a0: 0192 57be 04ba 22be ab01 e9bd dc61 103d
000003b0: c0a8 b43d 65a8 ecbd 1046 4dbd 35c1 a0bc
000003c0: e14d ee3c 3b9a a83d 5ca2 043d ab93 be3d
000003d0: 1380 103e d99e f23d 1e6f 34be b037 e53c
000003e0: c81a 03bd 27f6 133e dbf8 d9bd afe8 8ebc
000003f0: f17d 2d3d 7f74 2ebe cc8d 19be 0930 76be
0.022279067 -0.13641234 -0.023053264 -0.21048228 0.037037574 0.13691889 0.0206837 -0.08491491
0.14401259 0.012216745 -0.036195397 -0.14201075 -0.091951996 0.12763159 -0.1521573 -0.05882318
-0.16549884 -0.19056736 -0.03419145 -0.10056231 0.031188516 0.039298344 0.03346812 -0.17521647
-0.033428423 0.124008015 -0.03700836 -0.2025453 0.028518254 -0.15425774 -0.24570957 0.039487105
-0.06561175 0.07066381 -0.16596504 -0.20210569 0.04629477 -0.09697012 -0.016939465 -0.16705999
-0.26953503 0.07027783 0.104691744 -0.02112734 -0.052023977 -0.013238816 -0.20763002 -0.22321278
0.11931152 -0.03295512 -0.10753555 -0.0532511 -0.19672975 -0.29072648 -0.12043575 0.015529005
0.033856954 0.17337286 -0.063488394 0.12605599 -0.11104574 0.13949294 -0.11041601 -0.124505326
0.018065538 -0.1782874 -0.23490055 -0.15543519 -0.20044164 -0.061067816 0.11203857 0.1294386
0.024491686 0.0004059135 -0.13378783 0.011383724 -0.099727 -0.11986603 -0.04747259 -0.1892397
-0.22001825 -0.061225418 -0.0369475 0.07335562 -0.05884482 -0.11546016 -0.04841505 0.09947204
0.059225235 -0.107685 -0.026185181 -0.18667886 0.05154559 -0.11012235 -0.20690864 0.027054073
-0.07124647 -0.11413029 -0.08062875 0.01124656 -0.1267966 -0.13344127 -0.1829936 -0.23554018
-0.25401175 -0.053573027 -0.23510684 -0.0020970553 -0.30291557 -0.1001788 -0.30790713 -0.1790898
-0.35417926 -0.49732208 -0.25888285 -0.09470121 -0.2658967 -0.2727949 -0.16091022 0.03622778
-0.24459805 -0.5205115 -0.07580778 -0.14813228 -0.32223824 -0.28477713 -0.08435957 -0.18841113
-0.028051868 0.21277277 -0.346557 0.19620903 -0.4561842 -0.6752243 0.06495784 0.059062086
-0.0058360547 0.03622482 -0.18664521 -0.14665273 -0.03713716 -0.21736626 -0.101571135 -0.07322496
-0.32956636 -0.02769358 -0.23700581 0.054141697 -0.19622482 0.06794121 -0.26603723 0.010367071
-0.14443737 -0.023281395 -0.04468485 -0.013731499 -0.06168624 -0.0065436815 0.12933685 -0.13703446
-0.103656985 0.04905199 -0.16451538 -0.019817073 -0.2922174 -0.053573314 -0.24761577 -0.17439365
0.042114083 -0.11757074 -0.15699828 0.010853526 -0.19526002 -0.009901613 0.1081861 -0.058800887
-0.28572273 -0.10339226 0.08280565 -0.2406624 -0.3531788 -0.33558905 -0.2652974 -0.11772226
-0.06378142 -0.009932928 -0.14412528 -0.01518154 -0.009123287 0.043755352 -0.19355704 -0.10031174
-0.19681436 -0.137267 -0.15460882 -0.013412387 -0.09037225 0.08651583 -0.021766292 -0.16726282
-0.027079036 -0.2881241 -0.16585614 0.06393515 0.12552784 0.017333494 0.0061532566 -0.015509239
-0.18850845 -0.04724303 -0.25696766 -0.08463463 0.026610013 -0.05615516 -0.22585174 -0.059874136
0.012729369 -0.06892699 -0.21657208 -0.069001764 0.08202758 0.05001076 0.12932159 -0.15118988
0.14840499 -0.039619442 0.15295325 -0.08481752 0.035888247 -0.04271865 0.020438848 -0.17991586
-0.2105179 -0.15891272 -0.11377271 0.035249576 0.08821249 -0.11555556 -0.050115645 -0.019623378
0.02908987 0.08232542 0.0323814 0.09305509 0.14111356 0.11846704 -0.17620513 0.027980655
-0.032007962 0.14449368 -0.106431685 -0.017444937 0.042356435 -0.17036627 -0.14995497 -0.24041761

cnn.0.bias f4 [32]
00000000: 345c 20be 0f6b dfbc ff2d 6abe 7cbb b43c
00000010: f062 023c 673d 20bd 28b1 153d cb53 f2bc
00000020: dbb9 5cbe 6a95 45be f57d cebc 275d 91bd
00000030: 64f6 b73c 8695 08bd 10b2 fbba 8f83 213d
00000040: 435a 20bc 6eef 5ebe 215f a9bd 96fe 503a
00000050: 51c2 6fbe 64c1 853d 1c19 98bc bed6 8bbc
00000060: a87d f9bc 83dd d9bd a77d 923d a2f9 c33d
00000070: 1a59 9bbd c22d 0abd 274d 6cbd aaf5 83be
-0.15660173 -0.02727273 -0.22869109 0.022062056 0.007958159 -0.039121058 0.036545902 -0.029580971
-0.21555273 -0.19295278 -0.025206545 -0.070978455 0.022456355 -0.03334572 -0.0019202847 0.039432105
-0.009787145 -0.21771023 -0.082700975 0.00079725066 -0.2341397 0.06531027 -0.01856666 -0.01707017
-0.030455425 -0.10637953 0.071528725 0.09569098 -0.07585354 -0.033735044 -0.057690766 -0.25773364

cnn.3.weight f4 [64, 32, 3, 3]
00000000: 91f5 b7bc 50d7 42bc 6b94 18bd 97cb 5cbd
00000010: 602d 80bc 7e09 f73c bd46 aebc f41f ff3c
00000020: 08f8 a03c 7341 653a a374 6cbd 33e9 a0bd
00000030: 7278 b6bd 17d0 b7bc 6e2e 8ebd 1bc7 46bd
00000040: a6e7 cdbd 847b afba d1b4 a93b 0e6a 8bbd
00000050: ad3b 7cbd 1816 0dbb 911b 82bd a0de 013a
00000060: 3976 a0bc 128b 35bd 6807 19bd 8c27 f5bc
00000070: 2d97 29bb bdb1 223d 1547 a7bc d357 54bc
00000080: 65bb acbc 2aba d33c 7384 7ebc d6aa 45bd
00000090: 9d4a e9bc 6e79 1b3b e528 4f3b 0f3f 78bd
000000a0: 74dd 8f3c 5597 07bd 377d 273d c7a3 16bb
000000b0: 2f77 253c 2065 47bd e542 06b9 df3e efbc
000000c0: 5fe6 52bd 01e7 84bd d594 8dbb cdc5 553c
000000d0: 5e40 80bd cdca 97bd ad20 dd3c 9972 883b
000000e0: 8435 72bc f037 60bd a41f bdbc c8e9 6d3c
000000f0: d3f3 80bd 7920 b23b 7993 b1bb 656e 6fbd
00000100: 8d92 153c c640 f93b 20ec 0bbd b864 603c
00000110: b3c3 183d b95a 0c3d d070 823c 07bd 79bd
00000120: 83d4 3b3d 9fda 34bd f525 17bd 513a 8d3c
00000130: 7c69 fdbc 8309 30bd fe53 71bd de0e 55bd
00000140: 4862 c63c 9e9f 18bc 156d 60bd 56df 1abd
00000150: d41a ef3c 2fb4 5b3c e8b0 a8bb 128c 56bb
00000160: 2c3f 65bd 41a5 4bbd 684f 14bd efe1 84bd
00000170: c0ee 8b3c 48c0 19bd 5539 99bd 0f05 f6bc
00000180: e464 5abc 6570 07bd 1302 22bd c2f5 623c
00000190: 1f65 32bd c948 05bd 9193 c53c cedb 73bd
000001a0: 0395 a5bc 9fd1 30bd 18f5 e73c ebf5 1abd
000001b0: 843c 74bc cee5 04bd aca0 493d 9cf8 223d
000001c0: e700 e4bc 0292 18bd 473c 70bc 8ce0 24bd
000001d0: ff16 5ebc c589 24bd 60a0 e33c e205 3fbd
000001e0: 361d 68bd afaa bebc cdf9 353d 9a9d 6f3c
000001f0: f28e 5fbd ba5f b6bb 127d 2cbd ce8d cdbd
00000200: e836 7ebd 93c4 6fbd 9f98 b2bd 5dc8 99bd
00000210: 5272 b7bd a2e8 a8bc 129d 6bbd 008c 34ba
00000220: 5a08 eb3c fbb9 a7bc 7216 dfbc 4282 1ebd
00000230: dadb 98bc e764 913d 52e4 223b fccb 173d
00000240: 402d 483d 930d c1bc 3f96 8b3c d132 5cbc
00000250: 59fd 8b3c 3c59 51bd 1280 8dbc 0bb9 95bd
00000260: 745e 16bc 9309 18bd bd7d 66bd 1980 41bd
00000270: 1280 9cbd df81 25bd 4c9f 003c 0716 59bd
00000280: 910e 8fbd 716b b43b 21de 7e3b 4985 2ebd
00000290: d2de 33bd fc98 77bd 01dd 803c 66e1 96bc
000002a0: edfe 83bd 8cbb 813c 71ba 063d f181 64bd
000002b0: b402 9d39 acc3 b53c f7c9 29bc e69d 2abc
000002c0: de86 92bd 1cb9 7cbd 44e8 88bd 5af7 0abd
000002d0: ed45 babc 0405 88bd 6163 41bd 7cce 8f3c
000002e0: c820 1abc 6879 733c 3a4c 043d defa 5abc
000002f0: 40f4 33bd 17d0 83bd e03d 24bc 371f 75bd
00000300: dddf 303d 4a83 a3bd 017c 9bbd 373f 533d
00000310: f9ea febc b4ab 84bc d1f7 65bd 8229 3ebd
00000320: 70ca 14bd 83ed f93c 4567 90bc 9c68 53bc
00000330: 9859 92bd b224 e03c cbc0 a6bd 7fd4 42bd
00000340: 8fe2 74bd 3298 4dbd bc44 00bd eb17 e2bc
00000350: 0c13 50ba f499 53bc 3181 663c c02f 7dbd
00000360: ab96 083b 8f31 c43b db3a d33c 2514 543d
00000370: a2df 023d c33e 353d bdf3 46bd e64c 4dbd
00000380: 3912 e6bc 8bbb e5bb 1c6a bcb8 23b1 fdbc
00000390: e67c cbbc ae03 3bbd 26ee ae3c 54ed 78bc
000003a0: a10c bdbb 370a ccbb ecce 4fbb 391b b7bd
000003b0: 04b4 edbc d448 27bd 1c95 873c ff04 cbbc
000003c0: 0475 a3bd abf3 26bd 97f4 ba3c 5e67 90bc
000003d0: 0ad9 04be 2481 36bd a278 cebc e1aa 92bd
000003e0: 16ec 62bd 2393 c4bd ff9a 40bd 4782 d6bc
000003f0: 33a9 2b3d 6a05 4dbc 7426 52bc 2b76 24bc
-0.022455962 -0.011892155 -0.037250917 -0.053905096 -0.015646636 0.030155893 -0.021273965 0.031143166
0.01964952 0.00087454094 -0.05772842 -0.07856979 -0.08909692 -0.022438092 -0.069424495 -0.048529726
-0.10053949 -0.0013388251 0.0051790257 -0.06807338 -0.06158035 -0.0021528061 -0.06352914 0.0004954133
-0.019587623 -0.04432208 -0.03736058 -0.029926084 -0.0025877461 0.039720286 -0.020419637 -0.012960392
-0.02108545 0.025845606 -0.015534508 -0.048258625 -0.028477961 0.00237235 0.0031610068 -0.060607012
0.017561652 -0.033103306 0.0408909 -0.0022985802 0.010099216 -0.048680425 -0.00012804156 -0.029204784
-0.05148923 -0.06489373 -0.0043207207 0.013047648 -0.06262277 -0.07411728 0.02699312 0.0041640517
-0.014783267 -0.054740846 -0.023086376 0.01452107 -0.06296506 0.005436 -0.0054191914 -0.05845489
0.009129179 0.0076065985 -0.034160733 0.013695888 0.03729601 0.034266207 0.015922934 -0.060971286
0.045856964 -0.044153806 -0.036901433 0.017239721 -0.030934088 -0.04297782 -0.05891799 -0.05201613
0.024216786 -0.009315399 -0.05479153 -0.037810646 0.029187597 0.013409658 -0.005148042 -0.0032737297
-0.05596845 -0.049718145 -0.03620854 -0.06488406 0.017081618 -0.03753689 -0.07481638 -0.030031709
-0.013329718 -0.033066172 -0.03955276 0.013852539 -0.043553468 -0.032540116 0.024118217 -0.059535794
-0.020212656 -0.04316866 0.028315112 -0.037832182 -0.014907006 -0.03244572 0.049225494 0.039787874
-0.027832462 -0.03724862 -0.014662809 -0.040253207 -0.013555287 -0.04017045 0.027786434 -0.04663647
-0.056668483 -0.023274748 0.04442768 0.0146249775 -0.054579683 -0.0055656107 -0.042111464 -0.10036813
-0.06206408 -0.058537077 -0.087205164 -0.075089194 -0.08957352 -0.02061874 -0.05752284 -0.00068873167
0.028690506 -0.020474425 -0.027232382 -0.038698442 -0.01865952 0.07099324 0.0024855328 0.03705977
0.04887128 -0.023566043 0.017039416 -0.01343985 0.017088579 -0.05111049 -0.017272983 -0.07310685
-0.009177793 -0.037118506 -0.056272257 -0.047241304 -0.07641615 -0.040407058 0.007850479 -0.052999523
-0.069852 0.005505972 0.0038889723 -0.04260758 -0.04391367 -0.06044863 0.015730383 -0.018418025
-0.064451076 0.0158365 0.032892648 -0.055787984 0.00029947388 0.02218803 -0.010363094 -0.0104136225
-0.0715463 -0.06169997 -0.06684926 -0.0339273 -0.022738421 -0.06641582 -0.047213916 0.017554514
-0.00940723 0.0148604885 0.032299258 -0.013365475 -0.043934107 -0.06436174 -0.010024518 -0.059844222
0.043182243 -0.07984026 -0.07592011 0.05157396 -0.031117903 -0.016195156 -0.05614454 -0.046426304
-0.036325872 0.030508762 -0.017627368 -0.012903359 -0.07145995 0.027361248 -0.08142241 -0.047565933
-0.059786376 -0.050193973 -0.03131555 -0.027599296 -0.00079374085 -0.012915123 0.014068888 -0.061813116
0.0020841758 0.005987353 0.0257849 0.051777024 0.031951554 0.044249307 -0.04857229 -0.050122164
-0.028084861 -0.0070108823 -8.984303e-05 -0.030968254 -0.02483983 -0.045657806 0.021353792 -0.015193302
-0.0057693277 -0.0062268036 -0.0031709028 -0.08940739 -0.029016502 -0.04084094 0.016550593 -0.024782656
-0.07981303 -0.040759724 0.022821708 -0.017627414 -0.12973419 -0.04455675 -0.025204007 -0.07161499
-0.05540093 -0.095983766 -0.047022816 -0.026185168 0.041909408 -0.012513498 -0.012826551 -0.010037939

cnn.3.bias f4 [64]
00000000: a008 0dbe 912f 51be 3cd8 30be 63de 47be
00000010: 3597 05be c02e d2bd cea8 e1bd ee7b adbd
00000020: 38aa aebd 2703 e9bd 863e 02be da7d eabd
00000030: f24a bbbd a1b8 96bd b43f afbe 9852 ccbd
00000040: f0c9 d7bd 7e8a 09be 02ca e3bd 4d33 0bbe
00000050: 7d00 bcbd 6f16 d4bd 9791 bcbd 3943 0abe
00000060: ebb6 6cbd 0bae b6bd c89a 29be e154 d9bc
00000070: d818 a8bd 4162 08be 4f1e bdbd 1b91 0fbe
00000080: 9d91 b1bd 7689 f0bd 35d9 b8bd f35e e1bd
00000090: 5f0a 0dbe 7e07 e4bd f255 81be f8d1 c3bd
000000a0: 660f e9bd 291b e7bd b1fa c8bd 46ee 48be
000000b0: 30fc f0bd 59ae 03bd 402e afbd 1457 9cbd
000000c0: aa23 e7bd 239e debd 61aa 84be ee18 efbd
000000d0: 87f4 c8bd 6483 55bc 7c2a eabd cc38 aebd
000000e0: 6565 acbd ec7d e7bd 927a 89bd 29c2 1dbe
000000f0: b698 c7bd 47da b2bd ceeb d5bd 39ad d7bd
-0.13772821 -0.20428301 -0.17269987 -0.19518428 -0.13045962 -0.10262823 -0.11018525 -0.08470903
-0.085285604 -0.113775544 -0.12719163 -0.114497855 -0.09145154 -0.07359434 -0.3422829 -0.09976691
-0.105365634 -0.13431737 -0.11122514 -0.13593788 -0.09179781 -0.10355841 -0.092074566 -0.13502206
-0.05779163 -0.08919915 -0.1656295 -0.026529731 -0.082078636 -0.13318731 -0.092342965 -0.14020197
-0.08670352 -0.117449686 -0.09025804 -0.11004438 -0.13773488 -0.111342415 -0.25260884 -0.09561533
-0.1137989 -0.11284477 -0.098134406 -0.19622144 -0.11766851 -0.032148693 -0.08553743 -0.07633796
-0.11286099 -0.10870006 -0.2591124 -0.11674677 -0.09812265 -0.013031814 -0.114338845 -0.08506927
-0.08417777 -0.113033146 -0.067128316 -0.15406097 -0.09745924 -0.08733039 -0.10445367 -0.105310865

cnn.6.weight f4 [64, 64, 3, 3]
00000000: ae1b 803c 9090 893c 8b61 863c 609a 77bc
00000010: 80ac 213b d314 143c 5ab0 143d 2460 18bd
00000020: 88cf dbbc 6e1d bc3b de7d 1cbd 20a6 53bc
00000030: 20a7 c63b 200f 38bd 2b6d 583a 48a5 803c
00000040: 469a 14bc 650f a53c 7c35 f4bc 8a70 d63c
00000050: ec53 66bc 34aa 58bc c151 cf3c d485 85bc
00000060: eb5e 0bbc 107d c33c e45c 2abd 736f 453d
00000070: 70e3 b6bb e5ca 133c 7580 e5bc 0ba1 493c
00000080: cbef e83c 71a6 7f3b 9bc2 6c3c 45ed 9abd
00000090: 46fa ecbc 7eca 5e3b a67a 0fbd 7fdd e23c
000000a0: 317b 7dbc bc70 a53c 12a5 87bb 7c2a 46bd
000000b0: 8242 9fbc 8bc8 2fbc f40d debc 9f71 093d
000000c0: e092 743b f6b5 0dbd 4439 f1bc c777 393d
000000d0: 1b1b 8b3b 1453 f2bc f077 483c abf0 1b3b
000000e0: e0c4 a2bb b068 19bc 46cc 203d fb92 02bd
000000f0: 3be1 903c 809b 7ebb 833b b63c fcd6 05ba
00000100: d8f1 f6bc c627 a5bc 9e68 d7bc df02 febb
00000110: d5af 97bb de57 ad3d 8010 06bd 5897 28bc
00000120: 468f a0bc db7d 893b 2c6e 7d3c 5865 a33c
00000130: 041f e13c f173 1e3d 4980 00bd 2d6b fd3c
00000140: d7cf 013d 30cc 523d 76e2 01bd 36ab 023c
00000150: 1b7f ec3c b850 dfbc 8311 3e3b 0f01 153d
00000160: 523f 16bd ae9c c6bc 66fc 0abc 2a17 d03c
00000170: 6257 56bc 2c49 c6bc 256d a03c 19e0 74b8
00000180: 0f75 c2bc 030c bf3a 3ca3 34bd b1af 06bc
00000190: 9bf6 88bc ce49 cc3c 8939 933c 9135 60bc
000001a0: 935f 26bd 7029 cabc 1fbc 26bd d1cf 643c
000001b0: d325 cfbb d20c 3cbd 4f7f a3bb 74dc c13b
000001c0: f5ad 11ba 377c a8bc f285 4dbc 8d4d 183c
000001d0: 910f c4bc 2abe 56bc 080d 2fbc 0dd5 ec3c
000001e0: 47c0 adbc 8718 0d3d 7ec4 43bd 451f 023d
000001f0: 5e03 9ebc 2b17 d5bc 6563 203d e405 953d
00000200: eecf 15bd 512e 833d d937 72bc 85cf 1c3c
00000210: 52c1 39bd 07d7 e73c e216 953c 2d35 423b
00000220: c39d 62bc 552f 50bd 705a aebc 92d2 c03c
00000230: 9466 1bbd 72ed 073d 9823 183d 6db3 37bc
00000240: 3d32 b73c 835a 343d b9ca 863c 13d5 f23a
00000250: 5806 e1bc 9074 69bd 6665 48bd a0b5 813c
00000260: 6036 f3bc 9b30 00bd d213 0fbc 3cbb bf3c
00000270: 0573 a5bc 096a 283d a38e 093c 5d3b f83b
00000280: 99f5 253d 0f07 d83b 9899 74bc ed01 f7bc
00000290: 05fd cbbc 14d1 98bc 4ef7 663c ec55 00bd
000002a0: 5c20 f9bc cc90 45bd 64da 96bd 202c 653b
000002b0: 1f75 4d3d da66 5ebd ddbb ac3c 45ad 883c
000002c0: f40f 3ebd a56c d73a 739d 103d d7ef 85bc
000002d0: a472 bcbc eab2 b33b f347 d53c b7a8 483c
000002e0: 4f4f 613c 1189 7c3c ad75 c73c 07c2 813c
000002f0: 08a9 f7bc 245f 123c ddc6 a03c 0185 40bd
00000300: 3f8d 86bd 30e8 65bd 646a 233c 9479 4fbc
00000310: c8be 04bd 5dc1 27bd 7600 d2bb 9f4b 1fbc
00000320: cfbf b53c 54e2 093d 4925 ebbc 15a3 c2bc
00000330: 7021 6c3d 0598 2c3d 6c27 bdbc a87a 223d
00000340: d484 f4bc 9fce 803a e5f1 f9bc 9914 d7bb
00000350: 0e23 b33b bc72 a9bc 68e9 173d 00fc 8a3b
00000360: 6362 24bd 6b7c d0bc b46a c83c 524d bcbc
00000370: e10e 533b c6bf 59bb 4bbe 66bd 5506 1bbd
00000380: 6677 38bd 63b0 ab3c 1b5b afbc 01e0 a6b7
00000390: 8132 a039 ce80 de3b ed8b 683c 7e3a b6bc
000003a0: 7096 683b 2ec4 883c d9d4 d63c 2f9a 1b3c
000003b0: a85d 5bbd fc64 193d acfc ea3c 4d1a e9bc
000003c0: 762e d6bc 73bc c93b c906 7fbc a1bc 58bc
000003d0: cf42 45bc f663 2abc cf91 7c3c 451d 3a3d
000003e0: 9111 b3bd 3847 7bbd 785f 7cbb fc89 b3bc
000003f0: 6a10 c2bc ccf1 5fbc f31b f2bc 49c3 a63c
0.015638199 0.016792566 0.016403934 -0.015112489 0.0024669468 0.009038168 0.036300994 -0.03720106
-0.026832357 0.005740813 -0.038205974 -0.012918025 0.0060624033 -0.0449363 0.00082560134 0.015703812
-0.009069985 0.020148942 -0.02981066 0.02617671 -0.0140580945 -0.013224173 0.025307538 -0.016299166
-0.008506517 0.023863345 -0.041592494 0.04820199 -0.005581312 0.009020542 -0.028015355 0.012306462
0.028434655 0.003900912 0.014450694 -0.07564787 -0.028927933 0.0033995206 -0.035029076 0.027693508
-0.015471266 0.020195358 -0.004139551 -0.04838036 -0.019440893 -0.0107289655 -0.027106263 0.033555623
0.003731899 -0.03459736 -0.029446252 0.045280244 0.0042451746 -0.02958063 0.012235627 0.0023794572
-0.004967317 -0.009363338 0.03925731 -0.031878453 0.017685523 -0.003885001 0.022245174 -0.00051055825
-0.030144617 -0.020160567 -0.026295003 -0.007751807 -0.004629115 0.08464025 -0.03273058 -0.010289989
-0.019599568 0.0041959113 0.015468162 0.019945785 0.02748061 0.03868479 -0.031372342 0.030934894
0.031692352 0.05146426 -0.03171011 0.00797539 0.028869202 -0.02726017 0.0029002137 0.036377963
-0.03668148 -0.024244633 -0.008483028 0.02540167 -0.013082357 -0.024204813 0.019583294 -5.838284e-05
-0.023737459 0.0014575723 -0.044100985 -0.008220599 -0.016719153 0.024937537 0.01797177 -0.013684646
-0.04061849 -0.024677962 -0.04070675 0.013965563 -0.0063216477 -0.045910664 -0.0049895416 0.0059161726
-0.00055572327 -0.020567043 -0.012544142 0.009295833 -0.023933204 -0.013106862 -0.010684259 0.028910184
-0.021209849 0.03444722 -0.04779481 0.031768102 -0.019288715 -0.026012024 0.03915729 0.07276514
-0.03657525 0.064053185 -0.014783823 0.009570961 -0.04535038 0.028300775 0.018199388 0.0029633746
-0.013831559 -0.05082639 -0.021283358 0.023537908 -0.037939623 0.03318543 0.03714332 -0.011212212
0.022362823 0.04403163 0.016454088 0.0018526636 -0.027468845 -0.05699593 -0.048924826 0.015833676
-0.029689014 -0.031296354 -0.008732753 0.02340471 -0.020196447 0.041116748 0.008395824 0.007575436
0.040517423 0.0065926383 -0.014929198 -0.030152285 -0.024900923 -0.018654384 0.014097048 -0.03133194
-0.030410938 -0.048233792 -0.073658735 0.0034968928 0.050160524 -0.054297306 0.021085674 0.016684184
-0.046401933 0.0016435577 0.035306405 -0.016349716 -0.023003884 0.0054839747 0.026035285 0.012247256
0.013751819 0.015413539 0.024348104 0.01583959 -0.030231968 0.008933816 0.019626075 -0.047001842
-0.06569909 -0.056129634 0.009974096 -0.012663264 -0.032408506 -0.04095589 -0.0064087464 -0.009722619
0.022186188 0.03366311 -0.028704302 -0.023759404 0.057649076 0.042137165 -0.023090087 0.039667755
-0.029848494 0.0009827203 -0.030510852 -0.0065637347 0.0054668253 -0.020684592 0.037087828 0.0042414665
-0.04013289 -0.025449952 0.024464943 -0.022986088 0.0032204913 -0.0033225878 -0.05633382 -0.037847836
-0.045035742 0.020958131 -0.021405747 -1.9893052e-05 0.00030555206 0.006790257 0.014193517 -0.022244688
0.0035490058 0.016695108 0.02622454 0.009497209 -0.053556114 0.03744982 0.028684936 -0.028454924
-0.026145201 0.006156498 -0.015565583 -0.013228566 -0.012039854 -0.010399809 0.015415623 0.04543807
-0.08743585 -0.061347216 -0.0038509052 -0.021916382 -0.023689467 -0.013668489 -0.029554343 0.020356791

cnn.6.bias f4 [64]
00000000: 65f3 f6bd 4cfe 2fbc 9133 d3bc b7c5 95bd
00000010: 1ac0 aabd d2a9 9fbd 256e 89bd 9935 0dbd
00000020: 37c5 73bd f39e d6bc daab 2fbd 68c0 95bd
00000030: 0ba7 67bd 0f11 60bd 1ef6 9ebd b791 913d
00000040: 648a 83bd 36f2 16be 8dba fabd 7b08 82bd
00000050: e81a 10be cf24 c5bc a5ca 91bd bb03 20be
00000060: 2477 5abd ec4a e8bd 1f7a 88bd 4d46 98bd
00000070: 3e73 8cbd 9dcd cfbd c198 5ebd 652c 72bd
00000080: 5385 fdbd 642c dabc 476b eebc 4186 06be
00000090: 5818 8dbd 3483 c6bd 62d8 ecbd d76a f5bd
000000a0: 0cd8 abbd bc62 5dbd 2c52 54bd 2243 47bd
000000b0: 7260 74bd 9084 ecbc cb27 e3bd b516 07bd
000000c0: f1a6 82bd 93c6 82bd 9c22 94bd 8f39 cbbd
000000d0: 15e3 54bd d939 aabd e395 01bd 5a36 83bd
000000e0: 9897 64bc 9704 7cbd f790 94bd a3c9 c5bd
000000f0: ca87 36bd cde1 6cbc 22d9 1ebe 4d0a 0abe
-0.120581426 -0.010741781 -0.025781425 -0.07313102 -0.08337422 -0.077960625 -0.067104615 -0.034474943
-0.05951425 -0.02619884 -0.0428885 -0.07312089 -0.05655579 -0.05470377 -0.07761787 0.07107871
-0.0642288 -0.14740834 -0.12242613 -0.06349274 -0.14072764 -0.024065403 -0.071187295 -0.15626423
-0.053336278 -0.11342415 -0.06663918 -0.07435284 -0.06857918 -0.101466395 -0.054344896 -0.05912437
-0.12378945 -0.026632495 -0.029103888 -0.13137151 -0.06889409 -0.09692994 -0.11564709 -0.11983269
-0.08390817 -0.05404924 -0.051836178 -0.048648007 -0.05966229 -0.028871804 -0.11091574 -0.03298064
-0.06379498 -0.06385531 -0.07233164 -0.09923088 -0.051974375 -0.08311815 -0.031637084 -0.06406851
-0.013952158 -0.061527815 -0.07254212 -0.096576 -0.044563092 -0.014458132 -0.15512517 -0.13480492

cnn.9.weight f4 [64, 64, 3, 3]
00000000: ab33 f5bc 9517 023b e03b 2dbd c49d 3dbd
00000010: 4c5a 3dbd 3880 de3c 7624 9c3c 3fa8 d3bc
00000020: 4ad3 c63c a075 38bd bf46 1a3d 1db8 573c
00000030: f85b 01bd 32ac cfbc ba32 1539 83de 96bc
00000040: 6c4a 5fbc e896 833b 6e7e 173d bf1c 1bbd
00000050: 08d8 cbbc b63a 15bd c658 a2bc f0d0 39bc
00000060: a0ff adbb bb3f d53c d373 e13c 2486 093d
00000070: 60bd b0bb 56b5 9a39 03bd 103d 4025 14bb
00000080: 239e e73c d028 4dbc 4649 803c 802e 69bb
00000090: 7b74 cc3c 5093 d93c 40ff 9c3b aef7 b43c
000000a0: 235c e9bc abe6 2abc a8bf cc3c 5645 bf3c
000000b0: 56cc 853b f583 b7bc ad28 d0bc 661b dcbc
000000c0: f6a4 1b3d a675 7abc 060c 32bd 419e 2cbc
000000d0: 8360 bebc a6c9 1bbc 4330 09bd 1d86 3ebc
000000e0: bdda 65bb 3b5e 24bd 7611 93bc 2ec3 f63b
000000f0: 6821 d539 62b8 e03c 08ff 31ba 5459 223d
00000100: 24a9 eb3a 787a f1bc e434 b6bc 3993 0e3b
00000110: 7d3b 84bc 8c1c 5cbc 7493 103d aea8 19bd
00000120: f67d 0fbd d6b3 a73a b884 dcbc 28a6 abbc
00000130: 2b99 f23c 16a4 173b 5635 ea38 2bab 29bb
00000140: 1e5a 85bc 0a89 fa3c c68f 07bd b22c 10bd
00000150: f2e9 4fbc bd15 053b feb7 3c3c 3da0 c1bb
00000160: 2d9c a03c 94c9 6fbb d6fe c53a 7629 833b
00000170: 2b0f 163b 76e2 91bc 565b 543b 2b2c d53c
00000180: dc6a 0e3d c0fe ea3b 7bad 903c 183b debc
00000190: 33a0 0bbd 9894 92bc 6ee6 dfbc 4e2f e1bc
000001a0: a3d9 e43c ded3 cc3c a641 79bc 7e87 b3bc
000001b0: 762c b8bb 88ff 013d 6034 babc 70a3 9b3c
000001c0: 4bd3 9f3c c3d0 13bd 1b9f efbc 40bf 103b
000001d0: 0ae3 253d d76a f7bc bcf2 e6bc c6c2 0abb
000001e0: eee9 17bd 4f18 bbbc 13fe 9dbc 39e9 ee3c
000001f0: e138 073b fca8 4e3c b02c 6cbc c0af d5bc
00000200: 13b8 85bc eb28 0c3b 7ba9 0e3c 0097 12bc
00000210: 7e03 013d b493 063d 5854 843c 2c76 23bd
00000220: 1306 5bbd 1320 febc 3ff8 3abd 6853 7cbd
00000230: 7ae8 60bd 465a 41bd 112e 303c f14a fabb
00000240: 4b37 80bb 7e24 c3bc 4b65 1abd 861c 7d3c
00000250: 66d2 963c 0029 e1bc d6b2 4fbc 10c7 a43c
00000260: 5e9c c7bc b37a e93c baf6 14bd d46e 153c
00000270: b052 933c 2778 d9bc b429 38b9 8cd3 53bc
00000280: d3d9 c6bc 2380 963c dfab 06bd b189 b2bc
00000290: a297 2bbd b069 f33b f3db d23c 94e5 b7bc
000002a0: 4272 e0bc 21e8 1fbd 6a3e d3bb a4d7 0a3d
000002b0: 2bcc c4ba 36b2 23bd eecc c9bc 5813 1cbd
000002c0: e887 0cbd f3ac 14bd e4b9 20bd 564f 0bbb
000002d0: c5c9 f63c 4428 e73c fb8f 1b3d 7efc c43c
000002e0: 68b1 ca3c 3bc9 253c 0076 adbc cde5 d2bc
000002f0: 961f e53c 2ca4 9c3b 3b98 15bd db73 cfbc
00000300: 7958 07bc bef4 533c 481c c73c 112d 883c
00000310: 725d 9bbc 566e 0b3d a735 42bc 4a9b da3c
00000320: bc2b e43c a777 e63c 89e1 4f3c 6e3c 62bc
00000330: f3da 08bd 63e0 873c 01a3 4e3c 3502 a0bc
00000340: d05e f3bc 5966 2fbc ff42 49bd ef07 82ba
00000350: 8ad4 013c da82 0ebd 7259 c9bc 389b af3c
00000360: 2fca 343b 02d8 d0bc a3b5 cdbc 9d11 35bd
00000370: 6a62 033d 65d4 9dbc dced 903a 9429 b5bc
00000380: 3944 5a3c 0c6b 83bc 72cd cbbc 57ee 9e3c
00000390: 7529 173d 583c 823c 594c f43c 54cb f33c
000003a0: 1400 32bb d874 2cbd cabf 0fbd 16cd 66bb
000003b0: 728b 803c e0f3 97bb 8020 e5bc f654 c73c
000003c0: c6e1 e03c 8b47 bb3c aa54 093d d0b8 5abc
000003d0: c37d 0d3d 7378 ecbc 8863 aa3c 807e d23a
000003e0: 16ee ca3c ab2f 02ba 204e e83c d60f 4ebc
000003f0: d879 fc3b 0934 b03c 36e3 173d 1b8b 713a
-0.029931864 0.0019850482 -0.04229343 -0.046293035 -0.046228692 0.027160749 0.019060355 -0.025837062
0.024270672 -0.04503405 0.037665125 0.013166455 -0.03158185 -0.025350664 0.00014228644 -0.018416649
-0.013628583 0.004015792 0.036985807 -0.03786921 -0.024883285 -0.036432944 -0.019817721 -0.0113413185
-0.005310014 0.026031366 0.02752105 0.033575192 -0.005393669 0.00029508275 0.035336506 -0.002260521
0.028273648 -0.0125219375 0.01565994 -0.0035580695 0.024957886 0.026559502 0.0047911704 0.02209076
-0.028486317 -0.010430972 0.024993733 0.023348492 0.0040831966 -0.02240179 -0.02541002 -0.026868533
0.037999116 -0.015286839 -0.043468498 -0.010535778 -0.02323938 -0.009508526 -0.03349329 -0.011628655
-0.0035073005 -0.040128928 -0.017952662 0.0075305915 0.00040651415 0.02743167 -0.0006790017 0.03963597
0.0017979485 -0.029477343 -0.022242017 0.0021755232 -0.016141647 -0.0134345405 0.035296872 -0.03751438
-0.035032235 0.0012794684 -0.026918754 -0.020953253 0.029614052 0.0023138574 0.00011167924 -0.0025889378
-0.016278323 0.030582923 -0.033096097 -0.035198875 -0.012690054 0.0020307146 0.0115184765 -0.0059089945
0.01960572 -0.0036588656 0.0015105854 0.0040027453 0.0022897224 -0.01780818 0.0032403073 0.026022037
0.034769878 0.007171482 0.017660847 -0.027127787 -0.034088325 -0.01789312 -0.027331557 -0.027488377
0.027935809 0.02500337 -0.015213406 -0.021915194 -0.0056205345 0.031737834 -0.022730052 0.018998832
0.019509932 -0.036087763 -0.029250672 0.002208665 0.040499724 -0.030202312 -0.028191917 -0.0021173223
-0.037088327 -0.02283874 -0.019286191 0.029163944 0.0020633268 0.012613531 -0.014414951 -0.02608478
-0.016323125 0.0021386694 0.0087073995 -0.008947134 0.03149747 0.032855704 0.0161535 -0.03990762
-0.05347259 -0.031021154 -0.045646902 -0.06160298 -0.054909207 -0.047205232 0.010753171 -0.0076383282
-0.0039128414 -0.023821112 -0.037694257 0.015448695 0.018410873 -0.02748537 -0.012676915 0.020114452
-0.024366554 0.02850089 -0.03636811 0.009120662 0.017983764 -0.02654655 -0.00017563143 -0.012928855
-0.024273789 0.018371647 -0.032878753 -0.021794172 -0.041892655 0.0074283704 0.025739646 -0.022448339
-0.027398232 -0.039039735 -0.0064466493 0.033897057 -0.001501446 -0.039964877 -0.02463385 -0.038104385
-0.034309298 -0.03629775 -0.03923978 -0.0021257005 0.030125508 0.028217442 0.037979107 0.024046179
0.024742797 0.010118778 -0.02117443 -0.025744343 0.027969163 0.004780313 -0.03652213 -0.025323799
-0.00826084 0.012936769 0.024305478 0.016623052 -0.018965457 0.03404077 -0.011853612 0.026685376
0.027852885 0.028133227 0.012688049 -0.013808353 -0.03341193 0.016586488 0.012612105 -0.019532302
-0.029708296 -0.010705554 -0.049136158 -0.0009920577 0.007924208 -0.03479276 -0.024578784 0.021436319
0.002758633 -0.025493626 -0.025111025 -0.04420625 0.032076277 -0.019266317 0.0011057216 -0.022114553
0.01332193 -0.016042255 -0.024878237 0.019400759 0.03690477 0.015897915 0.029821562 0.02976004
-0.002716069 -0.04210362 -0.035095014 -0.0035217456 0.015691493 -0.0046372265 -0.027969599 0.024332505
0.027451407 0.022861263 0.033528008 -0.013349727 0.034543764 -0.028866028 0.020799413 0.0016059428
0.024771731 -0.00049662095 0.028357565 -0.012577018 0.0077049546 0.021509187 0.03708192 0.0009214149

cnn.9.bias f4 [64]
00000000: 6df5 45bd 31d0 11bd 11ad 4ebc 9402 0abd
00000010: 5a08 3ebd 5b01 1cbd 5969 3fbd 0a32 7cbd
00000020: 244b d3bb 1a98 55bc c9a3 e7bc 96b9 01bd
00000030: dda0 b9bd d3b9 a7bd 362d 27bd e006 603d
00000040: dbb0 0a3b a97c 233e 130c 69bd f819 1c3e
00000050: c239 44bd 2e58 8abd 7832 a8bd b66f 65bd
00000060: f5cd 6cbd 3398 61bd 70c6 97bd 8ed5 acbc
00000070: 7584 51bd e7a3 7dbd 6c3f b9bd f016 5cbd
00000080: 0f25 75bd e334 38bd afdf 54bd 80c2 50bd
00000090: 8c1c aabd 928d dd3d 0653 24bd f365 c83d
000000a0: a23d 18bd d3be a7bd 812b 96bd 7326 6bbd
000000b0: 93c0 563e 3bf1 25bd a437 11bc 3f54 40bd
000000c0: c447 b0bd 8fa2 32bd 61d2 3ebd a24f f2bc
000000d0: 18f0 5cbd 3a39 18bd b506 afbd bcf7 7dbd
000000e0: ddd9 8ebd 88d2 74bd a2b5 6fbd da0c 9fbc
000000f0: 9d8a b7bd c778 32bd aa21 f4bc 76ad bdbd
-0.04832976 -0.035598937 -0.012614504 -0.033693865 -0.046394683 -0.03808723 -0.046731327 -0.06157116
-0.0064481664 -0.013036752 -0.028276341 -0.03167113 -0.09063885 -0.0818974 -0.0408146 0.054694057
0.0021162543 0.15965523 -0.05689628 0.15244281 -0.047906645 -0.067551 -0.08212751 -0.05601474
-0.057813603 -0.05507679 -0.07410896 -0.021097925 -0.05115171 -0.061923888 -0.090453 -0.053732812
-0.059849795 -0.04497231 -0.051971134 -0.05096674 -0.08306226 0.10818018 -0.04011824 0.0978507
-0.037168153 -0.08190694 -0.073325165 -0.057409715 0.20971899 -0.04051326 -0.008863363 -0.046955343
-0.08607438 -0.04361206 -0.04658735 -0.029578988 -0.05393991 -0.03716395 -0.08546201 -0.062003836
-0.06975148 -0.05977109 -0.058522828 -0.019415308 -0.08961985 -0.043572214 -0.029801209 -0.09261601
