Assets/ONNX/cnn.onnx (onnx, 374396 bytes, 8 tensors)

cnn.0.weight f4 [32, 3, 3, 3]
000000 77 0f 80 3d ed 9f e4 3d 4f 68 11 3e 58 6e df 3d
       0.0625295 0.11163316 0.14199947 0.10909718
000010 e4 2d 46 3d b2 30 01 3e c3 7c b3 bd 14 aa 15 3e
       0.04838361 0.12616232 -0.08764031 0.14615661
000020 8e cb ec 3d 31 4e 4f be f4 f3 6f 3c eb 57 06 3e
       0.115622625 -0.20244671 0.014645565 0.13119476
000030 42 29 a5 bd e1 9d e2 3d 61 eb 27 be 09 c9 7d bc
       -0.0806451 0.11065269 -0.16398384 -0.015489825
000040 06 8b d1 bc 7c 3e e5 bb b0 0a e8 3d c2 f9 6c bd
       -0.025578987 -0.006995974 0.113301635 -0.057855375
000050 8f da 91 bd 97 dc 33 be b2 ec 2e be 2f a8 0b be
       -0.07121765 -0.17564617 -0.1708248 -0.13638376
000060 74 7a df bd e2 ff ad 3c 68 d9 95 3c 2c c3 3c be
       -0.10912028 0.021240178 0.018292144 -0.18433827
000070 96 34 28 3e c6 18 01 3e 5b b3 d8 bc cd dd 32 bd
       0.1642631 0.12607107 -0.02645271 -0.043668557
000080 cd a9 2d 3e de 69 90 bd 01 f1 8b bd d2 2f 5d 3d
       0.16959305 -0.070514426 -0.06833077 0.054000683
000090 f4 1f 38 be 64 78 2c be 8a 47 47 be 45 e0 b5 3d
       -0.17980939 -0.168428 -0.19460884 0.08880667
0000a0 74 60 34 be 6a 79 8a 3d 35 58 96 3d 2c 99 d2 3d
       -0.17614919 0.06761439 0.07341043 0.102831215
0000b0 a0 f6 c5 3c 04 65 d9 3d 4d 16 d9 3d 4c 0b b3 3c
       0.024165452 0.1061497 0.10599957 0.021855973
0000c0 4a 93 4e be 3d ae 86 bd 67 44 fa 3d 92 6a 3e bc
       -0.20173374 -0.06576202 0.12220078 -0.011622088
0000d0 03 94 0c be c5 94 00 be 75 2b bf bd 59 fd 08 3e
       -0.13728337 -0.12556751 -0.09334461 0.13377894
0000e0 8e d8 af bd 07 ba 86 bc f1 36 f2 3d 75 e9 b8 bd
       -0.085862264 -0.016446127 0.118268855 -0.090289034
0000f0 e7 d2 1b 3e 9a bf 78 bd 41 0c 2e 3e 51 93 61 3c
       0.15217172 -0.0607296 0.16996862 0.013768033
000100 5f 50 6a 3d 97 b4 b1 bd 50 a5 9f 3b c3 a7 46 bd
       0.057205554 -0.08677023 0.0048720017 -0.048499834
000110 99 53 dc 3d 1d a8 08 3e e5 a7 b2 bd 0a 37 b9 bd
       0.107581325 0.1334538 -0.087234296 -0.09043701
000120 e0 cc 18 3e 2f 00 18 3d 9e a7 cd bd 40 e2 15 be
       0.14921904 0.03710955 -0.10041736 -0.14637089
000130 5f 06 14 be 15 99 44 be 23 92 7d be f6 1f 5a be
       -0.14455555 -0.19199021 -0.24762778 -0.21301255
000140 db b9 82 3d 7f 92 45 be b3 96 79 be bb 93 40 be
       0.06383105 -0.19294165 -0.24373893 -0.18806355
000150 fe 86 02 bb 11 98 4a 3d e4 2b fd bd d5 fe 1a be
       -0.0019916887 0.049461428 -0.12361887 -0.15136273
000160 c1 59 2b be 02 b8 0c 3e 24 f4 35 3d 4d 85 38 be
       -0.16733457 0.13742068 0.044422284 -0.180196
000170 4b 56 03 be 64 b3 1b be 2d c5 98 3d e8 0d ae 3d
       -0.12825887 -0.15205151 0.07459483 0.08498746
000180 e0 5d 06 be 80 7d 9f bd 26 01 12 be be a1 c6 bc
       -0.13121748 -0.07787609 -0.1425825 -0.024247047
000190 d8 12 16 bb 2b 77 a3 bd c6 ff 03 3e 02 85 c2 3d
       -0.0022899415 -0.07981714 0.12890539 0.094980255
0001a0 40 e3 b3 3d a0 60 37 be d8 ca 95 3d b2 77 2d bb
       0.08783579 -0.17907953 0.0731408 -0.002646905
0001b0 25 cf 99 3c 32 52 04 3e ea ba 3c be de 2d 1d 3e
       0.018775532 0.1292198 -0.18430677 0.15349528
0001c0 2b ac 47 3d ec 80 f0 3d 22 ae be 3d 54 96 a5 3d
       0.048748177 0.1174334 0.09310557 0.080853134
0001d0 77 49 05 3d 64 3f 12 3e f5 3e 0c 3e 94 57 75 3b
       0.032540765 0.14281994 0.13695891 0.0037436234
0001e0 ed ac e1 3c 86 35 ae bd 55 ae a7 3c 5f f2 92 3d
       0.027548278 -0.085063025 0.02046887 0.07175135
0001f0 61 dc 8b 3d 9e 9e b8 bd 7e 34 37 be ff b3 ba bd
       0.06829143 -0.09014629 -0.17891118 -0.09116363
000200 e9 2e c3 bc 99 8d fd 3d 0d 29 e8 bd 16 29 1f bd
       -0.02382608 0.12380523 -0.11335955 -0.038857542
000210 32 a3 3b be 03 77 29 3d 7a e5 a6 3d 0b 29 57 bd
       -0.18323973 0.041373264 0.08149238 -0.052529376
000220 4c 1f 24 be e1 4b 0e 3b 1f b8 e2 bd e9 b6 9b bc
       -0.16027564 0.0021712708 -0.110702746 -0.019008117
000230 1c b9 42 be d0 ce 3e be 42 c3 41 bd 50 ac 1a be
       -0.19015926 -0.1863358 -0.047305353 -0.15104795
000240 82 ac 22 3e 97 f0 d5 bd df 9b 07 3e d1 be bb 3d
       0.15886119 -0.104462795 0.13243054 0.09167255
000250 09 1b 94 bc 70 8f 44 3e d2 11 e8 bd a7 d1 b6 3d
       -0.018079298 0.19195342 -0.11331524 0.08926707
000260 b6 2b 4d 3e 15 2d ec 3b 0f 64 53 3e 49 54 f2 bd
       0.20036206 0.0072075226 0.20643638 -0.11832482
000270 93 ab 1e 3e c3 e9 cf bd 62 62 e7 3c a7 17 90 bd
       0.15495138 -0.101520084 0.028245155 -0.07035761
000280 83 dd e5 3d 5f f0 8c 3d 09 f6 1e 3e a2 26 0b be
       0.11223891 0.06881785 0.15523542 -0.13588956
000290 b8 eb 4a 3d 90 46 d0 3d 10 7a 65 be 00 de d5 3c
       0.049541205 0.10169709 -0.22409844 0.026106834
0002a0 b0 1a 37 be 62 db 82 3d 52 3d ca bc 06 40 07 be
       -0.17881274 0.063895 -0.024687443 -0.13208017
0002b0 52 f6 ca bd ce 73 ef 3d 7d d7 65 3d df c9 9a 3d
       -0.09910263 0.1169201 0.05611371 0.07558035
0002c0 d0 58 af bd 39 07 69 3d 04 71 0d 3e b5 6f a8 bd
       -0.085618615 0.056891654 0.13812643 -0.082244314
0002d0 17 c9 68 3d 99 42 62 b9 44 7f 12 bd c5 97 08 3e
       0.0568324 -0.00021577849 -0.0357659 0.13339145
0002e0 70 3c a6 3d f9 f0 1f 3e 2a 08 c0 bc f7 48 5c 3d
       0.08116996 0.15619268 -0.023441393 0.053780522
0002f0 9d ca 44 be f8 80 42 be 9b c4 10 bd b1 36 25 bd
       -0.19217916 -0.1899451 -0.035343748 -0.04033536
000300 a3 8a f4 3d 86 56 ee bd 8e 37 1f 3e 1f 09 73 be
       0.11940505 -0.11637597 0.15548536 -0.23733948
000310 57 ab a4 bd 2f 4f d4 bd cc e4 5d 3d 0e 99 90 bd
       -0.08040493 -0.103666656 0.054173276 -0.07060443
000320 f1 3e 23 3e 09 a2 1f be db 40 c3 3d 95 5e e2 3d
       0.15941979 -0.15589155 0.095338546 0.11053196
000330 48 1d 19 bd d2 09 07 3e f8 2c 0f be ae 57 d0 3d
       -0.03738144 0.1318734 -0.13981998 0.101729736
000340 ef 8a 8c bc 6e 86 0f be 14 aa cb 3c 3f 5c 10 3d
       -0.017156092 -0.14016125 0.024861373 0.035244223
000350 81 a1 30 3d 46 fa 22 3e 72 1d dd bc 8a 6f 5f bd
       0.043122772 0.15915784 -0.02699158 -0.05454973
000360 77 7c b1 bc 82 a7 ba 3c 81 47 f2 3d 3d ea f3 3d
       -0.021665795 0.022784952 0.118300445 0.11909912
000370 b1 3b 28 be 49 4b 9f 3b ca 65 3c be a7 1d c0 3d
       -0.1642902 0.0048612696 -0.18398204 0.09380656
000380 9b 29 d6 3d ac f6 b1 bc fa 24 f3 bd 20 a2 46 be
       0.10457154 -0.021724068 -0.11872287 -0.19397783
000390 1e 71 a2 bc 2d 5a b8 bd d5 0c 8f 3d f8 83 19 3e
       -0.01982933 -0.09001575 0.069848694 0.14991748
0003a0 b8 9a f5 bd ff 1f 50 37 1f e1 66 bd a7 dd 1d be
       -0.11992401 1.2405216e-05 -0.056367036 -0.15416585
0003b0 30 2a 4b be 21 d6 f0 3d fc aa ba bd 83 39 02 3d
       -0.19840312 0.11759592 -0.09114644 0.03179313
0003c0 f2 16 ae 3d 00 fb 0e 3d 83 f6 1b 3e 4a 97 64 3c
       0.0850047 0.03490734 0.15230756 0.013952086
0003d0 2d 4d 97 3d 66 36 96 bd 96 a9 2b be d9 a6 03 be
       0.07387767 -0.073345944 -0.1676391 -0.12856616
0003e0 43 23 39 3e 95 c5 8b bd 99 af 1d bd b1 21 22 3e
       0.18079858 -0.06824795 -0.03849754 0.15833165
0003f0 28 d6 4b be 42 d9 cc bd d9 04 0c be 16 64 4c 3d
       -0.19905913 -0.10002376 -0.13673724 0.049900137

cnn.0.bias f4 [32]
000000 ec 4b fd bd 05 88 0c 3e 15 97 1c 3e 5f c2 e7 bd
       -0.123679966 0.13723762 0.15292008 -0.1131637
000010 e2 e3 15 be f9 1d a5 bd a7 21 a6 3d e6 c0 10 3e
       -0.14637712 -0.080623575 0.081118874 0.14136085
000020 eb 91 36 3d 4c 66 07 bc c1 08 b7 bd 1b a1 0b 3d
       0.044572752 -0.008264136 -0.089372166 0.03408919
000030 de dd 70 bc 17 08 0f 3d bb c0 f9 3d 19 03 5f 3d
       -0.014701335 0.034919824 0.121949635 0.054446314
000040 5a 0a 85 bd 96 95 b0 bd a7 9c ce 3c 8a f4 02 bd
       -0.06496115 -0.08622281 0.025221182 -0.031971492
000050 4b 6b d0 3d 20 38 41 bd fc 78 08 be 03 be 43 be
       0.101767145 -0.047172666 -0.13327402 -0.19115452
000060 21 6a ee 3d 85 0e ad 3d 10 58 32 be 19 16 f2 bd
       0.11641336 0.08450035 -0.17416406 -0.11820621
000070 37 2f 2c 3e e3 78 20 3c 5f ae 92 bd bc fa e5 bd
       0.16814886 0.009794447 -0.07162165 -0.112294644

cnn.3.weight f4 [64, 32, 3, 3]
000000 df 51 1f bd be a4 9d b9 15 36 75 3b ba 10 c7 3c
       -0.038896438 -0.00030068116 0.0037416269 0.024299968
000010 62 71 10 3d 34 ad 2b bd a8 0c ea bb 3c f7 c1 bc
       0.03526438 -0.041913226 -0.007142622 -0.02367746
000020 16 6a 5e bd 3a 20 77 3d ea 96 52 3c ac 60 1a 3d
       -0.05430039 0.060333468 0.0128533635 0.03768985
000030 82 6f da bb 22 40 fb 3b 1e bc e4 bb 6c 38 fc bc
       -0.006666125 0.0076675573 -0.006980433 -0.030788623
000040 4b ee 3d 3c 5e c9 05 3d 66 50 63 3d a6 8d c2 3d
       0.011592458 0.03266274 0.055496596 0.094996735
000050 4a 8d 15 bb 99 c8 e2 3d 6d a9 0b 3b ba 39 04 3e
       -0.002281981 0.11073417 0.0021310702 0.12912646
000060 03 8e 67 bd a2 60 9f bd 82 5d df bd 99 52 7a bc
       -0.056531917 -0.07782103 -0.10906507 -0.015278482
000070 ca 4b 02 bd 13 17 0b bd 02 4c 27 3d 81 d5 a3 bd
       -0.03181056 -0.033957552 0.04084397 -0.07999707
000080 25 e3 77 bd 9f 2e 37 3d 60 eb f9 3c 7d cf f1 3c
       -0.060519356 0.044722196 0.030507743 0.029517883
000090 2c 96 92 3c d7 db ec 3c 17 ae 22 3c 85 f8 42 bd
       0.017893873 0.028913422 0.009929202 -0.047600288
0000a0 a1 8a cb bc cf 7c 98 3c ca 6e 38 bd 9c 72 bf 3c
       -0.024846377 0.0186142 -0.04502753 0.02337008
0000b0 fd f0 9b 3c 29 b6 7c bd 80 0e 04 bc b8 7a 0d be
       0.01903581 -0.06169716 -0.008060098 -0.13816345
0000c0 4c c2 69 bd 2f a7 c0 bd 52 d6 9f bc 56 15 3a bd
       -0.05707006 -0.09406888 -0.019511376 -0.045430504
0000d0 03 01 1a bd c0 38 43 bc 7e bb 29 bb 7f dc 40 bd
       -0.03759862 -0.011915386 -0.0025899108 -0.04708528
0000e0 e2 78 10 bd 5e 3a 96 3b 73 5c 85 bb ec ce 3b bd
       -0.035271533 0.0045845946 -0.0040698587 -0.045851633
0000f0 43 a2 87 bb 20 27 9a bc 90 6e 21 bd 06 42 70 bd
       -0.004139216 -0.018817484 -0.03941208 -0.058656715
000100 3c 62 92 bd 6d 45 31 3c fd cd 3a bd bb e1 6e 3a
       -0.07147643 0.010819775 -0.045606602 0.0009112616
000110 2f cc b7 3c bf 3e a9 3b 36 3e 99 bb fd 4c 98 3c
       0.02243623 0.0051649506 -0.0046766056 0.018591398
000120 00 01 8f ba 9d 46 85 bc 09 ee 06 ba f1 b1 29 bd
       -0.0010910332 -0.016269023 -0.00051471643 -0.041429464
000130 98 8c ca ba 64 dd 7b bc c0 eb 1e 3d fe d7 63 bd
       -0.0015453277 -0.015372608 0.038799047 -0.055625908
000140 75 24 19 3c 42 bb 84 bd fd 3c e0 bb b1 25 ec 3b
       0.009347071 -0.06481029 -0.006843208 0.0072066416
000150 36 63 a9 bd 4d 72 07 3d 42 fb 8d 3c b2 a7 a9 3c
       -0.08270876 0.03306799 0.017331723 0.020709846
000160 84 45 76 bd 83 30 d4 3c 39 ac fa bc f7 54 50 bc
       -0.06012489 0.025902038 -0.0305997 -0.01271557
000170 d0 5f 4f 39 f3 54 3f 3d bb 3f 8c bd 73 81 51 3c
       0.00019776751 0.046711873 -0.06848093 0.012787211
000180 9d ea 3d bd 1c 75 03 bd 21 34 b5 3c ae 0a e7 bb
       -0.046366323 -0.032094106 0.022119584 -0.0070508337
000190 24 dd 22 bd 99 b5 1d 3d 11 bb 4f bd 30 0b b7 3c
       -0.039761677 0.038503263 -0.05071551 0.022344202
0001a0 ab a5 7d 3c 6d f3 db bc a9 0d a6 3c af 63 b3 bc
       0.015481393 -0.026849473 0.020270186 -0.021898119
0001b0 c8 4d 4c 3c 31 c2 d9 3c 49 bd 86 bd 19 4d 9d 3c
       0.012469716 0.026581855 -0.06579072 0.019201802
0001c0 99 d5 8a 3c 06 58 1d 3d f7 4d 0d 3d 8f ed 02 bd
       0.016947554 0.038414024 0.03449818 -0.031964835
0001d0 33 4a 93 ba 37 aa 7a bd 24 5e 8e 3d f4 5a d6 bc
       -0.0011237323 -0.061197486 0.0695155 -0.026166417
0001e0 a3 54 c1 3d b8 5a 34 3d 19 ac 63 3b 91 f5 fa bc
       0.09439971 0.04403183 0.003474003 -0.030634673
0001f0 bb f1 4a 3d 00 08 04 bd 51 7f 25 3c 36 1a c0 bc
       0.04954694 -0.032234192 0.010101155 -0.023449998
000200 3e d9 44 3c 1d 66 35 3d ac 8a 00 3d 4c d7 20 bd
       0.012014685 0.044286836 0.031382248 -0.039267823
000210 f5 cf 13 bd 02 82 b6 bc 1d 1c 7b 3c f9 ac ef bc
       -0.036086995 -0.02227879 0.015326527 -0.029257284
000220 b5 44 56 bd c9 8d 28 bc a7 c0 28 bd 30 be 52 3c
       -0.052311618 -0.01028771 -0.041199353 0.012862727
000230 1d e8 4a bd f2 94 59 bc 2b 96 3f bd e2 8f 01 bc
       -0.049537767 -0.01328014 -0.04677407 -0.0079078395
000240 16 70 1e bc 89 8e 62 bd 73 e4 3b 3c 89 0a 41 bc
       -0.009670278 -0.055311713 0.011468041 -0.011782297
000250 16 61 96 3b a2 0b 65 bd fb a6 61 bd 3c a8 da bc
       0.0045892103 -0.055919297 -0.055090886 -0.026691549
000260 d5 26 3a 3b 9d 64 fd 3c 51 33 fc 3c a0 43 53 3c
       0.0028404493 0.030931765 0.030786188 0.012894541
000270 a4 fc 44 bd f3 9d 99 3c 70 3f 15 3c eb a1 9a bc
       -0.0480925 0.018752074 0.009109363 -0.018876037
000280 a6 94 b7 bc 71 30 45 bd 64 93 69 3c 6e da 29 3d
       -0.022409748 -0.0481419 0.014256332 0.041468076
000290 43 2c 85 3d 35 6e b1 bc 18 f8 94 bb 00 61 5c bc
       0.06502583 -0.021658996 -0.0045461766 -0.013450861
0002a0 77 aa 11 3d 41 dc e7 bc ab 12 8b bd 66 b3 98 bb
       0.03556296 -0.028303267 -0.0679067 -0.004660058
0002b0 03 6d 30 bc 4d ec 6c bd ad bc ae bc 25 43 83 bd
       -0.010768178 -0.05784254 -0.021330202 -0.06409291
0002c0 ea 05 38 bc 05 f3 10 bd 88 c8 31 bc a0 5d 20 bd
       -0.011231879 -0.03538801 -0.010851033 -0.039151788
0002d0 52 73 26 3d 8f 81 8a bc da db 37 bd 95 e0 68 3d
       0.04063732 -0.016907481 -0.0448874 0.056854803
0002e0 3f 48 14 3d 57 a8 15 bc 8a f2 a8 3a 89 b1 34 bd
       0.03620171 -0.009134374 0.0012889665 -0.044114623
0002f0 45 0c 9b bc 88 dc 98 3c 0e 27 04 bd 97 66 10 3d
       -0.018926749 0.018659845 -0.032263808 0.035254087
000300 f1 38 60 bc 3c ee 8b bd 1a f3 fd 3b 21 94 c2 3c
       -0.013685451 -0.06832549 0.007749927 0.023752274
000310 38 4e 8d bd e7 de ad 3b 56 85 a2 3c 7e ec 16 bc
       -0.06899685 0.005306113 0.01983897 -0.009211658
000320 8e d2 8a bd d2 63 46 bc fe 5d f9 3b ad 30 23 bd
       -0.06778441 -0.01210876 0.0076100817 -0.039841343
000330 1f f7 ef bc e0 2f b7 3b 60 ae 89 bd af 42 58 3d
       -0.029292641 0.005590424 -0.067227125 0.05279797
000340 eb 6a bf bd d4 f3 36 bd 97 6e 6a bc ce a1 6a bd
       -0.09346565 -0.044666126 -0.014308593 -0.057283215
000350 21 56 4f 3c e8 10 2d bd f4 07 97 3c 47 7d 8a bd
       0.012654812 -0.04225245 0.01843641 -0.06762176
000360 8b 93 e3 ba e8 11 25 bd e0 13 a7 3b de c7 85 bc
       -0.0017362697 -0.04030028 0.005098805 -0.016330656
000370 d5 b1 63 bd c8 aa 24 bc 82 9f 09 3c 01 b7 3c bd
       -0.055589516 -0.010050483 0.008399846 -0.046072964
000380 68 77 d3 bd 8e 35 5b 3d d3 a5 cc bc 52 39 68 3d
       -0.10325509 0.05351787 -0.024981415 0.05669529
000390 a0 f4 dd 3c 6c 9b 8c bc 3a 5c e0 bc ae 3d d0 bc
       0.027094185 -0.017163955 -0.027387727 -0.025420036
0003a0 e1 0f 66 bd bc d6 c1 3c 57 82 d6 bc 42 aa 1d bd
       -0.056167487 0.023661964 -0.026185198 -0.03849245
0003b0 50 39 37 bd 98 c6 fa 3c cc 04 2d 3d 2a 10 bc 3c
       -0.04473239 0.030612275 0.042240903 0.022956926
0003c0 ba 79 86 bd bc 7f 6e 3c 5d 9c f4 3c f5 90 13 bd
       -0.06566186 0.014556821 0.029859716 -0.036026914
0003d0 15 87 63 bd f5 93 3c 3d ed 06 16 bd 90 2f 30 3c
       -0.055548746 0.04603954 -0.0366277 0.010753527
0003e0 7b f4 46 3d b9 c8 c5 bc c3 aa 28 bc bc c2 1e 3d
       0.048573 -0.024143564 -0.010294619 0.038759932
0003f0 6d 2c 73 3b bc 23 98 3c 23 67 40 bc 25 41 32 3d
       0.0037105337 0.018571727 -0.01174334 0.043519158

cnn.3.bias f4 [64]
000000 58 b3 c0 3c fe 77 ac bc 4a 77 b0 3b 46 f7 df 3c
       0.023523018 -0.02105331 0.005385314 0.027339589
000010 ef 23 97 bd 56 09 56 bd 9b 37 bc bd 7a 8a 59 3d
       -0.07379901 -0.052254997 -0.091902934 0.053110577
000020 fb c0 7f 3c 1e 2c a6 bc 49 ec 6a bd 45 ee 75 3d
       0.015609975 -0.020284709 -0.057354245 0.060041685
000030 2e ef 1b bc 5c 60 88 3c 40 f7 cd ba 02 9d a2 3b
       -0.009517474 0.01664751 -0.0015713945 0.0049625644
000040 46 b4 44 3c f4 39 5b bd 52 bc 5e bd 24 fb 4b bd
       0.012005871 -0.053522065 -0.054378815 -0.049800053
000050 f7 e3 43 bd 12 7e 35 3c e4 25 09 bc 6f 46 8a 3b
       -0.047824826 0.011077421 -0.00837085 0.004219822
000060 a5 db 5a bd cd 27 81 bc b5 18 56 3c 24 ba 77 bd
       -0.053432126 -0.015766049 0.013067414 -0.060480252
000070 77 94 78 bd c6 75 80 bd 1b ee cf bc f6 db 49 3d
       -0.060688462 -0.062724635 -0.025382092 0.049282037
000080 5c 4a bf bc ef 5b 13 bd 0c af 3e bd 8c 59 a9 bc
       -0.023350887 -0.035976347 -0.046553656 -0.020672582
000090 e4 27 f2 bc 14 68 90 bc d9 cd 5c bd d5 d0 32 bd
       -0.029560037 -0.017627753 -0.05390725 -0.04365619
0000a0 1e ba 11 3c 43 d3 4e 3d 8b 85 f4 3c dc c6 1b bd
       0.008894471 0.050494444 0.029848834 -0.038031444
0000b0 a7 cd a5 bc 3b 12 8b bc 77 26 6d bd d0 79 06 bd
       -0.020239664 -0.016976466 -0.05789801 -0.032831013
0000c0 3b d6 a2 3c 26 6f 55 bd 43 5f f1 bc 4e a7 5a bd
       0.019877544 -0.052107953 -0.02946437 -0.05338221
0000d0 15 a9 1d bc 29 14 bd 3b 26 81 e5 3b 1f 79 51 bd
       -0.009622832 0.0057702255 0.007003921 -0.0511409
0000e0 23 db 65 3d 85 6e 1f 3c c3 34 81 bd d1 dc 10 3c
       0.05611719 0.00973094 -0.063088916 0.008841709
0000f0 31 0f ad bc 97 54 3d bd 49 03 2d 3d ac e0 a3 bd
       -0.021125408 -0.04622325 0.04223946 -0.08001837

cnn.6.weight f4 [64, 64, 3, 3]
000000 12 13 08 3c 1d 54 53 bc fc 36 45 bc 65 ab 11 bb
       0.008305328 -0.012898472 -0.012037035 -0.0022227403
000010 20 c0 dd bc 96 b0 32 bd 68 75 f1 bc 9f 8e 04 3c
       -0.027069151 -0.043625437 -0.029474929 0.008090644
000020 38 35 3b ba 96 a4 35 bd 92 3e 1b bd 41 5e eb bb
       -0.0007141414 -0.044346415 -0.03790147 -0.007182867
000030 36 a0 5d bc 76 81 7f 3c 5a 79 05 3d 8b 6f 41 bc
       -0.013526967 0.015594831 0.032586433 -0.011806379
000040 82 6b 01 bd 0e 2d 10 3d 7c f3 12 bc 5d f6 06 bd
       -0.031596668 0.035199217 -0.008969184 -0.032949794
000050 28 54 ab bb bf 2f 04 3d e2 24 2c bd 60 4b d3 bc
       -0.005228538 0.032272097 -0.04202736 -0.025792778
000060 47 46 e1 bc 75 7f bc 3b f9 b6 84 bd c6 26 e6 bc
       -0.027499331 0.0057524987 -0.06480212 -0.02809466
000070 a0 42 c8 3b 46 c9 00 bd 00 1e d9 3b 80 9b 43 3b
       0.006111458 -0.03144195 0.0066258907 0.0029847324
000080 80 40 20 3d 50 3f 2f 3c b3 9e b5 bc 2a 23 28 3d
       0.039124012 0.010696247 -0.0221704 0.04104916
000090 8b 63 da 3c 3c 21 90 bb 9f 1c 6e 39 e5 44 a3 bc
       0.026658794 -0.004398493 0.00022708111 -0.019930312
0000a0 f9 7a 11 bd 98 01 38 3a 1a e3 aa bc 9f 85 fb bc
       -0.035517666 0.00070192805 -0.020860244 -0.030703364
0000b0 16 2f a4 3c ee f5 19 bd d1 72 68 3d a1 7e d9 bc
       0.020041984 -0.037588052 0.056750122 -0.02654964
0000c0 42 7d d6 bc 12 d7 5e bc 59 b5 0b 3c a3 69 f8 3c
       -0.026182774 -0.013601081 0.008527123 0.030323809
0000d0 e9 e5 a6 bb c8 7e 8b bc 60 0b 00 bc 26 74 1e bc
       -0.0050933254 -0.017028227 -0.007815212 -0.009671247
0000e0 80 a9 93 bc 9e 85 15 bd f0 84 f5 bc 43 11 88 bc
       -0.01802516 -0.03650438 -0.029970616 -0.016609794
0000f0 63 97 0f 3d d0 72 25 bc 8b 70 ad bc 30 2d c1 3b
       0.035056483 -0.010098174 -0.021171829 0.0058952793
000100 0a 30 03 3c ed e9 71 bc 40 15 02 bd e8 ff 6b bc
       0.008007059 -0.014765245 -0.031758547 -0.0144042745
000110 78 c3 18 3c 5e 14 2d bc 15 16 aa bc bb 0f 84 3c
       0.009323947 -0.010563938 -0.020762483 0.016120782
000120 22 57 04 bd c5 8f 92 bd cf fb 6d bd 65 a6 ea bb
       -0.03230966 -0.07156328 -0.05810147 -0.007160949
000130 1b 5d 24 bd 5e ba 8c bb eb 01 c3 bc 2c ad 28 3c
       -0.040127855 -0.0042946776 -0.023804625 0.010295194
000140 4c 73 3a bd af d2 62 3c 85 b2 bc 3b 57 37 b0 bc
       -0.045520112 0.013844176 0.005758586 -0.021510763
000150 49 a8 17 bd cb 59 85 bc ab 62 43 bd ba ae 57 bd
       -0.037025724 -0.016278168 -0.04770152 -0.052656867
000160 7c aa 27 bd 19 a5 4f bd 68 19 d3 bc 12 da eb bc
       -0.04093407 -0.05069456 -0.02576895 -0.028790507
000170 38 6b 9c bb 4d ab 46 bc 5e b1 2e bc 11 9b c0 bc
       -0.0047735237 -0.012125802 -0.010662405 -0.023511441
000180 1e e8 df bc 72 a5 21 3c ec b9 ef 3c d1 4f 96 bc
       -0.027332362 0.009866105 0.02926346 -0.018348606
000190 cb 3a 33 bc 12 02 22 bd 3d 1c 10 bd 92 bc 47 bd
       -0.01093931 -0.039552756 -0.03518318 -0.04876382
0001a0 08 16 89 bd a1 39 04 bd bf f4 59 bd ac 7d ad 3b
       -0.06693655 -0.03228152 -0.053211924 0.0052945223
0001b0 6c 6c 4d bd 28 89 01 bd 4f a1 0e bd 6b 28 11 bd
       -0.050152227 -0.031624943 -0.034821805 -0.035438936
0001c0 42 7b 3a bc 98 ed 79 bc f7 3e 99 bb b7 da 85 bb
       -0.011381926 -0.015254401 -0.0046766954 -0.0040849107
0001d0 4d 80 fb bc 4f fa 25 bd 47 4d 26 bd f5 52 2f bd
       -0.030700827 -0.040521916 -0.04060104 -0.042803723
0001e0 5c 7f 9d 3c fd fd f5 3c 46 7c 36 bd 32 c7 37 bc
       0.019225769 0.030028338 -0.04455211 -0.011216925
0001f0 8f f0 22 bd 48 7a f9 bb 10 b4 cd 3b dc 37 12 ba
       -0.039780196 -0.007613454 0.0062775686 -0.00055777817
000200 82 1b d2 bc 0d 37 41 3c a4 f0 94 3c 3e 4a ba 3c
       -0.025647882 0.01179291 0.018181153 0.02274048
000210 f1 86 19 bd c0 dd 88 3c 0e 3e 07 3d 5e fc 01 bd
       -0.037482206 0.016707301 0.033018164 -0.031734817
000220 0e 26 28 bd be 9e d4 bd 2b cf e3 3c 4f 64 3b 3c
       -0.041051917 -0.1038184 0.027808746 0.01143749
000230 86 37 17 bc a4 f9 68 3c 22 5c bc 3c 9c db 59 3c
       -0.009229546 0.014219675 0.022993151 0.013296988
000240 5a d0 38 bc 9c c9 02 3d 58 f8 32 bd 27 88 18 bd
       -0.011280144 0.03193055 -0.04369387 -0.03723922
000250 93 9c 83 3c a7 26 ae bc 78 10 df 3c a6 a6 08 bb
       0.016065871 -0.021258665 0.027229533 -0.0020851283
000260 21 3f 92 3c db c8 2b bd 94 2d 45 bc f5 dd 0b bd
       0.017852368 -0.041939598 -0.012034792 -0.03414722
000270 dd 37 b5 bb 72 f0 6a bd f6 ca 35 bc 0e 96 a3 3c
       -0.005530341 -0.057358213 -0.011095753 0.019969013
000280 d9 41 28 bd d8 50 f6 bc d5 ba 51 3c b8 3f aa 3c
       -0.041078422 -0.030067846 0.012800892 0.020782337
000290 f5 ec d7 bc 43 4a c8 bc 9c 71 d5 bc c9 e4 29 3c
       -0.026358107 -0.024449473 -0.02605515 0.010369488
0002a0 fa f5 cc 3a 93 58 3e bc d2 83 2a bd fa 84 01 bd
       0.0015637272 -0.011617797 -0.04162962 -0.031620957
0002b0 4f b2 db bc 20 53 a3 3c 2e 48 57 bc 13 63 b6 bc
       -0.026818423 0.019937098 -0.013139768 -0.02226404
0002c0 1d c5 64 3c e7 1c a4 bb 7f e5 05 bd f6 01 0e bd
       0.013963011 -0.0050083282 -0.032689568 -0.03466984
0002d0 f4 9f 12 bb 7b de 4b bb 49 df 42 bd b0 63 96 bc
       -0.0022373172 -0.003110795 -0.047576223 -0.018358082
0002e0 a5 61 0e bd 74 d1 79 bc 96 70 1d bd 12 bf 34 bc
       -0.03476109 -0.015247691 -0.03843745 -0.011031883
0002f0 40 e4 5c 3c 76 64 09 3d 2b 19 dc 3c b0 db 18 3d
       0.013482153 0.033543073 0.02686747 0.037318885
000300 0b 59 80 3c 90 89 23 3d 80 b9 fd ba 16 7a 8c 3b
       0.015667459 0.03992611 -0.0019357651 0.0042870147
000310 90 a2 ba bc 52 a9 bb ba c8 f7 d3 bc 66 59 21 3d
       -0.022782594 -0.0014317429 -0.025874987 0.039391898
000320 b9 df 9b bd 87 fa 5a bc eb 79 19 bd 9f 14 98 3c
       -0.07611031 -0.013365394 -0.037469786 0.01856452
000330 d4 84 54 3d 78 fa d8 3c 30 12 3e bd 32 4e 71 3c
       0.051884487 0.02648662 -0.046404064 0.014728116
000340 33 5e 40 3c e8 d5 4b bd 8d 70 42 bd d5 65 1f bd
       0.011741209 -0.049764544 -0.047470618 -0.038915474
000350 f1 a7 4c bc 98 d8 16 bd 63 39 84 bd 98 9b de b6
       -0.012491212 -0.036827654 -0.06456258 -6.634229e-06
000360 dc fd 93 bc e0 f3 0a bd 02 ad c4 3c 71 31 58 bc
       -0.018065386 -0.033923984 0.024008278 -0.0131953815
000370 61 80 8c bc 1e 97 a6 bc 45 68 15 bd e6 22 c0 bc
       -0.01715106 -0.02033573 -0.036476392 -0.02345414
000380 2b a5 55 bc a5 24 e6 ba fc 0e 14 3c 83 82 62 bc
       -0.013039867 -0.0017558528 0.009036776 -0.013825062
000390 b0 11 04 3d 10 8a 2c 3d 94 fd 89 3b fd 81 10 3c
       0.03224343 0.042123854 0.004211137 0.008820054
0003a0 07 75 f4 3a 46 af 47 bb b6 c6 4a 3b 09 e0 48 3c
       0.00186506 -0.0030469461 0.0030941195 0.012260445
0003b0 c7 f7 13 bd 18 ca 0b 3d 3d 3a 34 bd 06 32 78 3b
       -0.03612497 0.03412828 -0.044000853 0.0037871613
0003c0 4e 67 6c bc ab c4 40 bc 65 18 83 3c 39 0e cf 3b
       -0.014428927 -0.011765639 0.016002843 0.006318834
0003d0 23 54 cd bc 76 1e 44 3c ec 05 5b bc 02 f7 a2 3b
       -0.025064534 0.011970153 -0.013368111 0.0049732933
0003e0 c2 d5 86 3c 6d 65 f2 3c 67 9f 93 39 e5 9a 23 bc
       0.01645935 0.02958938 0.0002815679 -0.00998566
0003f0 21 e2 ae 3c f9 1a 0e 3d 2e 50 2f bc c8 30 d1 bc
       0.021348061 0.034693692 -0.010700269 -0.025535956

cnn.6.bias f4 [64]
000000 ec 6d 3a bd 01 03 9f 3c b6 a2 ea bc 45 4c b2 3b
       -0.045514986 0.019410612 -0.02864204 0.005441221
000010 0e 62 76 bb f3 4b 43 bd fe e0 a0 bc 29 5b 1c 3c
       -0.0037595066 -0.047679853 -0.019638535 0.009543219
000020 69 55 58 bc ad 2c 0e 3c 65 19 32 bc 97 0f 65 bc
       -0.013203957 0.008677644 -0.010870312 -0.013980768
000030 40 c8 b3 bc eb 0d 46 bd 7e 10 fb bb 10 fa 35 bd
       -0.021946073 -0.048353117 -0.007661878 -0.04442793
000040 e2 58 0f 3a 6a cf 8a 3b ce 67 45 bc 0a de ea bc
       0.00054682617 0.0042361515 -0.012048675 -0.02867033
000050 d8 40 5e 3c cb 27 ee bc 7f 5e 3f 3d e9 9a 93 bd
       0.013565265 -0.02907171 0.046720978 -0.07207281
000060 e7 48 57 bd ed cf d6 3c c7 4a 0b 3b 12 09 9e bc
       -0.05255976 0.026222194 0.0021254288 -0.019291434
000070 f0 ba 6a 3c 71 17 67 bc 80 2f 8d bd 5b 47 a0 3b
       0.014326796 -0.01410471 -0.068938255 0.0048913187
000080 f2 c2 3f bd 80 c6 0f 3c 78 61 bc bc 51 20 f4 bc
       -0.046816774 0.008775353 -0.022995695 -0.029800566
000090 76 ab 33 3d c4 f6 39 bc a6 64 42 bd 4f 60 41 3a
       0.04386469 -0.011350337 -0.047459267 0.0007376717
0000a0 79 a4 5a 3a 22 2f 30 bc 1b e3 a2 3c 6e dc 1a bc
       0.00083405484 -0.010753425 0.019883683 -0.009451969
0000b0 50 5f 00 bc 15 31 a5 3c bf 8e 39 bd 9f 54 61 bd
       -0.007835224 0.020165006 -0.04530215 -0.05501234
0000c0 ae fd 1a bd fb 0a 57 bd 96 d9 97 bc 23 f0 51 3c
       -0.037839584 -0.052500706 -0.01853637 0.012813601
0000d0 cb 82 1f bb b7 cb 2b bd e5 2d 13 bd 97 7b 4c bd
       -0.0024339433 -0.041942324 -0.03593244 -0.049922552
0000e0 4f b9 16 bd 66 e3 5e bd 59 6e 7b bc f9 4b 47 bd
       -0.036797818 -0.054416083 -0.015346133 -0.048656438
0000f0 a9 99 85 bc 96 ad dd bc a7 87 10 bd 7d df 8e bc
       -0.016308622 -0.027060311 -0.03528562 -0.017440552

cnn.9.weight f4 [64, 64, 3, 3]
000000 2f 97 3c bd 6a 12 00 bd 29 17 b1 bc f7 c9 1b bd
       -0.046042617 -0.03126756 -0.021617489 -0.038034406
000010 a3 c0 62 3d ad 68 2c bd eb 6b 9d bc 5f bc 5b bd
       0.055359494 -0.042092014 -0.019216498 -0.05364644
000020 66 21 c5 bb b1 c7 11 3d bd 60 a6 3c 8f 6e ed bb
       -0.0060159443 0.03559083 0.0203098 -0.0072458456
000030 20 46 fb 3c 71 00 88 3c 8e 00 e3 3b 37 5e 8a 3c
       0.030673087 0.016601773 0.0069275564 0.016890628
000040 5b 55 fd bc 14 14 86 3c 5d 6c 1b 3d 9f 97 b5 bb
       -0.03092449 0.016366996 0.03794514 -0.0055417563
000050 61 89 0c bd ca 39 f1 bb 99 b5 13 3d 9e 2a 17 3d
       -0.034310702 -0.0073616253 0.036061857 0.036905877
000060 ad 0c 49 bc df 03 8a 3c fd d5 37 bc e3 4e 0e 3d
       -0.012271089 0.016847549 -0.011220452 0.0347432
000070 ed dc 42 bd e6 59 29 bd c4 91 dc bd 57 63 b2 bd
       -0.047573972 -0.0413455 -0.1076999 -0.08710354
000080 bc de 68 bd c1 3c 8d 3d 26 a2 1d 3d 14 9e 35 3d
       -0.05685304 0.068963535 0.038484715 0.04434021
000090 7a d9 62 3c c5 de f7 bb 3c 15 f7 bb 42 f5 c4 3c
       0.013845796 -0.007564398 -0.007540373 0.02404273
0000a0 3b 22 97 3c b0 70 49 3b 6d 68 19 bb 61 40 4c bd
       0.01844894 0.0030737333 -0.002340819 -0.049866084
0000b0 a0 e3 3c bc ee 3d 9e bc 55 20 b3 bc 49 d3 01 bd
       -0.011528879 -0.01931664 -0.021866003 -0.031695638
0000c0 25 34 90 3c f7 b8 20 bd 96 4d fd bc a9 04 4b bd
       0.01760299 -0.039238896 -0.030920785 -0.04956499
0000d0 35 3e b5 3c b5 0e 23 bd 02 6f ee bc f4 28 24 bc
       0.02212439 -0.039808948 -0.029105667 -0.01001953
0000e0 a0 09 c6 bb ee a4 ee bc a0 64 3e 3b 97 4f 6b 3c
       -0.006043628 -0.029131379 0.0029051676 0.014362237
0000f0 c0 e9 11 ba f6 95 18 bc e5 60 c8 bc 58 8f 01 3d
       -0.00055661425 -0.009313097 -0.024460265 0.031630844
000100 cf 6d 41 bb 1e b3 b4 3c 8c df f5 bc e1 28 bd 3c
       -0.0029514914 0.022058066 -0.030013822 0.023090782
000110 ae 03 6f 3a cd 77 2b bc e7 ec 93 bb a7 84 ac bc
       0.0009117675 -0.010465574 -0.004514325 -0.021059347
000120 8c 01 43 3c 96 ef eb bc 1a 87 33 bd fb 09 2e bd
       0.011902224 -0.028800767 -0.043830015 -0.042489987
000130 eb df 00 bd fa 1e 99 bb ae fb 21 3d 71 28 c6 3c
       -0.031463545 -0.004672882 0.03954666 0.024189206
000140 f9 27 cd bc 38 e3 e4 bc 59 76 a8 3c bf a1 33 bb
       -0.025043475 -0.027940378 0.020564245 -0.002740964
000150 3f 09 fa bc 91 72 d3 bc e0 08 87 39 04 62 48 3c
       -0.030521987 -0.025811465 0.0002575582 0.0122304
000160 ca 53 89 bb 27 6f 66 3c a1 fa 3c bc 13 5a 25 3d
       -0.0041908966 0.014064587 -0.011534364 0.040369105
000170 4d b2 1d bc 97 c8 4e 3c 7c 43 2c bb 15 c7 22 bd
       -0.00962503 0.0126210665 -0.002628534 -0.03974064
000180 ca fe 16 3d 17 e2 d8 bc 6b 9a bb bc d4 03 42 ba
       0.03686408 -0.026474996 -0.02290078 -0.0007401083
000190 d6 42 2e bc 40 32 94 bc ce f5 8a 3c f7 18 d7 bc
       -0.010636052 -0.018090367 0.016962912 -0.026257021
0001a0 d9 b8 20 bd 5a 7f 1c bd 2d b2 46 3c 1a e7 92 bc
       -0.039238784 -0.03820739 0.012127441 -0.017932463
0001b0 64 f5 86 3d 20 37 92 3d 29 1d 16 3d af 95 b6 ba
       0.06589773 0.071394205 0.036648903 -0.0013930107
0001c0 de 56 2c bc e6 62 0f 3d 67 c6 88 bd 65 8c 96 b9
       -0.010518758 0.035006426 -0.06678467 -0.00028714832
0001d0 92 ab 4f bc 82 1f 03 3d da 40 08 3c 99 31 7a 3c
       -0.012675183 0.03201247 0.008316243 0.015270614
0001e0 c6 28 ee 3c 3d 10 13 bd 2a 84 54 bd b8 42 86 3c
       0.029072177 -0.035904158 -0.051883854 0.016389236
0001f0 67 36 47 3c 12 52 83 bc 05 32 f3 bc 6c af a5 bc
       0.012158967 -0.016030345 -0.029686937 -0.02022525
000200 ac a4 70 3c 10 75 d2 bc 92 f4 3e 3b c9 1f 19 3d
       0.014687698 -0.025690585 0.0029137474 0.03738383
000210 1a 96 9c bc 8a 63 eb 3c 59 8f 40 3c cf a4 28 bd
       -0.019114543 0.028733987 0.011752927 -0.0411728
000220 05 3c 0c bd ba 00 c3 3c 70 7d 43 bc 25 82 6c 3c
       -0.034236927 0.023804057 -0.011931762 0.014435326
000230 77 35 aa bc 23 63 2c 3d 1f ad 17 bd 55 bf 19 3d
       -0.020777447 0.04208673 -0.037030336 0.037535984
000240 f6 d9 60 3c c5 e3 84 3c 23 c7 46 3c d6 a9 87 3c
       0.013723841 0.01622189 0.012132439 0.016560476
000250 f6 ed 2f 3c a6 25 cd 3c 8a 79 1d 3d 38 82 13 bc
       0.010737887 0.025042366 0.038445987 -0.009003215
000260 5c 5e 88 bc 72 47 18 bd 50 3f b5 bc 2a 06 9a 3c
       -0.016646557 -0.03717751 -0.022124916 0.018801767
000270 89 d6 18 bd 1b 40 84 3b 25 3f af 3c c1 13 f8 bc
       -0.03731397 0.0040359623 0.021392414 -0.030282857
000280 10 2a 93 bc a8 5a db bc bc c0 38 bc aa 29 65 3d
       -0.017964393 -0.026776627 -0.01127642 0.055947937
000290 83 19 70 3d a9 3b 3e 3d 87 07 bb 3c 44 f3 2b 3d
       0.05861808 0.046443615 0.022830738 0.041980043
0002a0 78 51 f3 bb 41 b1 3a 3d cf 83 1b 3c de a4 aa bc
       -0.0074254833 0.0455792 0.009491875 -0.020830568
0002b0 9d b1 16 bc 92 50 9d bb 34 9f 1e 3d 68 d1 58 bc
       -0.00919762 -0.0048008645 0.038726047 -0.01323352
0002c0 c6 31 2d 3d 0a ac a9 3c f6 f7 d7 3c a5 56 ce 3c
       0.042283796 0.020711917 0.026363354 0.0251878
0002d0 79 0f fd bc 0f 75 d5 bc 01 30 50 b9 16 e5 43 bd
       -0.030891167 -0.026056794 -0.00019854309 -0.047825895
0002e0 df 57 5e bd 25 ea b0 bd 05 cd b6 3c 90 4f 5b bd
       -0.05428302 -0.086384095 0.022314558 -0.053542674
0002f0 5b 8e db bc bd 89 cf bc 21 cf f2 bc 50 4d 8c 3c
       -0.026801279 -0.025334233 -0.029639782 0.01712671
000300 42 0a eb b8 11 5a 74 bc 45 23 b3 3c 7c 8b ab 3a
       -0.00011207584 -0.014914052 0.021867404 0.0013087834
000310 44 4a e4 bb 5e e1 40 3c 16 d2 6b bc 62 86 69 3b
       -0.006966861 0.011772482 -0.01439335 0.0035633077
000320 b2 8f e2 3c cb f9 20 3c 41 f1 27 3c 5a aa 67 bc
       0.02765641 0.00982518 0.0102503905 -0.014139736
000330 7a 9b 5f 3b 0c b0 01 3d 4a 8e 72 bc dc 9a fe 3b
       0.003411977 0.031662032 -0.014804432 0.0077699255
000340 3a ce 93 3c 69 49 0b bd b1 1b ff 3c d5 74 c5 3c
       0.018042672 -0.034005556 0.031141134 0.024103561
000350 26 96 f4 3c f8 c2 fd bc 7b b6 4f bb 92 6e 19 3c
       0.029856753 -0.030976757 -0.003169446 0.009364741
000360 81 db 6b bc 42 3f b8 3b 7e 44 01 3d 4b d4 a6 bc
       -0.0143955955 0.0056227753 0.03155946 -0.020364901
000370 2e b9 95 bd 8e db cb bd bb 41 de ba db cd 2d bd
       -0.07310711 -0.09953986 -0.0016956845 -0.042432647
000380 d4 e4 c2 bc 22 62 b4 3b b9 64 a8 bd 0a d6 7d bc
       -0.023790754 0.0055048624 -0.08222336 -0.015492925
000390 33 8e 22 bb 31 a7 66 bd 98 8b 76 ba e6 25 2e 3c
       -0.0024803996 -0.05631179 -0.00094049564 0.010629153
0003a0 06 67 d7 bd f6 75 24 3d 96 0f a6 bc a8 8f 0e 3d
       -0.10517697 0.04015156 -0.020271104 0.03480497
0003b0 68 7b 25 3d c9 4a 74 3c b8 99 12 3c 86 95 e0 bc
       0.040400892 0.014910408 0.008947782 -0.027415048
0003c0 86 88 1f 3b 7c c4 1f 3b 98 47 e1 3a 87 e7 03 3d
       0.002434285 0.0024378588 0.0017187474 0.032203224
0003d0 32 c0 b7 bb 97 99 9c bc 1b 28 16 3c 7c 19 d5 bc
       -0.0056076283 -0.019116206 0.009164835 -0.026013128
0003e0 f8 a3 9f 3c c1 51 b9 3b a5 6d e5 bc 98 3b d3 3c
       0.019487366 0.005655498 -0.028006384 0.025785252
0003f0 8e 12 96 bd fc b9 13 bd 56 4a 36 3d d5 88 7d 3a
       -0.07327758 -0.03606604 0.044504486 0.00096715736

cnn.9.bias f4 [64]
000000 a6 6b 49 3d a1 1f 4a bd 08 72 7c bd 16 71 de 3d
       0.049174927 -0.04934657 -0.061632186 0.10861413
000010 c2 f1 79 bc 79 71 a0 3d 2d 8c 2b bd cc 0d 65 bd
       -0.015255393 0.07834143 -0.04188173 -0.05592136
000020 f5 3b 61 3d ae 18 eb bb 1b b7 b4 3d 0f c1 9a bd
       0.05498882 -0.007174573 0.08823987 -0.07556354
000030 32 8e 17 bd d4 27 ae 3b 05 b4 27 bd b9 9e 1b bd
       -0.037000842 0.0053148065 -0.040943164 -0.037993167
000040 84 e8 ab 3b 9e 68 af ba 26 e0 8b bd dd 3b 0e bd
       0.005246224 -0.0013382619 -0.06829862 -0.03472506
000050 64 e5 58 bd 6e 1f 12 bd 13 54 ed bc 68 97 aa 3a
       -0.05295314 -0.035674505 -0.028970754 0.0013015093
000060 dc fa 34 bd 67 be a4 bc cb 81 92 3d f7 ea 4b bc
       -0.04418455 -0.020110322 0.07153662 -0.012446157
000070 29 cc 26 bd 63 5c c8 bc e4 97 10 bc 3b 74 af 3c
       -0.040722046 -0.024458116 -0.008825276 0.021417728
000080 d8 c4 5d bd c5 2d 65 bd 04 f0 f4 bc c9 b4 5f bc
       -0.054142803 -0.055951852 -0.029899605 -0.013653942
000090 5d 6a 82 3d db b5 3f 3d 0a 30 8a 3d 4f cf a8 3c
       0.063679434 0.04680429 0.06747444 0.020606665
0000a0 ab e7 6d 3c a6 b9 12 bc c9 58 5c 3d 09 95 66 bd
       0.014520566 -0.008955395 0.05379561 -0.056294475
0000b0 4c 5d d5 3c fe a1 b0 3c 06 8a f7 bc ac 7f 2c bd
       0.026045464 0.021561619 -0.030217182 -0.042113945
0000c0 f4 7f 37 bd ed 4c ce 3d b7 c3 81 3d ae 59 1e 3d
       -0.04479976 0.10073266 0.06336158 0.038659744
0000d0 cb a4 49 3a 21 95 91 bc 45 7f 37 bd c9 46 9e 3d
       0.00076920976 -0.017771306 -0.044799108 0.07728345
0000e0 5d cf 97 3d 2d 74 a2 bc 5f aa 36 bd 10 dc df bc
       0.07412598 -0.019830788 -0.044596072 -0.027326614
0000f0 81 95 25 39 6b 4e 1c bd da d1 11 bd f0 b1 13 ba
       0.00015791321 -0.038160723 -0.03560052 -0.000563412
