Assets/ONNX/cnn.onnx (onnx, 391165 bytes, 8 tensors)

cnn.0.weight f4 [16, 3, 3, 3]
00000000: 1f74 aabd 382b afbe b2f9 e5bd c978 603d
00000010: 6c11 0c3b 11e7 d4bd 308c a1bd d54e 15bc
00000020: 82a1 7ebd 699d 55be 01f1 3abe f925 1fbe
00000030: fc24 59be a8ce 9dbc 730a b83c 1e2b 87bd
00000040: bc5b 943d 63ed 55be c072 a43d 2a5f 3bbe
00000050: cd12 1bbe 483c e9bd 5276 61bd 28f9 6bbe
00000060: 1a3d ddbd 17f4 a0bd 219c 95bc 5741 7f3d
00000070: 1ed6 6d3c a6b8 d4bd f422 0e3d 45a1 00be
00000080: 5ab8 4bbe 9e37 47be 097a 94b9 a394 93be
00000090: 8679 f0bc ed34 1abe 4176 debd dbdd 9cbe
000000a0: 5f09 48be e8fa 62be cc7f 823c 579b 80be
000000b0: 80b3 63ba 1e64 4d3c acac 1bbe c16a 86be
000000c0: 4020 1abe 116a 6dbe 4bae 99be b60c f03d
000000d0: c6cc 423d 7230 41be 802f 99bd 2fad e7bd
000000e0: 8f88 a53d c334 dd3d d0c4 1fbe 3173 3cbc
000000f0: 2d42 1fbe bc02 ffbd b0f5 8fbd 5044 a1bc
00000100: f022 9e3d 02a5 77bd 07ca c23d cbaf 82bd
00000110: 7610 c13d 0339 46bd 9384 cc3b 0390 dbbd
00000120: 687f b63c b28d e6bd a105 3dbd b61f d6bd
00000130: 02fe 6e3d 752a 3c3d 0c91 35be 1220 063e
00000140: abca ec3d 206e 0fbc 10f3 d83d 5d27 aa3d
00000150: f335 82be 6fbd 82be 7672 ad3d fd19 183d
00000160: f679 67bd e6f6 25bd 9bcb d13d 2475 c33b
00000170: bd6c 80be 59b2 f3bd a66f a3bd f26d 1fbe
00000180: f0fe 00be bd9a fa3c 1c94 4bbe 0826 913d
00000190: 621b 33bd 1f61 b33d ccfa 2e3d 9264 ea3c
000001a0: 21d5 3ebe 2587 263d fa5e 1cbe 8397 5abd
000001b0: e0dc bdbe d857 c8be 6cfe 573e e03d 5bbd
000001c0: 56b5 febe 1aa1 29be 1439 9c3e 2248 b1be
000001d0: 1a35 5cbe 958e a1bd 70ba 99be e9d6 2ebf
000001e0: 8e48 00bf 3cc8 913e 072f 3bbf f215 9cbe
000001f0: b2ff 1bbc ef5b 01bf 70c8 d03d 4eba 1abd
00000200: d4d3 2abf 36c6 b0be 3d09 123e 3ad8 aebe
00000210: 9f4c babe 27b7 f83b 920f 50bf 3808 78bd
00000220: 1410 823c f626 88be 2c8d dfbc 6da1 24be
00000230: 301b 403d 6532 883d 347d 37bc b38e f33c
00000240: 718e a23d f952 49be ba7c 58be 1435 e2bd
00000250: b183 92bd 096c b93d 6120 e5bd 47f1 84be
00000260: dd6e 18bd e440 08be 98b4 e7bd 221d d0bb
00000270: 4b9f 113b 7427 f1bd 0168 f9bd e25f 1cbe
00000280: 49a3 d7bd 58e0 383c ab64 073e 42b4 8bbe
00000290: 6c99 bcbd 38e8 88be 4739 b1be 4dee 06be
000002a0: 9a5f b3be 649b d9be 12a7 9dbe 5caa 2e3d
000002b0: 0a1d c6bd 8d2c e13b b52b 57be 262a 67bd
000002c0: d766 8dbe 4467 6ebe 9be7 7abd af51 ac3d
000002d0: 7e45 0f3d 0d65 edbc 5604 98be c523 c6bd
000002e0: b875 64be 726d 063a d917 50be af8f bbbd
000002f0: 5cb0 7ebd 154f 5bbe bcc6 8dbd 8045 26be
00000300: fce1 2dbd 7090 aa3d ad9d 9bbc 67f7 ef3d
00000310: 3dbe 27be 2501 3dbe 6511 f7bd 43e4 ae3d
00000320: 485b af3d e614 53bd 481c ae3d 7b4f f53b
00000330: d988 70be 4f43 bebd 7b61 05bc 4377 aebc
00000340: 7b86 a93d 4ed6 ddbd c073 8abd 9df3 ca3d
00000350: 747a 4dbe 7b27 6cbd a1fc ba3b f286 0c3d
00000360: 3b2d 64be 9209 5ebe 0980 353e 7825 5abe
00000370: f874 823d 059f 89be 8492 da3d c896 b5bc
00000380: fdac 24be 0541 b6bd b55a 1cbe 550f 4abe
00000390: 0e6f 00b9 4318 f53d 06cf 2ebe 3e17 f13d
000003a0: 1e71 3fbe 7495 23be e58b 44be 1db3 1bbe
000003b0: d96d 4bbe 22bc f63d d3a2 cabc c904 8a3d
000003c0: 27f6 2bbd f390 0fbc b115 8dbe fbbc f0bd
000003d0: 3adc a7bd 68fa 37be 6fa0 f1bd 43b3 523d
000003e0: edda 703d d935 953d 52f8 aebd 12cf 49be
000003f0: 1a25 803d cd67 a3bd 31c6 8e3c 6ccd 89bd
-0.083229296 -0.3421266 -0.11229266 0.05480269 0.002137269 -0.10395635 -0.07888067 -0.009113033
-0.062165745 -0.20860828 -0.18255998 -0.15541829 -0.21205515 -0.01926358 0.02246592 -0.06600021
0.072440594 -0.20891337 0.08029699 -0.18298021 -0.1514389 -0.11388451 -0.05504448 -0.23044264
-0.1080267 -0.078590564 -0.018262925 0.062318172 0.014516382 -0.103867814 0.034701303 -0.1256152
-0.19894543 -0.1945481 -0.00028319683 -0.28824338 -0.029354822 -0.15059252 -0.10862399 -0.30638012
-0.19534825 -0.22166026 0.015930079 -0.25118515 -0.00086861104 0.012536077 -0.15202588 -0.26253322
-0.15051365 -0.23184992 -0.30015787 0.117211744 0.04755857 -0.18866137 -0.07479763 -0.11312329
0.08082687 0.10801079 -0.15602422 -0.011502073 -0.15552588 -0.124516934 -0.07029283 -0.019685894
0.077215075 -0.060460098 0.0951119 -0.06381186 0.09426968 -0.048394214 0.00624139 -0.107208274
0.022277549 -0.11257495 -0.046147946 -0.10455267 0.05834771 0.045938928 -0.17731112 0.13098171
0.11562093 -0.008754283 0.105932355 0.08308289 -0.25431785 -0.2553515 0.08469097 0.03713416
-0.056512795 -0.040518664 0.10243913 0.005964892 -0.2508296 -0.118992515 -0.079802796 -0.15569285
-0.12597251 0.030591363 -0.19880718 0.07087332 -0.043727286 0.08758759 0.042719647 0.028612409
-0.1863599 0.040656228 -0.15270606 -0.05336715 -0.37082577 -0.3912952 0.21093148 -0.053525805
-0.49747723 -0.16565362 0.30512297 -0.34625345 -0.21504632 -0.078885235 -0.30025053 -0.68296677
-0.5011071 0.2847308 -0.73118633 -0.30485493 -0.009521412 -0.50530905 0.101944804 -0.03777533
-0.66729474 -0.34526223 0.14261337 -0.34149343 -0.36386582 0.007590193 -0.8127376 -0.060554713
0.015876807 -0.26592225 -0.027288996 -0.16077204 0.046900928 0.06650237 -0.011199284 0.02973113
0.07937325 -0.19660558 -0.2114133 -0.1104528 -0.071540244 0.09053809 -0.111878164 -0.2596533
-0.037215102 -0.13306004 -0.113137424 -0.006351129 0.002222019 -0.11775103 -0.1217804 -0.15270951
-0.10529191 0.0112839565 0.13221996 -0.27285963 -0.092089504 -0.2673967 -0.34614012 -0.13176842
-0.35033876 -0.42501366 -0.30791527 0.042642936 -0.096735075 0.006871766 -0.21012767 -0.05643668
-0.27617523 -0.2328158 -0.061256032 0.084140174 0.034978382 -0.028978849 -0.29690808 -0.09674791
-0.22310531 0.0005128003 -0.20321597 -0.09158265 -0.06217991 -0.21416886 -0.06922671 -0.1623745
-0.042451844 0.083283305 -0.018996084 0.1171711 -0.16381164 -0.18457468 -0.120638646 0.08539631
0.085623324 -0.051533602 0.08501488 0.0074862815 -0.23489703 -0.09290182 -0.008140917 -0.021297103
0.08277603 -0.10831891 -0.06760359 0.09909747 -0.20066243 -0.05765484 0.0057063852 0.03430838
-0.22282879 -0.21683338 0.17724623 -0.21303356 0.06369966 -0.26879135 0.10672477 -0.022166625
-0.16081615 -0.0889912 -0.15268977 -0.19732411 -0.00012248402 0.11967518 -0.1707116 0.11772011
-0.18695495 -0.1597498 -0.1919399 -0.15205045 -0.19866122 0.12047602 -0.024735844 0.06739194
-0.041982796 -0.008762586 -0.27555612 -0.11754795 -0.08196302 -0.17966616 -0.117981784 0.05144049
0.058802534 0.07285661 -0.08543457 -0.19707897 0.062570766 -0.07978783 0.01742849 -0.06728634

cnn.0.bias f4 [16]
00000000: ffef 203d 7fc9 8ebd 379d 3cbe aaa0 86bd
00000010: 4a80 3b3e 643a c13c 5dc7 adbc 0e85 17be
00000020: 8366 83bd 52c8 2d3d 10a7 353c e6a9 fc3d
00000030: a71a 9d3d cd57 5ebd a18c 02be e445 c73e
0.039291378 -0.06972026 -0.18419348 -0.06573613 0.18310657 0.023587413 -0.021213228 -0.1479685
-0.06416037 0.04242737 0.011087194 0.12337093 0.07671099 -0.054282952 -0.12748958 0.3892051

cnn.3.weight f4 [32, 16, 3, 3]
00000000: 3a20 3ebd 7634 793d 9070 55bd f7e0 243d
00000010: bc1f 3b3d 4ffb 80bd 0ce1 38bc 867c 0cbd
00000020: 71bb fb3a 655f 8c3d 4c3f 5fbc f783 32bd
00000030: 1367 263d 57c0 663d 26d0 193d 48e2 a23d
00000040: d841 333c e1c9 153d 9557 1dbd f29c 27bd
00000050: d84e cebd 73d2 0c3d d714 1d3d 8c7c 51bd
00000060: 4fca d2bb 1947 143d 15bd 1b3d 6e3c 95bd
00000070: 23c4 ae3c efc0 703c c3bd 9dbd 67b4 c2bc
00000080: e381 073d bfd2 83ba 6f18 113d 5ca8 33bd
00000090: 6d03 71bd 2303 0cbe 17d8 07be dc17 4fbd
000000a0: e19d d5bd aca7 8dbd 02b3 c3bd e28a 18bd
000000b0: cc5b e3bd f213 b9bd 06a7 8fbd 4622 7bbc
000000c0: 024c 1a3d 60f5 a43b 2786 d53c 4525 9fbd
000000d0: e536 a23b 0da6 85bd 0bdb b53c 0a36 103c
000000e0: a26a ee39 ee2d 5a3c 16ed 96bd 23f0 09bd
000000f0: b079 ac3b 4107 dabd b498 d83c 4d15 4dbd
00000100: 2fe7 4b3d 09e8 5dbd 7ba7 8dbd ac3f ddbd
00000110: f4a9 2ebd f345 243d 0b7f 1d3d 3c3f 023d
00000120: e116 20bb e215 81bd 010c 633d 9c36 403d
00000130: ce75 693d 6c5b 4d3d 25ee 6ebc 74c1 5f3c
00000140: 680d 94bd 009a fd3c 910c 153d c956 c33c
00000150: cdc3 343c 08eb 95bd 9ece 39bc a489 29bc
00000160: eee9 e83c a1c4 24bd f8f3 fe3c f4a6 f5bb
00000170: a020 5fbd b29f 8ebb 458f 8c3c ac34 6bbd
00000180: 2768 7fbd c480 a3bd 385e 543d e088 f83c
00000190: 2c7c 1abd 5fe2 2abd a9bc d0bc 557b 4c3d
000001a0: adf2 913c fd54 70bc f00e ffbc 0d44 3dbd
000001b0: fa13 bf3c 2cc5 c0bd 912e 473d 18a7 cfbc
000001c0: 3fa3 a5bd d43b 0fbd ee66 e0bd a541 19be
000001d0: ba6a b7bd 0465 783d 417f 863d d2ef 873d
000001e0: b3eb d73d f346 7fbc 9a11 003d aecf 913d
000001f0: 0580 9e3a 8642 233d 3a82 e7bc 0b53 45bd
00000200: 1620 903a c464 da3c f0a7 593c 46ad b9bd
00000210: 3078 39bd 7145 813d e900 7ebb 23ec afbd
00000220: 5a16 adbd bdb4 eebd 4103 c0bb 6678 e43a
00000230: 3d14 633c ef24 2ebd 0def dfbd 371e 37bb
00000240: b4b6 443d f731 503c a9fc 0cbd a66d e9bc
00000250: 69de a4bc 2d33 8dbc bdb4 ccbc d769 8e3b
00000260: 6c6e 673d 7370 963c 0740 82bd 2256 cbbd
00000270: 1fd7 2dbd 36fc 70bd d55f 6bbd 9df9 8bbd
00000280: cf9c 493d 7328 023d fe47 f33c 18c0 ee3c
00000290: 3c4e fa3b f8f6 9dbc 7aed 12bd af76 aa3b
000002a0: d83b a3bd 0c09 153d 1d48 98bb 32da 03bd
000002b0: ad7c 0dbd 0925 c6bc 1abc 853a e453 173b
000002c0: 0c90 3fbd 8d76 a2bd 6698 ba3c 6768 793d
000002d0: 9b3f 32bd 4d82 e03b 27c9 8dbd 65ba 7fbb
000002e0: 09b5 9ebc 5291 93bb 1eda abbc fcb0 553a
000002f0: 693f b8bd cdd9 5ebd bedc 13bc 1801 9b3d
00000300: eca4 c0bc 4930 463c 0c9f 7fbc d43e 39bc
00000310: c310 62bd 93e6 8a3d 1383 b6bd 1298 b4bc
00000320: c7a4 35bb 7f7a a13b 136a c1bd 5aab b8bc
00000330: 5c70 a63c c6ab a5bd e0ae 053d f252 663d
00000340: 1d49 8b3d e176 9c3b f54d e83c 20f2 6bbd
00000350: 6c36 06bc 8427 2ebd fd46 ac3c 5623 893d
00000360: d272 a33d 638d a0bd 0ef7 953c 8eda 9bbb
00000370: 2f61 3ebd 2585 073d f6a8 9eba 2424 d3bc
00000380: 620a 853d 40c2 f73b 2ed4 453d 8610 36bc
00000390: 2c1e 763d f6cc 913d f59f 753c 7e4b 7cbc
000003a0: 1a1c 23bd ca82 15bd 78f7 5c3b 71b1 833d
000003b0: bbd6 f43c 2217 56bd cd6d 083d 4cfb aebd
000003c0: a44c af3c f054 83bc 652a d43c 9d70 adbd
000003d0: 27a8 97bd db75 aabd 187e a7bd 3db9 093d
000003e0: 9e4d 45bc 11ea 20bd a72e ec3c 80c2 a9bd
000003f0: 6f30 26be 82cf 9bbd bc3f 6cba a97c 10be
-0.046417452 0.060841046 -0.0521093 0.040253606 0.04568456 -0.06297933 -0.011284124 -0.034298442
0.0019205642 0.068541326 -0.013625931 -0.043582883 0.040625643 0.056335773 0.03755202 0.07953316
0.010940991 0.03656948 -0.038413603 -0.04092116 -0.10073632 0.034380388 0.038349953 -0.051144168
-0.0064328085 0.036200617 0.03802212 -0.07286917 0.02133376 0.014694436 -0.0770221 -0.023767663
0.033082854 -0.0010057314 0.035423692 -0.043861732 -0.058841158 -0.13673072 -0.13266025 -0.050559863
-0.10430504 -0.069167465 -0.095556274 -0.037241824 -0.11101493 -0.090370074 -0.07014279 -0.015327996
0.037670143 0.005034134 0.026064945 -0.077707805 0.0049503916 -0.06525812 0.022199174 0.008801946
0.00045474345 0.013316615 -0.07369439 -0.033676278 0.0052635297 -0.10645915 0.026440002 -0.050069142
0.04978102 -0.054176364 -0.0691671 -0.1080316 -0.04264255 0.04010577 0.038451236 0.031798586
-0.00244277 -0.06303002 0.05543137 0.04692708 0.056997113 0.050136015 -0.014583145 0.013656963
-0.072291195 0.030957222 0.036388937 0.023845093 0.011033011 -0.07320219 -0.011340765 -0.0103477575
0.028431859 -0.040226582 0.031122193 -0.007496709 -0.054474473 -0.0043525333 0.01715816 -0.05742328
-0.062355187 -0.079835445 0.051847667 0.030338705 -0.037716076 -0.04171979 -0.025480585 0.049922306
0.017815912 -0.0146687 -0.031135052 -0.046207476 0.023324955 -0.094126076 0.048628394 -0.025348231
-0.08087777 -0.034969166 -0.10957132 -0.14966448 -0.08955903 0.06064321 0.065672405 0.06637539
0.10543003 -0.01558088 0.031266786 0.0711969 0.0012092596 0.039858364 -0.028260339 -0.0481749
0.001099589 0.026659377 0.013284668 -0.090662524 -0.045280635 0.06312073 -0.0038757867 -0.085899614
-0.08451529 -0.11655567 -0.005859763 0.0017430901 0.013859806 -0.04251569 -0.10934267 -0.0027941593
0.0480258 0.012707225 -0.034420643 -0.028494667 -0.020125585 -0.017236317 -0.024988526 0.004346113
0.05650179 0.018364167 -0.063598685 -0.09928538 -0.042441484 -0.058834277 -0.05746444 -0.06834719
0.04922181 0.031776857 0.029697414 0.029144332 0.007638721 -0.019282803 -0.035871007 0.0052021365
-0.07970399 0.03638558 -0.0046472684 -0.03219051 -0.03454273 -0.024187582 0.0010203153 0.0023090774
-0.046768233 -0.07932768 0.022777747 0.06089058 -0.04351769 0.0068514706 -0.069231324 -0.0039021012
-0.019373434 -0.0045034075 -0.02097803 0.0008151678 -0.089964695 -0.05440693 -0.009024797 0.07568568
-0.02351614 0.012096473 -0.015601885 -0.011306483 -0.055191766 0.0678226 -0.08911719 -0.022045169
-0.0027716623 0.0049279328 -0.0944406 -0.022542644 0.020317249 -0.08089404 0.032637477 0.056231447
0.068010546 0.0047749137 0.028357485 -0.057603955 -0.008191686 -0.042518154 0.021029944 0.06696193
0.079808846 -0.078394674 0.018306281 -0.0047562784 -0.0464794 0.03308596 -0.0012104798 -0.02577407
0.06496121 0.007560998 0.048298053 -0.011112338 0.060087368 0.07119171 0.01499175 -0.015398858
-0.03982172 -0.036501683 0.0033716839 0.06430329 0.029887548 -0.052268155 0.03330784 -0.08544025
0.02139885 -0.016031712 0.025899122 -0.08468745 -0.074051194 -0.083232604 -0.08178347 0.033623923
-0.012042431 -0.039285723 0.02883084 -0.08289051 -0.16229413 -0.07607938 -0.00090121827 -0.14110054

cnn.3.bias f4 [32]
00000000: 10fe f4bd fe2f c3bd 3e95 1cbe 3a07 29be
00000010: ae94 0cbe bfb6 cfbd 276d d5bd 23c3 35be
00000020: 3538 14be 2611 a2bd d17b 98bc 0891 94bd
00000030: 87f7 91bd 1f8e b9bd fd8b 47be 0758 22bc
00000040: d505 e7bd 5519 01be 2515 20be f00d fdbd
00000050: c247 fcbd f46a 1dbe 224f 283d f606 ddbd
00000060: 0736 a3bd 26b7 07be 00f7 c1be d364 aebd
00000070: b567 3ebe 8031 3fbe f56a c2bd e4da 9dbd
-0.11962521 -0.09530638 -0.15291306 -0.16506663 -0.13728592 -0.10142278 -0.1042121 -0.1775022
-0.14474566 -0.07913427 -0.018613728 -0.07254225 -0.0712729 -0.090603106 -0.19486995 -0.009908683
-0.11280409 -0.1260732 -0.15633066 -0.12356174 -0.12318374 -0.1537283 0.041091092 -0.10792343
-0.07969289 -0.1325346 -0.3788376 -0.085153244 -0.18594249 -0.18671227 -0.09493057 -0.07707766

cnn.6.weight f4 [64, 32, 3, 3]
00000000: 5e76 02bd 3266 0cbd c4aa 5b3d c374 5fbd
00000010: e43d 683c 5cdc b6bc 4cae 5abc d48d b5bc
00000020: 3810 153d de98 b7bc ff10 f13c baf0 40bd
00000030: da16 1dbd 1654 84ba b1ee 4fbb f4b2 243c
00000040: 92d4 033d e0e7 893c ff2b d3bb f43e 51bc
00000050: 4010 9cbc e175 53bd 183e 19bd 0ece a0bd
00000060: 07d5 443c ce4e 5abd 8222 d73c 593c 0e3d
00000070: 4cb0 533c 755f 09bd c6dd 323d 53fe 82bd
00000080: 8d95 09bd df5c e4bb 9d0e e73b 08a0 1ebd
00000090: 6fd6 64bd 385c 5fbd 581a 82bd d6ad 0a3d
000000a0: f2e5 85bd 34a9 da3b 483a 13bd c92f 86bd
000000b0: d20e eebc 3540 82bc e56c 79bc 4f21 463d
000000c0: 6b3f cd3c 97ad 143c 519b 48bd 9db0 0fbd
000000d0: c585 643b 6555 243d 8549 173d 1e0c 023d
000000e0: 25f0 a2bc 47af b53c e6b1 443c e838 083d
000000f0: 2d3e f83c 4bc3 6cbd c242 f9bb bab6 3ebd
00000100: 39a7 6dba 8387 8439 e0fa cebd 8c09 30bd
00000110: fc89 843c bf61 33bd 06e2 04bd b9e0 803c
00000120: 3f0e aebc 34fa 0f3d 545b 3fbd 2b79 a9bd
00000130: da0e 263c b593 9dbb d311 43bb 5936 7bbd
00000140: 54ef 4bbb 6bee 38bc 9e7c df3c 9332 bcbc
00000150: d22f 04bd 9d64 60bd ebca 973c aa1c bbbd
00000160: bc01 a13c 64fb 47bc a433 b3bc ddbd acbc
00000170: 3877 413c 9a02 f4bc 5358 1cbd e53b d8bc
00000180: 75fd 4cbd c8ed 5abd 8a8f b2bd 5edf 9e3a
00000190: 931f d8bc 55ec d63c c86d 1bbc 6cde 45bc
000001a0: fb60 1b3d f353 9ebc 796a 0abd d77e 2b3d
000001b0: e99d 873c 650a 403c 094b 0c3d 8d3c 943c
000001c0: 556c a53b cca2 bc3c 3167 3b3c 70b7 28bc
000001d0: 69ac 16bc d7b5 e13c 873a 5f3b 4a8c 10bd
000001e0: 6134 b4bc f340 133d 4ae7 02bd 7c19 44bd
000001f0: 144f 04bd 9666 27bd 3084 66bd da25 2fbd
00000200: 713f 013c 3b9e 003d 5c7e 463d 1fcd b53b
00000210: c786 edbc 0eec b33c a13f f53c 9873 61bd
00000220: 0901 373c c15d 503c fe2b 4dbd dcd7 083d
00000230: b4a1 22bd b862 ebbc f036 b33c 10e6 6a3c
00000240: e250 dc3c a947 7ebc 7315 ca3c 6111 6bbd
00000250: 46b4 db3c d734 26bd 5f27 2b3d 4b06 563d
00000260: f4ca 1c3d 6601 60bd 24de 823c aa31 d4bc
00000270: d554 363d ba28 9e3b 7f2f 61bd 3560 3cbc
00000280: c85a 80bb 7cc6 5e3d 6c52 49bd ca3a c2bb
00000290: 49fa 49bd ce75 1fbd 09fb f2ba 3212 cbbc
000002a0: b713 263d 7387 50bd 3c6e a7bc f126 7abc
000002b0: e664 2b3d cd55 69bd 97af 853c b6d3 d83c
000002c0: 86a9 d0bc 1a0a 213d aa16 e33c 8b4a e5bc
000002d0: e4ec 843c 72e2 163c f4ca 853b 0b50 b0bd
000002e0: 194d 3fb8 5cb6 ca3c ecb2 53bd b4f8 a93c
000002f0: 320b 19bd 7941 a5bd 87cd 1ebc 876c fe39
00000300: 11d7 9abd 6449 063d 0b04 6fbc c213 0a3d
00000310: ddf7 98bb 24c4 6c3c c933 71bd bcae c7bc
00000320: b320 bfbd 911c 463b 3d5e b1bd b2fb cc3b
00000330: 22c6 8dbb 0e30 02bc 872a 8cbd 5009 72bc
00000340: d041 3fbd 0eb7 1dbd 4886 4cbc c904 2a3d
00000350: f0e8 573b f848 693c c54f 2abd 8f8e 83bd
00000360: d498 50bd 8850 e33c e38d cdbb 86a9 f83c
00000370: cf97 85bb 52b8 0f3d 48ea aabc ee2d 14bd
00000380: 885a 24bc d600 033c 3088 373d c5b5 3b3c
00000390: 256b 4b3c d8ae 3abd 0cb9 273d 5d46 1b3c
000003a0: d42f 30bd 2777 1cbd ea0a 6fbc 4e7e 2bbd
000003b0: 6dae 53bc 0fea 9ebd c979 6fbd 31c6 47bc
000003c0: 5107 1e3c e98b 583c 6577 97bd fb0a 87bc
000003d0: 1606 4cbc 6d23 0a3a 5ed5 1b3d e50c 82bd
000003e0: e79e 8cbd 133b 45bd 5255 0f3d e6a6 783a
000003f0: 389c 52bd a70b f63c 9141 8dbc 407e e3bc
-0.031851165 -0.03427715 0.05362965 -0.054554712 0.014174912 -0.022321872 -0.01334722 -0.022162355
0.03639242 -0.02241176 0.02942705 -0.047104575 -0.03835187 -0.001009586 -0.0031727965 0.010052431
0.032185145 0.0168342 -0.0064444537 -0.012771357 -0.019050717 -0.05162609 -0.037412733 -0.07851802
0.01201368 -0.05329781 0.026261572 0.03472552 0.01292045 -0.0335383 0.04366853 -0.06396165
-0.03358989 -0.006969079 0.0070513026 -0.038726836 -0.055868562 -0.054531306 -0.06352681 0.03385719
-0.06537999 0.0066730026 -0.035944253 -0.06552083 -0.029059801 -0.015899757 -0.015223716 0.04837161
0.025054654 0.00907459 -0.048976246 -0.03508054 0.0034869772 0.0401205 0.036935348 0.031749837
-0.0198899 0.022178305 0.012005305 0.033257395 0.030303085 -0.057803433 -0.007606835 -0.04656098
-0.00090657506 0.00025277966 -0.10106444 -0.042977855 0.016179077 -0.04379439 -0.032442115 0.015732156
-0.021247027 0.03515072 -0.046717957 -0.08275064 0.010135377 -0.004808868 -0.0029765263 -0.061331127
-0.0031117992 -0.011287312 0.027281102 -0.022973334 -0.032272168 -0.054783452 0.018529376 -0.091363266
0.019654147 -0.012205932 -0.02187521 -0.021086628 0.011808209 -0.029786397 -0.03817017 -0.026395747
-0.050046403 -0.053449422 -0.08718784 0.0012121012 -0.026382243 0.026235739 -0.009486623 -0.012076955
0.037934285 -0.01932714 -0.033792946 0.04186901 0.01655479 0.011721228 0.034251247 0.01809528
0.0050483146 0.023026846 0.011438177 -0.010297641 -0.009196379 0.027552528 0.0034061985 -0.03529004
-0.021997632 0.035950612 -0.031958856 -0.047875866 -0.032301977 -0.040869318 -0.056278408 -0.042760707
0.007888661 0.0314009 0.04846035 0.005548134 -0.02899493 0.021963146 0.029937567 -0.05504188
0.01116968 0.012717665 -0.050090782 0.033408985 -0.039704993 -0.028733596 0.021876782 0.014337078
0.026894037 -0.015520015 0.02466843 -0.05738962 0.02681936 -0.040577736 0.041785594 0.052252095
0.03827949 -0.054688834 0.015975066 -0.025902588 0.044514496 0.0048266323 -0.054976936 -0.011497547
-0.003917072 0.05438851 -0.04915087 -0.0059274184 -0.049310956 -0.038930707 -0.0018537949 -0.02478895
0.040546145 -0.050910424 -0.020438306 -0.015268073 0.04184427 -0.05696659 0.01631908 0.02646814
-0.02547146 0.039316274 0.027720768 -0.027989646 0.01622624 0.009209262 0.004083032 -0.08609017
-4.560975e-05 0.024745159 -0.051684305 0.020748474 -0.037364192 -0.080691285 -0.009692556 0.00048527514
-0.07560552 0.032784835 -0.014588366 0.03371025 -0.0046682195 0.01445106 -0.058887277 -0.024375312
-0.09332409 0.003022943 -0.08660553 0.0062555904 -0.004326598 -0.007946027 -0.06844049 -0.014772728
-0.046693623 -0.038504653 -0.012483187 0.04150847 0.0032945238 0.0142385885 -0.04157998 -0.06423675
-0.050927 0.027748361 -0.0062730177 0.030354273 -0.004076935 0.03508789 -0.020863667 -0.036176614
-0.01003135 0.007995805 0.044807613 0.011456911 0.012415682 -0.0455769 0.04094796 0.009477225
-0.043014362 -0.03819957 -0.014590004 -0.0418685 -0.012920004 -0.07759487 -0.058465753 -0.012193249
0.009645299 0.013216951 -0.073958196 -0.016484728 -0.012452623 0.0005269561 0.03804528 -0.06350116
-0.06866246 -0.04815204 0.034993477 0.0009485319 -0.051418513 0.030034853 -0.017243179 -0.027770162

cnn.6.bias f4 [64]
00000000: 69f2 6ebd 87a4 adbc eaed 65bd 9d9d 14be
00000010: 631b 73bd b8db 9cbd 2df9 54bc 72b0 a3bd
00000020: 41b0 d7bc f2c6 2dbd a518 2abd d827 4cbd
00000030: e862 a9bd 33f0 83bd 7c21 96bd 305c 85bd
00000040: cd7d 62bd c691 a3bd 4663 90bd 797a 82bd
00000050: a8ea cfbd 057d 09be 2927 bbbc 1b3f 10bd
00000060: 68bd 593d 7562 b8bd 2263 b7bd 50f2 20bd
00000070: d61f b7bc ebdc 04be 762f 85bd b407 b7bd
00000080: 78f6 86bd 1a3b b5bd d891 42bd 8fbd 18be
00000090: 2728 1abd a654 95bd 8c61 acbd e8f5 bcbd
000000a0: a5a1 e6bd abd0 0e3e ba57 77bd 9662 67bd
000000b0: d4a8 5dbd 22f1 47be 71b4 ddbd 4dd0 d2bd
000000c0: 51c7 e4bd 685d aebd 1db6 d0bd 35bb 82bd
000000d0: c539 0bbd e1ee 01be aae8 efbd 914b 93bd
000000e0: f637 f3bc 3811 b2bc d98d aebd d51f 1abe
000000f0: 4957 8ebd 1f28 dabd cfd3 8fbd bc3e 6ebd
-0.05833665 -0.021196617 -0.056135096 -0.1451325 -0.05935229 -0.076590955 -0.012998861 -0.07992639
-0.026329162 -0.042426057 -0.04152741 -0.049842685 -0.08270818 -0.06442299 -0.073306054 -0.06511724
-0.055295754 -0.079867885 -0.07050185 -0.06371016 -0.10152179 -0.13426597 -0.022845821 -0.035216432
0.053159148 -0.09003154 -0.08954455 -0.039293587 -0.022354048 -0.12974899 -0.06503193 -0.08937016
-0.06589979 -0.08849163 -0.04750237 -0.14916061 -0.03763595 -0.07291536 -0.08417043 -0.092265904
-0.112613 0.13946788 -0.060386397 -0.056490503 -0.054116085 -0.19525579 -0.10825432 -0.102936365
-0.11170829 -0.085139096 -0.10190985 -0.06383363 -0.03399064 -0.12688781 -0.11714299 -0.071921475
-0.02968977 -0.021736726 -0.08523149 -0.15051205 -0.06950242 -0.10652184 -0.07022821 -0.058165297

cnn.9.weight f4 [128, 64, 3, 3]
00000000: 6415 ed3c 0b13 3dbd eb83 373c 054f 7ebc
00000010: 15cd c0bc 2bf2 783b 030e 08bd 66c5 0bbd
00000020: b0c7 b33c 189d 773c b1fc b4ba 42f0 383c
00000030: 2172 463d 75b1 433c 1d39 15bc 9cfc 1f3d
00000040: c7ec 4d3c 2511 ed3c 28ff 153c 586f 383d
00000050: 803e 8fbb 7307 ae3c 7bf0 78bc aba4 b33c
00000060: a52d 09bd c8df ee3c 6ce1 3dbd 9cc9 fbbc
00000070: 1c57 2ebd 76be 833c 8277 fd3c 2e19 a43d
00000080: 404c 023d 5693 173d 7a4d 913d e7a3 06bd
00000090: f850 1f3d d60f 7c3d c863 9fbc c70c 6f3c
000000a0: b23e 1a3d 490f 15bd f06b 21bc dbd9 e6bc
000000b0: d209 c23c 00a1 7e3b 6d2d 7c3c 4465 543c
000000c0: 70e4 263d 8081 dc3c 2f85 1cbd 133a bb3c
000000d0: f0bc cebc 6bf0 bb3b 9dfc e3bc d529 353b
000000e0: a218 083d 8d07 03bc 3460 1cba 969b 073d
000000f0: eaf2 abbc b3ea 88bc bf48 f83c 7c1e 99bb
00000100: 2454 c03b d0a9 21bd e5b6 ce3c ab8e 263c
00000110: 29ff 2a3c 68bf 08bc c229 e43a 6a08 46bc
00000120: 49bb 463d 4cd8 5b3c ba3f 443c f846 86bc
00000130: cf9d 063d 3d08 debc b167 74bc dba6 853b
00000140: 8e9f 32bd 8ecc d8bc 9b08 2fbd 7502 4dbd
00000150: 4fa1 23bc fcef c2bd ec2c a5bc 2f69 e2bd
00000160: 41c8 4ebd aef7 20bd 2078 aabd 4592 90bd
00000170: fa35 47bd e025 d6bc a39c 03bb c51d 0bbc
00000180: ba71 aabd cc3b 90bd dba5 9bbd 7ba0 873c
00000190: 7244 06bd a67b d8bc f51c a9bc d408 a83c
000001a0: c02c d1bb 5db3 5c3c be73 ccbc e0a9 cfbb
000001b0: c5b8 e83c f4c7 953c 0df4 46bd 4055 b3bc
000001c0: fb29 8e3c 18dd 42bc 2019 b33b 4b16 2ebc
000001d0: a534 e83c 168d b5bc a23d 733b c701 0e3c
000001e0: 2a9e 57bc 8c76 00bd 0317 00bc ca2b 713c
000001f0: 7956 993b 7407 0c3b 0bd4 a23c 526f f0bc
00000200: 25db 0bbc a003 52bd ffac f9bc 70c7 beba
00000210: a9a2 6bbc 9977 b13b 178a b23c 0911 203d
00000220: f6bb 35bc 0281 983c e450 8c3b 7a4b 9bbd
00000230: 2017 a0bd 6a3d 15bd 48ff b13b 3eca 24bc
00000240: 2be2 243d 79f7 773d 46b3 37bc 6f36 913d
00000250: 10a9 033d 160d e2bc 8ce4 033d 235c 133d
00000260: 70bf 05bc aa43 aa3c 4409 0fbd 5bd4 1fbd
00000270: 3ccc c83c 27b1 223d 7f92 acbc 5e71 27bc
00000280: da28 88bc 8eff 08bd 1a39 e53c 8862 04bd
00000290: 1c47 1c3b afa1 8ebc 527b 083c 8bc8 84bc
000002a0: 4ca2 1e3d 01c3 fb3c b756 92bc d4ae 813d
000002b0: 24d2 86bc 341c 083d 17cb 7a3d 04b6 393d
000002c0: cd8d 23bd ef1c 093c fce8 cebc 366b 31bc
000002d0: 7174 fe3c 454f 0abd d603 8fba f82c 133b
000002e0: d969 0fbd 000c de3c abbd 2d3c 6860 f83b
000002f0: c0c8 fbbb 825f ea3c 3358 e03c 7f68 643c
00000300: e184 ee3a c323 dabc 5dcc fe3c c12d 2dbc
00000310: 2f81 b8bc f8ec aabc 6d34 e0bd ee17 20bd
00000320: 1441 a6bd 0938 c43c 9ae2 1cbe cc16 10be
00000330: 53f0 1dbd c80b 5cbd d3a2 0ebd 1bf0 33bd
00000340: 56ce e03c 2394 903c 31c6 0c3c ca02 d33b
00000350: eb69 683c bd41 cc3c 8158 223d fbfe 0bbc
00000360: ca87 9b3c fae8 0abb 52c9 82bd d6f7 80be
00000370: 6d2c 87be 02a7 15be e034 c83c 9e3d 4b3d
00000380: 3ce2 21bc 3f00 78bd 7f9c 9bbc 7d26 853c
00000390: 046c d7bd 681d cfbc 260c 08bc 8bed 473c
000003a0: 9c1f c1bb 8c81 85bd 6bed f33c 445d f83b
000003b0: 16a9 1bbc e192 a03a 5c3f 92bb 913b 0ebd
000003c0: 0893 a33c 38ac 18bb 7eda a73b a6ed ae3c
000003d0: f8a0 643d 1673 3e3b adca a73c 6fba 2e3c
000003e0: 0cb9 023d 7750 ad3c 875c 16bb 487e ec3c
000003f0: b6f2 213d f695 1abd 66d1 963c bce6 163d
0.028940864 -0.04616074 0.011200885 -0.015521769 -0.02353529 0.003798614 -0.033216488 -0.0341238
0.021945804 0.015113138 -0.0013808218 0.011287751 0.048448686 0.0119441645 -0.009107855 0.039059266
0.012568659 0.02893884 0.009155072 0.04502806 -0.0043714643 0.021243786 -0.015194054 0.021929106
-0.033490796 0.029159442 -0.046357557 -0.030735783 -0.042563543 0.01608203 0.030940775 0.08012615
0.031811 0.037005745 0.070948556 -0.032871153 0.038895577 0.06153854 -0.01945676 0.014590449
0.037657447 -0.03639153 -0.009852394 -0.028180053 0.023686323 0.0038853288 0.01539169 0.012963597
0.0407452 0.02691722 -0.03821295 0.02285484 -0.025236577 0.005735447 -0.027830416 0.0027643342
0.033226617 -0.007997406 -0.0005965263 0.033107363 -0.020989854 -0.016713476 0.030308126 -0.0046728235
0.0058694053 -0.039468586 0.025233695 0.010165851 0.0104368115 -0.008346416 0.0017407464 -0.012086967
0.048518453 0.013418268 0.011978084 -0.016391262 0.03286534 -0.027103538 -0.0149173 0.0040787286
-0.043609194 -0.026464727 -0.042732816 -0.05005117 -0.009987189 -0.0951843 -0.020163022 -0.110552184
-0.050483946 -0.039298706 -0.08323693 -0.07059149 -0.04863546 -0.026141107 -0.0020082376 -0.008490984
-0.08322473 -0.07042655 -0.07599994 0.016556015 -0.03278012 -0.026426148 -0.02064369 0.020512022
-0.0063835084 0.013470498 -0.024957534 -0.0063373893 0.028408417 0.018283822 -0.04857259 -0.021891236
0.017354002 -0.011893533 0.0054656416 -0.010625432 0.028345415 -0.022162002 0.0037115593 0.008667416
-0.013160268 -0.031363055 -0.007817986 0.014719913 0.004679498 0.0021366747 0.0198765 -0.029349957
-0.008536135 -0.05127299 -0.030477999 -0.0014555287 -0.014382043 0.0054158685 0.021794362 0.039078746
-0.011092177 0.018616203 0.004282104 -0.075827554 -0.07816911 -0.036435522 0.005432043 -0.010057984
0.040254753 0.060538743 -0.011212176 0.070904605 0.032143652 -0.02759413 0.03220038 0.03597654
-0.008163318 0.020784218 -0.034920946 -0.039020877 0.024511449 0.039719727 -0.021065949 -0.0102199
-0.016621042 -0.03344684 0.02798133 -0.03232053 0.0023846095 -0.017411081 0.008330183 -0.016208908
0.038728997 0.030732634 -0.017863614 0.06332174 -0.016457625 0.03323002 0.061228838 0.0453396
-0.039930154 0.008368715 -0.02525758 -0.010828784 0.031061383 -0.033767004 -0.0010911177 0.0022457223
-0.035013054 0.027105331 0.010604302 0.007579852 -0.0076838434 0.028609995 0.027385807 0.013940929
0.001819756 -0.02662838 0.031103307 -0.010569991 -0.022522537 -0.020864949 -0.109474994 -0.03908532
-0.081178814 0.0239525 -0.15320817 -0.14071196 -0.03855927 -0.053722173 -0.03482325 -0.043930154
0.027442139 0.017648762 0.008592174 0.0064395415 0.014185409 0.02493369 0.039635185 -0.008544679
0.018985648 -0.0021195994 -0.06386055 -0.25189084 -0.26401082 -0.1461449 0.024439275 0.04961931
-0.009880599 -0.06054711 -0.018995522 0.016253704 -0.10518649 -0.025282577 -0.008303678 0.012202631
-0.0058936607 -0.0651885 0.029776296 0.0075794775 -0.009500762 0.0012250805 -0.0044631194 -0.034724776
0.01996757 -0.002329601 0.005122482 0.021353554 0.055817574 0.0029060296 0.020482386 0.010664566
0.031914756 0.021156533 -0.0022943334 0.02886881 0.039538108 -0.03774067 0.018410396 0.03684114

cnn.9.bias f4 [128]
00000000: d3c1 05bd 1d0f b4bd 207d 05be 91f2 a2bd
00000010: 4b0b 2dbb c553 7ebc c146 a0bd b0d5 87bd
00000020: 6352 1f3e 9354 29bd 0dfe 18bd 7365 04bd
00000030: fb45 08bd 5b4b 07be c4e3 96bd c260 57bd
00000040: 1a3a 3cbd 4840 53bd ec68 babd 97e0 43bd
00000050: 1555 6abd b67a 8dbd a857 b1bc 463f 8fbd
00000060: 5b6c 9fbd c839 46bd 9ccc 22bd 354b 2cbd
00000070: f364 0cbd 87c8 95bd a1c8 adbd 9b96 25bd
00000080: 460d 17bd e6f3 52bd 1af0 babc 3082 09bd
00000090: 27cf 95bc 86cb e8bc 8802 5bbd c83d 38bd
000000a0: ab86 88bd 565e 2ebc c434 27bd d6af 04bd
000000b0: 7ed0 9dbd 8f0a 98bd 7060 24bd 033b 36bd
000000c0: bc8d 14bd 77e7 fabc 8aaa 4bbd d788 7cbd
000000d0: a358 b4bd b588 51bd b774 b4bc fa0d 9abd
000000e0: 02f2 18bc 8ae2 9fbd 63cf 89bc 7082 82bd
000000f0: 56e1 303e 4f0b d7bc 8118 96bd 642e c8bc
00000100: a73b 41bd 07c6 a0bd 05dd d13d cfb8 4dbd
00000110: 635c a3bd afd0 d1bc 2b83 45bd b8b7 0cbd
00000120: 0cd2 65bd 9465 64bd 0370 1abd 1917 28bd
00000130: 67ce 4f3d d171 1bbd 3d53 42bd 2a94 40bd
00000140: ab17 573d f531 0cbd 3dff 8dbd 6f0f 8abc
00000150: 5c78 efbc 02e5 47bd 051f 0bbd 3897 29bd
00000160: 0f26 1cbd d935 7ebd 39b3 6bbd 8caf 4cbc
00000170: 3fb0 adbd 015f 4fbd dcc4 42bd 2509 b4bd
00000180: 4ccf 9cbd 5027 01bd 9da0 c5bd 5a0d 8ebd
00000190: d98d a4bd 4a56 7bbd 12a3 8ebd 2c20 90bd
000001a0: 9547 cabd 0d5e 1fbd 0ec1 1ebd 8a73 11bd
000001b0: 8009 a8bb 7396 b7bc 4f88 9fbd 6238 8abc
000001c0: 459c a6bd 4a1c 85bd 2f90 2fbd 5068 4cbd
000001d0: a9b5 a2bd 6010 14be e54e 02bd 57d4 62bd
000001e0: a1ec a0bd 87b1 cabc a394 33bd 33ba a0bb
000001f0: 6c54 7bbd 80a5 01bd 679f dabc c4ea 04bd
-0.03265555 -0.08791945 -0.13036013 -0.07956422 -0.0026404436 -0.015522902 -0.07825995 -0.066325545
0.15558772 -0.041340422 -0.037351657 -0.032323312 -0.033269864 -0.1321234 -0.073676616 -0.05258251
-0.045953847 -0.051574975 -0.091020435 -0.047821607 -0.057210047 -0.06908171 -0.021648243 -0.0699449
-0.07784339 -0.04839495 -0.039745912 -0.04206391 -0.03427596 -0.07313638 -0.084855326 -0.04042683
-0.036877893 -0.05150213 -0.022819567 -0.033571422 -0.018287254 -0.02841736 -0.05346921 -0.044980794
-0.06666311 -0.010642609 -0.040821806 -0.032394253 -0.07705782 -0.07423889 -0.040131032 -0.04448987
-0.03626798 -0.03062795 -0.049723186 -0.06165394 -0.088059686 -0.051155765 -0.02202831 -0.07522197
-0.009335043 -0.07806881 -0.016822523 -0.06372535 0.17273459 -0.02625051 -0.073288925 -0.024436183
-0.04717603 -0.07850271 0.10247234 -0.050225075 -0.07976606 -0.025612203 -0.048220795 -0.034354895
-0.05610852 -0.055760935 -0.03770448 -0.041037653 0.05073395 -0.03795034 -0.047442663 -0.0470163
0.052512806 -0.03422733 -0.069334485 -0.016853062 -0.029232197 -0.048802383 -0.03396513 -0.04140398
-0.038122233 -0.062063072 -0.057543967 -0.0124930255 -0.08480882 -0.050627712 -0.04755102 -0.08790807
-0.07656726 -0.031531632 -0.09649775 -0.0693614 -0.08034868 -0.06136159 -0.06964697 -0.07037386
-0.098769344 -0.038908053 -0.03875833 -0.035510577 -0.0051280856 -0.022410607 -0.07789671 -0.016872589
-0.08135275 -0.06499536 -0.042862114 -0.049904168 -0.07944805 -0.14459372 -0.03181352 -0.055378284
-0.078576334 -0.024742855 -0.043842923 -0.004905009 -0.061359808 -0.031651974 -0.026687337 -0.032450452
