Assets/ONNX/cnn.onnx (onnx, 391165 bytes, 8 tensors)

cnn.0.weight f4 [16, 3, 3, 3]
000000 6b c5 2b be 9b c6 24 3d 7d b3 b6 3d b9 46 b9 bd
       -0.16774528 0.040228467 0.089209534 -0.090466924
000010 84 ad 14 3d 1a cd 73 bb 28 33 b6 bc b9 e0 7a be
       0.03629829 -0.0037201107 -0.02224119 -0.24499787
000020 c5 40 6e 3d 5f be 1c be 79 65 d8 3d 85 0d 8e bd
       0.058167238 -0.15306996 0.105662294 -0.069361724
000030 b1 f5 55 be 17 a7 06 be 93 3f 69 3d 10 96 a4 3b
       -0.20894505 -0.13149677 0.056945395 0.0050227717
000040 b4 98 52 3d ce 2b b9 bd 25 e8 ea bd 2c d1 b7 bd
       0.05141516 -0.09041558 -0.11470059 -0.08975443
000050 e8 4b 14 bd 0e ef eb bd 86 5f 42 be a6 7d 39 bd
       -0.036205202 -0.115202054 -0.18981752 -0.045285843
000060 05 0f b5 3d 6c 4d ca bb 88 8b ca 3d 56 aa 36 3e
       0.088407554 -0.00617378 0.09889895 0.17838416
000070 cb a1 34 3d 82 af d5 be 6f a7 8a 3e 02 b0 9a 3e
       0.04409961 -0.41735464 0.27080867 0.30212408
000080 9e 75 f4 be 9c de 77 3e fd a1 b1 3e 51 f3 8f be
       -0.47745985 0.24206012 0.346939 -0.28115323
000090 ef 0e 99 bc 04 7b 45 be 72 0d c6 be 8a b2 03 bf
       -0.018683879 -0.19285208 -0.38682133 -0.51444304
0000a0 dc ad c7 be 40 d0 15 be bb e8 05 be fd 0c b0 bd
       -0.38999832 -0.14630222 -0.13077061 -0.08596227
0000b0 74 ee da be a1 d5 50 be 81 f0 82 be f8 21 13 bf
       -0.4276005 -0.20393993 -0.25574115 -0.5747371
0000c0 7f 5b 07 be 8e 67 c0 bd d5 47 e7 ba e4 dc e2 be
       -0.13218497 -0.093947515 -0.0017645309 -0.4430915
0000d0 bc 62 85 be b7 f8 04 bd 3b ea 5b be 38 f4 42 be
       -0.2605189 -0.032463755 -0.2147607 -0.19038475
0000e0 d8 a0 60 bc 8f 6b 50 3c e7 c4 79 bc 15 7c ab 3c
       -0.013710223 0.0127209565 -0.015244699 0.02093319
0000f0 13 e1 9a bd c9 3a b2 3d a9 24 37 bd fd 3f 97 bd
       -0.07562461 0.08702619 -0.044712696 -0.07385252
000100 71 6f 9a 3d 33 cd 1c 3d 78 4f 0c bd 52 38 8c be
       0.07540787 0.03828163 -0.034255475 -0.2738672
000110 b7 4b 49 bd 1c 74 b4 bd 32 91 0a be 34 ac 52 be
       -0.049144473 -0.088112086 -0.1353195 -0.20573503
000120 d4 34 ba 3a 9d b6 ae 3c e0 70 b8 bc 52 21 1a be
       0.0014206418 0.021327311 -0.02251476 -0.15051773
000130 f5 26 9e 3d d5 25 2e 3d da 5d f9 3d a2 28 27 3d
       0.07722274 0.04251655 0.12176104 0.040810235
000140 e8 e1 d2 3d ce 30 e3 bd 4c ee 41 be 54 85 27 3d
       0.102969944 -0.11093293 -0.1893856 0.040898636
000150 c0 49 8e bd 20 13 2d be 3f f0 49 be 11 5e be 3c
       -0.069476604 -0.16901827 -0.19720553 0.023238214
000160 9d 20 98 3c 8a e9 3c bd eb 03 75 3d 7e 8c e7 3d
       0.018570239 -0.046121158 0.05981819 0.11306094
000170 6c 4c ba bd a0 00 b7 bd b4 84 c6 3d a9 9e 15 3e
       -0.090966076 -0.08935666 0.0969328 0.14611305
000180 20 3a 07 be 19 5b 3d 3d 23 d5 05 3e 6f 79 60 be
       -0.13205767 0.046229456 0.13069586 -0.21921323
000190 f5 6a be bc 11 37 dd bd 48 42 f1 bd 20 4f f5 bc
       -0.02324436 -0.10801519 -0.1178022 -0.029944956
0001a0 4b 09 84 bd ed 42 e7 3c c8 a8 68 be a5 d8 02 3e
       -0.06447085 0.028230155 -0.22720635 0.12777956
0001b0 e3 39 05 be 09 c8 3d be f4 df 84 bd d1 45 54 bc
       -0.13010363 -0.18533339 -0.06488028 -0.012956099
0001c0 1c f7 c2 3d 34 fc 0e be ce ef f7 3b 67 42 07 be
       0.095197886 -0.13963395 0.0075664287 -0.13208924
0001d0 5e 93 c7 bd 5e 12 99 bb 71 4d 3e 3d f8 13 cd 3d
       -0.09744905 -0.004671379 0.046460573 0.10013574
0001e0 e6 2d ae bd a3 52 dc 3d 45 ee 08 3e 9d d7 ec bd
       -0.08504848 0.10757949 0.13372143 -0.115645625
0001f0 47 69 d7 bc 1f 3c ec bd 4a a1 7d be 24 78 a3 be
       -0.026295317 -0.11534905 -0.24768558 -0.31927598
000200 95 04 05 be ad c1 87 be 21 3b 0a be e8 12 52 be
       -0.12990029 -0.2651495 -0.13499118 -0.20515025
000210 19 fc 44 be 4e 88 c8 bd 6a 5d 7a be 6f 6c 3d be
       -0.19236793 -0.09791623 -0.24449697 -0.18498395
000220 a4 96 f3 bd f5 3a 91 3d 3c a3 6e 3b f5 ec cb bd
       -0.11893967 0.07091323 0.0036413213 -0.09957305
000230 6c d1 38 3e 77 4b 99 bb f0 8a 00 be 95 6f b1 bd
       0.18048638 -0.0046781856 -0.12553 -0.08663861
000240 d3 94 c0 3d 4d d5 04 be 40 62 9c 3d 50 b7 c1 bd
       0.09403386 -0.12971993 0.07635927 -0.09458792
000250 b6 11 19 3d 08 88 1b 3e 64 ba 13 be 5f 2b 19 bd
       0.037370406 0.1518861 -0.14426571 -0.037394878
000260 8e 60 b8 bd 6c 23 14 be 45 a3 2f 3e af fc 22 bd
       -0.09002791 -0.14466637 0.17152126 -0.03979176
000270 17 63 a5 3d e8 e8 c7 bd 28 51 9a bd 00 4e a7 ba
       0.080755405 -0.0976122 -0.075350106 -0.0012764335
000280 ee ea 25 3e e1 96 47 be a1 4b af bd d7 37 83 bd
       0.162029 -0.1949115 -0.08559347 -0.06407135
000290 53 f7 5f be 95 0d 14 3e 1d d1 dc bd e1 05 7c be
       -0.2187169 0.14458306 -0.10782073 -0.24611618
0002a0 bc 10 81 bc 86 53 eb bd 1b 33 bc bd 39 6e 38 be
       -0.01575505 -0.1149054 -0.09189435 -0.18010797
0002b0 b5 67 c8 bd 46 fe cb 3c 41 02 3c be 24 88 95 3d
       -0.097854055 0.02490152 -0.18360235 0.073013574
0002c0 60 d6 81 3d 6f 51 45 be 6f 51 41 bd b1 c9 bc 3d
       0.06339717 -0.19269346 -0.0471968 0.09218157
0002d0 e0 d6 61 be 5f 5f ed 3d a9 c8 d9 3d 37 2e 23 be
       -0.22054625 0.11590456 0.10633976 -0.15935598
0002e0 bb e6 68 bc 98 aa 5d be 04 e9 84 3d c6 09 a1 bc
       -0.014215167 -0.21647108 0.06489757 -0.01965798
0002f0 55 a6 58 be 8b e6 96 be dc 12 21 3d d8 ef 5b 3c
       -0.211572 -0.29472765 0.039324626 0.013423882
000300 6d 2d 76 be df 01 7a be 5b 3c 17 be 9b c3 a8 bd
       -0.24040766 -0.24414776 -0.14769118 -0.08240434
000310 d4 7d df bd 08 9d 20 be fe de 57 be b2 91 89 ba
       -0.10912672 -0.15684903 -0.21081159 -0.0010495691
000320 66 6f 63 be 38 c3 51 3d 85 a7 44 3c 3c d9 95 3d
       -0.22210464 0.051211566 0.01200283 0.07316825
000330 f1 96 85 bb de 78 53 be af b2 3c bd 5b 3f 0e 3c
       -0.0040768315 -0.20651576 -0.046068843 0.008682097
000340 ce 2f cb bd 83 de b4 3c 4c 46 2e bd 57 6c 39 3d
       -0.099212274 0.022078758 -0.04254751 0.045269337
000350 ba f8 59 3b b8 3c d7 bd 12 08 21 3d 2d f7 21 bc
       0.0033259825 -0.10509628 0.039314337 -0.009885591
000360 95 9f 56 3c 0c ff 18 bc a9 c1 fd 3d e2 d7 31 bc
       0.013099571 -0.009338152 0.12390453 -0.010854693
000370 22 f5 e7 3d 76 b0 2d 3e 9e 5a 68 3e 0d 01 bd bc
       0.11326052 0.16961846 0.22690818 -0.02307179
000380 60 f5 46 3e b1 b8 84 3d ac 55 1b bb 6e 98 95 3e
       0.1942954 0.064805396 -0.0023702187 0.29217857
000390 65 ea fe 3c 4f a7 ae bc 88 0e 4b 3d d1 44 8a be
       0.031117627 -0.021320013 0.049574405 -0.27005628
0003a0 a7 fc 3a be f9 03 08 be 90 e2 03 be a8 a6 81 be
       -0.18260442 -0.13282765 -0.12879395 -0.2532246
0003b0 e8 3b 90 be f2 c1 53 3e 1e eb c1 be c5 d6 a1 be
       -0.28170705 0.20679453 -0.37874693 -0.3160917
0003c0 3c 97 ea 3d 9a 8f c4 bd c8 b3 79 be 97 5b 1a 3e
       0.11454627 -0.09597702 -0.24384987 0.15074001
0003d0 27 c0 6f bd ae d2 9a be dd 38 12 bd 7a 78 97 3d
       -0.05853286 -0.3023886 -0.03569876 0.07396026
0003e0 8b 0e 82 be 6f c4 1f bd c4 43 79 3d e2 01 83 be
       -0.2540172 -0.039005693 0.060855642 -0.25587374
0003f0 8a e6 80 3d 75 e6 83 3d 4d e7 8a ba 02 c6 d1 3d
       0.06293972 0.064404406 -0.0010597497 0.10242845

cnn.0.bias f4 [16]
000000 5d 09 59 be c5 73 51 3e 71 ef 17 be b8 2e 62 be
       -0.21194978 0.20454319 -0.14837433 -0.22088134
000010 8b 22 09 bb d2 9b 11 be 55 f9 b5 bd af bb 1d bd
       -0.002092513 -0.14219597 -0.08885447 -0.038509067
000020 30 99 34 3e c4 58 ba bd 56 91 5b bd 9e 91 5b be
       0.17636561 -0.09098962 -0.0536054 -0.21442267
000030 d8 ca fa bd 37 e4 55 be b0 08 b0 3b e7 9c 6e be
       -0.122457206 -0.20887838 0.0053721294 -0.23302041

cnn.3.weight f4 [32, 16, 3, 3]
000000 d6 f7 c6 bd 52 b3 84 3c 6f 4b 71 3d d7 80 dc 3c
       -0.0971524 0.016198788 0.05890983 0.026916904
000010 9c 9a 36 3d 97 07 e3 bc 48 38 e1 bc 98 4c 93 bd
       0.04458104 -0.02771358 -0.027492657 -0.071923435
000020 a8 da 3b bd e2 e4 34 be 7d 00 3a bd 9c d9 fc bd
       -0.045862824 -0.17665437 -0.045410622 -0.12346193
000030 8a aa fa bc a6 e5 09 be 48 18 53 be 25 f7 05 be
       -0.030598897 -0.1346651 -0.20614731 -0.1308256
000040 51 e7 e3 bd ea 4b 03 bd ba 95 9b bd 21 30 8d bd
       -0.111281045 -0.03205482 -0.075969175 -0.068939455
000050 d2 48 94 bd f7 12 17 3d 09 c9 76 bd 6e 51 b8 3c
       -0.07240452 0.03688332 -0.060250316 0.022499766
000060 88 aa 15 b9 41 94 98 bd c8 9e 71 bd 80 77 bd 39
       -0.00014273275 -0.07450152 -0.058989316 0.00036137924
000070 45 58 1d bd 59 4b 1d bd 0a 40 ae bd 4c bb f4 3c
       -0.03841426 -0.038401935 -0.08508308 0.029874466
000080 35 03 40 bd a8 16 8b bd 15 9d 1c 3d c4 2c c7 3d
       -0.04687806 -0.06791431 0.038235743 0.09725335
000090 51 37 2a 3c 8c 92 16 be 2e 78 80 bc 58 76 c4 bb
       0.010389165 -0.1470434 -0.015682306 -0.005995553
0000a0 a5 de d0 bd 11 d4 1a be 61 65 f7 3d df 83 07 bb
       -0.10198716 -0.1511996 0.12079883 -0.0020677967
0000b0 db 0f 2a 3e f4 69 8e bd 1f 19 9f bd 89 0c d8 3c
       0.16607611 -0.06953803 -0.07768463 0.026373165
0000c0 28 69 9d bd 78 a4 cb 3d 07 50 96 bc e8 af 58 bd
       -0.076860726 0.09943479 -0.018348707 -0.052902132
0000d0 b5 9c 86 bd f8 b9 76 3d 09 0f 7f bd 7c cc a9 bc
       -0.06572858 0.060235947 -0.062270198 -0.020727389
0000e0 9f b0 fe 3b 5a d8 be 3d 6e ef 80 3d 0e aa 38 bc
       0.0077725197 0.093186095 0.062956676 -0.011271013
0000f0 1c fc 48 bd d7 5e 9e bd 34 2a 9e 3c e8 ed 28 be
       -0.049068555 -0.07732933 0.019307233 -0.16497004
000100 cc 43 35 be 89 b8 6a be 86 4b 8a bd 36 48 9d 3d
       -0.17701644 -0.22921957 -0.06752686 0.07679789
000110 c7 c8 c8 bb 3d 18 49 3d d6 d9 44 bd a7 f2 08 3d
       -0.00612745 0.04909538 -0.048059307 0.033434536
000120 2f 34 8b 3d 1e 04 e3 bc c7 ba ff bd ed 5e f8 bc
       0.067970626 -0.027711924 -0.12486797 -0.030318702
000130 a7 7b 00 be 6c 62 23 be 31 a3 f3 3b 19 35 ea bd
       -0.1254717 -0.15955514 0.0074352254 -0.11435909
000140 b0 64 3a be e0 98 46 3e 1b 53 83 bd 01 cc 77 bd
       -0.18202472 0.19394255 -0.064123355 -0.060497288
000150 0e fa 90 3d 50 b1 7e bd 45 50 0a be e8 11 42 bc
       0.07078944 -0.062180817 -0.13507183 -0.0118450895
000160 87 8b a4 3c 0c 36 b1 3d bb d0 32 bd 52 b5 3b bc
       0.020086063 0.08652887 -0.043656092 -0.011456804
000170 e3 f5 77 bd a1 5f d4 bd fe 15 94 bd e4 db 91 bd
       -0.06053723 -0.10369802 -0.07230757 -0.07122019
000180 f9 08 12 bd 05 89 ec bd 4b 5f 88 bc 45 94 d3 3c
       -0.03565309 -0.11549572 -0.016647002 0.025827536
000190 d9 54 b3 bc 20 4e 08 3d 47 b6 09 bd 6c c3 bb bc
       -0.021891044 0.03327763 -0.0336211 -0.022920333
0001a0 4b e6 69 bd 04 3f 9e 3c 93 db 01 bd 68 a8 a8 3d
       -0.05710439 0.019317158 -0.031703543 0.08235246
0001b0 07 9b 72 bd 05 cd b0 3c 42 34 cd bd 0c b2 f2 3d
       -0.059229877 0.021582136 -0.10019733 0.11850366
0001c0 6e ce 17 bc b6 cd a2 bd 20 e6 79 bc d6 e4 37 bc
       -0.009265525 -0.079493925 -0.01525262 -0.011223992
0001d0 ab 5b 21 bd 9e 8e 09 bd 27 fb 58 3d ce 36 3e bd
       -0.039394062 -0.033583276 0.052973893 -0.046438985
0001e0 3e 94 25 3d 5d ed 4e bd b2 df d2 3c ab 42 0f 3d
       0.040424578 -0.050519336 0.025741432 0.03497569
0001f0 b6 da e5 bd a4 d3 81 bd a3 ad d5 bd ad 52 2d bd
       -0.112233564 -0.06339195 -0.10433509 -0.042315174
000200 79 ff a1 bc e3 b2 56 be 2b 2c 6b be d5 62 ed bd
       -0.01977514 -0.20966677 -0.22966067 -0.11591116
000210 45 dc 10 be e3 be be bd 73 27 1a be 8d 08 18 bc
       -0.14146526 -0.093137525 -0.15054111 -0.009279382
000220 66 df 3a bc 87 0d 83 3d be f0 63 bd f8 1b 20 3d
       -0.011405801 0.063990645 -0.05564951 0.039089173
000230 f6 d2 6b 3c 4b 7c 60 3c 42 ae a6 bd 21 75 b1 bd
       0.014393559 0.013701509 -0.08138706 -0.08664919
000240 80 01 c5 bc d7 52 7a bd e5 27 89 bc 6f fd 47 3d
       -0.024048567 -0.06111416 -0.016742656 0.048825677
000250 f4 e6 53 3d 3e 70 d1 3c d6 d3 33 3d 79 22 0d 3d
       0.051733926 0.025566217 0.043903194 0.034456704
000260 a0 2b 5a bd 48 ee 43 3d 86 a3 cd bd 1b b9 b8 3b
       -0.05326426 0.047834665 -0.10040955 0.0056373007
000270 5c 19 8a bd 84 12 8c 3c d5 97 90 bd 4f 9e e7 bc
       -0.06743118 0.017098673 -0.0706021 -0.02827373
000280 5b d4 fe bc b5 bc ce 3c e1 e5 a0 bd 0a e2 c5 3c
       -0.031107118 0.025236467 -0.07856346 0.024155635
000290 af da 19 3d c8 b5 92 bb fe b2 89 bd 5e 2c a9 bd
       0.03756207 -0.0044772364 -0.06723593 -0.082604155
0002a0 8b c5 d5 bc bf a1 69 3b 15 fe 93 bd 42 df c6 bc
       -0.026095172 0.0035649387 -0.07226197 -0.02427638
0002b0 d3 95 50 3c b3 8c 94 bd ca 3a 62 bd 1f 19 1c bd
       0.012731033 -0.07253399 -0.055231847 -0.038109895
0002c0 9e 92 c5 bd cf 60 34 3d 37 be 9d bd cd 46 17 3c
       -0.09647106 0.044037636 -0.07702296 0.009233189
0002d0 0b 12 29 bd e0 f1 43 be eb 83 18 bc f0 b7 1a 3d
       -0.041276973 -0.19135237 -0.009308795 0.037773073
0002e0 ca 6a 2c bd d8 ff 19 3d a5 c1 3c bd 8a 9a 21 3d
       -0.04209403 0.037597507 -0.04608311 0.03945402
0002f0 06 08 c4 bd 40 80 43 3d 25 ef c9 3c a6 b4 6e bd
       -0.09571843 0.04772973 0.024650166 -0.05827775
000300 9d 2e 52 3d f7 bc 87 bd 03 62 1a 3d 46 ce a7 3d
       0.051313985 -0.06627839 0.037691128 0.081936404
000310 9a f9 24 bc 84 92 15 bd f8 69 82 bd 97 dd ed bb
       -0.010069275 -0.03651668 -0.06367868 -0.0072590816
000320 30 f7 95 bd 28 11 9a 3d 64 6a 3b 3d a2 89 d8 3d
       -0.07322538 0.075228035 0.04575576 0.105731264
000330 ad 9d 52 bd 01 46 5e bc a5 2c 8e 3d 95 de 41 bc
       -0.051419903 -0.013566495 0.06942109 -0.011832853
000340 47 96 70 bd 72 72 c6 bc 3c a4 b8 bd 8c 44 22 bd
       -0.058737066 -0.024224494 -0.090157 -0.039616153
000350 f6 d0 b8 bd 37 18 56 bd ac 44 5b bd 32 9a 5a bc
       -0.09024231 -0.052269187 -0.053532287 -0.013342427
000360 92 11 f2 bd e0 65 cb bd 2f 64 f6 3c 0d 1a 2e ba
       -0.118197575 -0.099315405 0.030077068 -0.0006641455
000370 7c 43 4a bd 89 e8 98 bc 92 2f c7 3c 70 96 9a bd
       -0.049380764 -0.018665569 0.024314675 -0.07548225
000380 d9 51 da bd e8 e7 01 be e5 9f 7f bd b1 76 bf bd
       -0.106601425 -0.12686121 -0.062408347 -0.093488105
000390 4f 1c 8c 3d 95 ae 09 bd af 89 2c 3d 86 9f 67 bd
       0.06841337 -0.03361376 0.042123493 -0.056548618
0003a0 e3 6d 11 bc ce 8e 3d bc 3d 53 f3 bd 9a 52 1c bc
       -0.008876297 -0.011569692 -0.11881111 -0.009541178
0003b0 a3 b8 bf bd ae 2a 55 bc 42 ab 0d be cb 92 37 bd
       -0.093613885 -0.013010664 -0.13834861 -0.044817727
0003c0 67 2e a5 bc 36 d0 8b bd 34 e5 ce 3c 51 ef 7a 3c
       -0.020163728 -0.068268225 0.025255777 0.015315847
0003d0 27 77 3d bd 84 38 dd 3c 58 4c 8e bd cc 47 e7 bc
       -0.04625621 0.027004488 -0.06948155 -0.028232478
0003e0 28 5a e5 bc 11 ef 7e bc cf d9 2d 38 82 f6 89 3d
       -0.027997091 -0.015559928 4.1449264e-05 0.06736471
0003f0 bd bb 9a bd d5 8c c5 bd a9 23 b9 bd b9 52 60 3c
       -0.075553395 -0.09646002 -0.09040005 0.013691598

cnn.3.bias f4 [32]
000000 9e bd d3 bd 34 e7 48 bd c4 d3 14 be 76 6d b7 bd
       -0.10338901 -0.049048617 -0.14533907 -0.08956425
000010 fe 87 6d bd cd 33 2c be a7 d3 2d bd 33 2c d8 bd
       -0.05799102 -0.16816635 -0.042438176 -0.10555305
000020 79 f3 ed bd be 36 5a bd 2b c8 bd bd 89 72 87 bd
       -0.11618704 -0.053274862 -0.09266695 -0.06613643
000030 ec cb cf bd 3c f3 98 bd ad 62 b1 bd c3 36 fb bd
       -0.10146317 -0.07468268 -0.08661399 -0.12266304
000040 97 31 cc bd 47 c8 8e bd 32 5a dc bd 19 a7 c1 bd
       -0.09970396 -0.069717936 -0.10759391 -0.094556995
000050 a6 08 de bd 44 e7 07 be f7 7f a5 bd 0d 4e cb bd
       -0.10841493 -0.13271815 -0.08081048 -0.099269964
000060 5a ce 1f be a2 d0 7b bd 27 45 a6 bd d1 57 9f bd
       -0.1560606 -0.061478265 -0.081186585 -0.077804215
000070 b1 8a 90 bd 25 52 76 bd ec 36 b6 bd fa 5f 88 bd
       -0.07057703 -0.060136933 -0.08897194 -0.06658931

cnn.6.weight f4 [64, 32, 3, 3]
000000 c1 4b 8d bd a5 fe f1 bd 53 36 47 bd c2 b6 cf ba
       -0.068992145 -0.11816148 -0.048635792 -0.0015847313
000010 60 9c 1f bd 9c 42 0d bc ac bb 30 3c 91 e9 78 bc
       -0.03896749 -0.008621838 0.010786932 -0.015192405
000020 bd 83 02 3a b9 d3 49 bd 5b 9f a0 bc 77 00 ee bc
       0.0004978737 -0.04927418 -0.019607237 -0.029052956
000030 77 21 d1 bc bc 0e 0c bc 71 1e ee bc 77 ff 95 3c
       -0.025528653 -0.008548435 -0.02906725 0.018310292
000040 da 7c 3d bd 8e 29 5b 3d 7d 0f df 39 3e d7 4d 3d
       -0.046261646 0.053506427 0.00042545414 0.0502541
000050 d5 22 10 bc 91 5c a4 bc 12 8d 3e bd 7d 98 21 bd
       -0.008797367 -0.02006367 -0.046521254 -0.039452065
000060 8d af 98 3c a2 ed 43 bd 61 12 dc bc 1f 2a 12 bd
       0.018638397 -0.047834046 -0.026864232 -0.0356847
000070 a9 9f ff bc 70 5e b4 bd 14 79 f0 3d f2 88 71 3d
       -0.031204062 -0.08807075 0.11741844 0.05896849
000080 6f 04 14 bd f6 39 aa ba 57 96 55 bd b5 4a a3 bc
       -0.03613704 -0.0012987244 -0.05214533 -0.019933084
000090 05 ce 34 bd f1 53 b4 bd 5a 04 df 3b fd 3c c4 bd
       -0.044141788 -0.08805073 0.0068059387 -0.09581945
0000a0 7e 9f a9 bc 4f fb e8 bd 2e 01 38 bd 36 8b 7c bc
       -0.020705935 -0.11376058 -0.044923 -0.01541405
0000b0 d1 c3 9c bd 27 4a 13 3d 25 83 94 bc 61 87 ad bc
       -0.076545365 0.03595939 -0.01812894 -0.021182718
0000c0 76 19 2a 3c f7 f2 92 3b 3b 6b 43 3d 91 5c 63 3d
       0.010382047 0.00448453 0.047709685 0.0555082
0000d0 31 6d a1 3c 52 21 18 bc ed 95 75 bd 3f 68 8c bc
       0.019705387 -0.009285288 -0.059957433 -0.017139552
0000e0 db 1d c0 bc 72 3b 2f bc 56 b0 36 3d 08 d6 65 bc
       -0.023451736 -0.010695325 0.04460176 -0.01402808
0000f0 94 a6 0a 3c 46 42 fe 3c 9c 7a e7 bb 3d af 18 3d
       0.008462567 0.031037461 -0.0070641767 0.037276495
000100 10 b8 96 3c 1a 6e 31 3d 72 76 5f 3d e8 76 a9 b9
       0.018398315 0.04331789 0.054556318 -0.00032322784
000110 c5 c4 1d 3d 12 c2 11 3d 3e 93 0d bd 2d 7f 6b bc
       0.038517732 0.03558547 -0.03456425 -0.014373583
000120 ec 86 8a bd fc 0d 1a 3c 5a ac 37 bc 23 92 4a bd
       -0.067640156 0.009402748 -0.011210525 -0.049455773
000130 c0 6d b5 3c fe 65 20 3d 93 6f 3e bd 57 70 42 bd
       0.02214706 0.039159767 -0.046493124 -0.047470417
000140 08 29 25 bc fe 2a e9 3c 53 c9 f0 3c fd 9d 14 bc
       -0.010080583 0.028462883 0.029392874 -0.0090708705
000150 9d 31 bd bc 61 0e e3 3c 61 03 6e bd 95 cd 5b 3c
       -0.023094947 0.027716817 -0.05810869 0.013415714
000160 f6 e7 91 bc 5e aa 1b bd 17 32 79 bd bf a7 00 bd
       -0.017810803 -0.03800427 -0.060838785 -0.031409975
000170 30 b7 3b 3d ab ac 62 bd d9 b5 4d bd 41 37 5c bd
       0.045828998 -0.05534045 -0.05022225 -0.05376363
000180 06 33 d0 bc 06 c1 0c bc c7 57 3e bb 2a ea 3f bd
       -0.025414955 -0.008590942 -0.0029044019 -0.046854176
000190 0f 3a 60 3c 16 83 9c 3c 18 5e 19 bd cb c0 50 bc
       0.013685717 0.019105475 -0.03744325 -0.012741278
0001a0 6b 14 89 bd 9f 41 4b bd cd 83 af bd 4c 9a 16 3d
       -0.066933475 -0.049623128 -0.08570061 0.036768243
0001b0 ba ad 4b bd 59 61 2c 3d 15 ff df 3c d0 23 64 bd
       -0.049726225 0.042085025 0.027343312 -0.055698216
0001c0 d4 2d 41 bd 83 a3 80 3c da 43 a3 3a d2 31 23 bd
       -0.047162846 0.015702968 0.0012456134 -0.039842434
0001d0 c1 6f 10 bb bf 7e 1f bc 47 08 09 bd 47 f3 37 3c
       -0.0022039267 -0.0097348085 -0.03345516 0.011227435
0001e0 41 bd 5f 3d c6 27 be 3d 87 bd 77 bd cd dc f2 bc
       0.054623846 0.0928493 -0.06048348 -0.029646302
0001f0 3c 12 96 3c 41 7b 8b bd 74 bd 2a bc c5 c9 e2 3c
       0.018319242 -0.06810618 -0.010421146 0.027684102
000200 b2 0a 6a bd 8c 21 55 bd 5a 55 c8 bc ea 50 ff bc
       -0.057139106 -0.052033946 -0.024454761 -0.031166513
000210 41 69 f2 3c 93 a9 4e 3d da 30 0d bd 31 ae 38 bd
       0.029591205 0.050454687 -0.034470417 -0.045087997
000220 eb dd 42 bd fb 47 0d 3d 89 20 5b bd 0f dc af 3c
       -0.04757492 0.034492474 -0.053497825 0.021467237
000230 15 b2 1e 3c 40 d6 6b bd 8d 9e 26 bd 71 b9 5c bd
       0.009686013 -0.05757737 -0.04067855 -0.05388779
000240 ab d5 28 ba e2 c0 da bc 84 4d 8b bc f4 51 53 3d
       -0.00064405304 -0.026703302 -0.017004736 0.05159183
000250 66 6b 90 3d 7a dd 0f bd 12 5f b5 bc 2d f9 83 bd
       0.070517346 -0.035123326 -0.02214006 -0.06444011
000260 34 71 8a bd 10 f9 85 bd 47 c7 13 bc 94 96 46 bd
       -0.06759873 -0.065416455 -0.009019679 -0.048483446
000270 38 1f 4a bc 9b 73 19 bd 03 2a d2 bd 66 f1 bb 3b
       -0.012336545 -0.037463766 -0.10261919 0.005735564
000280 70 91 94 bd 67 fb 23 bc 86 77 a7 3c 99 94 8a 3c
       -0.072543025 -0.010008669 0.020442735 0.01691656
000290 56 4d a1 bc 6d db 2d 3d c5 08 49 bd 04 c5 26 3d
       -0.019690197 0.04244559 -0.04908063 0.040715232
0002a0 11 ec 07 3c 3d 82 f5 3b 70 92 60 bd 19 c2 d0 bc
       0.008296029 0.0074923323 -0.054827154 -0.025483178
0002b0 5a 8f 0e 3d 08 2e 46 bc 3c 6e 7d 3c 19 3b 60 bd
       0.03480468 -0.012095936 0.015468176 -0.05474386
0002c0 96 73 e9 3a 03 65 f5 3c 72 42 25 bd 93 24 02 bd
       0.0017810937 0.029955393 -0.04034657 -0.03177316
0002d0 34 a0 e7 bc b0 c1 6b bd e1 b5 6c bd 2e f9 9c bc
       -0.028274633 -0.05755776 -0.05779064 -0.019161787
0002e0 2a d0 31 bd ca f7 7f 3c ea 4a 38 3b 9b 7d 82 bd
       -0.04341141 0.015623042 0.0028120824 -0.063716136
0002f0 ab d5 0c 3d 84 e9 6e bd 7d d3 2a bd 86 39 b6 bd
       0.034383457 -0.058328167 -0.041705597 -0.088976905
000300 31 8a 82 bd 30 43 f5 3c 3c 26 4f bc 5e 44 9f bd
       -0.06374014 0.029939264 -0.012643393 -0.07776712
000310 7e 40 26 3d 95 a7 29 bc 93 0b a5 3c 81 40 b3 bc
       0.04058885 -0.010354896 0.02014712 -0.021881344
000320 33 06 c9 bc 4f 4b 58 bd 5f 54 2f 3c 4a e0 03 3d
       -0.024539089 -0.052806195 0.010701268 0.03219632
000330 ff 38 fa 3c a2 a0 6d bb 02 00 1c bd 5f df 45 3d
       0.030544756 -0.0036259075 -0.038085945 0.048308726
000340 fd 11 2f bd f9 8b dd bb 1f d6 8c bc ba 45 66 bc
       -0.042741764 -0.006761071 -0.017191945 -0.01405471
000350 f5 96 00 3d 06 5b 1c 3d 45 d4 56 3d 04 46 6b bd
       0.031393964 0.038172744 0.05244853 -0.05743982
000360 83 30 17 bd e7 91 49 bd f1 d8 87 3c 70 86 6c 3d
       -0.0369115 -0.04921141 0.016582938 0.057745397
000370 d5 2a 79 3d 3a 18 63 bd 42 0e 18 bc 9e 05 1e bd
       0.060831863 -0.055443026 -0.009280743 -0.038579576
000380 45 49 38 3c 12 99 58 bd 74 78 bc bd 4d a9 1c 3c
       0.011247938 -0.052880354 -0.09202662 0.009561849
000390 cb 21 36 bd b2 06 ac bb c9 21 e7 bc 46 03 3b bd
       -0.04446582 -0.0052498216 -0.028214352 -0.04565742
0003a0 ab d9 5b 3d b5 fe 93 bc f7 1a 18 3c 37 d4 4e bd
       0.05367438 -0.01806579 0.009283773 -0.050495353
0003b0 d6 fe d6 bb 92 cd 94 3b 7b 13 1a bd 05 23 30 3d
       -0.0065611405 0.0045411075 -0.037616234 0.043002147
0003c0 2f 6c da 3c a9 92 1e 3c b3 cf 37 3c 93 13 7d bd
       0.026662914 0.009678521 0.011218953 -0.061786246
0003d0 f9 9a b0 3c eb b7 64 3c 06 c7 bc bc a2 c5 50 bc
       0.021558272 0.013959865 -0.02304412 -0.012742432
0003e0 b9 d6 aa bd 17 5a 16 3c 16 ab ba 3b c7 f6 8f bd
       -0.08341736 0.0091767525 0.0056966646 -0.07029491
0003f0 1b c8 2a bb aa da 0e bd 3f c2 37 3c 0d 49 5d 3d
       -0.0026059214 -0.034876503 0.0112157455 0.054024745

cnn.6.bias f4 [64]
000000 02 49 92 bd d8 93 88 bd 3e eb 52 bd ec 66 e0 bd
       -0.071428314 -0.06668824 -0.051493876 -0.10957131
000010 5e 0c b3 bd c1 74 0c bd 26 0b 16 bd 9a 2e c0 bc
       -0.08742593 -0.034291033 -0.036631726 -0.023459721
000020 0d f2 a9 bc e7 5a 99 bd 5e 69 8a bd 4c 37 2a bd
       -0.020745302 -0.07488041 -0.067583784 -0.04155664
000030 28 6a 9e bd bb e8 16 3d 0e c2 97 bd ec a6 14 bd
       -0.077350914 0.036843043 -0.0741006 -0.036292
000040 34 f2 79 bd 98 f2 05 bd f1 bc 9d bd 1f 7c a3 bd
       -0.061022 -0.03270206 -0.07702053 -0.079826586
000050 c8 37 74 bd 90 bc 2d bd c6 9d b5 bd 59 99 a8 bd
       -0.05962351 -0.042416155 -0.088679835 -0.08232374
000060 ca 5d 62 bc 47 4e 51 bd 17 8f c0 bd 4b ca 6e bc
       -0.013816306 -0.05110004 -0.09402292 -0.014574598
000070 3e c9 03 bd a7 7e 9d bd 04 a8 5c bd 8a e2 3a bd
       -0.03217434 -0.07690173 -0.05387117 -0.0456262
000080 ed 5a 31 bd a2 09 99 bd 09 ec 06 bd 4d de 9e bd
       -0.043299604 -0.074725404 -0.032939944 -0.07757244
000090 9c ef d7 bd 1b 49 ab bd 95 3c 88 bd e5 5c 17 bd
       -0.10543749 -0.08363553 -0.0665218 -0.036953826
0000a0 e1 c7 b8 bd fd 03 75 bd c0 2c b7 bd f3 b1 8c bd
       -0.09022499 -0.059818257 -0.08944082 -0.068698786
0000b0 e0 94 b1 bc fc e8 fa bc 0d 6a 2e bd c5 d2 2d bd
       -0.021677434 -0.030628674 -0.042581607 -0.042437334
0000c0 b7 57 0e bd a8 da ba bd d6 ae 8c bd 2d 6e 9a bd
       -0.03475162 -0.091237366 -0.06869285 -0.075405456
0000d0 9f 11 a9 bd 73 21 7e bd 6e 3c 66 bd 5d a1 37 bd
       -0.08255314 -0.06204362 -0.056209974 -0.044831622
0000e0 02 0e 33 bd cf 02 cc bc 4a 10 8f bd de 0f b2 bc
       -0.04371453 -0.024903683 -0.06985529 -0.021736082
0000f0 c4 91 87 bd 21 54 b2 bd 44 4d 94 bd 4c f1 9d bd
       -0.066195995 -0.087074526 -0.072413 -0.07712039

cnn.9.weight f4 [128, 64, 3, 3]
000000 00 27 8a 3b 86 c0 ec bc e6 2f 76 3c 66 b6 74 bc
       0.004216075 -0.028900396 0.015026068 -0.014936065
000010 58 58 d6 bc f0 ec c2 bc 52 cd 0b 3d 3b 72 6c bc
       -0.026165172 -0.023794621 0.034131356 -0.014431532
000020 66 a0 1c 3c 50 76 15 bc e6 3c cf bc 96 65 48 3b
       0.009559726 -0.009122446 -0.025297593 0.0030578128
000030 60 e4 bd 3b f8 2f 80 3c 5e 83 a2 bc c0 83 a2 3c
       0.0057950467 0.015647873 -0.019838031 0.019838214
000040 00 41 96 3a 10 f3 79 bc 94 ca 5d bc 88 b9 1b 3c
       0.0011463463 -0.0152557045 -0.013537068 0.009504683
000050 5c 39 1f bd 0e 49 fb bb 38 90 0b ba 30 75 48 3c
       -0.03887306 -0.007668621 -0.00053239195 0.012234971
000060 1b 6f c4 3c a4 f9 dd 3b a3 83 d7 bc bb b6 69 3d
       0.02397876 0.0067741442 -0.026307886 0.05705903
000070 b9 6c 37 3d 13 23 c8 3c 76 ad b2 bd 29 ed 8b bc
       0.04478142 0.024430787 -0.08724491 -0.01708086
000080 46 f7 0b 3d e9 11 d9 bc dc ee 16 bd 1b 4a 3c bd
       0.034171365 -0.026497798 -0.036848888 -0.04596911
000090 7e 85 ff 3c 0b 3a cf bc 4b 81 1a 3d 52 2a 12 bd
       0.031191584 -0.025296232 0.03772096 -0.03568489
0000a0 98 7c 95 bc 51 8f fc ba 66 4c e4 3c 00 8c 6d bb
       -0.018247887 -0.0019268786 0.02786846 -0.0036246777
0000b0 ab 86 64 39 ea 85 1b 3d 52 fc 3b 3d f5 4e cb 3a
       0.00021793942 0.037969507 0.04589493 0.0015511202
0000c0 0d a8 a5 bd 8b 3e b7 bd 4d 03 86 bd 65 e1 b4 bd
       -0.08088694 -0.08947476 -0.06543598 -0.08832053
0000d0 f1 7a a7 bb a7 04 bc bd 13 b9 97 3c f1 a5 d6 bb
       -0.0051110913 -0.09180575 0.018520867 -0.0065505435
0000e0 44 c4 02 3d d0 cc 3c bd ce ba 3c 3c 5c 0a 06 bd
       0.031925455 -0.046093762 0.011519147 -0.032724723
0000f0 fb 94 3e 3c 00 91 9d bb 5f cf 21 bd cc 8b 06 bd
       0.011632199 -0.004808545 -0.039504405 -0.032848164
000100 42 10 89 bd a2 70 84 3b a1 c2 3d bd 5a d8 be bd
       -0.06692554 0.004041747 -0.04632819 -0.093186095
000110 4b fb 01 3d e2 e3 dc bd 24 92 dc 3c 2b 50 b1 3c
       0.031733792 -0.10785653 0.026925154 0.021644672
000120 ad f6 8c 3d db fc 7d 3d 41 55 cd bb 39 2b 82 bd
       0.06882987 0.06200872 -0.0062662666 -0.063559
000130 66 d2 b7 bd 21 cc a1 bd 1a bc 8a bd 0c ea 5f bc
       -0.08975677 -0.079002626 -0.06774159 -0.013666641
000140 cf 4f 19 bd 84 90 e1 bc 4d fa ef 3c 8d 01 ce 3c
       -0.037429627 -0.02753473 0.029294157 0.025147224
000150 65 ab 66 3c 78 e5 75 ba 7c a6 97 3b d6 cb fd bb
       0.01407895 -0.0009380202 0.004628001 -0.0077452464
000160 96 cb 07 3b 3c 7c 0d bd 42 4f 81 bb 17 59 fd ba
       0.0020720712 -0.034542307 -0.003946216 -0.0019328919
000170 c3 42 89 bc 7a 30 47 bc e0 2e d1 bc 29 21 b5 3c
       -0.016755467 -0.012157554 -0.025535047 0.022110539
000180 ab ee 10 bd ce c6 90 3c 90 39 0c bd 9b e4 d3 bc
       -0.03538386 0.017672922 -0.034234583 -0.025865844
000190 2b 68 8f 3c 2b 14 c6 ba cb 34 dd 3c 8b 72 91 3c
       0.017505726 -0.0015112212 0.027002713 0.017754814
0001a0 02 f8 23 bd 60 15 1e bd b6 e2 96 3c 00 0a 59 3c
       -0.04003144 -0.038594604 0.018418651 0.013247013
0001b0 52 0f 14 3d aa 60 f8 ba 15 7d 26 bd 2a 94 ba bc
       0.036147423 -0.0018949707 -0.04064663 -0.022775728
0001c0 c3 3a 87 bc 14 8a 9c 3c f3 b1 0a bd 16 27 81 3c
       -0.016507512 0.01910881 -0.03386111 0.015765708
0001d0 84 f0 1d bd 9a d3 2f 3c 87 49 12 3b ed 8e 1f bd
       -0.03855945 0.010731602 0.0022321658 -0.038954664
0001e0 1e 92 4c bd 06 ea b5 bd 12 50 41 bd 08 9e 59 bd
       -0.049944036 -0.08882527 -0.0471955 -0.053129226
0001f0 90 f1 68 bd 46 2d b0 bd 09 da e9 3b 8d 0d 8b 3c
       -0.056870997 -0.08602385 0.0071365875 0.016974235
000200 aa a0 09 3c 0a 94 aa 3c 1b ec dd 3c 0b a4 9b bc
       0.008400122 0.020822544 0.027090123 -0.01899912
000210 33 0f 0c bd 70 cf 03 bc 56 d9 d3 ba c6 5b 0f be
       -0.034194183 -0.008045062 -0.0016162794 -0.13999853
000220 ec 28 a3 bc df a9 01 bd cc eb 91 3c af 73 c2 bd
       -0.019916974 -0.031656142 0.017812632 -0.09494721
000230 05 03 f4 bb 7e ca 04 bd e0 0f 9b 3d 5e 77 24 bd
       -0.007446649 -0.032419674 0.07571387 -0.0401529
000240 10 00 c1 3a cc 13 e0 3c b9 ee ab bc 13 84 d5 3c
       0.001472475 0.02735319 -0.020987855 0.026063954
000250 b5 ba dd 3c 09 4e b4 3c 4b ff 2a bc c0 df e3 3b
       0.027066568 0.022009866 -0.010436843 0.0069541633
000260 de d4 1b bd ef 44 3a bd 7b 46 2e bd 04 a5 e3 bc
       -0.038044803 -0.045475896 -0.042547684 -0.027788647
000270 46 81 15 3c 68 00 40 bd 22 6f b6 3c 18 8a 93 3c
       0.0091250595 -0.046875387 0.02226979 0.018010184
000280 ab ce 27 bc 06 f8 76 bc f2 be ab bb a4 e7 e0 3a
       -0.010242145 -0.015073782 -0.0052412683 0.0017158878
000290 53 79 7e bd 6f cd bf 3d 56 6d c9 bc 54 1b a8 3c
       -0.062127423 0.09365355 -0.024588268 0.020520844
0002a0 82 f2 2d bc 3b b2 10 bd 1f 9d 63 bd 36 2f 76 bd
       -0.0106169 -0.035326224 -0.055569764 -0.060103618
0002b0 8a 03 00 bd 6f 04 06 3d 72 28 d4 3c 48 dd 10 bd
       -0.031253375 0.032719072 0.025898192 -0.03536728
0002c0 b5 bd 51 3c dd 1f 7e bc 9d fd 2d bd 80 e8 87 3c
       0.012801577 -0.0155105265 -0.042478193 0.016590357
0002d0 56 e7 34 3b 1e 69 fd 3c d6 ca f6 3a 00 eb 17 bc
       0.0027603707 0.030933913 0.001882876 -0.009272337
0002e0 56 27 21 ba 7e a3 92 3c 36 77 bd bb 48 a2 17 3d
       -0.0006147524 0.017900225 -0.0057820333 0.037019998
0002f0 06 67 f6 3c 5b 6b 8d bc 33 d9 da 3c 83 49 ef bc
       0.030078422 -0.017263105 0.026714897 -0.029209858
000300 30 41 2c bc 4b c7 37 3c cc b1 22 3d c6 6a 0e 3c
       -0.010513589 0.011216949 0.03972034 0.008692449
000310 80 20 c0 bc 3b 45 23 3d 66 49 bd 3c 7b 82 90 3c
       -0.023452997 0.039860945 0.023106288 0.017640343
000320 f6 f3 61 3c 0f a4 2a bd 20 14 bd bb 8b 39 0e bc
       0.013791075 -0.041660365 -0.0057702214 -0.0086807115
000330 1e 05 82 bc 76 e9 de bc 5b a2 1a 3d e0 27 35 3b
       -0.01587158 -0.027210932 0.03775249 0.0027642176
000340 53 85 a5 bc 1c 0b 29 3c 17 45 48 bc 1a 45 c2 bc
       -0.020205176 0.01031759 -0.012223504 -0.02371459
000350 8e e4 80 3c 1f 5b 29 3d 3b ee 57 bc 03 a8 b4 bc
       0.015733983 0.041346665 -0.013179357 -0.02205277
000360 e8 65 e9 3c e2 26 80 bd 89 1d e9 bc 0e ea 0c 3d
       0.028490975 -0.06257416 -0.028456466 0.0344029
000370 59 c0 53 bd ab 98 4d bd be eb 4e 3d 27 ba b4 bc
       -0.05169711 -0.050194424 0.05051779 -0.02206142
000380 75 70 0c 3c 80 45 02 bc 9e af d6 bc 10 ed 5b 3c
       0.008571734 -0.00795114 -0.026206788 0.013423219
000390 7a bc 01 3d 2b aa f8 bc 4a 78 07 3c 7e bc 20 bd
       0.031673886 -0.03035458 0.008268425 -0.03924226
0003a0 e0 95 9a bb 02 a4 24 bd 40 8e 5b bc 96 29 fe 3b
       -0.0047175735 -0.040195473 -0.013400614 0.0077564223
0003b0 76 c1 b3 bc 55 66 3f bd 9b 39 3a bd 4a f5 4c 3b
       -0.021942835 -0.04672845 -0.045465093 0.0031274133
0003c0 ab 48 14 bc 52 16 22 3d 36 f9 82 3c 74 94 10 3d
       -0.0090505285 0.039572068 0.015987974 0.035297826
0003d0 74 a3 88 3c c2 f5 64 3c 9d e3 b8 3d ca d2 7a bd
       0.016679503 0.013974609 0.09027789 -0.06123618
0003e0 7d 66 d4 bc 1e 70 fa 3a 1d f9 4e bd 05 d7 25 bc
       -0.025927776 0.00191069 -0.05053054 -0.010122065
0003f0 cb 2e 29 3c 4e cb 95 3c 6e 3f ef bc 3b ad 09 3c
       0.010326098 0.01828542 -0.02920505 0.008403118

cnn.9.bias f4 [128]
000000 99 91 a2 bd cf 1b aa bd 79 16 d0 bc bb b5 9d bc
       -0.07937927 -0.08306085 -0.02540134 -0.019251695
000010 14 7d b5 bd f0 c1 02 bd 3e a6 bb bc aa 4d 2b bd
       -0.088617474 -0.031923234 -0.022906419 -0.041822113
000020 83 68 34 bd 28 b4 54 bd 01 cd e6 bc 90 37 2c bd
       -0.044044983 -0.051929623 -0.028173925 -0.042045176
000030 63 fd 25 bd 6c f0 27 bd 93 c4 87 bd db 02 d4 bc
       -0.04052485 -0.04100077 -0.066292904 -0.025880268
000040 71 bd ea bc f6 0f e9 bc 59 69 98 bb 94 c3 ba bc
       -0.028654786 -0.028449994 -0.0046512303 -0.022798337
000050 39 a4 89 bd c0 45 2a bd 0e a3 f4 bc 86 f8 1d bb
       -0.06720776 -0.041570425 -0.029862907 -0.002410443
000060 2c b1 4b bd 10 49 3b bd 23 2a fd bb e0 9f 58 bb
       -0.04972951 -0.045723975 -0.0077259704 -0.0033054277
000070 0a c2 5e bd a0 89 f8 bc 16 05 fb bc f0 7f 1b bd
       -0.05438427 -0.030339062 -0.030642074 -0.037963808
000080 ad 0d b7 bc c8 e1 07 bd f8 49 4b bd 1b 29 f8 bc
       -0.022345388 -0.033174306 -0.04963109 -0.030293038
000090 03 0a d9 bc e2 ed 16 bd ff 72 f1 bc 22 56 37 bd
       -0.026494032 -0.036847956 -0.02947378 -0.044759877
0000a0 3d d1 39 bd b4 0b 0c bd 53 f0 9d bd e1 d0 42 bd
       -0.04536556 -0.03419085 -0.07711854 -0.047562484
0000b0 03 a3 11 bd 4c be 1f bd ec 28 2b bd 97 37 b3 bd
       -0.03555585 -0.03899984 -0.041787073 -0.08750837
0000c0 8a 5f f9 bc 36 44 1c bd 36 67 8b bb 83 9a 73 bc
       -0.030441064 -0.03815099 -0.004254247 -0.014868381
0000d0 16 e6 66 bd 9e 61 3f bd 3c bd 9f bb 23 a5 08 bd
       -0.05637177 -0.046723954 -0.0048748534 -0.03336061
0000e0 89 8c 4e bd 35 02 66 3d fc 47 b4 bc a2 2e b1 bc
       -0.050426994 0.05615445 -0.022006981 -0.021628682
0000f0 dd 7f 23 bc 70 4a 98 bc 52 0a 10 bd 52 5f 56 bd
       -0.009979215 -0.018590182 -0.035166092 -0.052337
000100 c0 39 0c bd 06 be db bc cb f8 ca bb c2 4f 06 3e
       -0.034234762 -0.026824009 -0.006194209 0.13116363
000110 da b7 e6 3d 76 49 b4 bc f2 ad 2c bc 14 6e f6 bc
       0.11265536 -0.022007685 -0.010539519 -0.030081786
000120 55 c8 1c bd 57 34 ba 3d f0 2e 12 bd cf 42 57 bd
       -0.03827699 0.09092014 -0.035689294 -0.052553948
000130 1a d6 e8 bc 37 b0 01 bc c6 ce 6a bd d3 94 75 bd
       -0.028422404 -0.007915548 -0.0573261 -0.059956383
000140 9b f4 63 bd 7a 50 09 bc bc 8d 4e bc 6f 62 38 bd
       -0.055653196 -0.0083810035 -0.012607034 -0.04501575
000150 9b 36 17 bd 71 0f 28 bd 83 85 e1 bc b9 c6 5b bd
       -0.03691731 -0.04103035 -0.027529484 -0.053656314
000160 98 26 9d bc ec 0a 59 bd b4 c6 9f bc 06 6c 64 bd
       -0.019183442 -0.05298893 -0.019503929 -0.05576708
000170 ed 70 08 bc a2 4e a2 3d 04 c6 37 bd 44 7e 60 bd
       -0.008327705 0.07925154 -0.044866577 -0.054807916
000180 85 dd cf bc 3a bd 5d bd ba 1f 39 bd fd 3f b8 bb
       -0.025374183 -0.05413554 -0.045196272 -0.0056228624
000190 63 54 29 bc e3 a4 6e bd ec b5 8e bc 13 8f ff bc
       -0.010335061 -0.058262717 -0.017420731 -0.031196153
0001a0 7a ce ad bb a3 93 99 bc de a1 9d 3d cb c3 a3 bd
       -0.005304155 -0.018747156 0.07696889 -0.07996329
0001b0 44 d1 1b bd f5 cd d6 3d 5e bc 45 bd 59 c5 3b bd
       -0.038041368 0.10488502 -0.048275344 -0.045842502
0001c0 2f 6f 68 bd f6 fd 03 bc ee 4e 3b bd 8e 57 c9 bc
       -0.056746658 -0.0080561545 -0.04572957 -0.024577882
0001d0 b5 ba 1c bd 4c e1 55 bd c0 93 09 bc 4f 91 e3 bc
       -0.038263995 -0.052216813 -0.008397043 -0.02777925
0001e0 8a 98 54 bd 4b e5 54 bd 6b 67 ad bd 1d 78 20 ba
       -0.051903285 -0.051976483 -0.08466991 -0.0006121414
0001f0 35 c8 2c bd 0a e1 87 bd 95 10 82 bd 85 00 aa bc
       -0.04218312 -0.0663472 -0.06350819 -0.0207522
