Assets/ONNX/cnn.onnx (onnx, 391165 bytes, 8 tensors)

cnn.0.weight f4 [16, 3, 3, 3]
0	0xbe6d806f	-0.23193525
1	0xbc9db809	-0.019252794
2	0x3cd79cc7	0.026319874
3	0xbe3b95b8	-0.18318832
4	0xbe84ed8a	-0.25962478
5	0xbe12ee45	-0.14348705
6	0xbdba5705	-0.09098629
7	0x3ddf675f	0.10908388
8	0xbe3f9db9	-0.1871251
9	0xbb328c87	-0.0027244405
10	0xbc5d610a	-0.013511905
11	0x3d7906cb	0.060797494
12	0xbc595093	-0.013263839
13	0xbe1d9068	-0.15387118
14	0xbe13238c	-0.14369029
15	0xbcd96e1a	-0.026541758
16	0xbcc85790	-0.024455816
17	0xbd1fe084	-0.039032474
18	0xbbd62311	-0.006534942
19	0x3bde83c9	0.0067906124
20	0x3da02e69	0.07821352
21	0xbe0c7cc0	-0.13719463
22	0x3d8d7a7d	0.069081284
23	0x3dcc4fa3	0.09976127
24	0xbd1b91c6	-0.037980817
25	0xbc3258ed	-0.010885459
26	0xbe543a7a	-0.20725432
27	0xbe82646b	-0.25467238
28	0xbd1e2b77	-0.03861567
29	0xbe2cb115	-0.16864426
30	0xbe6a0fd1	-0.22857596
31	0xbdfd7b6f	-0.12377059
32	0xbcd1d147	-0.025612487
33	0xbe42c847	-0.19021712
34	0xbd498091	-0.049194876
35	0x3d0e7312	0.03477771
36	0xbd48a1dc	-0.048982486
37	0x3d08db23	0.03341211
38	0xbe60d30d	-0.2195551
39	0xbd126a98	-0.035746187
40	0x3c8be95e	0.017079052
41	0x3d17a3f8	0.037021607
42	0x3daf026b	0.08545383
43	0xbe4e6e5b	-0.20159285
44	0xbe664187	-0.22485934
45	0xbe463f47	-0.19360076
46	0x3dcd94e6	0.10038166
47	0xbe25c03d	-0.16186614
48	0xbe6a98bb	-0.22909825
49	0x3c6f9fef	0.0146255335
50	0x3d4b8ab6	0.049692832
51	0x3cad072e	0.021121588
52	0x3d9c2a22	0.07625224
53	0xbe2863fa	-0.16444388
54	0xbd1880e9	-0.037232313
55	0xbe36ee4e	-0.17864344
56	0xbd7f9913	-0.062401842
57	0xbe002a30	-0.12516093
58	0xbdd4c981	-0.10389996
59	0x3d1bca08	0.03803447
60	0xbe069603	-0.13143162
61	0xbe4b1227	-0.19831143
62	0x3d50804a	0.050903596
63	0xbe428061	-0.18994285
64	0xbe2eb0ad	-0.17059584
65	0xbdcf46d9	-0.10120935
66	0xbe35e15d	-0.1776175
67	0xbe07ad33	-0.13249664
68	0xbe6c99f6	-0.23105606
69	0xbd968a4e	-0.07350598
70	0x3cb7bc71	0.022428723
71	0x3de23ee7	0.11047154
72	0x3d90416a	0.07043727
73	0xbe6b5d78	-0.22984874
74	0xbe217603	-0.15767674
75	0xbc92ca54	-0.017918743
76	0xbe2e926f	-0.17048047
77	0x3e163fcf	0.14672779
78	0x3dad5771	0.08463944
79	0xbe507ee2	-0.20360902
80	0x3de0ea84	0.1098223
81	0xbc6c45a1	-0.014420898
82	0xbca1522f	-0.019692509
83	0x3df0ab1d	0.11751387
84	0xbda7b2e5	-0.08188418
85	0x3cac9738	0.0210682
86	0xbdac02b7	-0.08398955
87	0xbc97fedf	-0.01855415
88	0xbe04469f	-0.12917565
89	0xbe00270c	-0.12514895
90	0xbd9ddebc	-0.07708499
91	0x3ddf2e20	0.108974695
92	0xbd8b2c64	-0.06795576
93	0xbdfbed4b	-0.123011194
94	0x3b393efc	0.0028266301
95	0xbdcbdb7b	-0.09953972
96	0x3ca9825a	0.02069204
97	0xbd1c9663	-0.038229357
98	0x3d8a8d15	0.067651905
99	0xbd498175	-0.049195725
100	0x3d51dfcc	0.05123882
101	0x3dc8a900	0.09797859
102	0x3d1aa979	0.037759278
103	0xbe2ca241	-0.1685877
104	0x3e0d89c6	0.13822088
105	0xbd5831d3	-0.05278189
106	0xbdc6143b	-0.096718274
107	0xbd346077	-0.04403731
108	0xbe51acc4	-0.20476061
109	0xbea92562	-0.33036333
110	0xbe3f7e03	-0.18700413
111	0xbe0120ee	-0.12610218
112	0xbdd1c81c	-0.10243246
113	0xbe215950	-0.15756726
114	0xbe7e8ade	-0.24857661
115	0xbc8203da	-0.015870977
116	0xbe24d52c	-0.16096944
117	0xbd3cbdbf	-0.046079393
118	0x3dd69c7e	0.10479067
119	0xbc41f49e	-0.011838106
120	0xbdf48f11	-0.1194135
121	0xbdc0405e	-0.09387277
122	0xbe2f45f0	-0.17116523
123	0xbe6fdc5f	-0.23423909
124	0xbdc75034	-0.097320944
125	0xbe3a78a3	-0.18210082
126	0xbd49730e	-0.04918199
127	0x3bf4fee2	0.0074766735
128	0x3de45041	0.1114812
129	0xbc1ba8a9	-0.009500661
130	0xbe8b7b18	-0.2724235
131	0xbe571125	-0.21002634
132	0xbdfff762	-0.124983564
133	0xbd99e60e	-0.075145826
134	0x3d02b9f3	0.031915616
135	0x3de11464	0.10990217
136	0xbdea1307	-0.114294104
137	0xbe5f2441	-0.21791174
138	0xbc952884	-0.018207796
139	0xbe3d75ac	-0.1850192
140	0x3da3ea4b	0.08003672
141	0xbd09089d	-0.03345548
142	0xbcd685d4	-0.026186861
143	0xbe2756a3	-0.16341643
144	0xbdce16f1	-0.100629695
145	0x3d6ca990	0.057778895
146	0xbdba0354	-0.09082666
147	0xbe573155	-0.21014912
148	0x3c611192	0.013737099
149	0xbc78dad3	-0.0151888905
150	0x3ca1ca02	0.019749645
151	0xbde625a9	-0.11237652
152	0xbdc4c0c4	-0.096070796
153	0xbe7498e5	-0.2388645
154	0xbd1323f6	-0.035922967
155	0x3d805712	0.06266607
156	0x3d8b4585	0.06800369
157	0x3d9610d6	0.0732743
158	0xbe148e94	-0.14507514
159	0xbdee0873	-0.11622705
160	0x3d1dd5ad	0.038533855
161	0xbbc06b80	-0.00587219
162	0xbe90a815	-0.28253236
163	0xbe89da21	-0.26924232
164	0xbaf3c287	-0.0018597402
165	0xbe209805	-0.15682991
166	0x3c67381a	0.014112497
167	0xbc401881	-0.011724592
168	0x3d983c6a	0.07433398
169	0xbd36edb3	-0.04466028
170	0xbdf7bad9	-0.12096185
171	0x3d8b0b50	0.06789267
172	0xbdbf1132	-0.093294516
173	0x3cc2639b	0.023729136
174	0x3d90112f	0.070345275
175	0x3d15dfa2	0.036590226
176	0x3c1c2348	0.009529896
177	0x3da768c6	0.08174281
178	0xbe2f19de	-0.17099711
179	0xbe1c6c12	-0.152756
180	0xbd6f36c2	-0.05840183
181	0x3ddff3e2	0.10935189
182	0xbd6d1a09	-0.057886157
183	0xbd235e14	-0.03988464
184	0xbd6b3c3b	-0.057430487
185	0xbe2e24d5	-0.17006238
186	0xbbd64a69	-0.006539632
187	0xbe8b205c	-0.27173126
188	0xbe7393a5	-0.2378679
189	0xbe983772	-0.297298
190	0xbda13e1b	-0.07873174
191	0xbe7ed10a	-0.2488443
192	0xbe2c7e1a	-0.16844979
193	0x3c712946	0.014719313
194	0xbd4543b9	-0.04816029
195	0x3be8bbc0	0.0071024597
196	0xbdaa659e	-0.08320163
197	0xbd5abd68	-0.053403288
198	0x3e30565f	0.17220448
199	0xbe2b26c5	-0.16714008
200	0xbd618f1b	-0.055068117
201	0xbdcee3f1	-0.1010207
202	0x3da39dce	0.07989083
203	0x3dc0e91d	0.09419463
204	0xbbd1bddc	-0.006400807
205	0xbdbd1efd	-0.09234426
206	0x3e5c9d04	0.21544272
207	0x3db11e59	0.086483665
208	0x3dae2609	0.085033484
209	0xbd8256e9	-0.06364233
210	0xbe8262b1	-0.2546592
211	0xbda1c88c	-0.078995794
212	0xbe862e62	-0.26207262
213	0xbe9ea9ab	-0.3098882
214	0xbeb35500	-0.35025787
215	0xbea30890	-0.3184247
216	0x3df997a8	0.12187129
217	0xbe387bba	-0.18015948
218	0xbe2b774a	-0.16744724
219	0xbc588a3a	-0.0132165495
220	0xbcb906be	-0.022586223
221	0x3e144a98	0.1448158
222	0x3e265ad9	0.16245593
223	0x3daf3496	0.08554952
224	0xbca20816	-0.019779246
225	0xbcb23a2a	-0.02175625
226	0xbde4d365	-0.11173133
227	0xbe7fc121	-0.24976017
228	0xbece69b2	-0.40315014
229	0xbedf2aac	-0.43587244
230	0xbed90038	-0.4238298
231	0x3d98cb12	0.074606076
232	0xbdacdb3e	-0.08440255
233	0x3e55cc7b	0.20878784
234	0xbe95e423	-0.29275617
235	0x3cc72b19	0.024312543
236	0xbd90faa7	-0.07079058
237	0xbd1fc0f4	-0.039002374
238	0x3dc3473a	0.0953507
239	0xbeb7af81	-0.35876086
240	0xbe6e2622	-0.23256734
241	0xbe16e6ba	-0.14736453
242	0xbe6771fc	-0.22602075
243	0xbc28ddeb	-0.010306816
244	0xbd61f5d5	-0.055166084
245	0x3d54589e	0.051842324
246	0x3ddbf88e	0.107407674
247	0xbddc429f	-0.107548945
248	0x3d3e2e28	0.046430737
249	0xbe1dc7f4	-0.15408307
250	0xbe0dbb68	-0.13841021
251	0x3def97cb	0.11698874
252	0xbe44ca93	-0.19217901
253	0x3df30527	0.11866217
254	0xbe2d3fa3	-0.16918807
255	0x3db23101	0.08700753

cnn.0.bias f4 [16]
0	0xbda2ea27	-0.07954817
1	0xbe3cdb3f	-0.18443011
2	0xbe02840c	-0.12745684
3	0xbe20c955	-0.15701802
4	0xbd856da0	-0.0651505
5	0xbd2cac73	-0.042156648
6	0xbda31101	-0.079622276
7	0xbdd88988	-0.10573107
8	0xbe2436ed	-0.16036578
9	0xbdc9bb0f	-0.09850132
10	0x3cbb5fd4	0.022872843
11	0x3e2f9b30	0.17149043
12	0xbd0d57ce	-0.034507565
13	0xbe2b6791	-0.16738726
14	0xbd58d00f	-0.052932795
15	0xbdd4dd06	-0.103937194

cnn.3.weight f4 [32, 16, 3, 3]
0	0x3d7e7fe1	0.062133674
1	0xbc3983a7	-0.011322892
2	0x3d89f968	0.067370236
3	0xbd385bbb	-0.045009356
4	0x3d01b729	0.031668816
5	0x3c7e2c6f	0.0155135235
6	0xbdebfb64	-0.11522558
7	0xbd3c0618	-0.04590425
8	0x3d157109	0.03648475
9	0x3c869243	0.016427165
10	0x3d4eb55c	0.050465927
11	0x3cda8e8d	0.026679302
12	0x39ae17b3	0.00033205524
13	0xbd9688ce	-0.07350312
14	0xbd955ec2	-0.07293464
15	0xbcf506be	-0.029910441
16	0x3cf2e19b	0.029648593
17	0x3ca20c46	0.019781243
18	0xbd396fe2	-0.045272715
19	0x3d06be3c	0.032896265
20	0xbd619f0f	-0.05508333
21	0xbdb39a18	-0.087696254
22	0xbd20c108	-0.03924659
23	0xbd1a29ab	-0.037637394
24	0xbdb0f3ef	-0.08640277
25	0xbce3aaf3	-0.027791476
26	0xbdbf548c	-0.09342298
27	0xbd7aa741	-0.061194662
28	0xbd149036	-0.036270343
29	0x3d789783	0.060691368
30	0x3cb5951d	0.02216583
31	0xbd56f521	-0.052479867
32	0xbda54eb3	-0.08071651
33	0x3cb2a7eb	0.021808585
34	0xbacf9e08	-0.0015839944
35	0x3cf7663a	0.030200113
36	0xbdc67f88	-0.096922934
37	0x3d89c4dd	0.06727002
38	0xbd833cf0	-0.06408107
39	0x3cbcaeb3	0.023032522
40	0xbd92135a	-0.07132597
41	0xbd022f4a	-0.03178338
42	0xbc0a99c3	-0.008459511
43	0xbccada86	-0.024762403
44	0xbdb1ac3d	-0.0867543
45	0xbd878c01	-0.066185005
46	0x3c4f69f1	0.012659536
47	0x3d7ce3bb	0.06174062
48	0x3d38518e	0.04499965
49	0x3b8ee62a	0.004360934
50	0x3d0586c3	0.032599222
51	0xbc1ac869	-0.009447196
52	0xbc92a425	-0.017900536
53	0x3d77237b	0.06033657
54	0xbdbdca80	-0.092671394
55	0xbdbebd67	-0.093134694
56	0xbd19700a	-0.037460364
57	0x3d34d5af	0.044149097
58	0x3ce85fc1	0.028365972
59	0xbc9649fd	-0.018345827
60	0x3d0e6e23	0.034773003
61	0x3d120780	0.035651684
62	0xbd54eb6f	-0.05198234
63	0xbdfc1161	-0.12308002
64	0xbb3b9577	-0.0028623024
65	0xbe1a9a5b	-0.15097944
66	0xbe49b517	-0.19697987
67	0xbd3bd4a5	-0.04585709
68	0xbd8a48b2	-0.06752147
69	0xbc29a045	-0.010353153
70	0xbda4e9a7	-0.08052378
71	0x3c02470f	0.007951512
72	0xbea28a1f	-0.31746003
73	0xbdee3640	-0.11631441
74	0xbdcc6a8d	-0.099812604
75	0xbf227c79	-0.6347118
76	0xbcaccb36	-0.021092992
77	0xbed2585e	-0.41083044
78	0x3e22394e	0.15842173
79	0x3dc4389e	0.09581111
80	0xbde31e5a	-0.110897735
81	0xbdde6d5d	-0.10860703
82	0xbdc513aa	-0.09622891
83	0xbe352f31	-0.17693783
84	0xbe1217c2	-0.14266875
85	0x3e41997d	0.18906207
86	0x3d36a7a8	0.044593483
87	0xbe1146c7	-0.14187156
88	0x3d18e726	0.037329815
89	0xbe171cda	-0.147571
90	0xbde48d86	-0.11159806
91	0xbc6a50dc	-0.014301505
92	0x3b6f2609	0.0036491177
93	0x3c45a945	0.012064283
94	0xbd3279dc	-0.043573245
95	0xbdd9edbc	-0.10641047
96	0xbda27ca2	-0.07933928
97	0x3d9493aa	0.07254727
98	0xbdd3ce58	-0.10342091
99	0xbe805741	-0.2506657
100	0xbea09bce	-0.3136887
101	0xbf0acb2d	-0.5421627
102	0xbeb2dd81	-0.3493462
103	0xbed3f1ca	-0.41395408
104	0xbf0df2b2	-0.5544845
105	0xbca02e61	-0.019553365
106	0xbd1771d9	-0.036973808
107	0x3e816d67	0.2527878
108	0xbd1bca30	-0.038034618
109	0xbdc8ca38	-0.09804195
110	0xbd4a8d44	-0.049451128
111	0xbe45b0a2	-0.19305661
112	0xbe6065ee	-0.21913883
113	0xbe319921	-0.1734357
114	0xbe31f690	-0.17379212
115	0x3d44cece	0.048048787
116	0xbcfe1de6	-0.031020116
117	0xbc955bac	-0.01823219
118	0xbd6f4be3	-0.05842198
119	0x3c58e69c	0.013238575
120	0x3d8294eb	0.0637606
121	0xbd877046	-0.06613211
122	0xbdf6e910	-0.12056172
123	0xbde91a2f	-0.11381947
124	0xbdf5b0aa	-0.119965866
125	0xbdc0e475	-0.09418575
126	0xbbd96472	-0.0066342885
127	0xbd12c586	-0.035832904
128	0xbe58ce0c	-0.2117235
129	0xbde7123c	-0.11282775
130	0xbc99aae4	-0.018758245
131	0xbe4ee47e	-0.2020435
132	0xbcf88dca	-0.030341048
133	0xbe013a93	-0.1262
134	0xbe707e51	-0.23485686
135	0x3c55e996	0.0130561795
136	0x3d65947c	0.05604981
137	0xbd791ef3	-0.06082053
138	0xbd2c9e38	-0.042143077
139	0x3ce7cb7c	0.028295271
140	0xbd224860	-0.039619803
141	0xbcebaaaa	-0.028767902
142	0xbbb7387b	-0.00559145
143	0xbca17ae9	-0.019711928
144	0xbdf66062	-0.12030102
145	0x3c20cb87	0.00981415
146	0xbd890b98	-0.066916645
147	0xbcffe326	-0.031236243
148	0xbda19ddf	-0.0789144
149	0xbe18789e	-0.14889762
150	0xbc03a67c	-0.008035298
151	0xbd8a929e	-0.06766246
152	0xbdfd1b44	-0.12358716
153	0xbdff04d7	-0.12452095
154	0x3db5c23e	0.088749394
155	0xbdf73975	-0.12071506
156	0x3dc4f927	0.096178345
157	0xbca44bf4	-0.020055749
158	0xbd666b41	-0.05625463
159	0x3bb80143	0.005615385
160	0xbdd0f412	-0.10202803
161	0xbccf5e08	-0.025313392
162	0xbcc1736b	-0.023614606
163	0xbb82f6d3	-0.003996709
164	0x3cecb3a5	0.028894255
165	0x3d59413d	0.05304073
166	0x3d9a677e	0.07539271
167	0xbdb156a2	-0.08659102
168	0xbc91355b	-0.017725637
169	0x3d1b4868	0.03791085
170	0x3cb941f7	0.022614462
171	0xbd15dca1	-0.03658736
172	0x3cac311f	0.021019517
173	0xbc876a1b	-0.016530087
174	0x3cbe56be	0.023234721
175	0x3d147202	0.03624154
176	0x3d896af7	0.06709855
177	0x3b803cda	0.003913504
178	0xbd3c02e7	-0.045901205
179	0xbcb5eaa7	-0.022206618
180	0x3c1e8312	0.009674804
181	0x3d3bea37	0.04587766
182	0x3bf803e0	0.0075688213
183	0x3c69fa43	0.014280858
184	0x3dc51b8c	0.09624395
185	0x39f2041f	0.00046160907
186	0x3c77711a	0.015102649
187	0x3d8bb1c8	0.068210185
188	0x3d85ceee	0.06533609
189	0xbd62f7e9	-0.055412207
190	0x3db2961e	0.08720039
191	0xbd34bfd2	-0.044128247
192	0xbe0c7f91	-0.13720538
193	0xbb911bc6	-0.0044283597
194	0xbd9f564c	-0.07780132
195	0x3b4bc3fa	0.0031092153
196	0xbdaeeb45	-0.08540968
197	0xbc29ec41	-0.010371269
198	0x3df9386b	0.12168964
199	0x3db33f6b	0.087523304
200	0x3c208d75	0.009799351
201	0xbd9c8a8f	-0.076436155
202	0xbd41ddc2	-0.047330625
203	0xba9b5d3e	-0.001185335
204	0xbaaf6733	-0.0013382196
205	0xbd3ad7db	-0.045616012
206	0xbd0949fe	-0.03351783
207	0x3e1515bb	0.14559071
208	0x3dd1f7ff	0.102523796
209	0xbe1550e4	-0.14581639
210	0x3e00a6a0	0.12563562
211	0x3ccf83ec	0.02533146
212	0x3d5b59c8	0.05355242
213	0xbc5eba08	-0.013594158
214	0xbd985234	-0.07437554
215	0xbbab6a98	-0.005231213
216	0x3d55c712	0.0521918
217	0xbc88ffe9	-0.01672359
218	0xbde831d2	-0.113376275
219	0x3d3ade5b	0.04562221
220	0x3c91c516	0.017794173
221	0x3daa0b68	0.08302957
222	0xbddf41c8	-0.10901219
223	0xbd3a75cd	-0.0455225
224	0x3d6cebb3	0.057841968
225	0x3cf8c8a0	0.030369103
226	0xbd276949	-0.040871892
227	0xbdedf891	-0.11619676
228	0xbdef6137	-0.11688464
229	0xbd99971c	-0.07499525
230	0xbd3d96cd	-0.046286393
231	0x3c8cd259	0.017190145
232	0xbcc47daf	-0.023985712
233	0xbcf4c852	-0.029880676
234	0xbd320b10	-0.04346758
235	0x3b6062cc	0.0034238575
236	0xbd20adcd	-0.03922825
237	0xbc1ff1aa	-0.009762207
238	0x3c195d7f	0.00936067
239	0x3dc14ec2	0.0943885
240	0xbb2e115b	-0.0026560638
241	0xbd2fc196	-0.042909227
242	0xbc7ce59a	-0.015435601
243	0xbdfac5e4	-0.12244776
244	0xbe1f9879	-0.15585507
245	0xbe2bc000	-0.16772461
246	0xbe0195ad	-0.12654753
247	0xbd267932	-0.040642925
248	0xbdcfd33b	-0.10147711
249	0xbe2b5cc7	-0.1673461
250	0xbc7022f6	-0.014656773
251	0xbda74446	-0.08167319
252	0x3d2588d1	0.04041368
253	0x3d6cf706	0.057852767
254	0x3d897a72	0.06712808
255	0xbd1e2702	-0.03861142

cnn.3.bias f4 [32]
0	0xbe2bb58d	-0.16768475
1	0xbe008159	-0.12549342
2	0xbdbb340a	-0.09140785
3	0xbd2a3432	-0.041553684
4	0xbdcd9cdf	-0.100396864
5	0xbdb4074a	-0.08790453
6	0xbe1321eb	-0.14368407
7	0xbe071ff0	-0.13195777
8	0xbe315068	-0.17315829
9	0xbdb4153b	-0.08793112
10	0xbdb21233	-0.086948775
11	0xbdf2bfc1	-0.118529804
12	0x3dda73cf	0.1066662
13	0xbd953270	-0.07285011
14	0xbda81e8b	-0.082089506
15	0xbdd25a3c	-0.10271117
16	0xbdf73630	-0.12070882
17	0xbdbe60ff	-0.09295844
18	0xbdfbeb94	-0.12300792
19	0xbddc9c25	-0.1077197
20	0xbd6226b4	-0.05521269
21	0xbdc2ef62	-0.09518315
22	0xbe206e9b	-0.15667193
23	0xbd7c4222	-0.061586507
24	0xbdd73dd9	-0.105098434
25	0xbe1ba334	-0.15198976
26	0xbdd68b87	-0.104758315
27	0xbda2b9f0	-0.07945621
28	0xbdfc2502	-0.12311746
29	0xbdc5e80f	-0.09663402
30	0xbdbded22	-0.09273745
31	0xbd825a49	-0.06364877

cnn.6.weight f4 [64, 32, 3, 3]
0	0xbd2655ae	-0.040609054
1	0xbd1377d3	-0.036002945
2	0xbd6a92d6	-0.05726894
3	0xbca7815e	-0.02044743
4	0x3b84b213	0.0040495484
5	0xbd06de9c	-0.03292714
6	0xbd54ffe0	-0.052001834
7	0xbc5c4754	-0.01344474
8	0x3c5a74fa	0.013333553
9	0x3cbd3568	0.023096755
10	0xbd2d6173	-0.042329263
11	0x3da9cc02	0.082908645
12	0xbd50cb43	-0.050975095
13	0xbc15273b	-0.009103592
14	0xbad269af	-0.0016053225
15	0xbd0fac97	-0.035076704
16	0x3c8ec6ab	0.017428717
17	0x3d8b019c	0.06787416
18	0x3c98dcc2	0.018659953
19	0xbcf95572	-0.030436251
20	0x3cb4fe80	0.022094011
21	0xbd30613a	-0.043061472
22	0x3c163753	0.009168464
23	0x3d75d7cd	0.060020257
24	0x3be91601	0.007113219
25	0x3db1e37f	0.086859696
26	0x3d7a19be	0.061059706
27	0x3d51f195	0.05125578
28	0x3ce0d455	0.027444998
29	0x3cbe664c	0.023242138
30	0x3d9ebc93	0.077508114
31	0x3c19a71b	0.00937822
32	0xbcd6c068	-0.026214793
33	0x3ce81c28	0.028333738
34	0xbbdf056f	-0.0068060677
35	0x3d977080	0.073945045
36	0xbb49455f	-0.0030711514
37	0xbc3a6de6	-0.011378741
38	0x3d23b8c7	0.03997114
39	0xbc6e8454	-0.014557917
40	0xbd081f8b	-0.033233207
41	0xbb435262	-0.0029803743
42	0xbd5a1aca	-0.053248204
43	0xbd0d4e5f	-0.03449857
44	0xbc0de38e	-0.00866021
45	0x3d12d959	0.03585181
46	0xbcb6a0ab	-0.02229341
47	0xbce98c62	-0.028509323
48	0x3d038519	0.032109354
49	0x3cdbcecc	0.026832007
50	0xbd3a5d0b	-0.04549889
51	0xbd012db8	-0.03153774
52	0x3d500c1f	0.05079281
53	0x3d12ec6c	0.03587
54	0xbda1a9a9	-0.07893688
55	0xbd794f7a	-0.06086681
56	0x3d08257e	0.03323888
57	0x3d96581c	0.07341024
58	0x3daf1e49	0.08550698
59	0x3d1e080d	0.038581897
60	0xbda0cfd9	-0.07852144
61	0x3d0b6f49	0.034041677
62	0x39b78420	0.0003500292
63	0xbd0448f7	-0.032296147
64	0xbbb6c308	-0.0055774488
65	0x3c07cdf7	0.008288852
66	0x3cbf3d97	0.023344798
67	0x3cfdc4f9	0.030977713
68	0xbd1d2c9c	-0.03837262
69	0xbd467a03	-0.048456203
70	0xbcf0e97a	-0.029408205
71	0xbd0d6255	-0.034517605
72	0x3d14818d	0.03625636
73	0xbd6b28c5	-0.057411928
74	0x3b0ca80f	0.0021462475
75	0x3d37c954	0.044869736
76	0x3d344016	0.04400643
77	0x3cbac67d	0.022799725
78	0xbd6df0cd	-0.058090974
79	0xbc088b34	-0.00833397
80	0x3d000f02	0.031264313
81	0x3b40d47a	0.002942352
82	0x3ce5774e	0.02801099
83	0x3d295c29	0.041347656
84	0x3bc0a534	0.0058790687
85	0x3c2ceeb3	0.010554957
86	0x3cb3c403	0.021944052
87	0xbd124ae7	-0.035715964
88	0xbbca59e9	-0.006175269
89	0xbd9080bc	-0.07055804
90	0xbd8a1b67	-0.06743508
91	0xbe2b7827	-0.16745053
92	0x3dd496a2	0.103802934
93	0xbc07e18f	-0.008293523
94	0xbddef6eb	-0.108869396
95	0xbda76aa3	-0.08174636
96	0x3c79e1c9	0.015251585
97	0xbd314761	-0.043280963
98	0xbd002b17	-0.031291094
99	0x3da97929	0.082750626
100	0xbd4d1b8e	-0.050075106
101	0xbcd53829	-0.026027756
102	0xbcb31028	-0.02185829
103	0x3d2057b8	0.039146155
104	0x3b2e2129	0.0026570058
105	0xbd53f7f3	-0.051750135
106	0x3cb125d5	0.021624485
107	0xbd04cc67	-0.032421496
108	0xbe21127b	-0.15729706
109	0xbe0ac2ba	-0.13550845
110	0x3b877e0c	0.004134899
111	0xbcb5ed3a	-0.022207845
112	0xbe1231fc	-0.1427688
113	0xbcdd165d	-0.026988203
114	0xbd5bba22	-0.053644307
115	0xbafe60a1	-0.001940746
116	0xbd1b7d0f	-0.037961062
117	0xbdc378ea	-0.09544547
118	0xbb626cf6	-0.003454981
119	0xbdc3f84b	-0.095688425
120	0xbd4676f7	-0.048453297
121	0xbb62feaa	-0.0034636655
122	0xbd52cb53	-0.051463436
123	0xbc3f7c67	-0.011687375
124	0xbd573862	-0.052544005
125	0xbd914987	-0.07094102
126	0xbcfc276f	-0.030780522
127	0x3d35e21e	0.044405095
128	0xbbd00d48	-0.0063492395
129	0xbccc962e	-0.024973955
130	0x3d2db78d	0.042411376
131	0xbd6295a7	-0.0553185
132	0x3d48c428	0.049015194
133	0xb9d71802	-0.00041025883
134	0xbd6dcbbc	-0.058055624
135	0xbd755bf1	-0.059902135
136	0x3d5347fc	0.05158232
137	0x3c6aa37d	0.014321205
138	0x3cccf675	0.025019864
139	0xbc61043d	-0.013733921
140	0x3d19c294	0.03753908
141	0x3d2aac46	0.0416682
142	0x3ce074ed	0.027399505
143	0xbd25d40f	-0.040485438
144	0xbd4eb2e8	-0.050463587
145	0x3d088237	0.033327308
146	0x3cf440fb	0.029816141
147	0xbd25691e	-0.04038345
148	0xbc26ff9b	-0.010192777
149	0x3cba8a44	0.022771008
150	0xbb5adf87	-0.0033397393
151	0xbb512ef5	-0.0031918858
152	0x3b0cbdc5	0.0021475416
153	0x3d051138	0.032487124
154	0xbb9a07ef	-0.004700653
155	0x3d4ae6ea	0.049536623
156	0x3c8d5b09	0.017255323
157	0x3d790dda	0.060804226
158	0x3b9463c4	0.0045284946
159	0xbc6ff43b	-0.014645631
160	0xbb34d1d7	-0.0027590895
161	0xbc3de4fc	-0.011590239
162	0xbcbd4f21	-0.02310902
163	0xbd4e0ecc	-0.05030708
164	0xbc49f54f	-0.0123265525
165	0xbc1bb343	-0.009503189
166	0xbbc22cda	-0.005925757
167	0x3d92c4d9	0.07166452
168	0x3caf351a	0.021387625
169	0x3ca68702	0.020328049
170	0x3d81bd88	0.06334978
171	0x3d052acb	0.032511514
172	0xbca8849e	-0.02057105
173	0x3c980f17	0.018561883
174	0xbd809ac0	-0.06279516
175	0xbd3bcb37	-0.045848098
176	0xbd37038c	-0.044681117
177	0x3c4f5efd	0.012656924
178	0xbd333c44	-0.043758646
179	0x3d1854b0	0.03719014
180	0x3c88d7ee	0.016704526
181	0xbb98927a	-0.0046561332
182	0xbe0b6191	-0.13611437
183	0x3d5d6441	0.054050688
184	0x3d7c279b	0.06156121
185	0xbbf88e1f	-0.0075853015
186	0xbc966369	-0.01835795
187	0xbcc862d7	-0.024461193
188	0x3ca4bc3e	0.020109292
189	0xbc853b0c	-0.016263507
190	0xbc398775	-0.011323799
191	0x3d5a114d	0.053239156
192	0x3c6c0358	0.014405094
193	0xbc003d11	-0.007827059
194	0xbdb29d04	-0.087213546
195	0xbd6135b5	-0.05498286
196	0xbcd8ada1	-0.02644998
197	0xbd2d133c	-0.04225467
198	0xbc0dd44b	-0.008656572
199	0xbcc1b44b	-0.02364554
200	0xbd1b2284	-0.037874714
201	0x3ce92f5a	0.028464962
202	0xbb98ce2b	-0.004663249
203	0xbd93adc2	-0.07210876
204	0xbd6bcac2	-0.05756641
205	0xbdaf00af	-0.08545052
206	0xbcc762d4	-0.024339117
207	0x3d263518	0.040577978
208	0x3d190670	0.037359655
209	0x3d1542da	0.036440708
210	0xbd52ad83	-0.051435005
211	0x3d1b8f34	0.037978366
212	0x3c8d7039	0.017265426
213	0xbd5ef444	-0.05443217
214	0x3d572b7a	0.052531697
215	0xbca4acf2	-0.020101998
216	0x3ccec629	0.025240975
217	0xbcab7f71	-0.020934792
218	0x3ca069dd	0.01958173
219	0xbd347771	-0.04405922
220	0x3d42b524	0.04753603
221	0x3ce77b10	0.028256923
222	0xbd76df77	-0.060271706
223	0xbcb5d132	-0.022194479
224	0x3d1f317d	0.038865555
225	0xbca8def4	-0.020614125
226	0x3d506ccc	0.050885007
227	0x3cc4cd81	0.024023773
228	0xbcb4c9c1	-0.02206886
229	0x3a05b0d6	0.0005099898
230	0xbdc2baf9	-0.095083185
231	0x3d2be725	0.041968483
232	0x3d530438	0.051517695
233	0xbd2b2386	-0.041781925
234	0x3b26ea05	0.0025469076
235	0xbd1e3a28	-0.03862968
236	0xbad19486	-0.0015989698
237	0xbbe6476e	-0.007027558
238	0x3bf031bb	0.007330147
239	0xbd24d154	-0.040238693
240	0x3d1c2af6	0.03812691
241	0xbcb9f9f3	-0.022702193
242	0x3d4ce7df	0.050025817
243	0xbb6d453e	-0.0036204602
244	0xbc117506	-0.008877998
245	0x3d142d28	0.036175877
246	0x3ccaf42b	0.024774631
247	0x3dbef802	0.093246475
248	0xbd13ffe9	-0.036132727
249	0x3dff7186	0.12472825
250	0x3cc6b070	0.024254054
251	0x3d73a3cf	0.059482392
252	0xbcf7a00a	-0.03022768
253	0xbd53cdb3	-0.051709842
254	0xbd2293d9	-0.03969178
255	0x3d4a6466	0.049412154

cnn.6.bias f4 [64]
0	0xbd9de90d	-0.077104665
1	0xbd82809f	-0.06372189
2	0xbdb5393e	-0.08848809
3	0xbd32fb89	-0.043696914
4	0x3de5c1f7	0.112186365
5	0xbd8adb45	-0.067801036
6	0xbd5b39e0	-0.05352199
7	0xbcc82182	-0.02443004
8	0xbdb8a165	-0.090151586
9	0xbddc27ad	-0.10749755
10	0xbd9b644b	-0.07587489
11	0xbc83bf04	-0.016082294
12	0xbd133c81	-0.035946373
13	0xbd746c3a	-0.059673525
14	0xbdb00721	-0.0859511
15	0xbc7cc7d8	-0.015428506
16	0xbd30a416	-0.043125235
17	0xbd490176	-0.04907366
18	0xbd062914	-0.03275402
19	0xbda28803	-0.079360984
20	0xbc6411f6	-0.013920298
21	0xbdb44f4d	-0.08804188
22	0x378ff5fe	1.7161477e-05
23	0xbdb19886	-0.0867167
24	0xbd3d818e	-0.04626613
25	0xbd129f77	-0.03579661
26	0xbcf1ef38	-0.029533014
27	0xbd6d99a6	-0.05800786
28	0x3a98d02e	0.0011658722
29	0xbda22561	-0.07917286
30	0xbd6d1765	-0.05788364
31	0x3c2c74b6	0.010525873
32	0x3e0ab4cc	0.13545531
33	0xbdbe0476	-0.092781946
34	0xbde194e9	-0.110147305
35	0xbd403895	-0.04692896
36	0xbdc3d574	-0.09562197
37	0xbd3bce28	-0.045850903
38	0xbc7084ea	-0.014680127
39	0xbdf9e93a	-0.122026876
40	0xbda06058	-0.07830876
41	0xbdc07a36	-0.0939831
42	0xbd8cd3ef	-0.068763606
43	0xbdcac3bd	-0.09900615
44	0xbd99fb5b	-0.075186454
45	0xbc9dd31a	-0.0192657
46	0xbcdada03	-0.026715284
47	0xbce58fd4	-0.028022684
48	0xbd924e22	-0.07143809
49	0xbd3038f3	-0.04302306
50	0x3d32dd35	0.04366799
51	0xbd03f31a	-0.03221426
52	0xbce16fee	-0.027519193
53	0xba5c0080	-0.00083924085
54	0xbdc425b4	-0.09577504
55	0xbd791e23	-0.060819756
56	0xbdaa3e46	-0.08312659
57	0xbd7ba2c6	-0.06143453
58	0xbc36a5e5	-0.011147951
59	0xbda33094	-0.0796825
60	0xbdc253fb	-0.09488674
61	0xbd72c737	-0.059272017
62	0xbc9275e6	-0.017878484
63	0x3d742e71	0.059614602

cnn.9.weight f4 [128, 64, 3, 3]
0	0xbd4e1cf2	-0.050320573
1	0xbbe5dc95	-0.007014821
2	0xbc9e8f8d	-0.01935556
3	0xbd161cf0	-0.03664869
4	0xbd967cd5	-0.073480286
5	0x3d58f505	0.052968044
6	0xbcf2ddcc	-0.029646777
7	0xbd776ed3	-0.060408425
8	0x3c61a555	0.013772328
9	0xb93cee50	-0.00018017855
10	0xbd0efdd8	-0.034910053
11	0x3c4ea4a7	0.012612498
12	0xbd1422ea	-0.03616611
13	0xbcac4d28	-0.021032885
14	0xbd67e576	-0.056615315
15	0xbb2be85d	-0.0026231029
16	0xbd3daa92	-0.046305247
17	0x3bdf67f3	0.0068178116
18	0xbcc4e5bc	-0.024035327
19	0xbd2ed300	-0.042681694
20	0xbd4eb917	-0.050469484
21	0xbbb741a8	-0.0055925436
22	0xbce71117	-0.028206391
23	0xbca29311	-0.019845517
24	0xbd130bfa	-0.035900094
25	0x3cfac68d	0.030612255
26	0xbc376d40	-0.011195481
27	0x3c31b0d1	0.010845379
28	0x3c393644	0.011304442
29	0xbd22713b	-0.039658766
30	0xbd109694	-0.035299852
31	0x3b935f0f	0.004497416
32	0xbd016628	-0.031591564
33	0x3c29ee74	0.010371793
34	0xbb8a6e9e	-0.0042246124
35	0xbcad66d0	-0.021167189
36	0x3c750b83	0.014956358
37	0x39fc743a	0.0004815178
38	0x3b802ded	0.003911725
39	0xbcb5bd7d	-0.022185082
40	0xbd819817	-0.06327837
41	0xbd386ef5	-0.045027692
42	0xbd23fb1e	-0.040034406
43	0xbcbc9699	-0.02302103
44	0xbc76f903	-0.015074017
45	0x3c2145c6	0.009843295
46	0x3d0b60e7	0.03402796
47	0xbc0d3b26	-0.008620059
48	0x3ce20e5e	0.027594741
49	0xbccda18e	-0.02510145
50	0x3c7bda86	0.015371924
51	0xbc0315f0	-0.008000836
52	0xbd0070aa	-0.031357445
53	0xbc50163b	-0.012700613
54	0xbc31dea5	-0.010856305
55	0x3cabb3e1	0.020959796
56	0xbddf4c00	-0.10903168
57	0xbc96dc48	-0.018415585
58	0x3cd85b0d	0.026410604
59	0xbdb9ca61	-0.09071804
60	0xbce7d1f0	-0.028298348
61	0xbd3f4380	-0.046695232
62	0xbd43efa8	-0.047835976
63	0x399f2711	0.0003035595
64	0x3c2f7361	0.010708661
65	0x3ca08e7c	0.019599192
66	0xbd1a9740	-0.0377419
67	0xbcf5dd6e	-0.030012812
68	0xbb8bcec0	-0.00426659
69	0xbce997b3	-0.028514719
70	0xbd21cdaa	-0.039502777
71	0x3bb4af8b	0.0055140904
72	0xbcdefc7a	-0.02722
73	0x3c238440	0.009980261
74	0xbc9cf059	-0.019157575
75	0xbccbfabc	-0.024899833
76	0x3be8b4bc	0.0071016233
77	0x3d330927	0.0437099
78	0xbc233ef2	-0.009963738
79	0xbcf2d70b	-0.029643556
80	0xbc95ff56	-0.01831023
81	0xbd017e32	-0.03161449
82	0xbceb3a78	-0.028714404
83	0xbb879cf6	-0.0041385842
84	0x3cdcd8ae	0.02695879
85	0xbcaa1783	-0.020763164
86	0xbc136bab	-0.008997838
87	0x3c8a3516	0.016871016
88	0xbd294427	-0.04132476
89	0x3d1b6563	0.037938487
90	0xbcd410ce	-0.02588692
91	0x3ad23c2b	0.001603966
92	0xbd03deee	-0.032195024
93	0xbbd8905d	-0.0066090063
94	0xbd010db8	-0.031507224
95	0xbc7b7c70	-0.015349492
96	0x3d13b8fc	0.036065087
97	0x3cc319b3	0.023815965
98	0xbd0f1c5b	-0.03493915
99	0xbc8fc44b	-0.017549654
100	0x3be44855	0.0069666305
101	0xbdef67bd	-0.116897084
102	0xbd8c3724	-0.06846455
103	0xbc553d87	-0.013015158
104	0xbd8129b3	-0.063067816
105	0x3d8a2570	0.06745422
106	0xbd6311e1	-0.055436973
107	0xbda3651d	-0.0797827
108	0x3c9ad337	0.018899543
109	0xbd24cbd7	-0.04023346
110	0xbd3502fd	-0.044192303
111	0x3c2e878e	0.010652436
112	0xbc7ae1c5	-0.015312617
113	0xbc18d17b	-0.009327288
114	0xbd157be2	-0.036495097
115	0xbab02dab	-0.0013441344
116	0xbcf14ac6	-0.0294546
117	0x3c32f7f3	0.0109233735
118	0x3cdd653b	0.02702581
119	0xbd0feac6	-0.035136007
120	0xbd3373a6	-0.043811463
121	0x3bcfcee3	0.0063418015
122	0xbc9d4dcb	-0.019202134
123	0x3cee774e	0.029109623
124	0x3d07ee3f	0.033186194
125	0xbd10799f	-0.035272237
126	0x3ca63b61	0.020291986
127	0x3ce4cf6b	0.027930936
128	0x3bad989f	0.005297735
129	0xbc3908e2	-0.011293622
130	0xbc50db65	-0.01274762
131	0xbd8d21ac	-0.06891188
132	0x3b8ca5bc	0.004292218
133	0x3cd7c234	0.02633772
134	0xbcb70687	-0.02234198
135	0xbd60bdee	-0.05486863
136	0xbcced14d	-0.025246287
137	0x3c872384	0.016496427
138	0x3bd9b178	0.0066434704
139	0x3a36ee31	0.00069782423
140	0xbd4100e1	-0.04711998
141	0x3cffffd0	0.03124991
142	0xbc03a83e	-0.0080357175
143	0x3b640dd6	0.0034798286
144	0xbd2b1150	-0.041764557
145	0x3cfeffb4	0.031127788
146	0xbd6662c3	-0.05624653
147	0x3c1b0eb6	0.009463957
148	0xbcc8f9ca	-0.024533171
149	0x3cd3872e	0.025821295
150	0x3d37b778	0.044852704
151	0x3d0f732b	0.035021942
152	0xbd81829b	-0.06323739
153	0xbc80ae88	-0.015708223
154	0xbcad7006	-0.021171581
155	0x3c6c907b	0.014438744
156	0x3c5685ab	0.013093392
157	0x3b1d05ab	0.0023959677
158	0xbc75a5bb	-0.0149931265
159	0xbc769536	-0.015050223
160	0x3c1ec056	0.009689411
161	0x3cde2698	0.027118012
162	0xbd1f5530	-0.0388996
163	0xbdae1c63	-0.08501508
164	0xbdb6084a	-0.088883
165	0x3c80b7f3	0.015712714
166	0xbd425381	-0.047442917
167	0x3d2f1690	0.042746127
168	0xbd91a02d	-0.07110629
169	0xbdc0e9e2	-0.094196096
170	0xbcec3ac2	-0.028836612
171	0x3c88b033	0.01668558
172	0xbc91ac88	-0.017782465
173	0xbc29eb4b	-0.01037104
174	0x3c48a546	0.0122464355
175	0x3ca94da8	0.020666912
176	0x3c4149db	0.011797394
177	0xbca4bab8	-0.020108566
178	0xbc6e6c36	-0.014552167
179	0xbd0181c8	-0.03161791
180	0x3cad0043	0.021118289
181	0xba891181	-0.0010457487
182	0xbc2f0dc6	-0.010684436
183	0x3d001cbb	0.0312774
184	0xbbd23ec0	-0.006416172
185	0xbcc79a90	-0.024365693
186	0xbba3c0e0	-0.0049973577
187	0xbcc4a523	-0.024004525
188	0x3d09e57a	0.03366611
189	0xbd080302	-0.033205993
190	0xbb55a494	-0.0032599317
191	0xbc8fc6e2	-0.01755089
192	0xbc131a63	-0.008978459
193	0x3d28a36d	0.04117148
194	0x3b4762eb	0.003042395
195	0xbc7f8b32	-0.015597152
196	0x3d23872b	0.039923828
197	0xbbf1ed20	-0.007383004
198	0xbba69576	-0.005083735
199	0xbcf5bf5d	-0.029998476
200	0x3bd5c46a	0.0065236585
201	0x3cf14df8	0.029456124
202	0xbcd6a952	-0.026203785
203	0x3c7a682a	0.015283624
204	0x3cf8d96e	0.030377116
205	0x3c1678a6	0.009184038
206	0x3a912e2b	0.0011076381
207	0x3c748253	0.01492365
208	0xbcca9b4a	-0.02473225
209	0xbc8dba28	-0.01730068
210	0x3d0691a9	0.032853756
211	0xbd745af4	-0.059657052
212	0x3c851420	0.016244948
213	0x3c4ceeb3	0.012508082
214	0x3cff3466	0.031152915
215	0xbca34356	-0.01992957
216	0x3c8e42de	0.01736587
217	0x3d1480fe	0.03625583
218	0x3d051fbc	0.032500967
219	0x3d005c27	0.031337883
220	0x3cecbda3	0.02889902
221	0xbcbd8ec3	-0.023139363
222	0x3cb01c9b	0.021498015
223	0xbcc1952e	-0.023630705
224	0x3d0423ca	0.032260694
225	0x3b613580	0.0034364164
226	0xbcd6025b	-0.02612417
227	0xbca6bf18	-0.020354792
228	0x3d24a00c	0.040191695
229	0x3cde4b63	0.027135557
230	0xbcfaa808	-0.030597702
231	0xbc2c255b	-0.010506953
232	0xbcf08fb3	-0.029365396
233	0xbc4ead9b	-0.012614633
234	0xbbe896c6	-0.0070980517
235	0xbc05f11f	-0.0081751635
236	0xbcdd776d	-0.027034486
237	0x3988afea	0.00026071008
238	0xbd94b376	-0.07260792
239	0xbca95e32	-0.020674799
240	0xbc806999	-0.015675353
241	0x3c9c4735	0.019076923
242	0xbdbd0421	-0.09229303
243	0xbca13676	-0.01967929
244	0xbbc08f77	-0.0058764773
245	0xbd1f0630	-0.03882426
246	0xbd7c7da2	-0.06164325
247	0xbb84f8f7	-0.0040579992
248	0xbd5af201	-0.05345345
249	0xbc9d5f62	-0.019210521
250	0xbd4b9053	-0.049698185
251	0xbd0f9685	-0.035055656
252	0xbcaf324c	-0.021386288
253	0xbb8d405d	-0.004310651
254	0xbbf7fed9	-0.007568222
255	0xbc2d30e2	-0.010570737

cnn.9.bias f4 [128]
0	0xbd183db4	-0.03716822
1	0xbd9cd5ce	-0.076579675
2	0xbd7bafc3	-0.061446916
3	0xbd2b68e7	-0.04184809
4	0xbd8dc6d1	-0.06922687
5	0xbd623bcf	-0.05523282
6	0xbd0b9f61	-0.034087542
7	0xbd820217	-0.06348055
8	0xbd52419e	-0.05133211
9	0xbd4eb2e8	-0.050463587
10	0xbd6db226	-0.058031224
11	0xbc39ae18	-0.011333011
12	0xbb38a61d	-0.0028175183
13	0xbcce25c3	-0.02516449
14	0xbd86ea21	-0.06587625
15	0xbd0a241c	-0.033725843
16	0xbd796e0b	-0.06089596
17	0xbc05ae85	-0.0081592845
18	0xbceb2fda	-0.02870934
19	0xbd332fb9	-0.043746684
20	0xbcb3eb79	-0.021962868
21	0xbc0f833f	-0.008759319
22	0xbd449c86	-0.048000835
23	0xbd8d057a	-0.0688581
24	0x3d980730	0.07423246
25	0x3dfb8696	0.122815296
26	0xbd34ab65	-0.044108767
27	0xbd81f628	-0.06345779
28	0xbcd626a6	-0.026141476
29	0xbced797d	-0.028988594
30	0xbd361fb3	-0.044463824
31	0xbd46d4c7	-0.048542764
32	0xbcf3b019	-0.029747056
33	0xbcf85d79	-0.030318009
34	0xbd3abea5	-0.04559197
35	0x3d55e8cc	0.052223966
36	0xbc62ee09	-0.013850697
37	0xbd3de840	-0.04636407
38	0xbd22b1ec	-0.03972046
39	0xbd83462e	-0.0640987
40	0xbc8fba7e	-0.017544981
41	0xbcd6e3ec	-0.026231728
42	0xbc46e290	-0.012138978
43	0xbd30b0dd	-0.04313742
44	0xbd844461	-0.06458355
45	0xbd09f262	-0.03367842
46	0xbd5d1466	-0.05397453
47	0xbd1ba229	-0.037996445
48	0xbcfa938b	-0.030587932
49	0xbd0e5619	-0.034750078
50	0xbd04dcbd	-0.032437075
51	0xbddbae81	-0.10726643
52	0xbc59e2b0	-0.013298675
53	0xbd9c6f98	-0.07638472
54	0xbd1f998a	-0.038964786
55	0xbd0aac24	-0.033855572
56	0x3d19f7e5	0.037589926
57	0xbd764c3f	-0.060131308
58	0xbd4da972	-0.050210424
59	0xbcaa8778	-0.02081655
60	0xbd35c5f2	-0.04437823
61	0xbd037505	-0.03209402
62	0xbc7933a1	-0.015210063
63	0xbceaa15b	-0.028641393
64	0xbd1f93e4	-0.0389594
65	0xbd6d4146	-0.057923578
66	0xbc93110b	-0.017952463
67	0xbd97c097	-0.074097805
68	0xbd0cb8c4	-0.034355894
69	0xbd64f0a4	-0.055893555
70	0xbce11d6f	-0.027479855
71	0xbd17dda0	-0.037076592
72	0xbd500bc4	-0.05079247
73	0xbd2c030e	-0.0419951
74	0xbd9ed770	-0.07755935
75	0xbda1b72c	-0.078962654
76	0xbc64649d	-0.013940004
77	0xbdbcb911	-0.09214986
78	0xbcdbd898	-0.026836678
79	0xbd42f7f9	-0.047599766
80	0xbd4256d4	-0.047446087
81	0x3d6f4e94	0.058424547
82	0xbcda12d3	-0.026620304
83	0xbd42b72f	-0.04753798
84	0xbc59947d	-0.013280031
85	0xbd77ab9c	-0.060466394
86	0xbd23a17a	-0.039948918
87	0xbd370c10	-0.044689238
88	0xbd79de12	-0.0610028
89	0xbd449160	-0.047990203
90	0xbc8a1257	-0.016854448
91	0xbd9d112b	-0.0766929
92	0xbd4efccd	-0.05053406
93	0xbd0920e4	-0.033478633
94	0xbcd7132d	-0.02625426
95	0xbc9c0da4	-0.019049473
96	0xbd0d7099	-0.03453121
97	0xbd2f5c98	-0.042812914
98	0xbd30a124	-0.043122426
99	0xbd3958ef	-0.04525083
100	0xbdab2685	-0.083569564
101	0xbd550320	-0.052004933
102	0xbd83f65b	-0.06443473
103	0xbd874e56	-0.06606738
104	0xbcef9ba4	-0.02924902
105	0xbd4b9f60	-0.04971254
106	0x3d9a5825	0.075363435
107	0xbccdcd75	-0.025122384
108	0xbcd35fed	-0.025802577
109	0xbd175ffa	-0.036956765
110	0xbc9a258c	-0.018816732
111	0xbd28d2f4	-0.041216806
112	0xbd5b5b87	-0.053554084
113	0xbd10c46e	-0.03534358
114	0x3d3eb261	0.046556834
115	0xbd16063f	-0.03662705
116	0xbd13450f	-0.03595453
117	0xbd21063b	-0.039312582
118	0xbce6eb3d	-0.028188342
119	0xbd9106b4	-0.07081357
120	0xbcf721b0	-0.03016743
121	0xbd73da4d	-0.05953436
122	0xbce0751a	-0.027399588
123	0x3e3dd5b7	0.18538557
124	0xbd80c14a	-0.06286867
125	0xbd9776cd	-0.07395706
126	0xbd28178b	-0.041038077
127	0xbd7ddae2	-0.06197632
