Assets/ONNX/ffn.onnx (onnx, 405247 bytes, 6 tensors)

linear_relu_stack.0.weight f4 [256, 135]
0	0x3e867d49	0.2626746
1	0x3d81d38a	0.06339176
2	0xbc549953	-0.0129760085
3	0xbeb30ba4	-0.3496982
4	0x3c3b3dd0	0.0114283115
5	0xbc0abfd6	-0.008468589
6	0xbeaa89e7	-0.33308336
7	0xbc5194b9	-0.012791806
8	0xbdba57f6	-0.090988085
9	0xbd9f023c	-0.07764098
10	0x3d024cfa	0.03181169
11	0xbdb971c4	-0.09054902
12	0xbd41337e	-0.047168247
13	0x3d05c898	0.032662004
14	0xbe6e0234	-0.23243028
15	0xbd62a467	-0.055332568
16	0x3dc8e1bc	0.098086804
17	0xbd3cc096	-0.0460821
18	0x3ceeda4f	0.029156832
19	0xbcdb87e4	-0.026798196
20	0x3d669cf7	0.056302037
21	0xbc241d79	-0.010016792
22	0x3cfe35e1	0.03103155
23	0x3ca94757	0.0206639
24	0x3d2d51cf	0.042314347
25	0xbd52e471	-0.05148739
26	0x3d538e5b	0.051649433
27	0x3b2e9eed	0.002664502
28	0xbe4a5a6f	-0.1976106
29	0x3d38cc34	0.04511662
30	0x3a300c26	0.00067156774
31	0xbcd0a87b	-0.025470963
32	0x3ce8675c	0.028369598
33	0x3d3434b4	0.043995574
34	0xbd422bda	-0.0474051
35	0xbd3f3da6	-0.046689652
36	0xbc3fe5aa	-0.011712471
37	0x3d20b3a8	0.039233834
38	0x3d18bc69	0.037289057
39	0x3dc118ed	0.09428582
40	0xbdb8e4b0	-0.09027994
41	0xbd2332ae	-0.039843254
42	0xbe64aadc	-0.22330803
43	0xbd886fe0	-0.066619635
44	0xbbc4f9b8	-0.006011214
45	0x3cb93c12	0.022611652
46	0x3d1cb12f	0.038254913
47	0x3cbdf097	0.023186011
48	0x3da120c8	0.07867581
49	0xbd46cc45	-0.04853465
50	0xbd7f7482	-0.06236697
51	0xbc3b650f	-0.011437668
52	0x3d710641	0.058843855
53	0x3d851b7f	0.06499385
54	0x3c2c0f85	0.010501747
55	0xbd230a9e	-0.039805047
56	0xbd8d8c41	-0.06911517
57	0x3dfd4b20	0.123678446
58	0x3d80d1cd	0.06290016
59	0xbc658d1f	-0.014010697
60	0xbd327da7	-0.043576863
61	0xbe9be5c7	-0.30448744
62	0x3d34eb28	0.044169575
63	0x3d73c1d9	0.05951104
64	0xbedf77a8	-0.43645978
65	0x3c831c3b	0.016004672
66	0xbd817d88	-0.06322771
67	0xbdf0f719	-0.1176588
68	0xbe67d0f5	-0.22638305
69	0x3d9025ce	0.07038461
70	0xbd267c5f	-0.040645953
71	0xbd15fa0f	-0.036615428
72	0x3d820b1b	0.063497745
73	0x3d501c2c	0.050808117
74	0xbe9157c9	-0.28387287
75	0xbe9a6c81	-0.30160907
76	0xbe3e043e	-0.18556306
77	0x3d981b0b	0.07427033
78	0x3d1d5160	0.038407683
79	0x3c9785db	0.018496444
80	0xbf0a8a09	-0.54116875
81	0x3c84d3a5	0.016214201
82	0x3da57595	0.080790676
83	0x3d52ddfe	0.05148124
84	0xbcc294fa	-0.023752678
85	0xbdb1c5af	-0.08680283
86	0xbd624cba	-0.055248953
87	0x3ce14011	0.02749637
88	0x3d9a17f3	0.07524099
89	0xbdc5d478	-0.09659666
90	0xbd9ab2fc	-0.0755367
91	0x3d2b2852	0.0417865
92	0xbcb8b46c	-0.02254697
93	0xbd279970	-0.040917814
94	0xbd656c15	-0.05601128
95	0xbcc4f5a7	-0.024042917
96	0x3cecd553	0.028910315
97	0xbe075041	-0.13214208
98	0xbdb6f123	-0.08932712
99	0x3c092abc	0.008372005
100	0xbeb3a3f6	-0.3508603
101	0xbd407313	-0.046984743
102	0xbc98fb5f	-0.01867455
103	0xbd88fb97	-0.06688612
104	0x3d6f6ffe	0.058456413
105	0xbd2f0014	-0.042724684
106	0xbea79def	-0.3273768
107	0x3cba5b64	0.022748657
108	0xbda44009	-0.08020026
109	0xbc3584e7	-0.01107905
110	0xbd7e9c53	-0.0621608
111	0xbb795f43	-0.0038051165
112	0x3d046af4	0.03232856
113	0xbea43ef0	-0.32079268
114	0x3d5283c9	0.05139521
115	0xbe877167	-0.26453707
116	0xbe989025	-0.29797474
117	0xbd3cc935	-0.046090323
118	0x3d4a0029	0.04931656
119	0xbe9d58d5	-0.30731836
120	0x3d2160aa	0.039398827
121	0xbe089cb2	-0.13341025
122	0xbd32a46b	-0.043613832
123	0xbcd85928	-0.0264097
124	0xbc53d993	-0.012930292
125	0x3d31f6e9	0.043448362
126	0x3d9eb03b	0.07748457
127	0xbd36f011	-0.04466254
128	0xbc99ebd5	-0.018789211
129	0x3d26e1c7	0.04074266
130	0xbdb171c1	-0.08664275
131	0x3d2acc32	0.041698642
132	0x3d88c849	0.06678826
133	0xbd2541e6	-0.04034605
134	0x3cc7b867	0.024379922
135	0xbe89340b	-0.26797518
136	0xbf198a53	-0.5997669
137	0xbf031afa	-0.5121304
138	0x3e52294b	0.20523565
139	0xbe63ed51	-0.22258498
140	0x3f5a35cc	0.8523834
141	0xbdc18029	-0.09448273
142	0x3c84a124	0.01619012
143	0xbd7fe190	-0.062470973
144	0x3d2468a9	0.040138874
145	0x3e2cb7e3	0.16867022
146	0xbd89360c	-0.06699762
147	0x3b8fda3b	0.004390029
148	0x3d07e994	0.03318174
149	0xbe732311	-0.23743846
150	0xbcdaf2b0	-0.02672705
151	0xbd0973fc	-0.033557877
152	0xbd27a9b7	-0.040933337
153	0xbda2113c	-0.079134434
154	0xbccf6426	-0.02531631
155	0xbe49adc9	-0.196952
156	0xbe943d62	-0.2895308
157	0xbc425932	-0.011862086
158	0xbcba777e	-0.022762056
159	0xbbc6697d	-0.0060550557
160	0xbe95e10f	-0.2927327
161	0xbe1ad7ae	-0.15121338
162	0x3d42054b	0.04736833
163	0xbe93d789	-0.28875378
164	0x3d89bbe0	0.067252874
165	0xbdb51997	-0.088427715
166	0xbcf49780	-0.029857397
167	0x3cc323bd	0.023820752
168	0xbd522ed3	-0.051314186
169	0xbe703dc9	-0.23461069
170	0x3c9c156f	0.01905319
171	0xbc2a5b22	-0.010397704
172	0xbc0992e8	-0.008396842
173	0xbdea117b	-0.114291154
174	0xbd60f32e	-0.054919414
175	0xbcb7cbd3	-0.022436058
176	0x3db523c7	0.088447146
177	0xbeac1d2d	-0.3361601
178	0x3c29a327	0.01035384
179	0xbdfe7905	-0.124254264
180	0xbe6c4486	-0.23073015
181	0xbd59e290	-0.053194582
182	0xbbfbbb93	-0.0076822727
183	0xbd3a420c	-0.045473143
184	0xbb6591c8	-0.003502952
185	0x3d361c98	0.044460863
186	0xbe3a2046	-0.18176374
187	0xbde594da	-0.11210032
188	0xbccada0c	-0.024762176
189	0xbe0030be	-0.12518594
190	0x3dc30c99	0.09523887
191	0xbe2edc05	-0.17076118
192	0xbd0455fa	-0.032308556
193	0xbd77ad94	-0.06046827
194	0xbbf1f8d7	-0.0073844003
195	0x3d8bd23a	0.06827207
196	0xbf36fdcb	-0.7148101
197	0xbc96353d	-0.018335933
198	0x3d07a8fe	0.033120148
199	0xbfef22cd	-1.8682495
200	0x3dd9226e	0.1060227
201	0xbe183e33	-0.14867477
202	0xbe097821	-0.13424732
203	0xbe70f304	-0.23530203
204	0xbd26e95b	-0.04074989
205	0xbd0d43cc	-0.034488484
206	0xbdabc334	-0.083868414
207	0xbd12a348	-0.03580025
208	0xbd760906	-0.0600672
209	0xbcf61c02	-0.030042652
210	0xbe86edb3	-0.26353225
211	0xbe74c5a3	-0.23903517
212	0x3bcd5b56	0.0062669916
213	0x3d8be1db	0.06830188
214	0xbcef7088	-0.029228464
215	0xbf5c51d7	-0.8606238
216	0x3cfbe201	0.030747415
217	0xbd303679	-0.0430207
218	0x3d7f7925	0.06237139
219	0xbd795ffb	-0.06088255
220	0xbca4aa7e	-0.020100828
221	0xbd0c5a4f	-0.034265812
222	0x3b4a7d42	0.0030897413
223	0x3afda2ff	0.0019350945
224	0xbe0f3f27	-0.13988934
225	0x3cd9f172	0.026604388
226	0x3c3ce2d2	0.011528688
227	0xbdb3cc26	-0.087791726
228	0x3d192e5a	0.03739772
229	0xbd1ae98f	-0.037820395
230	0xbc681b7a	-0.014166707
231	0xbd1a9495	-0.037739355
232	0xc004b582	-2.0735784
233	0xbcc9e22b	-0.024643978
234	0x3d04a797	0.03238639
235	0x3f253f57	0.64549774
236	0xbd1e1ac4	-0.038599744
237	0xbde31f5e	-0.11089967
238	0x3d6e3489	0.05815557
239	0xbc8f05ba	-0.017458785
240	0xbbc7103e	-0.0060749343
241	0x3e0d82e9	0.1381947
242	0xbcdd6113	-0.027023828
243	0xbe21392d	-0.15744467
244	0xbe1067e3	-0.1410213
245	0x3dbfd6ae	0.09367119
246	0xbe119632	-0.14217451
247	0xbd180f49	-0.037123952
248	0xbfd67512	-1.6754477
249	0xbcb2e5f2	-0.021838162
250	0xbeb82925	-0.3596889
251	0xbf42a110	-0.7602701
252	0x3c654bed	0.013995153
253	0x3ac1fbde	0.0014799794
254	0x3d43be0e	0.047788672
255	0xbd29da38	-0.041467875

linear_relu_stack.0.bias f4 [256]
0	0xbd9da9f4	-0.076984316
1	0x3e04dfc6	0.12975988
2	0xbe0943c1	-0.13404752
3	0xbdbc367a	-0.09190078
4	0xbe9b13cf	-0.3028855
5	0xbe397184	-0.18109709
6	0xbddd886b	-0.10817035
7	0xbe066c80	-0.13127327
8	0xbba25a13	-0.0049545853
9	0xbdd41691	-0.10355867
10	0xbdc8f3c3	-0.09812119
11	0xbe88c4be	-0.26712602
12	0xbd2226c4	-0.03958775
13	0xbd7c5cbb	-0.061611872
14	0xbd964629	-0.07337601
15	0x3c5c3b78	0.013441913
16	0x3e026753	0.12734728
17	0xbdca92a7	-0.09891253
18	0xbd756d9b	-0.05991898
19	0xbe269cb8	-0.16270721
20	0xbc2ef266	-0.0106779095
21	0xbddb752e	-0.107157096
22	0xbedb1d34	-0.42795718
23	0xbd8f19eb	-0.06987365
24	0xbd33ec6c	-0.04392664
25	0xbed48d1c	-0.41513908
26	0xbdb5ddce	-0.088801965
27	0xbe1ba0e0	-0.15198088
28	0xbde036d7	-0.1094796
29	0xbe04688f	-0.12930511
30	0xbe7e2bd2	-0.24821404
31	0xbdd02e5f	-0.101650946
32	0xbd93023f	-0.07178163
33	0xbdd60ebc	-0.10452029
34	0xbd69cde7	-0.05708113
35	0xbe1884db	-0.1489443
36	0xbd685998	-0.05672607
37	0xbddfa6c8	-0.10920483
38	0xbe7ed114	-0.24884444
39	0xbdf93e4b	-0.121700846
40	0xbde24d6d	-0.11049924
41	0xbd9a879f	-0.07545399
42	0xbe947e97	-0.2900283
43	0xbe62b728	-0.22140181
44	0xbd8a0c4c	-0.06740627
45	0xbb34e934	-0.002760482
46	0xbda54fd0	-0.08071864
47	0xbd22612d	-0.039643455
48	0xbcc20359	-0.023683237
49	0xbe3a6d0c	-0.1820566
50	0xbdd78d20	-0.10524964
51	0xbd3baf0b	-0.04582123
52	0xbeaf6062	-0.34253222
53	0xbdba2555	-0.09089152
54	0xbdd44410	-0.103645444
55	0xbd9471a0	-0.07248235
56	0xbe063c0c	-0.13108844
57	0xbdf8b668	-0.12144166
58	0xbd493ae2	-0.04912842
59	0xbd5676e1	-0.052359466
60	0xbddd86eb	-0.10816749
61	0xbdd10333	-0.10205688
62	0xbe7757da	-0.24154606
63	0xbc3f6afd	-0.011683223
64	0xbd68b2be	-0.056811087
65	0x3c272519	0.010201716
66	0xbd6c5e4a	-0.05770711
67	0xbd7c5638	-0.061605662
68	0xbda10bc8	-0.07863575
69	0xbe0fb466	-0.1403366
70	0xbd7ca0ba	-0.06167672
71	0xbdcd1c06	-0.10015111
72	0xbd44335f	-0.047900554
73	0xbe201124	-0.15631539
74	0x3f0422bf	0.5161552
75	0xbdbd38dd	-0.092393614
76	0xbdbef992	-0.093249455
77	0xbc800330	-0.01562652
78	0xbee68a30	-0.45027304
79	0xbd992a6c	-0.074787945
80	0xbd8a16a6	-0.06742601
81	0xbe1fa2de	-0.15589473
82	0xbd91a297	-0.0711109
83	0xbde0847d	-0.1096277
84	0xbdd51f75	-0.104063906
85	0xbf14e60b	-0.5816352
86	0xbe18209c	-0.1485619
87	0xbdc0fc41	-0.094231136
88	0xbeaf95e4	-0.34294045
89	0xbe1b05df	-0.15138958
90	0xbdf04e70	-0.11733711
91	0x3df32b1b	0.11873456
92	0xbf0e944e	-0.55695045
93	0xbe789fb0	-0.24279666
94	0xbd638e90	-0.05555588
95	0x3cf82a0b	0.030293485
96	0xbd315f59	-0.04330382
97	0xbd747c3b	-0.059688788
98	0xbdd25e11	-0.10271848
99	0xbd2ae9c3	-0.04172684
100	0xbde9bf26	-0.11413412
101	0xbccbf2ad	-0.02489599
102	0x3b840797	0.004029225
103	0xbd0af91b	-0.03392897
104	0x3dcafb18	0.099111736
105	0xbce2c56f	-0.027682034
106	0xbe832c6c	-0.2561983
107	0xbdbc79fa	-0.09202953
108	0xbeff590a	-0.4987262
109	0xbdf3e2f7	-0.119085245
110	0xbd1a66ce	-0.0376957
111	0xbd97e30c	-0.07416353
112	0xbe8dc475	-0.27688947
113	0x3cd3264a	0.025775094
114	0xbd80bc6a	-0.06285937
115	0xbd7c6081	-0.06161547
116	0xbed32385	-0.41238037
117	0xbdffdad4	-0.1249291
118	0xbe1dbda7	-0.15404378
119	0xbe2868d6	-0.16446242
120	0xbdc26cfb	-0.094934426
121	0xbe801401	-0.25015262
122	0xbde40794	-0.11134258
123	0xbe14046d	-0.14454813
124	0xbd0f72f7	-0.03502175
125	0xbe16eb50	-0.14738202
126	0xbe697e84	-0.22802168
127	0xbe3f6aeb	-0.1869313
128	0x3d2ac55c	0.041692123
129	0xbe2a303f	-0.16619967
130	0x3d6ac408	0.057315856
131	0xbdf1c1e5	-0.118045606
132	0xbd50d786	-0.05098679
133	0xbde989ce	-0.11403237
134	0xbe0117e4	-0.1260677
135	0xbe10fbbd	-0.1415853
136	0xbd79417f	-0.060853478
137	0xbe02410a	-0.12720123
138	0xbdacc86f	-0.08436667
139	0xbe7519da	-0.23935643
140	0xbb602651	-0.0034202526
141	0xbef201af	-0.4726691
142	0xbda48b2b	-0.08034357
143	0xbda7ea9b	-0.08199044
144	0xbc30fbcd	-0.0108022215
145	0xbd06358e	-0.032765917
146	0xbe055ad2	-0.13022926
147	0xbd4ac23c	-0.049501643
148	0xbda86223	-0.08221843
149	0xbbf54828	-0.0074854083
150	0xbdc6bc5b	-0.09703895
151	0xbd161818	-0.03664407
152	0xbc8b959a	-0.017039109
153	0xbbc643e9	-0.006050576
154	0xbdb77b30	-0.08959043
155	0xbd049431	-0.03236789
156	0xbd94ef83	-0.07272246
157	0x3dc5756d	0.09641538
158	0xbd84e140	-0.064882755
159	0xbc0aa21d	-0.008461502
160	0xbd1abd8b	-0.03777842
161	0xbce1c70f	-0.027560739
162	0xbc046517	-0.008080742
163	0xbdf10c62	-0.1176994
164	0xbd223d09	-0.03960899
165	0xbd35a59a	-0.044347383
166	0x3e4c9c3e	0.19981477
167	0xbcf82f25	-0.030295918
168	0xbe064297	-0.1311134
169	0xbeadb864	-0.3392974
170	0xbd48b556	-0.04900106
171	0xbe476dbf	-0.19475459
172	0xbe02de6f	-0.12780164
173	0xbe118603	-0.14211278
174	0x3c88f89b	0.016720107
175	0x3d34d762	0.044150718
176	0x396d31cd	0.00022620634
177	0xbe106fba	-0.1410512
178	0xbd14d1c9	-0.03633288
179	0xbcf4f661	-0.029902639
180	0xbde95abf	-0.113942616
181	0xbd526180	-0.051362514
182	0xbacd63a2	-0.0015669952
183	0xbed49aa7	-0.4152424
184	0xbd8ef03b	-0.06979414
185	0xbdb3ceb2	-0.087796584
186	0xbd85b9b8	-0.06529564
187	0xbe30289d	-0.17202993
188	0xbe89f349	-0.26943424
189	0xbea900a3	-0.33008298
190	0xbd976e85	-0.07394127
191	0xbe324d37	-0.17412268
192	0x3c9791e7	0.018502189
193	0xbe12bcfb	-0.14329903
194	0xbea2b8ab	-0.31781515
195	0xbe755145	-0.23956783
196	0xbdacbb59	-0.08434171
197	0xbdf3fb1a	-0.11913128
198	0xbd8257c5	-0.06364397
199	0xbd37a219	-0.044832323
200	0xbdde1dc8	-0.10845524
201	0xbb4c6f0a	-0.0031194114
202	0xbdaa1e64	-0.08306578
203	0xbd92c2e8	-0.07166082
204	0xbf082562	-0.5318204
205	0xbdd8f08e	-0.10592757
206	0xbe04238b	-0.12904184
207	0xbe08972a	-0.13338915
208	0xbd96df4a	-0.07366808
209	0xbd64f1c9	-0.055894647
210	0xbdc5142c	-0.09622988
211	0xbdebbea6	-0.11510973
212	0xbdbf28df	-0.093339674
213	0xbe002a7d	-0.12516208
214	0xbd1a6e36	-0.03770276
215	0xbd1f1d93	-0.038846564
216	0xbd531554	-0.051534012
217	0x3b6a26fe	0.0035728808
218	0xbe578088	-0.21045125
219	0xbe20fb28	-0.15720809
220	0xbde8b84c	-0.11363277
221	0xbe03b1aa	-0.12860742
222	0xbe27c15a	-0.16382352
223	0xbd325d58	-0.04354605
224	0xbc9bca37	-0.019017322
225	0x3e087580	0.13326073
226	0xbd8be048	-0.06829888
227	0xbd6c6ad4	-0.057719067
228	0xbd8ed61a	-0.069744304
229	0xbdcd1186	-0.10013108
230	0xbd08f544	-0.03343703
231	0xbeaef760	-0.34173107
232	0xbdba7c0e	-0.09105693
233	0xbda0723f	-0.07834291
234	0xbce03fcf	-0.027374176
235	0xbea33764	-0.31878197
236	0xbc2128b6	-0.009836366
237	0xbdab44fd	-0.08362768
238	0x3dcfa52d	0.10138927
239	0xbd7b8e71	-0.06141514
240	0xbcc2cb2a	-0.023778517
241	0xbe4cdf57	-0.20007072
242	0xbd579717	-0.052634325
243	0xbd90aef4	-0.0706462
244	0xbc11d37d	-0.00890052
245	0xbe4fad4b	-0.2028095
246	0xbe083522	-0.13301519
247	0xbd63af60	-0.055587173
248	0xbc54e2af	-0.012993499
249	0xbc970f87	-0.018440021
250	0xbc03a6b1	-0.008035348
251	0xbe0ff1b8	-0.14057052
252	0xbd0b5c43	-0.034023535
253	0x3cd5c514	0.02609495
254	0xbe0fb858	-0.14035165
255	0xbde459a2	-0.111499086

linear_relu_stack.3.weight f4 [256, 256]
0	0xbdede805	-0.1161652
1	0x3df96d6c	0.12179074
2	0x3db00f47	0.08596664
3	0xbc581da3	-0.01319066
4	0xbca82672	-0.020526145
5	0xbc7d165c	-0.015447225
6	0xbdce3797	-0.10069197
7	0xbe06d7e9	-0.131683
8	0x3d183e56	0.037168823
9	0x3c14f9dd	0.009092775
10	0x3e08316a	0.133001
11	0xbc1d1955	-0.009588559
12	0x3d6eaf0e	0.058272414
13	0x3d5793a7	0.052631047
14	0xbc35c88f	-0.01109518
15	0xbd288d43	-0.041150343
16	0x3c6fc6cc	0.014634799
17	0xbc2bab05	-0.010477786
18	0xbc290f74	-0.010318626
19	0xbd9b6b01	-0.07588769
20	0x3ca1924f	0.019723086
21	0x3caddf94	0.021224774
22	0xbe9bd4cf	-0.30435798
23	0x3d8fc2d1	0.0701958
24	0xbd356386	-0.044284366
25	0xbe146b00	-0.14493942
26	0x3d248394	0.040164545
27	0xbde4605c	-0.111511916
28	0xbca035cc	-0.019556902
29	0x3df90192	0.12158503
30	0xbe145281	-0.14484598
31	0x3c18c1d7	0.009323559
32	0x3d7736dc	0.060355052
33	0xbd3ad16c	-0.045609877
34	0x3c41f764	0.011838768
35	0xbc7f7285	-0.015591268
36	0x3d8454a5	0.06461457
37	0xbd04f63a	-0.032461382
38	0xbe3ad8da	-0.18246785
39	0x3cdf8077	0.027282936
40	0x3ce8263e	0.028338548
41	0xbca250b0	-0.019813865
42	0xbe033dc8	-0.12816536
43	0xbaa1c878	-0.001234307
44	0x3e16501e	0.14679
45	0xbe698215	-0.22803529
46	0xbd28fce3	-0.041256797
47	0x3d2fac39	0.042888854
48	0x3d5c13e2	0.0537299
49	0xbc99dd45	-0.018782267
50	0x3d66b32f	0.056323227
51	0x3d4d3898	0.0501028
52	0xbd10d433	-0.03535862
53	0xbcb3277b	-0.021869412
54	0xbd3596fd	-0.044333447
55	0x3d915b17	0.07097452
56	0xbe023f74	-0.12719518
57	0xbd39a314	-0.04532154
58	0x3c9a2c7b	0.018820038
59	0x3d891a86	0.06694512
60	0xbcec41ce	-0.028839972
61	0x3d807866	0.06272964
62	0x3d37c7e0	0.04486835
63	0xbc82e943	-0.015980368
64	0x3df97df4	0.12182227
65	0xbc678ea0	-0.014133126
66	0xbb54fd6b	-0.0032499682
67	0x3d098ad2	0.033579655
68	0x3baad231	0.005213045
69	0x3e140ba4	0.14457566
70	0xbdb53ce8	-0.088495076
71	0xba1492a9	-0.0005667606
72	0x3c7e6c2b	0.015528719
73	0x3d4b0266	0.049562834
74	0xbd488dc5	-0.048963327
75	0x3d0acd57	0.033887234
76	0x3ca4a937	0.02010022
77	0xbda7d226	-0.081943795
78	0xbd8a9d8e	-0.067683324
79	0xbbb68bca	-0.0055708634
80	0x3ca0bc81	0.019621136
81	0x3d89cb86	0.06728272
82	0x3cdb49b1	0.026768537
83	0xbd21d3d4	-0.039508656
84	0x3d4d138e	0.050067477
85	0xbe702c56	-0.23454413
86	0xbd9a144a	-0.07523401
87	0xbd338e55	-0.04383691
88	0x3da318c9	0.07963712
89	0xbd59b02a	-0.05314652
90	0x3c28951f	0.0102894595
91	0xbdd4842a	-0.10376771
92	0xbdf3cb15	-0.11903969
93	0xbc1f2486	-0.009713298
94	0x3db1a8fc	0.08674809
95	0x3e73bf7a	0.23803511
96	0xbc88dfbd	-0.01670825
97	0x3d23b8d8	0.039971203
98	0xbd1c75bc	-0.038198218
99	0x3cab4338	0.020906076
100	0xbc1ae492	-0.0094539095
101	0x3dd5fd71	0.10448731
102	0x3cf4b030	0.029869169
103	0x3d5edbed	0.054408956
104	0xbd1b8bc7	-0.0379751
105	0x3c5c81d2	0.013458686
106	0xbd051392	-0.032489367
107	0x3bd41617	0.00647236
108	0x3e008b19	0.12553062
109	0x3cf9ec8d	0.030508304
110	0xbd6c36b1	-0.057669345
111	0x3d8a8043	0.06762745
112	0xbd310c0c	-0.04322438
113	0x3d8ad8a1	0.067796
114	0x3c0e337e	0.008679269
115	0x3d8ccd35	0.06875078
116	0x3d52de51	0.05148155
117	0xbc167fcc	-0.009185743
118	0xbe340d93	-0.17583303
119	0x3ca0a47f	0.019609688
120	0x3c1d7269	0.009609797
121	0xbe3834ac	-0.17988843
122	0x3abec1c9	0.0014553602
123	0x3d059792	0.03261525
124	0xbd891fec	-0.06695542
125	0xbe117c94	-0.14207679
126	0xbd1a93e1	-0.037738685
127	0xbc0762f8	-0.008263342
128	0x3d93a4d9	0.072091766
129	0x3d362b27	0.044474747
130	0xbe2f4a25	-0.17118128
131	0x3d05adc0	0.032636404
132	0xbc45b460	-0.0120669305
133	0x3aa52557	0.0012599629
134	0xbced6e59	-0.028983282
135	0xbce22b1b	-0.027608445
136	0x3d29dfe6	0.04147329
137	0x3dc2ad06	0.09505658
138	0xbd3145bf	-0.043279406
139	0x3ddd4e84	0.10805991
140	0xbe7ffa2c	-0.24997777
141	0xbbc947e3	-0.006142603
142	0x3c89db13	0.016828096
143	0xbd2ba36b	-0.041903894
144	0xbcc2e874	-0.023792483
145	0x3d167abe	0.03673815
146	0xbd153642	-0.036428697
147	0x3d983344	0.07431653
148	0x3c7c2854	0.015390474
149	0x3d9c2710	0.07624638
150	0x3c63d928	0.013906755
151	0xbd2d6cdc	-0.042340145
152	0x3cce0037	0.025146587
153	0xbe82b154	-0.25525916
154	0x3cf51a0e	0.02991965
155	0xbd2f6828	-0.04282394
156	0xbcc9e5d5	-0.024645725
157	0x3e030dff	0.12798308
158	0x3c22b241	0.009930194
159	0xbae4e2a6	-0.0017462566
160	0x3c72a274	0.01480924
161	0xbc634937	-0.013872436
162	0x3d7c9554	0.061665848
163	0xbcdf6d2e	-0.02727374
164	0x3cb2741f	0.021783886
165	0xbc7b73ed	-0.015347463
166	0x3e058b4a	0.13041416
167	0xbcb3e5f4	-0.021960236
168	0xbc3f850f	-0.0116894385
169	0xbd28b8cd	-0.041191865
170	0x3ca122f0	0.01966998
171	0xbe26d698	-0.16292799
172	0xbd84e8b5	-0.06489698
173	0xbd7bbb83	-0.061458122
174	0x3d3a25b4	0.045446113
175	0x3dd139b0	0.10216081
176	0x3d360681	0.044439796
177	0xbdbd4587	-0.09241777
178	0xbc678a98	-0.014132164
179	0x3d3cacc0	0.046063185
180	0xbd7112c1	-0.058855776
181	0x3bfc3879	0.0076971618
182	0x3dad52da	0.08463068
183	0xbd0e4ff7	-0.03474423
184	0xbd141033	-0.03614826
185	0xbd59bcd0	-0.05315858
186	0x3d1daa8b	0.03849272
187	0xbabb62a6	-0.0014296367
188	0xbe855d07	-0.26047537
189	0xbc399e1b	-0.011329199
190	0x3d80a1b0	0.062808394
191	0xbaa0fc1d	-0.0012282167
192	0x3e33dff0	0.17565894
193	0x3e0097fd	0.12557979
194	0x3c066e39	0.00820499
195	0xbdc49999	-0.09599609
196	0x3c6d9a30	0.014502093
197	0x3a05e1f1	0.0005107215
198	0x3dd37d9e	0.10326694
199	0x3d442067	0.047882464
200	0x3c5c4b53	0.013445693
201	0x3cf3b335	0.029748539
202	0xbd53e00e	-0.051727347
203	0xbce14828	-0.027500227
204	0x3dcde648	0.10053688
205	0xbc6e9027	-0.014560736
206	0xbda1e2ac	-0.07904562
207	0x3d0ca906	0.03434088
208	0xbc1ed07f	-0.009693264
209	0x3cbac926	0.022800993
210	0xbd630148	-0.055421144
211	0x3e10c5f4	0.14138013
212	0xbb318111	-0.0027084986
213	0x3c854e89	0.0162728
214	0x3c0671df	0.00820586
215	0x3c5fcd0a	0.013659725
216	0xbbbd1c6d	-0.005771211
217	0xbd2df4a4	-0.042469636
218	0xbd463dfe	-0.048398964
219	0x3dd11bd8	0.10210389
220	0x3a4ebb4f	0.00078861875
221	0x3c9eccd6	0.019384783
222	0xbd7351ec	-0.0594043
223	0x3cf0522f	0.029336063
224	0x3d86eb1b	0.065878116
225	0xbca10489	-0.019655483
226	0x3d62add8	0.05534157
227	0xbdaec6b5	-0.08533994
228	0x3c953aa4	0.018216439
229	0x3d101193	0.03517301
230	0xbd355683	-0.044271957
231	0xbeb5c002	-0.35498053
232	0x3d60f497	0.05492076
233	0xbd32ca40	-0.043649912
234	0x3cb97c71	0.022642346
235	0xbe53ccb2	-0.20683554
236	0x3d2e61cb	0.04257373
237	0xbd33f931	-0.04393882
238	0xbd49c227	-0.049257424
239	0x3d1d4759	0.03839812
240	0x3d52a93c	0.051430926
241	0xbcc83c54	-0.02444283
242	0xbccc2fb0	-0.024925083
243	0xbd29d894	-0.04146631
244	0x3d2bb8b2	0.041924186
245	0xbde2e078	-0.1107797
246	0x3cc62389	0.024186866
247	0x3dd7beed	0.10534463
248	0x3dc0ccd4	0.09414068
249	0xbd079001	-0.033096317
250	0x3d99e9c7	0.075152926
251	0x3d503e0a	0.050840415
252	0x3c2a534c	0.010395836
253	0x3e29a3b4	0.16566354
254	0x3c978ac5	0.018498788
255	0x3ca60dee	0.020270314

linear_relu_stack.3.bias f4 [256]
0	0xbe6890ed	-0.22711535
1	0xbd9589ba	-0.0730166
2	0x3f06659b	0.5249879
3	0xbd56f432	-0.052478977
4	0xbd3a5a0d	-0.045496035
5	0xbd72a8ec	-0.059243128
6	0xbdaba8f0	-0.08381832
7	0xbd872998	-0.0659973
8	0xbc499bf4	-0.0123052485
9	0xbcee797b	-0.02911066
10	0xbd94d73f	-0.072676174
11	0xbd53567e	-0.051596157
12	0xbd836056	-0.06414859
13	0xbd418cb1	-0.047253314
14	0xbd0e9f5e	-0.034819953
15	0xbdcf9e4a	-0.10137613
16	0xbd7a86b4	-0.06116362
17	0xbf0b0da2	-0.5431768
18	0xbd159865	-0.036522288
19	0xbd91a73d	-0.07111976
20	0xbdf6c795	-0.12049786
21	0xbdb70536	-0.08936541
22	0xbe012926	-0.12613353
23	0xbd6bae90	-0.057539523
24	0x3cb6a1b0	0.022293895
25	0xbd276e07	-0.040876415
26	0xbdaac389	-0.083380766
27	0xbcd835d3	-0.026392853
28	0xbe186710	-0.14883065
29	0xbd5efb9d	-0.054439176
30	0xbd8459b4	-0.06462422
31	0xbc8698e8	-0.016430333
32	0xbd9f73bc	-0.077857465
33	0xbd7a4aa4	-0.06110634
34	0xbc8e402f	-0.01736459
35	0x3df4ccd7	0.119531326
36	0xbdc485f8	-0.09595865
37	0xbcc26135	-0.023727993
38	0xbd75a565	-0.059972186
39	0xbe0fb7e0	-0.14034986
40	0xbc990428	-0.01867874
41	0xbda6e196	-0.08148496
42	0x3c1bac6d	0.009501559
43	0xbcfc4615	-0.030795136
44	0xbd16dfa8	-0.03683439
45	0xbd26d779	-0.040732834
46	0xbd334be1	-0.043773536
47	0xbcef62ae	-0.029221859
48	0xbd8821cc	-0.06647071
49	0xbcc5fd90	-0.02416876
50	0x3e364752	0.17800644
51	0xbb6583bb	-0.0035021144
52	0xbe042a01	-0.12906648
53	0x3d9e7723	0.07737567
54	0xbd443807	-0.047904994
55	0xbd935f9c	-0.071959704
56	0xbdd06595	-0.10175625
57	0xbd233eb3	-0.039854717
58	0xbd14f231	-0.036363784
59	0xbdc2c381	-0.09509946
60	0xbd48278f	-0.04886585
61	0xbc99ab23	-0.018758362
62	0xbd93bde7	-0.072139554
63	0xbd367d63	-0.04455317
64	0xbd3bfdb9	-0.045896266
65	0xbd605e0f	-0.0547772
66	0xbd16c308	-0.03680709
67	0xbd345919	-0.044030283
68	0x3e20f6d6	0.1571916
69	0xbd0fe804	-0.035133377
70	0xbd6ef8ca	-0.058342732
71	0xbc8e427d	-0.017365688
72	0xbd656558	-0.056004852
73	0xbde2de46	-0.110775515
74	0xbdd9a2e1	-0.1062677
75	0xbdc29bdd	-0.09502385
76	0xbc94857e	-0.01813006
77	0xbd8cc636	-0.06873743
78	0x3c0b6f62	0.008510442
79	0xbdb04f3f	-0.08608865
80	0xbdbfe56e	-0.09369932
81	0xbd293810	-0.04131323
82	0xbd1cb204	-0.038255706
83	0xbda348cf	-0.079728715
84	0xbc20f446	-0.009823864
85	0xbdd6f021	-0.1049502
86	0xbdd70c4d	-0.10500393
87	0xbd2f56c6	-0.042807363
88	0xbdb44959	-0.088030525
89	0xbd260d3b	-0.04053996
90	0x3e81fc9d	0.2538804
91	0xbc8290b8	-0.015938148
92	0xbd051c82	-0.03249789
93	0xbddb6ec4	-0.10714486
94	0xbd889447	-0.06668907
95	0xbd3ca968	-0.046059996
96	0xbca641ab	-0.020294985
97	0xbdf3cb76	-0.119040415
98	0x3ea812ce	0.32826847
99	0xbd96d590	-0.073649526
100	0xbdb613ac	-0.08890471
101	0xbc0056eb	-0.007833223
102	0xbde1f8f8	-0.11033815
103	0xbd367621	-0.04454625
104	0xbd5985ce	-0.05310612
105	0x3e1ccb2b	0.15311877
106	0xbd51d3d9	-0.051227424
107	0xbdd64a3b	-0.10463377
108	0xbd962710	-0.07331669
109	0xbdf2fea0	-0.11864972
110	0x3e74b9ac	0.23898953
111	0xbd43b932	-0.047784038
112	0xbd260fc1	-0.040542368
113	0xbd23fa9d	-0.040033925
114	0xbd7fe3e7	-0.062473204
115	0xbd08a936	-0.033364497
116	0xbde72c58	-0.11287755
117	0x3ca21f5e	0.019790348
118	0xbd49e73b	-0.049292784
119	0xbcc151c0	-0.023598552
120	0xbc0823d0	-0.00830932
121	0x3e7cf8bd	0.24704261
122	0xbda2bdea	-0.079463795
123	0xbc882b49	-0.016622202
124	0x3ebb9571	0.36637452
125	0xbd06143f	-0.032734152
126	0xbd93c5e9	-0.07215483
127	0xbdb05c4d	-0.08611355
128	0xbd99ecdb	-0.0751588
129	0xbd73c737	-0.059516158
130	0xbd1d7683	-0.0384431
131	0xbd122b75	-0.035685975
132	0x3b343574	0.002749768
133	0xbd80e73f	-0.06294107
134	0xbcc9981a	-0.02460866
135	0xbd00f1d4	-0.031480625
136	0x3dd4fea4	0.10400131
137	0xbb0a5881	-0.0021109881
138	0xbd64b6c2	-0.055838354
139	0xbdc8b8f3	-0.09800901
140	0xbd024b1d	-0.031809915
141	0xbd07a96a	-0.03312055
142	0xbc385fda	-0.011253322
143	0xbd813ffd	-0.06311033
144	0xbdb02729	-0.08601219
145	0xbd6ebd26	-0.058285855
146	0xbdad2050	-0.08453429
147	0xbbae27fe	-0.005314826
148	0x3e0fc9a8	0.1404177
149	0xbd0d84ac	-0.034550354
150	0xbd73e428	-0.05954376
151	0xbcb9bee4	-0.022674032
152	0xbda80aa0	-0.082051516
153	0xbcfc73e3	-0.030816978
154	0xbdbd0744	-0.092299014
155	0xbd1a9058	-0.037735313
156	0xb987ab75	-0.00025876952
157	0xbcaac731	-0.020846935
158	0xbdc267fd	-0.094924904
159	0xbd8358a3	-0.064133905
160	0xbc538dcf	-0.012912228
161	0xbd065678	-0.032797307
162	0xbd8f33d1	-0.06992305
163	0xbd91e38d	-0.0712348
164	0xbc63d422	-0.013905557
165	0xbd031f0a	-0.032012023
166	0xbd3cf047	-0.046127584
167	0xbd2ed061	-0.042679194
168	0xbd140485	-0.036137123
169	0xbd64c292	-0.05584962
170	0xbd7e4b49	-0.062083516
171	0x3a6cc3f5	0.00090318854
172	0xbca7c95f	-0.020481763
173	0xbd779e77	-0.06045386
174	0xbd21e4c0	-0.039524794
175	0xbd0ea431	-0.034824554
176	0xbd3c35b5	-0.045949657
177	0xbd5ff194	-0.054673746
178	0xbc842390	-0.016130239
179	0xbcc0a909	-0.023518102
180	0xbd3cd177	-0.0460982
181	0x3d32486b	0.043526094
182	0xbd9a4914	-0.0753347
183	0xbd39a558	-0.0453237
184	0xbd603c9b	-0.054745298
185	0xbd5a2489	-0.0532575
186	0xbd81e55b	-0.06342574
187	0xbd1679a6	-0.036737107
188	0xbe1c3c1e	-0.15257308
189	0x3e9598d8	0.29218173
190	0xbdc58c29	-0.09645874
191	0xbd8ab55b	-0.06772872
192	0xbcb3c4af	-0.021944372
193	0xbc5b9c91	-0.013404028
194	0xbd78abd6	-0.06071075
195	0xbdc42d3d	-0.09578941
196	0xbd6a02c5	-0.057131547
197	0xbc93d219	-0.018044518
198	0xbd57577c	-0.052573666
199	0xbdf5be24	-0.11999157
200	0xbd2515c0	-0.040303946
201	0xbcd8f20d	-0.026482606
202	0xbdc3035c	-0.09522125
203	0xbcdd5f79	-0.027023064
204	0xbd91c08b	-0.07116803
205	0xbd9c7eab	-0.076413475
206	0xbc8f2a45	-0.01747621
207	0xbbc5f26f	-0.006040863
208	0xbdb98de5	-0.09060267
209	0xbd8457d8	-0.06462067
210	0xbd83b0cf	-0.06430208
211	0xbdb069d7	-0.08613937
212	0xbdc77880	-0.097397804
213	0xbda211ff	-0.07913589
214	0xbd7bd573	-0.061482858
215	0xbc8380c0	-0.016052604
216	0xbd1c3e51	-0.038145367
217	0xbcd8c1e8	-0.02645965
218	0xbd27dc40	-0.04098153
219	0xbdcabed0	-0.09899676
220	0xbcd692b5	-0.026193002
221	0xbdcad2d2	-0.09903492
222	0xbd8daa1d	-0.06917212
223	0xbdc3f939	-0.0956902
224	0xbd3fee44	-0.046858087
225	0xbdc9f458	-0.09861058
226	0xbda97347	-0.082739405
227	0xbc42107d	-0.011844751
228	0xba726605	-0.00092467695
229	0xbda9dc6c	-0.08293995
230	0xbd19cf73	-0.037551355
231	0xbc81dc04	-0.015851982
232	0xbcb810b4	-0.022468902
233	0xbd453c34	-0.048153117
234	0xbdfbf8ab	-0.12303289
235	0xbd8f8829	-0.07008392
236	0xbd866d40	-0.065638065
237	0xbcfc1469	-0.030771451
238	0xbc1baf3f	-0.009502231
239	0xbdd30e80	-0.103055
240	0xbd4cd024	-0.050003186
241	0xbdf55e2a	-0.11980851
242	0xbcd1af80	-0.02559638
243	0xbd439227	-0.047746804
244	0xbd56a545	-0.052403707
245	0xbd121f41	-0.035674337
246	0xbd881766	-0.06645088
247	0x3dd4c527	0.10389166
248	0xbdaf5bec	-0.085624546
249	0xbcf83929	-0.030300694
250	0xbd7792fe	-0.060442917
251	0xbd60e975	-0.054910142
252	0xbd38fdce	-0.045163922
253	0xbcf15357	-0.029458685
254	0xbd7a1aa2	-0.061060555
255	0xbd386a28	-0.045023113

linear_relu_stack.6.weight f4 [2, 256]
0	0xbd2da082	-0.0423894
1	0x3c965d7c	0.018355124
2	0xbe71a0b2	-0.23596457
3	0xbbd70f0a	-0.006563072
4	0xbd049000	-0.03236389
5	0x3c5f8566	0.0136426445
6	0xbc94d3c7	-0.01816739
7	0x3bee33f5	0.0072693774
8	0x3c030072	0.007995712
9	0x3cb40ee3	0.021979755
10	0x3bb89fca	0.0056342827
11	0xbd21cab8	-0.03949997
12	0xbcfbe1a6	-0.030747246
13	0xbe85e56b	-0.26151595
14	0xbe7bce6b	-0.24590461
15	0x3d09173d	0.033469427
16	0xbc9754b0	-0.018473
17	0xbdcae017	-0.09906023
18	0x3ce787b5	0.028262952
19	0x3c569b35	0.013098528
20	0x3cbadb6e	0.02280971
21	0xbd2c4e22	-0.0420667
22	0x3d117001	0.035507206
23	0xbc8e4089	-0.017364757
24	0xbe3ff29a	-0.18744889
25	0xbce556e8	-0.027995542
26	0xbea61ca0	-0.32443714
27	0xbc26ec26	-0.010188138
28	0xbafa40bc	-0.0019092779
29	0xbb515bc7	-0.0031945573
30	0xbcad8cf2	-0.021185372
31	0xbc54d2ae	-0.012989683
32	0xbda0763a	-0.0783505
33	0x3d070c86	0.032970928
34	0x3ae37d93	0.001735615
35	0x3f0d50ac	0.5520122
36	0xbc4cd509	-0.012501963
37	0x3d1f1051	0.03883392
38	0xbc95836d	-0.018251145
39	0xbd1d0cfd	-0.038342465
40	0xbd075fd3	-0.03305037
41	0xbd03610e	-0.03207498
42	0xbf382d44	-0.7194407
43	0x3e3104d8	0.17287004
44	0x3c3b8e4e	0.011447502
45	0xbca37e96	-0.019957822
46	0xbaa30aef	-0.0012439172
47	0xbcb4a0dc	-0.02204936
48	0x3c157e69	0.009124377
49	0xbbfcf6e8	-0.007719863
50	0x3eae622d	0.34059277
51	0x3c4f696a	0.01265941
52	0xbd547162	-0.051865943
53	0x3f562a47	0.8365826
54	0xbd0fe3e5	-0.035129447
55	0xb9e41489	-0.0004350285
56	0x3bf254e7	0.007395375
57	0xbbd79ed5	-0.0065802136
58	0x3e058d2a	0.13042131
59	0xbcbc0b89	-0.02295472
60	0xbc8842b0	-0.016633362
61	0x3cb02097	0.021499915
62	0xbcdda575	-0.027056435
63	0xbb883be6	-0.004157531
64	0x3c99ce78	0.01877521
65	0xbc310315	-0.0108039575
66	0xbc4e2be9	-0.012583711
67	0x3c914e2d	0.017737472
68	0xbe1e22b7	-0.1544293
69	0x3cd6519f	0.026161967
70	0xbcb5395c	-0.022122078
71	0xbacb5dcf	-0.0015515628
72	0x3c914ff1	0.017738314
73	0x3c4e7f59	0.012603604
74	0xbcde7bc5	-0.027158627
75	0xbd126836	-0.035743915
76	0xbcd27cfd	-0.025694365
77	0x3c83c9ef	0.0160875
78	0x3ed5c016	0.41748112
79	0xbdb15397	-0.086585216
80	0x3ac6a782	0.0015156122
81	0x3cf02fcf	0.029319672
82	0xbd0387e5	-0.03211202
83	0xbd168b17	-0.03675374
84	0xbc4fd8af	-0.012685939
85	0x3c2418a0	0.010015637
86	0xbaed8ef7	-0.0018124272
87	0xbc345905	-0.011007552
88	0x3c34f4f5	0.01104473
89	0xbbcf03fd	-0.006317614
90	0xbe8c5c66	-0.27414244
91	0xbc2d60bd	-0.010582146
92	0xbc7a23d4	-0.015267331
93	0xbc76ea06	-0.015070444
94	0xbd43ee9f	-0.04783499
95	0xbcfbb680	-0.030726671
96	0xbcb90c0e	-0.022588756
97	0xbc3ff4bb	-0.011716063
98	0x3e4cb9bb	0.19992726
99	0xbc5e2184	-0.013557795
100	0xbc1ff8a4	-0.00976387
101	0xbb8629ac	-0.004094323
102	0x3cdeefc1	0.027213933
103	0x3cc08957	0.023502989
104	0xbc0093bd	-0.007847724
105	0xbe8ac570	-0.27103758
106	0xbd1b979d	-0.037986387
107	0x3c30aaba	0.010782892
108	0xbcf4979a	-0.029857446
109	0x3c25cbad	0.010119361
110	0x3f050f91	0.5197688
111	0x3b0642a2	0.0020486494
112	0x3c17529f	0.009236007
113	0x3c4f34d7	0.012646875
114	0x3bfb62a6	0.007671672
115	0xbcf5915b	-0.029976537
116	0xbd0783ae	-0.033084564
117	0x3e14ff53	0.14550523
118	0xbd17089f	-0.036873456
119	0xbba794a8	-0.0051141568
120	0x3cda6384	0.02665878
121	0x3de81271	0.113316424
122	0x3a308c46	0.00067347696
123	0x3caf3d45	0.02139152
124	0xbe310105	-0.17285545
125	0x3d2131a6	0.03935399
126	0xbaea52e9	-0.0017877492
127	0x3d396b1e	0.04526817
128	0xbc9dd107	-0.019264711
129	0xbc7eb4e2	-0.0155460555
130	0xbbdb06b0	-0.006684147
131	0x3ce35004	0.027748115
132	0x3c1f1bd5	0.0097112255
133	0xba881312	-0.001038166
134	0xbbdc113f	-0.006715923
135	0xbd409e31	-0.047025863
136	0x3f487c2f	0.7831449
137	0xbad17241	-0.0015979485
138	0x3b36825c	0.0027848696
139	0xbc8d400c	-0.017242454
140	0xbbf94b63	-0.0076078638
141	0x3db2a98d	0.087237455
142	0x3c67066b	0.014100651
143	0x3bac9bd2	0.0052675987
144	0x3c7c3556	0.015393576
145	0xbcc887e8	-0.024478868
146	0xbcccaf24	-0.024985857
147	0xbc4a45c7	-0.012345738
148	0x3d09456b	0.033513468
149	0xbcebbdae	-0.02877697
150	0x3cb0fc9d	0.02160483
151	0x3c09a219	0.0084004635
152	0x3d411fd0	0.04714948
153	0x3c7efb0a	0.015562782
154	0xbb823511	-0.003973611
155	0xbc9d3944	-0.019192345
156	0x3ee29097	0.44250938
157	0x3d2cd86e	0.04219859
158	0xbb0bd291	-0.0021335224
159	0xbc0c2c82	-0.008555533
160	0x3bb0d1a7	0.0053960863
161	0x3c7baba7	0.015360749
162	0xbcf888ad	-0.03033861
163	0xbd163c2c	-0.036678478
164	0x3c36e034	0.011161853
165	0x3c5dc0c5	0.013534729
166	0x3adddd60	0.0016926937
167	0xbb653622	-0.0034974893
168	0x3cac30ef	0.021019427
169	0x3b4a5dd5	0.0030878682
170	0x3d1bb79b	0.038016897
171	0x3f9cea36	1.2258976
172	0x3b2101ad	0.002456765
173	0xba36aec0	-0.0006968789
174	0xbc890a48	-0.016728535
175	0xbb2805ab	-0.0025638144
176	0xbc9ef64a	-0.01940455
177	0x3bb3c5ed	0.005486241
178	0x3b943ce0	0.0045238584
179	0x3adff8f3	0.0017087742
180	0xbc752bd8	-0.014964066
181	0xbdfd095c	-0.12355301
182	0x3a28c8cc	0.00064386125
183	0x3cccaba3	0.024984187
184	0xbc2125c5	-0.009835665
185	0x3cceec19	0.025259065
186	0xbc46ea4b	-0.012140821
187	0x3cec99ae	0.028881874
188	0xbcd87691	-0.026423724
189	0xbe5ad4fa	-0.21370307
190	0xbcf3524f	-0.029702334
191	0x3c452371	0.012032376
192	0xbc187743	-0.009305778
193	0x3c262dc3	0.010142746
194	0x3c9d5713	0.01920656
195	0xbea316a9	-0.31853226
196	0x3c9c1e66	0.019057464
197	0xbd30650c	-0.043065116
198	0x3d384a6c	0.04499285
199	0xbc56d8ba	-0.013113195
200	0x3c7e388b	0.015516411
201	0xbc0555da	-0.008138144
202	0x3c0b8079	0.008514517
203	0xbb6d5e8f	-0.0036219691
204	0xbca29a23	-0.019848889
205	0xbd2bd1ec	-0.041948244
206	0xba4db348	-0.00078468444
207	0xbc372909	-0.011179217
208	0xbb3f4f03	-0.0029191382
209	0x3b8ca9a5	0.004292684
210	0xbca620f7	-0.02027939
211	0x3a8cfae9	0.0010755929
212	0x3c686eb3	0.014186549
213	0x3c66cb02	0.014086487
214	0xbcda9551	-0.026682528
215	0x3c4dd92d	0.012563986
216	0xbc58478f	-0.013200655
217	0xbbd92aed	-0.0066274316
218	0xbc81aec9	-0.015830414
219	0xbc303056	-0.010753712
220	0xbcf4bacb	-0.029874226
221	0x3c3ea577	0.01163613
222	0xbc9ee2b9	-0.01939522
223	0x3c53123f	0.012882768
224	0xbc18e4bd	-0.009331879
225	0x3ca07479	0.019586788
226	0x3cda8260	0.026673496
227	0xbd70ece0	-0.05881965
228	0x3c2ee3f3	0.0106744645
229	0x3a89ce91	0.0010513832
230	0x3c6eaa1a	0.014566923
231	0xb9fcc11e	-0.0004820907
232	0xbc3aa496	-0.011391779
233	0xbce4ce71	-0.02793047
234	0xbc44b56a	-0.012006143
235	0x3ae0c156	0.0017147462
236	0xbd2a9938	-0.041650027
237	0x3affd89f	0.0019519514
238	0xbca4c4e0	-0.020113409
239	0xbbec1118	-0.007204186
240	0x3ceb5034	0.028724767
241	0xbd5d923d	-0.05409454
242	0xbf052162	-0.52004063
243	0xbc8feae1	-0.017568054
244	0xbc2e9959	-0.010656678
245	0xbb20d2cd	-0.002453971
246	0x3ce212da	0.02759688
247	0xbf452f1f	-0.77025026
248	0xbc8c1ed9	-0.017104553
249	0xbbd6d375	-0.0065559694
250	0x3baa8f95	0.0052051046
251	0x3c13d703	0.009023431
252	0xba1a3149	-0.0005881978
253	0x3e8640ce	0.26221317
254	0xbcfd3264	-0.030907817
255	0x3c7bdd43	0.015372577

linear_relu_stack.6.bias f4 [2]
0	0x3f2871ba	0.6579853
1	0x3ef1c855	0.47223154
