Assets/ONNX/ffn.onnx (onnx, 338681 bytes, 5 tensors)

linear_relu_stack.0.weight f4 [256, 71]
0	0xbc49a90e	-0.012308372
1	0xbd862a7d	-0.06551073
2	0x3d1fe076	0.039032422
3	0x3c8d6bc1	0.017263295
4	0x3d5c98eb	0.05385677
5	0xbd75b5de	-0.059987895
6	0xbb3aa420	-0.0028479174
7	0xbb203c1e	-0.0024449895
8	0x3dc1c3a8	0.094611466
9	0x3cbae104	0.022812374
10	0xbc85bc4c	-0.016325139
11	0xbdcb5123	-0.09927585
12	0xbc9eee8b	-0.019400856
13	0xbc7ad817	-0.015310309
14	0xbd530623	-0.051519524
15	0xbdb485c1	-0.08814574
16	0x3c92a108	0.017899051
17	0x3c28f150	0.01031144
18	0xbc78f0d8	-0.01519414
19	0x3cab0b4e	0.020879414
20	0xbdeb9315	-0.11502663
21	0x3def69d8	0.1169011
22	0x3db2eefc	0.08736989
23	0xbd10281f	-0.035194512
24	0xbdfc145c	-0.12308571
25	0xbb5e49c8	-0.0033918489
26	0x3c48bed2	0.012252526
27	0xbe02ad57	-0.12761436
28	0xbd2a3509	-0.041554485
29	0x3d9ba823	0.07600429
30	0xbdb044e5	-0.086068906
31	0x3d97e88d	0.074174024
32	0x3dd8e9df	0.10591482
33	0xbdb31b71	-0.087454684
34	0x3d7c9d01	0.061673168
35	0x3e0d2e7f	0.13787268
36	0x3dbeb081	0.09311009
37	0x3d047283	0.03233577
38	0x3d7cb9e2	0.06170071
39	0x3d6c8a85	0.05774929
40	0xbddacf06	-0.10684018
41	0xbd9415dc	-0.07230732
42	0x3db27f11	0.08715642
43	0x3dc5cc17	0.09658068
44	0x3c9b3a00	0.018948555
45	0xbde1df63	-0.11028936
46	0xbdb582f9	-0.08862872
47	0xbac4903e	-0.0014996601
48	0xbd3ae594	-0.0456291
49	0xbd06cba9	-0.03290907
50	0xbd139cff	-0.036038395
51	0x3d8d2955	0.06892649
52	0xbda54ff3	-0.0807189
53	0x3def8af3	0.11696424
54	0x3c8d657e	0.01726031
55	0xbc672565	-0.014108037
56	0xbd70c114	-0.058777884
57	0xbb822532	-0.003971719
58	0x3d73d1b9	0.05952618
59	0x3d4b19df	0.04958522
60	0xbd20ef57	-0.039290752
61	0xbd670eeb	-0.05641071
62	0x3dbfd5fc	0.09366986
63	0x3c536943	0.012903514
64	0xbdb38a2d	-0.08766589
65	0xbdd39300	-0.103307724
66	0x3cd1ea41	0.025624396
67	0x3d0deb98	0.034648508
68	0xbde9a809	-0.11409003
69	0x3cd969df	0.026539741
70	0xbd316777	-0.043311562
71	0x3d7244f2	0.059147783
72	0x3afd4852	0.0019323921
73	0x3d902ead	0.07040153
74	0x3b94e186	0.004543486
75	0xbc1f1145	-0.009708707
76	0x3dc2e355	0.095160164
77	0xbe24a0d1	-0.16076972
78	0x3b5d5c87	0.0033777074
79	0xbd4ec633	-0.050481986
80	0x3d92084b	0.07130488
81	0xbda0e5c4	-0.07856324
82	0xbb15899e	-0.0022817622
83	0x3d9bf946	0.076159045
84	0x3d1c0930	0.0380947
85	0xbd055b5a	-0.032557823
86	0xbdcca6e5	-0.0999277
87	0xbe979b24	-0.2961055
88	0xbdda51ff	-0.10660171
89	0x3d657d31	0.056027595
90	0x3c8bbf33	0.017058944
91	0x3d4a0ffc	0.04933165
92	0xbd3d06b8	-0.046148986
93	0xbd3e35bf	-0.046437975
94	0xbd813b06	-0.06310086
95	0xbe981bfc	-0.2970885
96	0x3d805fdc	0.06268284
97	0xbe12ddfa	-0.1434249
98	0xbddeda2e	-0.10881458
99	0xbd99c953	-0.07509103
100	0xbd44c6e6	-0.048041247
101	0xbcd6d3e9	-0.026224094
102	0xbe2d7a5f	-0.16941212
103	0x3cefdd50	0.029280335
104	0x3de57d99	0.112055965
105	0xbdafa791	-0.08576883
106	0xbde8ee38	-0.113735616
107	0xbd3d32ce	-0.04619103
108	0x3d443a01	0.04790688
109	0xbd2a10c5	-0.0415199
110	0x3d9280f0	0.07153499
111	0xbcd52353	-0.02601782
112	0xbe0967da	-0.13418522
113	0xbd985ff1	-0.07440174
114	0x3e4c2316	0.19935259
115	0xbe6f2811	-0.23355128
116	0xbd9e8cbf	-0.07741689
117	0xbdc2bf4d	-0.09509144
118	0xbc6e6fef	-0.014553054
119	0x3d186583	0.037206184
120	0xbd8f1b8a	-0.069876745
121	0x3bdeb4c1	0.00679645
122	0xbd9745c7	-0.07386356
123	0x3c9503e0	0.018190324
124	0xbcfb3168	-0.030663207
125	0xbe3bcb1f	-0.18339203
126	0xbdc825ed	-0.09772859
127	0xbbe139c8	-0.006873343
128	0x3d90a45d	0.070626
129	0xbd8383b4	-0.06421605
130	0xbdb8e895	-0.090287365
131	0x3a04ae37	0.00050613604
132	0xbd9d087d	-0.07667635
133	0xbd220fa5	-0.0395657
134	0x3dc1df9c	0.09466478
135	0xbd88128b	-0.06644162
136	0xbd316f83	-0.043319236
137	0xbdd5835a	-0.10425444
138	0xbd02e6c1	-0.031958345
139	0xbddc12e6	-0.10745792
140	0xbde4a88d	-0.11164961
141	0xbd68636c	-0.05673544
142	0xbd3decc4	-0.046368375
143	0xbe988f0e	-0.29796642
144	0x3b8ad62f	0.0042369585
145	0x3d6c5827	0.057701256
146	0xbe02da98	-0.127787
147	0x3b5cb736	0.0033678538
148	0xbdaada32	-0.08342399
149	0xbdb67694	-0.08909336
150	0x3cc9a314	0.024613895
151	0xbbfb54e6	-0.007670033
152	0x3d557372	0.05211205
153	0xbd85c7b3	-0.0653223
154	0x3b1b8156	0.0023728213
155	0xbdc6e0bb	-0.09710833
156	0xbc6fee2a	-0.014644185
157	0xbd39213c	-0.04519771
158	0xbd10abed	-0.03532021
159	0xbd5c6310	-0.05380541
160	0x3c4ec340	0.012619793
161	0x3cbfae12	0.023398433
162	0xbd7aee0c	-0.061262175
163	0x3de69cef	0.112604015
164	0xbdd6a9d2	-0.104816094
165	0xbdab57a2	-0.08366324
166	0xbcbb7d97	-0.022887034
167	0x3d45bd7d	0.048276413
168	0xbe31bd12	-0.17357281
169	0x3dda47ed	0.1065825
170	0x3db90b17	0.09035318
171	0x3d038716	0.03211125
172	0x3ddd70ce	0.108125314
173	0xbd3baa38	-0.04581663
174	0xbd2aa06d	-0.0416569
175	0xbc2fd4e9	-0.010731914
176	0xbdc60f61	-0.09670902
177	0x3d9bd544	0.076090366
178	0xbe5a580a	-0.21322647
179	0xbd02c3ce	-0.031925015
180	0x3dedd2f8	0.11612505
181	0x3ce5ed66	0.028067302
182	0x3d0f63e3	0.03500737
183	0x3cb69679	0.022288548
184	0xbe0bba72	-0.13645342
185	0xbcdf9b1c	-0.027295642
186	0xbda42388	-0.080145895
187	0xbbbe1db9	-0.005801883
188	0xbe521ac6	-0.20518026
189	0xbcfda6d1	-0.030963333
190	0x3cc9fcf1	0.024656745
191	0xbd2be1bc	-0.041963324
192	0x3dee6aab	0.11641439
193	0xbc8d3e99	-0.017241763
194	0x3cf4d726	0.029887747
195	0xbd0439fc	-0.03228186
196	0x3d24df77	0.040252175
197	0x3cd7da13	0.026349103
198	0x3d8a4be8	0.06752759
199	0xbd81fa69	-0.0634659
200	0xbb9987cc	-0.0046853777
201	0x3d9bcc3d	0.07607315
202	0xbddceb17	-0.10787027
203	0xbddf53d7	-0.10904663
204	0xbdc6f597	-0.09714811
205	0xbc4efba1	-0.012633235
206	0xbd7fc1a5	-0.062440533
207	0xbda419bf	-0.08012723
208	0x3d9b5f86	0.07586579
209	0xbdce8a80	-0.100850105
210	0xbda191bb	-0.07889124
211	0xbc568587	-0.013093359
212	0x3dc0978d	0.09403906
213	0x3e20fc04	0.15721136
214	0xbdccac11	-0.099937566
215	0xbd86c50c	-0.065805525
216	0xbddb0af3	-0.10695448
217	0x3d417671	0.047232095
218	0xbd0f09a0	-0.03492129
219	0xbe71caf5	-0.23612578
220	0xbd204756	-0.03913053
221	0xbbd161e7	-0.0063898447
222	0xbc941103	-0.018074518
223	0x3d319854	0.043358162
224	0x3d2f4482	0.042789944
225	0x3cd968d2	0.02653924
226	0xb91b8333	-0.00014830827
227	0xbd67f44a	-0.056629457
228	0x3dbfbea4	0.09362534
229	0xbd84a866	-0.06477432
230	0xbd583b73	-0.05279107
231	0xbd46ad95	-0.048505384
232	0x3b399b34	0.0028321268
233	0xbae36ee6	-0.0017351776
234	0xbdcb6cdb	-0.09932872
235	0xbe1b15b5	-0.15145
236	0xbd8f5882	-0.069993034
237	0xbe443c3c	-0.19163603
238	0x3d9f870a	0.077894285
239	0xbd9d287c	-0.076737374
240	0x3bbebc0a	0.005820756
241	0x3c545ecf	0.012962057
242	0xbdab19aa	-0.083545044
243	0x3dbc23ef	0.09186541
244	0xbd2e1067	-0.04249611
245	0xbc0c4f24	-0.0085637905
246	0xbddfdc54	-0.10930696
247	0xbdd308c8	-0.10304409
248	0xbdede6bb	-0.11616274
249	0xbce9e670	-0.028552264
250	0x3df3514d	0.11880741
251	0x3d24a694	0.040197924
252	0xbc818627	-0.01581104
253	0x3dc550ea	0.09634574
254	0xbcbc346f	-0.022974221
255	0x3cb81c51	0.02247444

linear_relu_stack.0.bias f4 [256]
0	0xbdc3379c	-0.09532091
1	0xbe1c0de6	-0.15239677
2	0xbd0f7f0a	-0.035033263
3	0xbe590775	-0.21194251
4	0xbe9dc874	-0.30816996
5	0xbd968e4f	-0.07351362
6	0xbeee58e9	-0.46552208
7	0xbdef1b6b	-0.116751514
8	0xbdc7d68e	-0.0975772
9	0xbdf09ed4	-0.11749044
10	0xbd78a097	-0.060700025
11	0xbc7709d6	-0.015078029
12	0xbe2f2432	-0.17103651
13	0xbdf0ddd1	-0.11761058
14	0x3c437bd7	0.011931381
15	0xbd8dbda2	-0.06920935
16	0xbdfaf63b	-0.12253996
17	0xbe0482dc	-0.12940544
18	0x3ea8b0e0	0.32947445
19	0xbda53bed	-0.080680706
20	0xbd90ecf7	-0.070764475
21	0xbd46e188	-0.048554927
22	0xbda48385	-0.08032898
23	0xbd3e34e5	-0.046437163
24	0xbd9c469a	-0.07630654
25	0xbdaf43ce	-0.085578546
26	0xbd6e81e9	-0.05822936
27	0xbe080481	-0.13282968
28	0xbdf33f21	-0.11877275
29	0xbdb665e0	-0.0890615
30	0xbddf2baa	-0.10897
31	0xbd86af68	-0.06576425
32	0xbd9a807c	-0.07544038
33	0xbe0d8af0	-0.13822532
34	0xbd69b502	-0.057057388
35	0xbd43b9fa	-0.047784783
36	0xbe3883bf	-0.18019007
37	0xbdeff338	-0.11716312
38	0xbdc8f558	-0.098124206
39	0xbcd68181	-0.0261848
40	0xbdabf815	-0.08396927
41	0x3cf4a9b9	0.029866086
42	0xbe287eb7	-0.16454588
43	0xbddf9d5a	-0.10918684
44	0x3ea95231	0.3307052
45	0xbd9fbf5e	-0.07800172
46	0xbd8a6ff2	-0.06759633
47	0xbd72f871	-0.059318963
48	0xbd789bae	-0.060695343
49	0xbd906672	-0.0705079
50	0xbddb6606	-0.10712819
51	0xbd9311aa	-0.071811035
52	0xbe6d7d91	-0.23192431
53	0xbdae259a	-0.08503266
54	0xbd64beac	-0.0558459
55	0xbe0cc25e	-0.1374602
56	0xbdc0b4c3	-0.094094776
57	0x3e911384	0.28335202
58	0xbdf5472b	-0.11976465
59	0xbdd1cbd6	-0.10243957
60	0xbd588d00	-0.052868843
61	0xbe1404e1	-0.14454986
62	0xbdc0c91b	-0.09413358
63	0xbd9381ad	-0.07202468
64	0xbd82c42e	-0.063850746
65	0xbe04048b	-0.12892358
66	0xbd87d7bb	-0.06632944
67	0xbdbbd3ef	-0.091712825
68	0xbe12a204	-0.14319617
69	0xbdb91bd0	-0.09038508
70	0xbdb6f9b6	-0.08934347
71	0xbe071f96	-0.13195643
72	0xbe309847	-0.17245589
73	0xbd5c4124	-0.05377306
74	0xbd961393	-0.07327952
75	0xbd9c4142	-0.076296344
76	0xbe02e51b	-0.1278271
77	0xbe6edb46	-0.23325834
78	0xbd9f935d	-0.07791779
79	0xbd8c9c6f	-0.06865775
80	0xbeff49cf	-0.49861
81	0xbda57d6d	-0.08080564
82	0xbe17d152	-0.14825943
83	0xbdbeda38	-0.09318966
84	0xbe822f84	-0.25426877
85	0xbdb62c9e	-0.08895229
86	0xbd546c45	-0.051861066
87	0xbd8311ac	-0.06399855
88	0xbe933394	-0.28750288
89	0xbd8cadd8	-0.068690956
90	0xbe37540c	-0.17903155
91	0xbe5017e8	-0.2032162
92	0xbdf0297c	-0.117266625
93	0xbd92b077	-0.07162564
94	0xbe363603	-0.17794041
95	0xbd9052ae	-0.0704702
96	0xbdfd3ea9	-0.12365467
97	0xbda90f0e	-0.082548246
98	0xbca2c485	-0.019869098
99	0xbd2afb1c	-0.041743383
100	0xbd981687	-0.07426172
101	0xbe3b1a3c	-0.18271726
102	0xbe130efd	-0.14361186
103	0xbdf9f039	-0.12204022
104	0xbb75477e	-0.0037426646
105	0xbdde8933	-0.108660124
106	0xbd66a19a	-0.05630646
107	0xbc23c9ed	-0.009996873
108	0xbd6d37c8	-0.057914525
109	0xbcda56cf	-0.026652722
110	0xbdfdd17c	-0.123934716
111	0xbdb5de25	-0.08880261
112	0xbe4043ef	-0.18775915
113	0xbd1b46c5	-0.037909288
114	0xbcdc6575	-0.026903847
115	0xbe13d2d5	-0.14435895
116	0xbd902b2d	-0.07039485
117	0xbe0779fe	-0.1323013
118	0xbcd2526b	-0.025674066
119	0xbdd23cb1	-0.10265482
120	0xbe220b1e	-0.15824553
121	0xbd483972	-0.04888291
122	0xbdc0c4bc	-0.09412524
123	0xbe3478f3	-0.17624263
124	0xbdb6e682	-0.089306846
125	0xbdc466eb	-0.095899425
126	0xbda203bd	-0.07910869
127	0xbdd3f088	-0.10348612
128	0xbdad76df	-0.084699385
129	0xbe33e704	-0.17568594
130	0xbd96ed6f	-0.073695056
131	0xbd19052d	-0.03735845
132	0xbe18e1cc	-0.14929885
133	0xbdd6b657	-0.10483997
134	0xbe052339	-0.13001718
135	0xbbb8e243	-0.005642207
136	0xbcf1c35b	-0.029512098
137	0xbdf3fec8	-0.1191383
138	0xbe1fc888	-0.1560384
139	0xbdaad202	-0.08340837
140	0xbda7b169	-0.08188135
141	0xbd572624	-0.052526608
142	0xbdc5f072	-0.09665002
143	0xbeb3a178	-0.35084128
144	0xbca0cf98	-0.019630238
145	0xbe9d074e	-0.30669636
146	0xbdacb174	-0.08432284
147	0xbe090fb9	-0.13384904
148	0xbda4e8a1	-0.08052183
149	0xbd768ca7	-0.06019273
150	0xbe18e188	-0.14929783
151	0x3da5e10b	0.08099564
152	0x3da1285a	0.078690246
153	0xbe24b971	-0.16086365
154	0xbe4bb2ca	-0.19892421
155	0xbd09f261	-0.033678416
156	0xbd9d541c	-0.07682058
157	0xbb9c80b4	-0.004776085
158	0x3e9f173f	0.31072423
159	0xbd14adbd	-0.036298502
160	0xbd10ac13	-0.035320353
161	0xbdf5ab20	-0.1199553
162	0xbdc3a4c4	-0.09552911
163	0xbdef1f9a	-0.116759494
164	0xbdd4c878	-0.10389799
165	0xbf00090a	-0.5001379
166	0xbda798e1	-0.08183456
167	0xbe777a7e	-0.24167821
168	0xbc740a9c	-0.014895108
169	0xbe35d619	-0.17757453
170	0xbd628188	-0.055299312
171	0xbccf7f7b	-0.025329342
172	0xbe2292af	-0.15876268
173	0xbe4d18c9	-0.20028986
174	0xbd29aa1b	-0.04142199
175	0xbc9b6d3c	-0.018972985
176	0xbddd8608	-0.1081658
177	0xbcdd2ef4	-0.026999928
178	0xbd500966	-0.050790213
179	0xbe05242f	-0.13002084
180	0xbd5d7e9a	-0.054075815
181	0xbe859a35	-0.26094213
182	0xbd9fe3ee	-0.07807146
183	0xbdf5a79c	-0.119948596
184	0xbd8f93a2	-0.070105806
185	0xbd53f433	-0.05174656
186	0xbe5ebe48	-0.21752274
187	0x3d973eed	0.07385049
188	0xbddc709d	-0.10763667
189	0xbdb68945	-0.08912901
190	0x3d57035a	0.05249343
191	0x3cc7ea68	0.024403766
192	0xbef321e4	-0.47486794
193	0xbd9aa6ff	-0.07551383
194	0xbd978c0b	-0.07399758
195	0xbee621d2	-0.44947678
196	0xbddde9c8	-0.10835606
197	0xbd4ff884	-0.050774112
198	0xbdc307ac	-0.09522948
199	0xbdf36f3b	-0.1188645
200	0xbec0a735	-0.3762757
201	0xbd9b2ae2	-0.075765386
202	0x3d49f593	0.049306463
203	0xbef7dbbe	-0.48409837
204	0xbdd631ad	-0.10458694
205	0xbdfb25f8	-0.12263101
206	0xbd277c28	-0.04088989
207	0xbdd4b95e	-0.103869185
208	0xbdd88af2	-0.10573377
209	0xbd1f80ad	-0.038941074
210	0xbdf0acad	-0.11751685
211	0xbd9bf432	-0.07614936
212	0xbd7c1041	-0.06153894
213	0xbdb8edf3	-0.0902976
214	0x3cbdbe50	0.023162037
215	0xbdcb8818	-0.09938067
216	0xbdbf9334	-0.09354249
217	0xbe101df9	-0.14073934
218	0xbc446b34	-0.01198845
219	0xbe32e0a0	-0.174685
220	0xbe010970	-0.12601256
221	0xbe287f85	-0.16454895
222	0xbe1aa90f	-0.15103553
223	0xbf4bc648	-0.7959943
224	0xbe05cf67	-0.13067399
225	0xbdb4286b	-0.087967716
226	0xbdab857e	-0.08375071
227	0xbdbb5264	-0.09146574
228	0xbd4493cf	-0.047992524
229	0xbd9a3066	-0.075287625
230	0xbe51ead1	-0.20499732
231	0xbde7050b	-0.11280259
232	0xbe9845b3	-0.29740676
233	0xbef4a71a	-0.47783738
234	0xbe23757d	-0.15962787
235	0xbd8d2ba8	-0.068930924
236	0xbe12c362	-0.14332345
237	0xbe5c057f	-0.21486472
238	0xbdb8a070	-0.09014976
239	0xbe10a442	-0.1412516
240	0xbdd6709d	-0.10470698
241	0xbdf34639	-0.11878628
242	0xbdc370ab	-0.09542974
243	0xbf132aac	-0.5748699
244	0xbdd84ccf	-0.10561525
245	0xbe74ed7c	-0.23918718
246	0xbd070200	-0.03296089
247	0xbd9aa87a	-0.075516656
248	0xbe084b6b	-0.1331002
249	0xbda236ea	-0.0792063
250	0xbe1311d1	-0.14362265
251	0xbc31e34c	-0.010857414
252	0xbd9e1d11	-0.07720388
253	0xbd8f79ec	-0.070056766
254	0xbd148b49	-0.036265645
255	0xbe20d981	-0.15707971

linear_relu_stack.3.weight f4 [256, 256]
0	0x3d0738b2	0.033013053
1	0xbccb8284	-0.024842508
2	0x3cdd6f72	0.02703068
3	0xba3bf6d2	-0.0007170263
4	0xbc18f410	-0.009335533
5	0x3d25aa5c	0.04044567
6	0xbde79d7a	-0.11309333
7	0x3c957daa	0.018248398
8	0xbcf9bf88	-0.030486837
9	0xbafe23c0	-0.0019389316
10	0x3c2617ad	0.010137481
11	0xbd358ca1	-0.044323567
12	0xbd7bd08b	-0.06147818
13	0xbcccacac	-0.02498468
14	0xbda1a230	-0.07892263
15	0x3a34e891	0.000690111
16	0x3b4efa40	0.0031582266
17	0xbc87d64c	-0.016581677
18	0xbd60d1d2	-0.0548876
19	0xbd692094	-0.056915835
20	0x3b1eb080	0.002421409
21	0xbd8bc95b	-0.06825515
22	0xbd0d39b6	-0.034478866
23	0xbd122ad2	-0.035685368
24	0xbcfb42f7	-0.03067158
25	0x3d0fb92c	0.035088703
26	0xbc58bef7	-0.013229123
27	0x3d4f553e	0.050618403
28	0x3d49c599	0.04926071
29	0xbbba5180	-0.005685985
30	0x3c2e3b12	0.010634201
31	0xbd016612	-0.031591482
32	0x3b0df2e8	0.0021659676
33	0x3d465456	0.048420273
34	0xbcb4613f	-0.022019027
35	0x3d968977	0.07350438
36	0xbca897e4	-0.02058024
37	0xbd4f8e80	-0.050673008
38	0xbcf17ee8	-0.029479459
39	0x3d177c2c	0.036983654
40	0xbd2ac37e	-0.041690342
41	0xbd20bc63	-0.03924216
42	0x3c52d072	0.01286708
43	0x3d979eb2	0.074033156
44	0xbc14582b	-0.009054224
45	0xbcf78d92	-0.030218873
46	0x3c0f2ce7	0.008738733
47	0x3cb0db38	0.021588907
48	0xbd6a3a28	-0.05718437
49	0x3d7a4123	0.061097275
50	0xbc718830	-0.014741942
51	0x3c8d6e34	0.017264463
52	0xbd03a386	-0.03213837
53	0x3d2826a6	0.041052483
54	0x3d22429b	0.0396143
55	0xbd78807c	-0.060669407
56	0xbd1c50b6	-0.03816291
57	0xbd54d5ff	-0.051961895
58	0x3cd21221	0.02564341
59	0x3cc19bb5	0.023633817
60	0xbc4a47ab	-0.012346189
61	0x3d03c426	0.032169484
62	0x3cbb4a11	0.022862466
63	0xbda375aa	-0.07981427
64	0xbbb7c603	-0.0056083216
65	0xba85286d	-0.0010159143
66	0xbd2fc5db	-0.0429133
67	0xbdbde289	-0.09271724
68	0x3a4e8b17	0.00078790024
69	0x3d72b347	0.059253003
70	0x3ce84fe8	0.028358415
71	0xbd3c705b	-0.046005588
72	0x3ca2fd1d	0.019896084
73	0x3d3c47b4	0.04596682
74	0xbba0ff40	-0.0049132407
75	0x3c59e8b7	0.013300112
76	0xbdd6da8d	-0.10490904
77	0xbddf9681	-0.10917378
78	0xbd5fb58c	-0.054616496
79	0xbd7a930d	-0.061175395
80	0x3c3817b7	0.011236123
81	0x3d3d2002	0.046173103
82	0x3b269900	0.0025420785
83	0x3d106176	0.035249196
84	0xbd68f105	-0.05687048
85	0xba31a606	-0.00067767536
86	0x3ac39488	0.0014921585
87	0x3cdfd68f	0.02732399
88	0xbe055b37	-0.13023077
89	0x3d3d200c	0.04617314
90	0x3e1049d2	0.1409066
91	0xbd2eb406	-0.042652152
92	0xbc95b34c	-0.018273972
93	0xbdad2068	-0.084534466
94	0xbd1be170	-0.03805679
95	0x3ce0dbf6	0.027448636
96	0x3d092863	0.03348578
97	0x3ccce6f4	0.02501247
98	0xbd55cdde	-0.052198283
99	0xbd095db3	-0.033536624
100	0x3c511ce4	0.012763236
101	0x3ca456f9	0.020061003
102	0x3d3fa626	0.04678931
103	0xbd7a5e61	-0.061125163
104	0xbd3c076c	-0.045905516
105	0x3d53a148	0.05166748
106	0x3d857c21	0.06517816
107	0x3d310874	0.043220952
108	0xbca667ac	-0.020313106
109	0xbd46d895	-0.048546392
110	0xbcb8d315	-0.02256159
111	0xbd6e5363	-0.058184993
112	0xbcb938d8	-0.022610113
113	0x3da66ee1	0.08126617
114	0xbd2463d7	-0.040134277
115	0xbd21d52a	-0.03950993
116	0xbc3f3d4f	-0.011672332
117	0x3ce8028c	0.028321527
118	0x3ccb8d33	0.024847602
119	0xbd5a3da6	-0.05328145
120	0xbba24d79	-0.004953083
121	0xbddefcd2	-0.108880654
122	0x3c57926f	0.013157471
123	0x3cbf303a	0.023338426
124	0xbd5ae705	-0.053442974
125	0x3cbbbce0	0.022917211
126	0xbcc155e8	-0.023600534
127	0x3bc9ef80	0.006162584
128	0x3de90c16	0.11379258
129	0xbb9d28df	-0.004796132
130	0x3bb76a38	0.005597379
131	0xbca88c91	-0.02057484
132	0x3c34c8b0	0.011034176
133	0xbd8bdef8	-0.06829637
134	0xbbcdf0e0	-0.006284818
135	0x3aaa4fa3	0.0012993704
136	0xbdac6f08	-0.08419615
137	0xbba6c512	-0.0050894106
138	0xbd35967e	-0.044332974
139	0x3b3ebedd	0.0029105463
140	0x3c9018d4	0.017589964
141	0xbd79b0ae	-0.06095951
142	0x3c766fa6	0.0150412675
143	0xbd27507a	-0.040848233
144	0xbd5a9865	-0.05336799
145	0x3be89e09	0.0070989174
146	0x3c435da8	0.011924185
147	0xbddb6e82	-0.10714437
148	0x3bd1aab2	0.0063985223
149	0xbd88d833	-0.06681862
150	0x3d01c4b8	0.031681746
151	0xbceb4d97	-0.028723521
152	0x3b618c42	0.0034415876
153	0xbae415c0	-0.0017401502
154	0xbdd25476	-0.10270016
155	0x3ca46ea4	0.020072289
156	0x3c0a27e8	0.008432366
157	0xbd5598f1	-0.05214781
158	0x3c5894ea	0.013219098
159	0x3d8ef390	0.069800496
160	0x3c78507e	0.01515591
161	0xbd0ee05a	-0.034881927
162	0xbcd58710	-0.02606538
163	0xbd2fe3d8	-0.042941898
164	0x3d2e0922	0.04248918
165	0x3cd0b195	0.025475303
166	0xbb7e15c0	-0.0038770288
167	0x3c2bb201	0.010479451
168	0x3cd12fc1	0.025535466
169	0xbd742dac	-0.05961387
170	0xbd3c848d	-0.046024848
171	0xbcc8310a	-0.024437446
172	0x3bcf6550	0.006329216
173	0x3c517a78	0.0127855465
174	0xbc315f05	-0.010825877
175	0x3c33cb20	0.010973722
176	0xbd573ef8	-0.052550286
177	0xbc227bc0	-0.0099172
178	0xbd4c411e	-0.049866788
179	0xbd14d573	-0.036336374
180	0xbd204004	-0.03912355
181	0xbd37640e	-0.044773154
182	0xbda9e8cb	-0.08296355
183	0x3ccc37c9	0.024928944
184	0xbc0688fa	-0.008211369
185	0xbcf4a4d8	-0.02986376
186	0x3cf16c78	0.029470667
187	0x3c7f5df2	0.015586363
188	0x3d1a41ef	0.037660535
189	0xbdcbae98	-0.099454105
190	0xbd9034da	-0.07041331
191	0xbd9adb52	-0.07561363
192	0x3d5908a9	0.052986775
193	0xbd591718	-0.05300054
194	0xbc09bb62	-0.008406492
195	0xbdd516c7	-0.10404735
196	0x3d1fcb2d	0.039012123
197	0xbd2243a8	-0.039615303
198	0xbd652a70	-0.055948675
199	0x3d6479e8	0.05578032
200	0xbbd1de4e	-0.0064046746
201	0x3d1ff41f	0.03905117
202	0xbcd05dc0	-0.025435328
203	0xbca7279c	-0.02040463
204	0x3d1e3618	0.038625807
205	0xbcd6829c	-0.026185326
206	0xbca850cb	-0.020546338
207	0x3c525530	0.012837693
208	0x3d3c03cc	0.04590206
209	0x3ba12d40	0.0049187243
210	0x3d1e8092	0.038696833
211	0x3ce8182c	0.028331839
212	0x3abb67eb	0.0014297938
213	0x3d1449a6	0.03620305
214	0x3c8e9bd4	0.017408289
215	0x3dab29fe	0.08357619
216	0xbd7e893a	-0.06214259
217	0xbd0cc5e4	-0.03436841
218	0xbcbf33dc	-0.023340158
219	0xbd0e0381	-0.03467131
220	0xbc29ec78	-0.01037132
221	0xbda77ca6	-0.08178072
222	0xbd66fb49	-0.056391988
223	0xb9ed9b86	-0.00045320037
224	0x3ce1f3b1	0.027582021
225	0xbdabe48e	-0.08393203
226	0xbd186068	-0.037201315
227	0xbd857957	-0.06517284
228	0xbcc5f3d4	-0.024164118
229	0xbd5367ac	-0.05161254
230	0xbd424611	-0.0474301
231	0x3d15fa8b	0.03661589
232	0xbd088e17	-0.033338632
233	0x3caf5fc1	0.021407964
234	0x3cc3f84e	0.023922112
235	0x3c616c81	0.0137587795
236	0xbc100ec0	-0.008792579
237	0x3c461b50	0.012091473
238	0xbdba0e8e	-0.09084807
239	0x3cd7c284	0.02633787
240	0xbaea9676	-0.0017897624
241	0x3d08279c	0.0332409
242	0xbd05f658	-0.032705635
243	0xbd765391	-0.06013829
244	0xbd06783c	-0.03282951
245	0xbda952e0	-0.0826776
246	0xbda29a6d	-0.07939611
247	0xbd855e27	-0.06512099
248	0xbcc51010	-0.02405551
249	0xbcdd88cf	-0.027042774
250	0xbdc36acb	-0.095418535
251	0xbcb43f4a	-0.022002835
252	0xbcac3ba7	-0.021024538
253	0xbcbd5ec4	-0.023116477
254	0xbd52a48a	-0.051426448
255	0x3c7adfa8	0.015312113

linear_relu_stack.3.bias f4 [256]
0	0xbdca94c7	-0.09891658
1	0xbd239853	-0.03994019
2	0xbd77d8d0	-0.060509503
3	0xbe01dce3	-0.12681918
4	0xbd70394a	-0.058648385
5	0xbdc073a3	-0.09397056
6	0xbd3857ce	-0.045005612
7	0xbd2db998	-0.042413324
8	0xbd7982d9	-0.0609158
9	0xbd73141f	-0.05934536
10	0xbd8109f9	-0.0630073
11	0xbd94e0af	-0.072694175
12	0xbdbbe47d	-0.0917444
13	0xbdad0482	-0.084481254
14	0xbd4639f4	-0.048395112
15	0xbd229c59	-0.039699886
16	0xbd45e2dd	-0.048312057
17	0xbcf7a678	-0.030230746
18	0x3e28be3d	0.1647882
19	0xbcd30540	-0.02575934
20	0xbd79f50d	-0.061024714
21	0xbd88e369	-0.06684
22	0xbdcb0cb3	-0.099145316
23	0xbd630775	-0.055427033
24	0xbca56246	-0.020188462
25	0xbd8ec08e	-0.06970321
26	0xbc0d184a	-0.008611748
27	0xbd9c89ec	-0.07643494
28	0xbd508fc3	-0.05091835
29	0xbd96d0f1	-0.07364071
30	0xbe115194	-0.14191276
31	0xbcde7c0c	-0.02715876
32	0xbdb8a774	-0.09016314
33	0xbc9d0975	-0.019169549
34	0xbe19ae2d	-0.15007849
35	0xbc487c7a	-0.012236709
36	0xbcf4e553	-0.029894507
37	0x3ac73825	0.0015199227
38	0xbce3d77d	-0.027812714
39	0xbd6c596c	-0.057702467
40	0xbbef4c72	-0.007302814
41	0xbda1c4c3	-0.078988574
42	0xbd867028	-0.06564361
43	0xbe0730e2	-0.13202241
44	0xbd473631	-0.048635665
45	0xbda26cb5	-0.079308905
46	0xbdfb60c7	-0.12274318
47	0xbd3e89b3	-0.04651804
48	0xbdfda860	-0.123856306
49	0xbc06c296	-0.008225104
50	0xbc8ff47b	-0.017572632
51	0xbcc43e90	-0.023955613
52	0xbd375de8	-0.04476729
53	0xbdad9b24	-0.08476856
54	0xbb8ea07b	-0.004352627
55	0xbcdd3ad4	-0.02700559
56	0xbd19530a	-0.037432708
57	0xbda6e4cd	-0.08149109
58	0xbd44f9ef	-0.048089918
59	0xbdc237f6	-0.0948333
60	0xbd335166	-0.0437788
61	0xbe5a9661	-0.21346428
62	0xbd575d16	-0.052579008
63	0xbcdd55b9	-0.027018415
64	0xbd885ec2	-0.066586986
65	0xbd88f712	-0.0668775
66	0xbd097323	-0.03355707
67	0x3e7a0efa	0.24419776
68	0xbd54c45c	-0.051945075
69	0xbcf61653	-0.030039942
70	0xbcba9b1c	-0.02277904
71	0x3e31203a	0.1729745
72	0x3d9ab098	0.07553214
73	0xbcbb3a51	-0.022854956
74	0xbbc74726	-0.0060814796
75	0xbd012462	-0.031528838
76	0xbd4bb012	-0.04972846
77	0xbdc09bf1	-0.094047435
78	0xbd16f434	-0.036853984
79	0xbd0948d1	-0.03351671
80	0xbd5ffe7a	-0.054686047
81	0xbc4b5acf	-0.012411787
82	0xbd7e314b	-0.06205873
83	0xbdae3578	-0.08506292
84	0x3d58214c	0.05276613
85	0xbd2e490f	-0.042550143
86	0xbd50ec5a	-0.051006652
87	0xbcb86b7b	-0.022512188
88	0xbd15871c	-0.036505803
89	0xbdc11da1	-0.094294794
90	0xbd7115d5	-0.05885871
91	0xbda6e0f8	-0.08148378
92	0xbd9d55cd	-0.07682381
93	0xbd1fddcd	-0.039029885
94	0xbd225cb5	-0.039639194
95	0xbd7e6f84	-0.06211807
96	0xbd40e266	-0.04709091
97	0xbd7f35d4	-0.062307194
98	0xbd044808	-0.032295257
99	0xbd6a5ba6	-0.05721631
100	0xbdcb6e60	-0.09933162
101	0x3d400043	0.04687525
102	0xbdb9b90b	-0.09068497
103	0xbd90aec8	-0.07064587
104	0xbd63aa3b	-0.055582266
105	0xbd52104b	-0.05128507
106	0xbd2aea15	-0.041727144
107	0xbde541ae	-0.11194168
108	0xbd6d940f	-0.058002528
109	0xbdbbda1d	-0.09172461
110	0xbdba58f4	-0.09098998
111	0xbd4a5e5e	-0.0494064
112	0xbdb965cc	-0.09052619
113	0xbd6fd82c	-0.058555767
114	0xbcab7ac8	-0.02093257
115	0xbd4dbe85	-0.05023052
116	0x3e1295b5	0.14314921
117	0xbcf25d21	-0.029585423
118	0xbd93d888	-0.072190344
119	0xbdb3b786	-0.08775239
120	0xbda55e70	-0.08074653
121	0xbd8d53ce	-0.0690075
122	0xbd1c586b	-0.03817026
123	0xbc92fce4	-0.017942853
124	0xbdcc2598	-0.09968108
125	0xbdb0fe09	-0.08642203
126	0xbd11eac0	-0.035624266
127	0xbd7e5949	-0.062096868
128	0xbdebc1a2	-0.11511542
129	0xbd514035	-0.051086623
130	0xbd8855c3	-0.06656983
131	0xbd886826	-0.0666049
132	0xbcf9985c	-0.030468158
133	0xbd4c6385	-0.049899597
134	0xbdbcebd2	-0.09224667
135	0xbdacf87e	-0.084458336
136	0xbdc7fc16	-0.097648785
137	0xbd1c38d4	-0.038140133
138	0xbd4cbf16	-0.04998692
139	0xbdc3b978	-0.0955686
140	0xbd06848b	-0.032841247
141	0xbd74ff97	-0.059814062
142	0x3e75c607	0.24001323
143	0xbd35b53f	-0.044362303
144	0x3e234344	0.15943629
145	0x3d0dc42b	0.03461091
146	0xbcb7f979	-0.022457825
147	0xbd0c2253	-0.03421242
148	0xbd170513	-0.036870074
149	0xbdb95521	-0.0904944
150	0xbd95bc74	-0.07311335
151	0x3d96ec47	0.07369285
152	0xbca6c60b	-0.020358106
153	0x3db1ba93	0.08678164
154	0xbdcb45cd	-0.09925423
155	0xbd5affa4	-0.053466454
156	0xbda0dab2	-0.07854213
157	0xbdc1c69c	-0.0946171
158	0xbd92ae14	-0.07162109
159	0xbd9a5370	-0.07535446
160	0xbdca2f0d	-0.098722555
161	0xbda2642d	-0.07929263
162	0xbd1bf172	-0.038072057
163	0xbcf9340d	-0.030420328
164	0x3f0ec168	0.55763865
165	0xbd69cef2	-0.057082124
166	0xbd8aabb4	-0.06771031
167	0xbd380246	-0.044924043
168	0xbd576e5a	-0.052595474
169	0xbd589fe1	-0.052886847
170	0xbc1459da	-0.009054625
171	0xbda4def8	-0.080503404
172	0xbd8ce42d	-0.068794586
173	0xbd8f37ed	-0.06993089
174	0xbd80211b	-0.06256314
175	0xbe141515	-0.14461167
176	0xbcdee92d	-0.027210796
177	0xbcec5fa3	-0.028854197
178	0xbcc3e8cf	-0.023914723
179	0xbcf905e2	-0.030398313
180	0xbd07f052	-0.03318817
181	0xbd1d2c83	-0.038372528
182	0xbdb4fa99	-0.0883686
183	0xbdc5b0ad	-0.09652839
184	0xbde96660	-0.113964796
185	0xbdbee71e	-0.09321426
186	0xbd567986	-0.052361988
187	0xbdfce25f	-0.12347864
188	0xbdaf9a09	-0.08574302
189	0xbd38db20	-0.04513085
190	0xbce3acc1	-0.027792336
191	0xbd35a40f	-0.04434591
192	0xbd18cb8a	-0.037303485
193	0xbd5212fa	-0.05128763
194	0xbd893e9c	-0.06701395
195	0x3e620d76	0.22075447
196	0xbd9520cb	-0.072816454
197	0xbd26ccb4	-0.040722564
198	0xbd02581f	-0.03182232
199	0xbd46e6fd	-0.04856013
200	0xbd636921	-0.05552018
201	0xbf6035f1	-0.8758231
202	0xbdee13c5	-0.116248645
203	0xbd02f760	-0.031974196
204	0xbe03e629	-0.12880768
205	0xbd7bec24	-0.061504498
206	0xbd905076	-0.07046597
207	0xbd59a906	-0.05313971
208	0xbd4c3630	-0.049856365
209	0xbd845b26	-0.06462698
210	0xbd9a318e	-0.07528983
211	0xbda2016d	-0.07910428
212	0xbdba2796	-0.09089582
213	0x3e0aa64d	0.13540001
214	0xbe4939aa	-0.19650903
215	0xbcdcdd03	-0.026960855
216	0xbd66c4cf	-0.056340035
217	0xbdafbb7a	-0.0858068
218	0xbd2263ae	-0.039645843
219	0xbca48946	-0.020084988
220	0xbda5d054	-0.08096376
221	0xbda72c9e	-0.08162807
222	0xbd4a421a	-0.049379446
223	0xbd810b66	-0.06301002
224	0xbd989fcd	-0.074523546
225	0xbd808b22	-0.062765375
226	0xbc33b568	-0.010968544
227	0xbd066dc8	-0.03281954
228	0xbda194ea	-0.07889731
229	0xbcc1a9ab	-0.023640474
230	0xbd47efde	-0.04881274
231	0xbd4c5b1f	-0.049891587
232	0xbcb98091	-0.022644313
233	0xbd4339c6	-0.04766252
234	0xbcdaad1a	-0.02669387
235	0xbd843e9b	-0.064572535
236	0xbdf6bf0f	-0.1204816
237	0xbd5bd724	-0.05367197
238	0x3ea6083b	0.32428154
239	0xbd60b901	-0.054863933
240	0xbd009b2c	-0.031397983
241	0x3e05770e	0.13033697
242	0xbd2c93ef	-0.042133268
243	0xbcf5f05d	-0.03002184
244	0xbe25af1d	-0.16180082
245	0xbd04b770	-0.032401502
246	0xbd59e680	-0.053198338
247	0xbd15d75c	-0.036582336
248	0xbd23b0e5	-0.03996362
249	0xbd275219	-0.04084978
250	0xbcec01e3	-0.028809493
251	0xbd07914f	-0.03309756
252	0xbc91f021	-0.017814698
253	0xbcdf29b2	-0.027241562
254	0xbda42180	-0.08014202
255	0xbdb7963e	-0.08964203

linear_relu_stack.6.weight f4 [1, 256]
0	0x3ccb61c8	0.0248269
1	0x3cd9c966	0.026585292
2	0x3bced23f	0.0063116844
3	0x3c0ca2a5	0.008583699
4	0x3b7104e0	0.0036776587
5	0x3c41f6d1	0.011838631
6	0xbc8e8978	-0.017399535
7	0xbcc59b1b	-0.024121812
8	0x3bcee77d	0.0063142166
9	0x3be7fdfa	0.007079837
10	0x3d022d26	0.03178134
11	0x3b421300	0.0029613376
12	0xbcabed06	-0.020987045
13	0x3cd4cbad	0.025976026
14	0xbc83dfb0	-0.016097873
15	0x398e7cd0	0.00027177343
16	0xbc42aa5c	-0.011881437
17	0xbcdd26e2	-0.02699608
18	0x3dda0f25	0.1064742
19	0xbc96314d	-0.018334055
20	0xbd27a7b6	-0.040931426
21	0x3bd0e584	0.0063750166
22	0x3be9219e	0.007114603
23	0xbf000269	-0.5000368
24	0xbced158b	-0.028940937
25	0x3bd2440e	0.006416804
26	0xbeb3c3b3	-0.35110244
27	0x3bb0a357	0.0053905654
28	0x3cfe9c56	0.031080406
29	0x3d13e6fb	0.036108952
30	0xbaee4d06	-0.0018180914
31	0xbcea5cfb	-0.02860879
32	0x3cd8e2cb	0.02647533
33	0x3c53b36e	0.012921197
34	0x3c1cc97e	0.009569524
35	0xbbb50d32	-0.0055252546
36	0x3c2a43b5	0.010392119
37	0xb938d8f2	-0.00017628426
38	0x3cdfa605	0.027300844
39	0xbd07ec0b	-0.033184092
40	0xb99aaa97	-0.00029500268
41	0x3c903e02	0.017607693
42	0xbc8b8c23	-0.017034596
43	0x3aa1e3d1	0.001235122
44	0x3b442271	0.0029927755
45	0xba652bfb	-0.00087422103
46	0xbb7694c9	-0.0037625304
47	0x3cdd24f0	0.026995152
48	0x3c36a605	0.011147981
49	0xbb50bcb3	-0.0031850755
50	0xbcb0fb88	-0.021604314
51	0x3c7a5147	0.015278167
52	0x3aef0504	0.0018235748
53	0xbcb5ef0b	-0.022208711
54	0x3c35cd4a	0.011096308
55	0xbd33581e	-0.043785207
56	0xbc4098cf	-0.011755182
57	0xbb9c4a70	-0.004769616
58	0x3cd6dc9f	0.026228247
59	0xba2c403d	-0.00065708515
60	0xbce22ba6	-0.027608704
61	0x3e78933d	0.24274917
62	0x3c09d22e	0.008411927
63	0x3c84308d	0.016136432
64	0xbb317a89	-0.0027081093
65	0xbcb04c8e	-0.02152088
66	0x3ab62e2d	0.001389926
67	0x3e310603	0.1728745
68	0xbc7fb5fd	-0.015607354
69	0xbbe5ba15	-0.007010708
70	0xbb520102	-0.0032044058
71	0x3f4ecf6b	0.80785245
72	0x3d7e5377	0.062091317
73	0xbc59785b	-0.013273324
74	0xbaf9d858	-0.0019061668
75	0x3c0579f6	0.008146754
76	0xbcdd34b8	-0.027002677
77	0xbc8a7501	-0.016901495
78	0x3cd3fe22	0.025878016
79	0x3cd7b0cd	0.026329422
80	0xbae99dff	-0.0017823576
81	0x3b939100	0.0045033693
82	0xbcdce480	-0.026964426
83	0x3cee0c41	0.029058577
84	0x3d8e82e5	0.0695856
85	0x3bc7c2c7	0.0060962173
86	0xbc11a8fe	-0.0088903885
87	0xbdaa283a	-0.08308454
88	0x3c0fb91a	0.008772159
89	0xbf1103a4	-0.5664618
90	0x3c33b2b1	0.010967896
91	0xbcecb2e3	-0.028893894
92	0xbbdbf661	-0.0067127203
93	0x3cb15a4c	0.021649502
94	0x3c1e32c6	0.00965566
95	0xba4282c2	-0.0007419997
96	0x3cca7434	0.024713613
97	0xbab3f164	-0.0013728556
98	0xbc8797cc	-0.016551875
99	0x3ca3ac5c	0.019979648
100	0xb90ddf30	-0.00013529952
101	0x3ec447cb	0.38336024
102	0x3acb4347	0.0015507721
103	0x3bb7e8c7	0.005612466
104	0x3c1bf37c	0.0095185
105	0xbbcbee08	-0.006223444
106	0xbc62becc	-0.013839435
107	0xbc14445e	-0.009049503
108	0x3bdb45b9	0.006691661
109	0x3c35e7ab	0.011102597
110	0x3c7769d4	0.015100915
111	0xbca139cf	-0.019680886
112	0xbbd2f62b	-0.006438037
113	0x3a1d6e3d	0.00060055015
114	0x3ba623c1	0.00507018
115	0x3a43f776	0.0007475534
116	0xbe19a605	-0.15004738
117	0xbafc2f73	-0.0019240215
118	0x3b9ef71f	0.0048512365
119	0x3b80c450	0.0039296523
120	0xbc5e6e22	-0.013576062
121	0x3bb2ee10	0.005460508
122	0x3c3f3470	0.011670217
123	0xbcbf6533	-0.023363685
124	0x3bae9671	0.0053279926
125	0x3c5e3be8	0.013564087
126	0x3cd9071c	0.026492648
127	0xbc881817	-0.01661305
128	0xbf0b60c3	-0.5444452
129	0x3bad9949	0.005297814
130	0x3cd2b403	0.025720602
131	0xbca274b3	-0.019831037
132	0xbcbe2768	-0.02321215
133	0xbae6ad83	-0.0017599318
134	0xbca3cb81	-0.0199945
135	0x3bd5c260	0.0065234154
136	0xbc02d0a9	-0.007984319
137	0x3cefdb03	0.029279238
138	0x3c057abe	0.00814694
139	0x3ced6d7b	0.028982868
140	0xba389e7f	-0.0007042661
141	0x3c18b124	0.009319577
142	0xbed2529c	-0.4107865
143	0xbc957c52	-0.018247757
144	0xbdf92d52	-0.12166847
145	0x3ea446a6	0.3208515
146	0x3adeeb6a	0.0017007415
147	0xbbb1eea4	-0.0054300595
148	0x3bae7307	0.005323771
149	0xbbd67d6d	-0.0065457136
150	0x3cdc8d28	0.026922777
151	0x3e38721b	0.18012278
152	0x3c74eb67	0.014948702
153	0x3f13d0c5	0.5774043
154	0x3ca1528b	0.01969268
155	0x3cfd3f77	0.030914051
156	0xbc3dcc95	-0.011584421
157	0xbb9e222c	-0.004825851
158	0xba90645a	-0.0011016235
159	0xb9d18acb	-0.00039966995
160	0x3cc4cdee	0.024023976
161	0x3c5d2b64	0.013499115
162	0x3cda9095	0.02668027
163	0x3c97da45	0.018536696
164	0xbeb01386	-0.34389895
165	0x3caf5624	0.02140338
166	0xbb4bbe4e	-0.0031088772
167	0x3c49be65	0.01231346
168	0xbbb2ce79	-0.0054567424
169	0x3ca924b1	0.020647379
170	0x399e2b53	0.00030168387
171	0xbcaea150	-0.021317154
172	0x3a29430a	0.0006456828
173	0xbc2df2fe	-0.010617016
174	0x3c8d3b15	0.017240087
175	0xbc775035	-0.015094806
176	0x3cf488a2	0.029850308
177	0x3cbbe408	0.022935882
178	0xbc373fba	-0.011184627
179	0xbc989eee	-0.018630471
180	0xbc20f486	-0.009823924
181	0xbc9b150b	-0.018930933
182	0xbc97343a	-0.01845752
183	0xbabdefda	-0.0014491037
184	0xbcde4827	-0.027134014
185	0xbcee0692	-0.029055867
186	0x3c79c0d4	0.015243728
187	0x3cb9f6b8	0.022700652
188	0x3c2ba99d	0.010477451
189	0xbce49d4e	-0.02790704
190	0x3bb6600c	0.005565649
191	0xbaba62de	-0.0014220139
192	0xbc4f3a02	-0.0126481075
193	0x3cb952fb	0.022622576
194	0x3c33fa59	0.0109849805
195	0x3f2b634f	0.6694841
196	0xbbf539af	-0.007483683
197	0xbb6e35d8	-0.0036348011
198	0x3ba8a414	0.0051465128
199	0xbba24fbf	-0.004953354
200	0xbc8e2884	-0.017353304
201	0xbe09302d	-0.13397284
202	0x3cd43d99	0.025908278
203	0xbccf2957	-0.025288267
204	0x3ccb64bb	0.024828305
205	0xbc2667cf	-0.010156586
206	0x3cd811ae	0.026375618
207	0xbc42c5a9	-0.011887946
208	0xbce271cc	-0.027642153
209	0x3ce3dabf	0.027814267
210	0xbaf9f59e	-0.0019070392
211	0x399b4cb9	0.00029621067
212	0xbc4aa54a	-0.01236851
213	0x3f04240d	0.5161751
214	0xbdb33fa0	-0.0875237
215	0x3c1c3e54	0.009536345
216	0xbc9b8114	-0.018982448
217	0xbc99725f	-0.018731294
218	0xbadaf39b	-0.001670468
219	0xbc51cb70	-0.012804851
220	0x3d0ea499	0.03482494
221	0xbd3697f9	-0.044578526
222	0x3d1b865f	0.037969943
223	0x3cc61442	0.024179582
224	0x3c5923fc	0.013253208
225	0x3c1a0d54	0.009402592
226	0x3ba78336	0.005112077
227	0x3c738094	0.014862198
228	0x3cb8650b	0.022509119
229	0xbbf27df1	-0.0074002673
230	0xbbd72a50	-0.0065663233
231	0x3d0a0430	0.0336954
232	0xbcce43bd	-0.025178785
233	0x3cfa3c53	0.030546343
234	0x3c12666e	0.008935554
235	0x3c7b47c4	0.0153369345
236	0x3bbe4037	0.005805995
237	0x3ad2730f	0.0016056019
238	0xbe99cf77	-0.30041096
239	0xbc08e9d1	-0.008356527
240	0xbcd75a33	-0.026288128
241	0x3eb9b412	0.36270195
242	0xbce54f74	-0.027991988
243	0x3d150d9a	0.036389925
244	0x3e7027a9	0.23452629
245	0xbc10be48	-0.008834429
246	0x3bb3c9d4	0.0054867063
247	0xbd2cfc49	-0.042232785
248	0xbce2dc0e	-0.02769282
249	0x3bb8f818	0.0056448095
250	0xbc7fe9ff	-0.015619754
251	0xbcf8e25d	-0.030381376
252	0x3cf540a5	0.029938051
253	0xbc2fe020	-0.010734588
254	0x3b988cd8	0.0046554618
255	0x3ceadcfa	0.028669823
