Assets/ONNX/ffn.onnx (onnx, 405247 bytes, 6 tensors)

linear_relu_stack.0.weight f4 [256, 135]
0	0x3d9a4ef6	0.07534592
1	0x3d1936fa	0.037405945
2	0x3dad03a6	0.084479615
3	0x3c709920	0.014684945
4	0xbda66633	-0.08124962
5	0xbd4d91c5	-0.050187845
6	0xbd94e22d	-0.07269702
7	0xbd8d2a4e	-0.068928346
8	0xbd314298	-0.0432764
9	0x3d641872	0.055687375
10	0xbd44c2bb	-0.048037272
11	0x3d98bb44	0.07457593
12	0x3c886eb7	0.016654355
13	0x3d75f364	0.06004657
14	0xbc9f089b	-0.019413283
15	0xbca311b3	-0.0199059
16	0x3c38d3b9	0.011280947
17	0xbd940ed7	-0.07229393
18	0x3d8eeac6	0.06978373
19	0xbd535993	-0.051599097
20	0x3d17f0d8	0.03709492
21	0xbd302ec3	-0.043013345
22	0x3c3adef5	0.011405696
23	0xbd91ff66	-0.071287915
24	0x3d8263d3	0.06366696
25	0xbd54af0c	-0.05192475
26	0x3c7bae04	0.015361313
27	0x3d621286	0.055193447
28	0x3d0a1f41	0.033721212
29	0x3ce38ac8	0.027776137
30	0x3d2b617d	0.04184102
31	0xbc7bd57e	-0.015370725
32	0xbd0e54d1	-0.034748856
33	0x3dab43da	0.08362551
34	0xbd61aeb6	-0.055098258
35	0x3cd2edcc	0.025748156
36	0xbcc11aae	-0.023572292
37	0xbd0e5808	-0.034751922
38	0xbd5795bf	-0.052633043
39	0xbd27a05c	-0.040924415
40	0x3b1f10b8	0.002427144
41	0x3d5914a5	0.052998204
42	0xbd9e0723	-0.07716205
43	0xbda19853	-0.07890382
44	0x3ce82e7c	0.028342478
45	0xbce8cee9	-0.028418975
46	0x3ce0c6bb	0.027438512
47	0xb6a09397	-4.7855533e-06
48	0xbcf57f65	-0.029967973
49	0x3d8751fc	0.06607434
50	0xbd610d65	-0.054944415
51	0xbcf7e35f	-0.030259786
52	0xbd3619b0	-0.04445809
53	0xbd5edc1e	-0.05440914
54	0xbd47f3df	-0.048816558
55	0x3cc65b99	0.024213599
56	0x3ca014c3	0.01954115
57	0x3d7b6043	0.0613711
58	0x3a9b8c1f	0.0011867321
59	0x3d58fb7d	0.052974213
60	0xbc0e9b4c	-0.008704018
61	0x3d65ac16	0.056072317
62	0xbd65c737	-0.05609819
63	0xbc4fd923	-0.012686047
64	0x3d90f60e	0.07078181
65	0x3c631aab	0.013861339
66	0x3c9dbc48	0.019254819
67	0x3cfcddfa	0.030867565
68	0x3cb76c30	0.022390455
69	0x3ce771e0	0.028252542
70	0x3d85e1a3	0.065371774
71	0x3aec5f91	0.0018033852
72	0xbd8d6a44	-0.06905034
73	0xbdaa2266	-0.08307342
74	0x3bad850f	0.005295403
75	0xbd12b688	-0.035818607
76	0xbd8c1530	-0.06839979
77	0xbce97e7c	-0.028502695
78	0x3ca0aa17	0.019612355
79	0xbc7aed3e	-0.015315352
80	0x3d18e6c3	0.037329447
81	0x3cc1b341	0.023645045
82	0x3ca24a64	0.019810863
83	0x3d72f99d	0.05932008
84	0xbd04b828	-0.032402188
85	0x3cabe525	0.020983288
86	0x3d9028a9	0.07039005
87	0x3d88478e	0.06654273
88	0x3d2257a3	0.03963436
89	0x3d7abddd	0.061216224
90	0x3c918ed6	0.017768305
91	0x3d29721b	0.041368585
92	0xbd9617c3	-0.07328751
93	0x3d8b7386	0.06809144
94	0xbab8b059	-0.0014090642
95	0xbd935103	-0.07193186
96	0x3d30e3b2	0.043185897
97	0x3d4c9809	0.04994968
98	0xbd595765	-0.05306186
99	0xbd8f1e42	-0.06988193
100	0xbd439679	-0.047750924
101	0xbc6dc7d0	-0.014512971
102	0x3d91cf68	0.07119638
103	0x3c86c795	0.01645259
104	0xbbea4e21	-0.007150427
105	0x3d6e89ca	0.058236875
106	0xbda0e4b7	-0.07856124
107	0xbd78cdd0	-0.060743153
108	0xbdb782bc	-0.089604825
109	0xbd81932f	-0.06326901
110	0xbd25dfb9	-0.04049656
111	0xbd32ded4	-0.043669537
112	0xbda814b8	-0.08207077
113	0x3cda5d52	0.026655827
114	0xbd83db60	-0.06438327
115	0xbd1ddfff	-0.038543697
116	0x3d414fa9	0.04719511
117	0xbc96fc55	-0.018430868
118	0xbd335aa5	-0.043787617
119	0xbd8fcceb	-0.07021507
120	0x3d52b4a1	0.051441792
121	0xbc2bd64b	-0.010488103
122	0x3d118ffa	0.035537697
123	0x3d751686	0.059835933
124	0xbcfb2eaa	-0.0306619
125	0xbd0cc423	-0.034366738
126	0x3d126333	0.035739135
127	0xbd774326	-0.060366772
128	0xbbda51e8	-0.006662596
129	0x3c96e321	0.01841885
130	0xbd40a961	-0.047036532
131	0xbd9ac6ec	-0.075574726
132	0x3d08d5a6	0.033406876
133	0x3d73ca78	0.05951926
134	0xbdae0435	-0.08496896
135	0xbbc5fc69	-0.0060420525
136	0xbe0b4b2d	-0.13602896
137	0x3d8dcd61	0.069239385
138	0x3d73f7a8	0.059562355
139	0xbdfd286b	-0.12361225
140	0xbd6912d0	-0.056902707
141	0xbcbd6730	-0.023120493
142	0x3dbc70e0	0.09201217
143	0xbd63e5c0	-0.05563903
144	0xbd17597b	-0.03695057
145	0x3ca695b9	0.020335065
146	0xbd9d404c	-0.07678279
147	0xbd8ae079	-0.06781096
148	0x3cadd8cc	0.02122154
149	0x3d509944	0.050927415
150	0x3d0a1a7f	0.033716675
151	0xbdda2e76	-0.10653393
152	0xbd431c4f	-0.04763442
153	0x3d8c3a7b	0.06847092
154	0xbd85d8c3	-0.06535485
155	0xba7ebbbe	-0.0009717307
156	0xbc710a86	-0.014711982
157	0x3c9d5e21	0.019209923
158	0x3d308a5a	0.043100692
159	0xbcf2643b	-0.02958881
160	0x3d2c6ed6	0.04209789
161	0xbc3dc3f3	-0.011582362
162	0xbdb66a74	-0.08907023
163	0xbbe2986c	-0.0069151428
164	0xbd86fd40	-0.06591272
165	0x3d09086e	0.033455305
166	0x3b135934	0.002248359
167	0xbd8c9c7a	-0.06865783
168	0x3d49ceaf	0.049269374
169	0xbdd25f69	-0.10272104
170	0x3d8873dc	0.066627234
171	0xbd3074a2	-0.04307998
172	0xbc90fb51	-0.017697962
173	0x3d2a808e	0.041626506
174	0x3d911fc4	0.07086137
175	0xbd691c72	-0.056911893
176	0x3cb3b842	0.021938447
177	0xbde05fc4	-0.10955766
178	0xbd312ab6	-0.043253623
179	0xbc81abc8	-0.015828982
180	0xbaee7548	-0.0018192912
181	0xbca55910	-0.02018407
182	0xbc879d31	-0.016554447
183	0x3c228d73	0.009921419
184	0xbd9dd5ba	-0.07706781
185	0x3bffd31e	0.0078071496
186	0x3d2cad86	0.042157672
187	0xbd860a56	-0.0654494
188	0x3c6a27cd	0.014291716
189	0xbd8040bd	-0.06262348
190	0x3c88d78b	0.016704341
191	0xbdb3cd79	-0.08779425
192	0xbd20f72d	-0.039298225
193	0x3d2efe1f	0.042722818
194	0xbd8b2edc	-0.06796047
195	0xbdd1e708	-0.10249144
196	0xbd499f82	-0.049224384
197	0x3d972d03	0.07381632
198	0x3c43b3c0	0.011944711
199	0xbda73a0a	-0.08165367
200	0x3cca7799	0.024715232
201	0xbce4c3d1	-0.027925404
202	0xbd8d9876	-0.06913845
203	0xbd8c85a2	-0.06861426
204	0x3d76d957	0.060265865
205	0xbe11daa4	-0.14243561
206	0xbcf60213	-0.030030286
207	0xbdcbd8da	-0.099534705
208	0xbc9d2e51	-0.019187124
209	0xba2c0507	-0.00065620284
210	0xbca0d39a	-0.01963215
211	0xbcb2fd11	-0.021849187
212	0x3c876586	0.016527902
213	0x3d0d7776	0.034537755
214	0x3c19ab26	0.009379184
215	0xbda0013a	-0.07812734
216	0xbd98b8bb	-0.074571095
217	0xbdaf8784	-0.085707694
218	0xbda84fd1	-0.08218349
219	0xbb36a23e	-0.00278677
220	0xbdf13570	-0.117777705
221	0x3ba948e0	0.005166158
222	0x3d2501ee	0.040285043
223	0xbc268b23	-0.010165009
224	0x3c41ec73	0.011836159
225	0xbda57fde	-0.08081029
226	0xbc9ca711	-0.019122632
227	0x3ce6d4ab	0.02817758
228	0xbdd54980	-0.1041441
229	0x3dad922a	0.08475144
230	0xbddeb51b	-0.10874387
231	0x3da84578	0.08216375
232	0xbc3f54a2	-0.011677893
233	0x3c865d60	0.016401947
234	0xbb24d309	-0.00251502
235	0xbd8af590	-0.067851186
236	0xbd8ce1fe	-0.06879042
237	0xbe00d601	-0.12581636
238	0xbd437921	-0.04772294
239	0x3d7e4d3b	0.06208537
240	0xbde9ca62	-0.114155546
241	0xbda051be	-0.07828091
242	0xbc9f2c0f	-0.019430188
243	0xbd6a8b29	-0.05726162
244	0xbd1edf6f	-0.0387873
245	0x3d5892e0	0.052874446
246	0x3da5ecf1	0.081018336
247	0xbd4079c9	-0.046991143
248	0xbc57dd1e	-0.013175277
249	0xbd892789	-0.06696994
250	0x3d96ad10	0.07357228
251	0x3d5f342b	0.05449311
252	0xbd247734	-0.040152743
253	0xbda3ea06	-0.08003621
254	0xbcefb3ce	-0.029260542
255	0x3b058ec7	0.0020379291

linear_relu_stack.0.bias f4 [256]
0	0xbd89a784	-0.06721404
1	0xbd09c3d3	-0.03363402
2	0xbd6f0618	-0.05835542
3	0xbe080ebc	-0.1328687
4	0xbd9b17f5	-0.07572929
5	0xbbc43f14	-0.005988965
6	0xbe01e2f9	-0.1268424
7	0xbe934e8b	-0.2877086
8	0xbde63d89	-0.11242206
9	0xbe0eeb01	-0.13956834
10	0xbd9b8ebe	-0.07595585
11	0x3e306ff2	0.17230204
12	0xbd642dea	-0.05570785
13	0xbe3f4c2b	-0.186814
14	0x3e14ad4d	0.14519234
15	0xbd6b564d	-0.05745535
16	0xbe37c121	-0.17944767
17	0xbd800ad5	-0.06252066
18	0xbd4f6ff4	-0.050643876
19	0xbd906f12	-0.07052435
20	0xbda6f067	-0.08151322
21	0xbd88ab04	-0.06673244
22	0xbd697238	-0.056993693
23	0x3b78ab19	0.003794378
24	0x3bc4f7f0	0.0060110018
25	0xbd5a9e7e	-0.053373806
26	0xbd2a735c	-0.04161392
27	0xbd761f1e	-0.06008827
28	0xbd721a93	-0.059107374
29	0xbe33153e	-0.17488572
30	0xbd93a643	-0.07209446
31	0x3e8ecf9b	0.27892765
32	0xbc9b796b	-0.018978795
33	0xbcc789b8	-0.024357662
34	0xbe11385b	-0.14181654
35	0xbe3b5923	-0.18295722
36	0xbe8c5080	-0.27405167
37	0xbda00292	-0.0781299
38	0xbe5d6e1c	-0.21624035
39	0xbd9497d0	-0.072555184
40	0xbd6a8d74	-0.057263806
41	0xbdb4a15d	-0.0881984
42	0xbe1dfc30	-0.15428233
43	0xbe4930d1	-0.19647528
44	0xbdd946c2	-0.10609199
45	0xbd910eb9	-0.07082886
46	0xbd4b56e8	-0.049643427
47	0xbda4b06e	-0.08041464
48	0xbc033ee3	-0.008010599
49	0xbd987183	-0.07443526
50	0xbd855be1	-0.06511665
51	0xbe85dc13	-0.26144466
52	0xbe7ce60f	-0.24697135
53	0xbd16dec0	-0.036833525
54	0xbd320608	-0.043462783
55	0xbe139096	-0.14410624
56	0xbcad9990	-0.021191388
57	0xbdb95fa2	-0.09051444
58	0xbe1c7548	-0.15279114
59	0xbe8cf250	-0.2752862
60	0xbd9ffcca	-0.078118876
61	0xbd56465c	-0.052313194
62	0xbda409ed	-0.08009706
63	0xbdf0bde5	-0.117549695
64	0xbdd65a73	-0.104664706
65	0xbe1012b6	-0.14069638
66	0xbcce48e5	-0.025181243
67	0x3c9432f1	0.018090697
68	0xbe9dd1b8	-0.30824065
69	0xbdd16a3e	-0.10225342
70	0xbcca6f76	-0.024711352
71	0xbcd69fdd	-0.026199276
72	0xbdb1381f	-0.086532824
73	0xbe667a3b	-0.22507565
74	0xbd8565e5	-0.065135755
75	0xbd1de251	-0.03854591
76	0xbdfc3689	-0.12315089
77	0x3cad1102	0.021126274
78	0xbdb1dadf	-0.086843245
79	0xbc4e9bfa	-0.01261043
80	0xbd2f03b0	-0.042728126
81	0x3c6b6f58	0.014369808
82	0xbe047328	-0.12934554
83	0xbddb9014	-0.1072084
84	0xbdf95266	-0.121739194
85	0xbe32aa2c	-0.17447728
86	0xbd80cc70	-0.06288993
87	0xbd49357d	-0.049123276
88	0xbd239bc1	-0.03994346
89	0x3c042e3c	0.008067664
90	0xbdb574bf	-0.08860158
91	0xbe5bf706	-0.2148095
92	0xbcb36b3b	-0.021901717
93	0xbd98e67d	-0.07465837
94	0xbc82acfc	-0.015951626
95	0xbe7504da	-0.23927632
96	0xbd2ad655	-0.04170831
97	0xbd8c8bd7	-0.0686261
98	0xbd98bca9	-0.07457859
99	0xbd5deaa4	-0.05417885
100	0xbe2521e2	-0.16126207
101	0xbdd2d2a3	-0.10294082
102	0xbe340b28	-0.17582381
103	0xbd7c9585	-0.06166603
104	0xbe84d06c	-0.25940263
105	0xbd886d1c	-0.06661436
106	0xbd2a8ef2	-0.04164023
107	0xbda88337	-0.08228152
108	0xbdd36fa0	-0.10324025
109	0xbd0ccde9	-0.03437606
110	0xbdfcabb9	-0.12337441
111	0xbea56d92	-0.32310158
112	0xbe0c5d08	-0.13707364
113	0xbdc6d596	-0.09708707
114	0xbdb74eaa	-0.08950551
115	0xbe89c2e1	-0.26906493
116	0xbca0ccde	-0.019628938
117	0xbdb9be91	-0.09069551
118	0xbe026f27	-0.12737714
119	0xbd426904	-0.047463432
120	0xbdbef974	-0.09324923
121	0xbdbbd198	-0.09170836
122	0xbe228574	-0.15871221
123	0xbd5adf6f	-0.05343574
124	0xbc7925c5	-0.015206759
125	0xba8bd389	-0.0010667901
126	0x3d5cf1c3	0.0539415
127	0xbcfcf0d4	-0.030876555
128	0xbd6becda	-0.057598926
129	0xbde309c7	-0.11085849
130	0xbeb66a12	-0.356278
131	0xbd2659f0	-0.040613115
132	0xbdbaa9b9	-0.09114403
133	0xbd123b0a	-0.035700835
134	0xbc5d9703	-0.0135247735
135	0x3ca05879	0.019573437
136	0x3cca5a40	0.024701238
137	0xbdcca762	-0.09992863
138	0xbe0223cb	-0.12708966
139	0xbdd327e6	-0.103103444
140	0xbd8d0251	-0.068852074
141	0xbdb22f62	-0.08700444
142	0xbc086f01	-0.008327247
143	0x3bb069ec	0.0053837206
144	0xbba4df30	-0.005031489
145	0x3bc593c9	0.0060295803
146	0xbe008211	-0.12549616
147	0xbd9f92b7	-0.077916555
148	0xbec14daa	-0.37754565
149	0xbeb47bce	-0.35250705
150	0xbdb9ec78	-0.09078306
151	0xbdc069d3	-0.09395184
152	0xbd3a14f7	-0.04543015
153	0xbd54145c	-0.05177723
154	0xbe6eed1a	-0.23332635
155	0xbd6175be	-0.05504393
156	0xbd1fb0b5	-0.03898688
157	0xbdb068eb	-0.086137615
158	0xbd83321d	-0.06406043
159	0xbcedcc8d	-0.029028201
160	0xbd3f789f	-0.046745893
161	0xbe22a423	-0.15882926
162	0xbdde0aad	-0.1084188
163	0xbde4b9fd	-0.11168287
164	0xbce6a847	-0.028156413
165	0xbe11b905	-0.14230736
166	0xbe194780	-0.14968681
167	0xbe491854	-0.19638187
168	0xbd0e38c5	-0.03472211
169	0xbe2648b2	-0.16238669
170	0xbda5bd58	-0.08092755
171	0xbdbf0549	-0.0932718
172	0xbd9071af	-0.070529334
173	0xbd83bb5e	-0.06432222
174	0xbd393193	-0.045213293
175	0x3b54f97a	0.0032497332
176	0xbe08be45	-0.13353832
177	0xbdbe0077	-0.092774324
178	0xbe1fc250	-0.15601468
179	0xbe26cc9f	-0.16288994
180	0x3b985762	0.0046490887
181	0xbdfa5a4b	-0.12224253
182	0xbde4674f	-0.11152517
183	0x3c0520a6	0.00812546
184	0xbd1a9bf8	-0.0377464
185	0xbccef50a	-0.025263328
186	0xbe5da186	-0.21643648
187	0xbda19426	-0.07889585
188	0xbdb4e6a9	-0.088330574
189	0xbebb8e36	-0.36631936
190	0xbdd07d11	-0.101801045
191	0xbd0a541e	-0.033771627
192	0xbd825335	-0.06363527
193	0xbe42d4ed	-0.19026537
194	0x3cfe61db	0.03105252
195	0xbe241205	-0.16022499
196	0x3c241b7c	0.010016318
197	0xbdbf171d	-0.093305804
198	0xbb93dc7f	-0.004512369
199	0xbcf552b2	-0.029946659
200	0xbd89f672	-0.06736459
201	0xbcbe3292	-0.023217473
202	0xbdd2f467	-0.10300522
203	0xbce0351c	-0.027369075
204	0xbc88e1aa	-0.016709168
205	0xbce41a34	-0.027844526
206	0xbda1e6b2	-0.0790533
207	0xbd41e586	-0.04733803
208	0xbe043683	-0.1291142
209	0xbd946a69	-0.072468586
210	0xbe19f6fc	-0.15035623
211	0xbdb48cfe	-0.088159546
212	0xbde132f5	-0.109960474
213	0xbd8fe96c	-0.070269436
214	0x3c25d779	0.0101221735
215	0xbe376f48	-0.17913544
216	0x3badb128	0.0053006597
217	0xbd80f9bb	-0.06297632
218	0xbe119d90	-0.14220262
219	0xbe31bde3	-0.17357592
220	0xbd4e1ba9	-0.050319348
221	0xbe1f726d	-0.15570994
222	0xbe5955b7	-0.21224104
223	0xbdff99c3	-0.124804996
224	0xbdffa679	-0.12482924
225	0xbdb90c3a	-0.09035535
226	0xbd157e98	-0.036497682
227	0xbdd40c1b	-0.103538714
228	0xbcc655eb	-0.02421089
229	0xbd903f81	-0.070433624
230	0xbe915338	-0.28383803
231	0xbcccebea	-0.025014836
232	0xbe62792a	-0.22116533
233	0xbdab5a2e	-0.0836681
234	0x3b9897fb	0.0046567894
235	0xbc0de847	-0.008661336
236	0xbd8b7638	-0.06809658
237	0xbe0db1f7	-0.1383742
238	0xbdb5ab66	-0.08870582
239	0xbd9a0b53	-0.07521691
240	0xbd3e123a	-0.0464041
241	0xbdb98a47	-0.090595774
242	0xbd112182	-0.035432346
243	0xbdf97ecd	-0.121823885
244	0xbe1aeef4	-0.15130216
245	0xbd8364b2	-0.064156905
246	0xbdce1e09	-0.100643225
247	0xbd3b4aaa	-0.045725502
248	0xbda0412f	-0.07824933
249	0xbe02ccf4	-0.12773496
250	0xbd62c00a	-0.055358924
251	0xbdab6a63	-0.08369901
252	0xbe065f50	-0.13122296
253	0xbdc7e9a2	-0.09761359
254	0xbdad89d9	-0.08473558
255	0xbd222f46	-0.039595865

linear_relu_stack.3.weight f4 [256, 256]
0	0x3d6f28f2	0.058388658
1	0xbcf82114	-0.03028921
2	0xbb89a319	-0.004200351
3	0xbcbdee32	-0.02318487
4	0xbd49dc2e	-0.049282245
5	0xbc467791	-0.012113468
6	0x3d45d0fa	0.048295
7	0xbd7e39e2	-0.06206692
8	0xbd00f8e2	-0.031487353
9	0x3d4668ea	0.048439898
10	0x3c2ac150	0.010422066
11	0xbd2bfa44	-0.04198672
12	0xbd5fee0c	-0.05467038
13	0xba9467d6	-0.001132245
14	0x3d4832a0	0.048876405
15	0xbbec1b36	-0.0072053922
16	0x3cf7cdd2	0.03024951
17	0x3cf49e24	0.029860564
18	0x3d0d2f6b	0.03446905
19	0xbb68ce31	-0.003552329
20	0x3d0991fc	0.033586487
21	0x3cbe13b0	0.023202747
22	0x3d54fd02	0.0519991
23	0x3d56fe08	0.052488357
24	0x3b6ad76d	0.003583397
25	0xbd5052ec	-0.05086033
26	0xbca8fa48	-0.020627156
27	0x3ce4f28c	0.027947687
28	0xb8e079ed	-0.00010703863
29	0xbcca85e8	-0.024722055
30	0x3c505928	0.012716569
31	0xbca723e2	-0.020402852
32	0x3d28390d	0.041070033
33	0xbc6b70fa	-0.014370197
34	0x3d217140	0.039414644
35	0xbc948d12	-0.018133674
36	0xbd058f66	-0.03260746
37	0xbd59f498	-0.05321178
38	0xbda1577d	-0.07878015
39	0xbc31322b	-0.010815184
40	0x3cb8b7e5	0.022548625
41	0xbada6ce6	-0.0016664534
42	0x3c825a78	0.01591228
43	0xbd28928a	-0.041155376
44	0x3d023731	0.031790916
45	0xbd78ebd4	-0.06077178
46	0x3d336397	0.04379615
47	0xb53779f3	-6.835027e-07
48	0x3c32dafd	0.010916469
49	0xbd1c2f5a	-0.038131095
50	0xbc3566e9	-0.011071899
51	0x3b35c0cf	0.002773333
52	0x3cf2039c	0.029542737
53	0xbcfe2f27	-0.031028343
54	0x3d4399fa	0.047754265
55	0xbd6173ad	-0.055041958
56	0x3c8fa9e0	0.017537057
57	0x3cd8fe41	0.026488425
58	0xbc6eeeed	-0.0145833315
59	0x3d666522	0.05624879
60	0x3d5fadb2	0.054609008
61	0xbd0cf0f3	-0.034409475
62	0xbd89cf39	-0.06728978
63	0xbcc8a3ec	-0.024492227
64	0x3d476ea4	0.0486895
65	0xbd72aacb	-0.059244912
66	0xbbae0a90	-0.0053113177
67	0xbd314214	-0.043275908
68	0xbd063828	-0.0327684
69	0xbd80bda3	-0.0628617
70	0x3bc72aad	0.0060780854
71	0xbb3c2866	-0.0028710603
72	0xbd001679	-0.03127143
73	0x3ccfd02a	0.025367815
74	0xbc493930	-0.012281701
75	0x3ce4a4b3	0.027910566
76	0x3d4a9afe	0.04946422
77	0x3c949a9e	0.018140133
78	0x3d416e34	0.04722424
79	0xbd225df8	-0.039640397
80	0x3d216aa7	0.039408352
81	0xbd874f94	-0.06606975
82	0xbc0c19fd	-0.008551118
83	0xbcf0fe56	-0.029418152
84	0x3cfa5295	0.030556956
85	0x3d116335	0.035495
86	0xbd1c4ed6	-0.03816112
87	0xbcbdb642	-0.023158196
88	0xbd375292	-0.04475648
89	0xbdcc8aa6	-0.099873826
90	0xbd6468f4	-0.055764154
91	0xbd40409d	-0.04693662
92	0xba923f3f	-0.0011157765
93	0xbd8760d7	-0.066102676
94	0xbc802034	-0.015640356
95	0xbd86328b	-0.06552609
96	0x3d0facf4	0.03507705
97	0x3ca388b4	0.019962646
98	0xbc78d6c9	-0.0151879275
99	0xbd138ba9	-0.036021862
100	0x3c7c8a9d	0.015413907
101	0xbce5a61b	-0.028033307
102	0x3c1da3b6	0.009621551
103	0x3c93ebea	0.018056829
104	0xbd09f4b2	-0.033680625
105	0x3b3c38f3	0.0028720468
106	0x3d24455c	0.04010521
107	0x3d18e262	0.03732527
108	0x3d11bfe5	0.035583396
109	0x3c858dca	0.016302962
110	0x3c57a69a	0.0131622795
111	0xbd8890e9	-0.066682644
112	0xbd6b6d4a	-0.057477273
113	0x3b8dadd0	0.0043236986
114	0xbc12d570	-0.00896202
115	0xbd8791b7	-0.0661959
116	0xbd4deec6	-0.05027654
117	0xbc4aaa8e	-0.012369765
118	0xbcdd0b93	-0.026983058
119	0x3d26da41	0.040735487
120	0xbd41d0f6	-0.04731842
121	0x3c74c37f	0.014939188
122	0x3ccedb26	0.025250982
123	0xbdd03108	-0.10165602
124	0xbd8547bd	-0.065078236
125	0xbd29ea36	-0.041483127
126	0x3cd47adf	0.025937496
127	0x3ca58c1a	0.020208407
128	0x3cb18ca2	0.021673504
129	0x3c853d5f	0.016264616
130	0xbda49746	-0.080366656
131	0x3cb2fb20	0.021848261
132	0x38a95021	8.073473e-05
133	0xbd8b3e62	-0.06799008
134	0xbd3ecc97	-0.04658183
135	0x3aa4dd03	0.0012578074
136	0xbd1ec994	-0.03876646
137	0x3d1993ac	0.037494346
138	0xbc807feb	-0.015685996
139	0xbd31d44f	-0.043415364
140	0x3ca32734	0.019916154
141	0xbc952485	-0.01820589
142	0xbd30c964	-0.04316081
143	0xbd395762	-0.04524935
144	0xbda63ca4	-0.08117035
145	0x3d29ec74	0.041485265
146	0xbd713fe0	-0.058898807
147	0xbd26f46f	-0.040760454
148	0xbd97e464	-0.07416609
149	0xbd9ffd7b	-0.078120194
150	0x3a133b04	0.0005616399
151	0xbd1c7dd9	-0.038205955
152	0xbc92b5b8	-0.017908916
153	0xbba64684	-0.005074324
154	0xbc984dd7	-0.018591804
155	0xbc929244	-0.01789201
156	0xbd6e5d1d	-0.05819427
157	0xbc991809	-0.018688219
158	0xbd59863a	-0.053106524
159	0xbd931585	-0.07181839
160	0x3b43ac73	0.0029857426
161	0xbb80e5e2	-0.003933654
162	0x3b7ed0c6	0.0038881763
163	0x3cb515a3	0.022105044
164	0xbc4de1aa	-0.01256601
165	0xbd5548f8	-0.05207154
166	0xbcf6bff7	-0.030120833
167	0xba87732b	-0.0010334005
168	0xbd48b563	-0.04900111
169	0xbd573939	-0.052544806
170	0x3d6ae85c	0.0573505
171	0xbceab2b8	-0.028649673
172	0xbce294de	-0.027658876
173	0x3ce13d8d	0.02749517
174	0xbd00b604	-0.031423584
175	0x3d316cb4	0.043316558
176	0xbd911221	-0.07083536
177	0xbcea79ca	-0.028622527
178	0xbd09bdc5	-0.033628244
179	0xbd386438	-0.04501745
180	0xbb4dadfc	-0.003138422
181	0xbd2180ec	-0.03942959
182	0xbd1ba200	-0.037996292
183	0xbab24f31	-0.0013603923
184	0xbabf62bc	-0.0014601569
185	0xbc8a58c0	-0.016888022
186	0xbd86f56a	-0.06589778
187	0x3b66032e	0.003509711
188	0xbd48250d	-0.04886346
189	0xbda60ac8	-0.08107525
190	0x3d3dd23d	0.046343077
191	0xbda2971e	-0.079389796
192	0x3d26cefe	0.040724747
193	0xbd9bc87b	-0.07606598
194	0x3b8a9d7a	0.0042301985
195	0xbcc71ef9	-0.024306761
196	0xbc679d88	-0.0141366795
197	0x3d533cae	0.05157154
198	0xbd669bc8	-0.05630091
199	0xbd8a3101	-0.06747628
200	0x3cdd8ec8	0.027045622
201	0xbb9118c9	-0.0044280034
202	0xbd717e02	-0.05895806
203	0xbc58c525	-0.013230597
204	0xbd7726c2	-0.060339697
205	0x3cb2a548	0.021807328
206	0xbc678e93	-0.014133113
207	0x3d417d7e	0.04723882
208	0x3d3543a1	0.04425395
209	0xbcca65b8	-0.024706706
210	0x3d54c373	0.051944207
211	0x3d08f3f2	0.03343577
212	0xbcaa8966	-0.02081747
213	0x3d27eb7e	0.040996067
214	0xbd61904a	-0.055069245
215	0xbd3a160a	-0.045431174
216	0xbcb52831	-0.022113891
217	0xbd150f90	-0.036391795
218	0xbba95bc1	-0.0051684086
219	0xbb9fb36b	-0.004873683
220	0xbcd14f0c	-0.025550388
221	0xbd86228b	-0.06549557
222	0xbdb6c398	-0.08924025
223	0xbd8e0be5	-0.069358625
224	0xbd0ee9ce	-0.034890942
225	0xbdad7a3e	-0.084705815
226	0x3c98fa7c	0.018674128
227	0x3cfaff2c	0.030639254
228	0xbd35c937	-0.044381347
229	0x3bcbece0	0.006223306
230	0xbd4aa2f2	-0.049471803
231	0x3d53e5bb	0.05173276
232	0x3d1b8b65	0.037974734
233	0xbd041800	-0.03224945
234	0x3c8cf6f3	0.017207598
235	0xbc64d380	-0.013966441
236	0x3ce01c68	0.027357295
237	0xba23ed1a	-0.00062532874
238	0xbd4bf296	-0.049791895
239	0xbd1590d6	-0.03651508
240	0xbc88908f	-0.016670493
241	0x3d77dea4	0.06051506
242	0xbc5a9976	-0.013342252
243	0x3ce3e307	0.027818216
244	0xb939c28b	-0.00017715448
245	0x3ccc01d8	0.024903223
246	0xbc976dd0	-0.01848498
247	0xbd78bc00	-0.060726166
248	0x3c9297a3	0.017894572
249	0xbd0ef988	-0.03490594
250	0xbc52c988	-0.012865432
251	0x3d3d45e8	0.046209246
252	0x3b290ef2	0.0025796262
253	0x3cb41f28	0.021987513
254	0xbd227fa6	-0.039672516
255	0x3c5fa870	0.0136509985

linear_relu_stack.3.bias f4 [256]
0	0xbcdbff35	-0.02685509
1	0x3db9e9b3	0.09077778
2	0x3d6df13d	0.05809139
3	0x3e1952e1	0.14973022
4	0x3dc5495b	0.09633132
5	0xbd65c58c	-0.0560966
6	0xbc7b28d3	-0.0153295575
7	0xbd47202b	-0.048614662
8	0xbd1cdc49	-0.038296018
9	0xbcbbd38a	-0.022928018
10	0xbcffbe81	-0.031218769
11	0x3e0a68c0	0.13516521
12	0xbd8e4a3f	-0.06947755
13	0xbe055130	-0.13019252
14	0xbd7030b4	-0.058640197
15	0x3d627797	0.05528983
16	0xbd52c562	-0.05145777
17	0xbcfc23fa	-0.030778874
18	0xbdf5fd2e	-0.12011181
19	0xbd8769c8	-0.06611973
20	0xbd6ec80a	-0.05829624
21	0xbd89ea19	-0.06734104
22	0xbd2cf6cb	-0.042227548
23	0xbd5f816e	-0.054566793
24	0x3ddd0d7c	0.107935876
25	0xbda1838a	-0.07886417
26	0xbd8a78df	-0.067613356
27	0xbcb9fba7	-0.022703005
28	0xbda400fe	-0.08008002
29	0xbd52d9ac	-0.05147712
30	0xbdb323c4	-0.08747056
31	0xbcc61107	-0.024178041
32	0xbd9af2d2	-0.075658455
33	0xbd8d6b80	-0.069052696
34	0xbd563993	-0.052301
35	0xbd857290	-0.06515992
36	0xbc483a7f	-0.012220978
37	0xbde7b2db	-0.11313411
38	0xbcebf037	-0.028801067
39	0xbe48360f	-0.19551872
40	0xbda76c42	-0.081749454
41	0xbda2c5a2	-0.07947852
42	0xbe4287fe	-0.1899719
43	0xbca0ffa9	-0.019653158
44	0xbc38020e	-0.011230959
45	0xbdabfb5c	-0.08397552
46	0xbd4c99dc	-0.04995142
47	0xbd519299	-0.051165197
48	0xbcf59c80	-0.029981852
49	0xbd6ec40a	-0.058292426
50	0x3d1b28e6	0.0378808
51	0xbdb288e6	-0.087175176
52	0xbc980281	-0.018555881
53	0xbdc45d34	-0.095880896
54	0xbda70f70	-0.08157241
55	0xbc0ad0b8	-0.008472614
56	0xbd3ea9a0	-0.046548486
57	0xbdb2d84e	-0.08732663
58	0xbd9ae3b7	-0.075629644
59	0x3e881f59	0.26586416
60	0xbd6c4d25	-0.05769076
61	0xbd9009a7	-0.07033091
62	0xbdcedfc1	-0.101012714
63	0xbdbca309	-0.09210784
64	0xbd70bb8a	-0.0587726
65	0xbd8f0440	-0.069832325
66	0xbcb45a0d	-0.022015596
67	0xbcff3cc6	-0.031156909
68	0xbc049a9d	-0.008093503
69	0xbd595ad9	-0.053065155
70	0xbd73715f	-0.05943429
71	0xbd8259e8	-0.063648045
72	0x3e93c042	0.2885762
73	0xbd2c2465	-0.042026896
74	0xbd203014	-0.03910835
75	0xbd64185a	-0.055687286
76	0x3cfceab9	0.030873643
77	0x3db70571	0.08936585
78	0xbd8629c5	-0.06550936
79	0xbd8c37c6	-0.068465754
80	0xbd95a930	-0.073076606
81	0xbd070227	-0.032961037
82	0xbd36d773	-0.044639062
83	0xbd69bb0c	-0.057063147
84	0xbd4bd929	-0.049767647
85	0xbda5130b	-0.08060273
86	0xbd848b23	-0.06471851
87	0xbcc5874a	-0.024112362
88	0xbda26f7d	-0.07931421
89	0xbc73e58f	-0.014886274
90	0xbd097ebe	-0.033568136
91	0xbd864d56	-0.065577194
92	0xbd8ccf0f	-0.06875431
93	0xbc833400	-0.016016006
94	0xbc611c41	-0.013739646
95	0xbd52bd5d	-0.051450122
96	0xbdbff95a	-0.09373732
97	0xbd881a06	-0.066455886
98	0xbd132f3d	-0.03593372
99	0xbda47a92	-0.08031191
100	0xbd085276	-0.033281766
101	0xbd99483e	-0.07484482
102	0x3ec535b8	0.38517547
103	0xbda9458a	-0.08265217
104	0xbd6cc5b4	-0.057805732
105	0xbd6d82c7	-0.057986047
106	0xbdaa71e2	-0.08322503
107	0xbd6781b9	-0.056520198
108	0xbd27aea9	-0.040938053
109	0xbdb86d7d	-0.09005258
110	0xbd9c0cc6	-0.07619624
111	0xbd9a528d	-0.075352766
112	0xbdc9e1f5	-0.09857551
113	0xbd8b4dee	-0.06801973
114	0xbd1af854	-0.03783448
115	0xbd87c309	-0.06628997
116	0xbdbd36bd	-0.09238956
117	0xbd2600de	-0.04052817
118	0xbd0b3622	-0.033987172
119	0xbd5c1f54	-0.053740814
120	0xba35d665	-0.00069365493
121	0xbd918076	-0.0710458
122	0xbd6bf8b9	-0.057610247
123	0x3d9115cb	0.07084235
124	0xbcc1aa48	-0.023640767
125	0xbd671c17	-0.056423273
126	0xbd9f9ce5	-0.07793597
127	0xbc9f9691	-0.019480975
128	0xbd7be0ef	-0.06149381
129	0xbd45ff93	-0.048339438
130	0xbd28cbfa	-0.041210152
131	0xbdb40f5e	-0.087919936
132	0xbd879927	-0.06621008
133	0x3e2b9d20	0.16759157
134	0xbd8bad26	-0.06820135
135	0xbd13c361	-0.036075
136	0xbd45fb76	-0.048335515
137	0xbdba4976	-0.09096043
138	0xbd88c9b5	-0.066790976
139	0xbe0aad25	-0.13542612
140	0xbd8e5a54	-0.069508225
141	0xbd9c1169	-0.07620508
142	0x3e5730fb	0.21014778
143	0xbd620934	-0.055184558
144	0xbd574363	-0.0525545
145	0xbdc0c30e	-0.09412204
146	0xbc26bc64	-0.010176752
147	0x3e4de2f2	0.20106104
148	0xbd372b6f	-0.044719156
149	0xbcdf20cc	-0.027237318
150	0xbd099473	-0.033588838
151	0xbd002e31	-0.03129405
152	0xbd9f9968	-0.07792932
153	0xbd838052	-0.064209595
154	0xbd639049	-0.055557523
155	0x3cda5c87	0.026655449
156	0xbd7f8638	-0.06238386
157	0xbe33400f	-0.17504905
158	0xbf0240f4	-0.5088036
159	0xbd33985c	-0.043846473
160	0xbd4c7074	-0.04991193
161	0xbd7d5105	-0.061844844
162	0xbda3e122	-0.08001925
163	0xbea9eb1d	-0.3318719
164	0xbd944a35	-0.07240716
165	0xbd9b2f49	-0.07577378
166	0xbd255677	-0.040365662
167	0xbdaa9317	-0.083288364
168	0xbd30597c	-0.04305409
169	0x3db0e879	0.08638091
170	0xbd3bea6f	-0.04587787
171	0x3d76ef5a	0.060286857
172	0xbd3e42e9	-0.04645053
173	0xbd874161	-0.06604267
174	0xbcf19cee	-0.029493775
175	0xbd6b7521	-0.05748475
176	0xbd689d16	-0.056790434
177	0x3c969b1b	0.018384507
178	0xbd3e1d36	-0.046414576
179	0xbe4cb45e	-0.1999068
180	0xbd60c027	-0.05487075
181	0x3d43f288	0.047838718
182	0xbcb36a71	-0.021901341
183	0xbdc3b57f	-0.09556102
184	0xbdb02cac	-0.086022705
185	0xbd6bd3e8	-0.057575136
186	0xbd9f7940	-0.077867985
187	0xbd081ea5	-0.03323235
188	0xbe076fdd	-0.13226266
189	0xbdc173bd	-0.094459035
190	0x3e0661df	0.13123272
191	0x3e01aac9	0.12662806
192	0xbd98117e	-0.07425211
193	0xbd341975	-0.04396959
194	0xbe1394ed	-0.1441228
195	0xbcacf9f1	-0.021115275
196	0xbd1aea82	-0.0378213
197	0xbcd3b213	-0.025841748
198	0xbd1540ae	-0.036438636
199	0xbda9d308	-0.08292204
200	0xbd4f4a5e	-0.05060803
201	0xbda0a9f1	-0.07844914
202	0xbcdbcedc	-0.026832037
203	0xbdae8e79	-0.08523268
204	0xbd0668b5	-0.0328147
205	0x3ddd5ce6	0.108087346
206	0xbd139ec1	-0.03604007
207	0xbd5e5cc3	-0.054287683
208	0xbcd9bc47	-0.026579035
209	0xbd2d1e89	-0.04226545
210	0xbd3f6e0c	-0.04673581
211	0xbd9bdbdd	-0.07610295
212	0xbd8711e3	-0.065952085
213	0xbd844a67	-0.064595036
214	0xbe229800	-0.15878296
215	0xbc66bfa4	-0.014083777
216	0xbdc2688f	-0.09492599
217	0xbd6d2df8	-0.057905167
218	0xbd100e11	-0.035169665
219	0x3e90671b	0.28203663
220	0xbd807e7b	-0.06274124
221	0xbd1d13b6	-0.038348876
222	0xbcea27eb	-0.028583487
223	0xbcf44dab	-0.029822191
224	0xbcf679b1	-0.030087324
225	0xbd0a4c8a	-0.0337644
226	0xbc95d82a	-0.018291552
227	0xbce7600a	-0.028244037
228	0xbd8fc702	-0.070203796
229	0x3d5c53c7	0.053790834
230	0xbdc41b85	-0.095755614
231	0xbd93556c	-0.07194027
232	0xbb59c9c8	-0.0033231843
233	0xbf28b903	-0.65907305
234	0xbc87a79f	-0.01655942
235	0xbd995476	-0.07486813
236	0xbd8138b2	-0.06309642
237	0xbd92fcb9	-0.07177109
238	0xbd9307ec	-0.07179245
239	0xbd736fb2	-0.059432693
240	0xbdcea9bb	-0.10090967
241	0xbde950c9	-0.11392362
242	0xbc9ce021	-0.019149842
243	0xbdc98474	-0.098397166
244	0xbcebbc70	-0.028776377
245	0xbc768d37	-0.015048317
246	0xbc82fb3f	-0.015988944
247	0xbd7d5395	-0.06184729
248	0xbd2385aa	-0.039922394
249	0xbd1741e1	-0.03692806
250	0xbe0b9df0	-0.13634467
251	0xbd13e0b3	-0.03610296
252	0xbcf11bef	-0.029432265
253	0xbcdacdd4	-0.026709475
254	0xbcf1f59d	-0.029536063
255	0xbda5c196	-0.08093564

linear_relu_stack.6.weight f4 [2, 256]
0	0xbc3e0670	-0.0115982145
1	0x3f67af4a	0.90501845
2	0xbc45db09	-0.012076148
3	0xbdb333e8	-0.08750135
4	0xbe999682	-0.2999764
5	0xbcbbe097	-0.022934241
6	0xbbe0006d	-0.0068359883
7	0x3c916ff0	0.017753571
8	0x3c8d3023	0.017234867
9	0x3aca1940	0.0015418902
10	0x3f17c7b8	0.5928912
11	0x3d1a8ac0	0.03772998
12	0xbd1c0e76	-0.03809973
13	0xbd3abc7a	-0.0455899
14	0x3cffcfec	0.031227075
15	0x3eddb1b9	0.43299654
16	0xbc75f9cc	-0.0150131695
17	0x3ce1d445	0.027567038
18	0xbc965732	-0.018352125
19	0x3b7a3b74	0.003818241
20	0xbc549aa4	-0.012976322
21	0xbcd8d862	-0.026470367
22	0x3d369de4	0.04458417
23	0x3cc8904c	0.024482869
24	0x3d89f23d	0.067356564
25	0x3c9eef71	0.019401284
26	0x3c8969fa	0.016774166
27	0x3cb84a9f	0.02249652
28	0xbbd6cb8f	-0.006555028
29	0xbc886625	-0.016650269
30	0x3ca57ce6	0.020201158
31	0xbcc0b421	-0.023523392
32	0x3cbb6fbe	0.022880431
33	0x3ca881d1	0.020569714
34	0x3c8841f7	0.016633017
35	0x3cd48725	0.025943348
36	0x3dd21035	0.102569975
37	0x3cefb239	0.029259788
38	0xbb586357	-0.0033018196
39	0x3c416c1b	0.0118055595
40	0xba8dfd01	-0.0010832847
41	0x3c27a57e	0.0102323275
42	0x3c1a3524	0.009412084
43	0x3c41c2a5	0.011826192
44	0x3c2d88cd	0.010591698
45	0x3ccea341	0.02522433
46	0xbb616477	-0.0034392157
47	0x3ce26a0b	0.027638456
48	0xbc6f6282	-0.014610888
49	0x3cf7f4cf	0.030268101
50	0x3efb93e2	0.49136263
51	0xbcd0403c	-0.025421254
52	0xbd17fbad	-0.03710525
53	0x3a85de2b	0.0010213306
54	0x3be6f06b	0.007047703
55	0xbbde5dde	-0.006786092
56	0xbcb8bbe9	-0.02255054
57	0x3cf331b4	0.029686786
58	0xbca9637b	-0.020677319
59	0x3e0e3106	0.13885888
60	0x3c334e52	0.010943966
61	0xbcaa3bf9	-0.02078055
62	0x3c3a8b1a	0.011385703
63	0xbb5c3ce4	-0.003360563
64	0xbce12df5	-0.027487734
65	0x3d3f2305	0.046664257
66	0x3c05f11a	0.008175159
67	0xbcaf83d0	-0.021425158
68	0xbc900614	-0.017581023
69	0xbc08ac6b	-0.008341889
70	0xbc2e6d5b	-0.01064619
71	0xbc2f87f1	-0.010713563
72	0xbe8097d7	-0.25115845
73	0x3ede8f02	0.4346848
74	0xbab0f507	-0.0013500758
75	0xbd3f4046	-0.046692155
76	0xbe802ea7	-0.25035593
77	0xbe36419e	-0.17798468
78	0x3c5a2e96	0.013316771
79	0x3b06889f	0.002052821
80	0xbbb05fcf	-0.005382515
81	0x3c94033b	0.018067947
82	0xb7b4fa21	-2.1574147e-05
83	0x3a9bf90a	0.0011899781
84	0xbcd40463	-0.025880998
85	0x3d4d95c7	0.050191667
86	0x3ca9b456	0.020715874
87	0x3b5fac02	0.0034129624
88	0xbd767ccf	-0.06017762
89	0xbac4841f	-0.0014992988
90	0xba3c3117	-0.0007178946
91	0x3d4fa5f1	0.050695363
92	0x3c8b1556	0.016977947
93	0x3c0381ef	0.008026584
94	0x3b961a69	0.004580785
95	0x3c550f00	0.013004065
96	0xbbd73a9c	-0.006568266
97	0x3cee340e	0.029077556
98	0x3b03c5a4	0.0020106817
99	0x3c8383b6	0.016054016
100	0xbc161654	-0.009160597
101	0xbbd840f4	-0.00659954
102	0xbe94ae34	-0.29039156
103	0x3c1a2ee9	0.009410598
104	0xbbc099d2	-0.005877712
105	0xbd5a876a	-0.053351797
106	0x3a87fe00	0.001037538
107	0x3bcd2395	0.006260345
108	0x3c8678d7	0.016415043
109	0x3d608ae6	0.054819964
110	0x3b481ed5	0.0030535955
111	0x3a1bf1a5	0.00059487886
112	0x3baf8f99	0.0053576943
113	0xbd4545ac	-0.048162147
114	0xbc48b63c	-0.012250479
115	0xbccffed7	-0.025390072
116	0x3ac77cd8	0.0015219701
117	0x3d253327	0.040331986
118	0x3d239bcd	0.039943505
119	0xbb3a6cfb	-0.0028446305
120	0x3b83fa78	0.004027661
121	0xbc219a36	-0.009863427
122	0xbced878f	-0.028995303
123	0x3e27e0f7	0.16394411
124	0x3b82dc4c	0.0039935466
125	0x3a2bb8cd	0.000655067
126	0x3cbdc287	0.023164047
127	0xbd0b5715	-0.034018595
128	0xbce83603	-0.028346067
129	0x3ca3aa04	0.01997853
130	0x3d5341f8	0.051576585
131	0x3d541fe4	0.051788226
132	0xbd388dc9	-0.04505709
133	0x3f49865c	0.7872064
134	0x3c718f8d	0.014743698
135	0x3c8fee98	0.017569825
136	0x3c9695cb	0.018381974
137	0xbcf95d39	-0.03043996
138	0xbd0af479	-0.033924554
139	0x3cb6b258	0.022301838
140	0xbc8efb81	-0.01745391
141	0x3cc8aac1	0.024495484
142	0x3e16293f	0.14664172
143	0x3c98c489	0.018648403
144	0xbd031fc7	-0.032012727
145	0x3b950801	0.0045480733
146	0xbceb0828	-0.028690413
147	0x3ddcccaf	0.10781228
148	0xbcaad865	-0.020855138
149	0xbcdbd7b5	-0.026836256
150	0xbc7a64b4	-0.015282799
151	0xbc8ad405	-0.016946802
152	0xbc312811	-0.010812775
153	0xbcaa6272	-0.020798896
154	0x39e28d68	0.00043211435
155	0xbf1997c2	-0.5999719
156	0xbcbffdf9	-0.023436533
157	0x3c9de98d	0.019276405
158	0xbd9f739c	-0.077857226
159	0x3c572919	0.013132357
160	0x3cae0d25	0.021246502
161	0xbcf71116	-0.030159514
162	0xbcba77f3	-0.022762274
163	0x3af9b07e	0.0019049791
164	0xbaa5b88e	-0.0012643503
165	0x3c325e8d	0.0108868005
166	0xbcd608a1	-0.026127161
167	0xbcae6fe7	-0.021293594
168	0xbc748f38	-0.014926724
169	0xbe804175	-0.2504994
170	0xbc436fa2	-0.011928471
171	0xbc687c3e	-0.014189778
172	0x3cea9412	0.028635059
173	0x3d019414	0.03163536
174	0xbd1dba00	-0.03850746
175	0xbc091e9e	-0.008369116
176	0xbcfda12c	-0.030960642
177	0x3e00f635	0.1259392
178	0xbc7ea731	-0.015542791
179	0xbe3933d4	-0.18086177
180	0x3c96057c	0.018313162
181	0x3ec37d70	0.3818164
182	0xbd0217ce	-0.031760983
183	0xbb14aa47	-0.00226845
184	0xbd03cfe9	-0.0321807
185	0x3d729b42	0.059230097
186	0x3bfdaff8	0.0077419244
187	0xbc7fd905	-0.015615706
188	0x3e37824b	0.17920797
189	0xbe57178b	-0.21005075
190	0xbe85e2aa	-0.26149493
191	0x3d0a4e59	0.033766124
192	0x3cc82f57	0.024436636
193	0xbcb29ed7	-0.021804256
194	0x3c381c9d	0.011237291
195	0x3bcea981	0.0063068275
196	0xbcea41b0	-0.028595775
197	0x3ceacdae	0.028662529
198	0x39d6aadc	0.0004094456
199	0x3cb68f99	0.02228527
200	0x3cc5f5b2	0.024165008
201	0xbca5a9db	-0.020222595
202	0xbbf05c36	-0.007335211
203	0xbc062317	-0.008187077
204	0x3c941608	0.018076912
205	0xbe673835	-0.22580035
206	0x3d22ab92	0.039714403
207	0x3c62caa9	0.013842263
208	0xbba4d866	-0.0050306795
209	0xbc0317be	-0.008001266
210	0xbcc54a6e	-0.024083342
211	0x3c88396f	0.016628949
212	0x3cd7b9ca	0.026333708
213	0xbbf2bf7e	-0.0074080816
214	0xbcf2c2d1	-0.029633911
215	0x3c824997	0.015904231
216	0x3c9b6cdf	0.018972812
217	0xbcd12ea4	-0.025534935
218	0xbd31343d	-0.04326271
219	0x3e56a03d	0.20959564
220	0xba221e8b	-0.0006184361
221	0xbc6454d5	-0.013936241
222	0xbef48bb4	-0.47762835
223	0xbc91aba6	-0.017782044
224	0x3c606a34	0.013697196
225	0xbcba601d	-0.022750909
226	0xbb5142b1	-0.003193062
227	0xbd3c8278	-0.046022862
228	0x3ba338ad	0.0049811215
229	0x3e0e3ca8	0.13890326
230	0xbb426569	-0.0029662496
231	0xbc1c9cb8	-0.009558849
232	0xbc97a7cf	-0.018512635
233	0xbe2f7b88	-0.17136967
234	0xbedbcce6	-0.42929763
235	0xbcd60d1d	-0.0261293
236	0xbcd5b9a2	-0.026089493
237	0xbd3ff858	-0.0468677
238	0xbc28de7a	-0.010306949
239	0xbcc2245c	-0.023698978
240	0x3c6ffaef	0.01464723
241	0xbc08bad4	-0.008345325
242	0xbd206ea0	-0.039168
243	0xbaa15721	-0.0012309292
244	0xbcb92200	-0.02259922
245	0xbc9dfb8b	-0.019284984
246	0x3d77ee7a	0.060530163
247	0x3c6616be	0.014043508
248	0xbc0d762d	-0.008634132
249	0xbc915512	-0.01774076
250	0xbc5d3684	-0.013501767
251	0xbc875520	-0.016520083
252	0xb9eb1afc	-0.00044842798
253	0x3f863069	1.0483524
254	0xbcbe9a9a	-0.02326708
255	0xbc5672c6	-0.013088888

linear_relu_stack.6.bias f4 [2]
0	0x3f06cb26	0.5265373
1	0x3edbbfd0	0.4291978
