Assets/ONNX/ffn.onnx (onnx, 405247 bytes, 6 tensors)

linear_relu_stack.0.weight f4 [256, 135]
0.06971878 -0.37802082 -0.3865123 -0.899785 0.52887154 -0.73850167 0.0058982577 -0.07618497
-0.046495065 -0.079068854 -0.005830391 -0.02620315 0.07637551 -0.034182966 -0.075559504 0.1194582
-0.0021432114 0.028408274 0.004794326 -0.17980257 -0.072414875 0.027132958 -0.0039608977 -0.063781165
-0.062836796 -0.06912662 -0.034809064 0.007826132 -0.034767747 -0.045637574 0.019184666 -0.12517942
0.042933743 0.015342239 0.08116475 0.028143268 0.0033416252 -0.0945744 -0.13064559 -0.09647774
0.027608 -0.0046571954 0.05083016 -0.050505288 0.041902028 -0.008276489 -0.017911293 -0.016718283
-0.00067839224 -0.06163638 -0.030363811 -0.14375167 0.070143744 0.00038657145 -0.17304559 0.01610062
-0.007297418 0.058219157 -0.07851753 -0.06592132 -0.046604566 -0.047606852 0.10285164 0.09722931
-0.061371345 0.011590138 -0.06788246 0.1499742 0.033636652 -0.0017725118 -0.032267094 -0.082247004
0.059696652 0.44246966 -0.040740807 -0.04085473 -0.030020252 -0.078506425 -0.10922314 -0.08960796
0.06130562 0.052905288 -0.08017105 -0.040960938 0.050113287 -0.015272839 -0.11578078 -0.27015114
-0.099202074 0.010972745 -0.081477664 -0.04415638 -0.0003089012 0.0053686686 0.035957977 0.006248171
-0.10871533 0.0016442008 -0.20790808 0.03672806 0.032695953 0.027698675 -0.041184388 -0.07284041
-0.043966774 -0.04243006 -0.12960468 -0.09410348 0.044413075 -0.031021757 0.0070975637 0.012798256
0.062011283 -0.07650276 0.07369138 0.29983333 0.030309254 -0.032458805 -0.0013412604 -0.09765516
0.02517335 0.0023229092 -0.06489903 0.029127954 -0.015449823 -0.058865126 -0.041646075 0.058324855
0.013662639 -0.033371918 0.05152215 -0.07641579 0.022571232 -0.078279145 -0.08976607 0.06085565
-0.13871624 0.0233835 0.00032060174 -0.14594889 -0.021204894 -0.1107461 0.028791783 -0.04240472
-0.04968644 0.08141776 0.056564294 0.05467737 -0.059378974 -0.026673203 -0.12992437 -0.025569422
0.025491614 -0.0025459963 -0.12263199 0.04543703 -0.04307104 -0.057424344 -0.022635862 0.07955408
-0.111555785 0.00012772247 0.038756978 -0.15028192 -0.024364004 -0.046699822 0.021409407 -0.042434882
0.009831451 0.02711511 -0.034431566 0.0104238745 -0.0016980099 -0.09005853 -0.04224459 -0.084868744
0.0024841132 0.06059529 -0.10014148 -0.09913462 -0.01722691 0.047105163 -0.04326034 -0.06552765
-0.11103398 -0.046705306 -0.03863434 -0.032550313 -0.038874663 -0.24206348 0.029988676 -0.046728328
0.009256457 -0.017803228 -0.07723689 -0.061711755 -0.06446137 -0.04320068 -0.15349218 0.030447239
-0.02236212 0.004920776 -0.066055454 -0.048980713 -0.044800572 0.050768923 -0.11466328 0.018899491
0.04478274 -0.10599852 -0.109539725 -0.12468156 -0.06166365 -0.062037483 -0.057499222 -0.04174729
0.03509432 0.068909064 0.04884174 0.0034759801 -0.087907486 -0.017885042 -0.002029334 0.0006369325
-0.035887975 -0.0031071166 0.04908114 -0.10929881 -0.08085461 -0.057768058 -0.0053682616 0.07420188
0.031940736 -0.14352566 0.0017547002 -0.12920268 -0.07163058 -0.0061267233 0.0024933333 -0.026597923
0.030754965 -0.07109747 -0.04731612 -0.009648873 0.017768849 -0.05129706 -0.04779968 -0.010472443
-0.004113107 -0.06455084 -0.06121325 0.0388598 -0.009802656 -0.038162593 -0.06314017 0.08847499
00000000: b8c8 8e3d f28b c1be f1e4 c5be 4f58 66bf
00000010: 2064 073f 720e 3dbf 2c46 c13b de06 9cbd
00000020: 9c71 3ebd daee a1bd dd0c bfbb fda7 d6bc
00000030: c36a 9c3d 7003 0cbd f1be 9abd 80a6 f43d
00000040: 1f75 0cbb 78b8 e83c b919 9d3b 2a1e 38be
00000050: 404e 94bd f045 de3c 6bca 81bb b39f 82bd
00000060: 94b0 80bd 4292 8dbd f393 0ebd 2d39 003c
00000070: a068 0ebd 77ee 3abd 2929 9d3c 092f 00be
00000080: 4bdb 2f3d 045e 7b3c b439 a63d b68c e63c
00000090: 2bff 5a3b 39b0 c1bd f5c7 05be 1f96 c5bd
000000a0: 2c2a e23c 639b 98bb 4933 503d a2de 4ebd
000000b0: 76a1 2b3d 1c9a 07bc b4ba 92bc c8f4 88bc
000000c0: 22d6 31ba 6e76 7cbd 87bd f8bc a333 13be
000000d0: 86a7 8f3d beac ca39 dd32 31be 73e5 833c
000000e0: 2e1f efbb 3677 6e3d cccd a0bd c201 87bd
000000f0: 6ee4 3ebd 67ff 42bd e1a3 d23d 2920 c73d
00000100: 8560 7bbd 90e4 3d3c f605 8bbd d692 193e
00000110: 96c6 093d a053 e8ba 802a 04bd 1e71 a8bd
00000120: 7a84 743d 628b e23e d5df 26bd 4a57 27bd
00000130: 08ed f5bc fac7 a0bd 62b0 dfbd 6184 b7bd
00000140: 9a1b 7b3d 37b3 583d b830 a4bd a8c6 27bd
00000150: 9743 4d3d ee3a 7abc 791e edbd 4051 8abe
00000160: 752a cbbd 07c7 333c c3dd a6bd 52dd 34bd
00000170: 04f4 a1b9 a8eb af3b ac48 133d 75bd cc3b
00000180: 25a6 debd 3982 d73a dbe5 54be 2a70 163d
00000190: 31ec 053d 55e8 e23c f6b0 28bd 5a2d 95bd
000001a0: 8116 34bd 25cb 2dbd 17b7 04be 53b9 c0bd
000001b0: 7cea 353d 5721 febc ae92 e83b c7af 513c
000001c0: 8bff 7d3d 7bad 9cbd 82eb 963d c183 993e
000001d0: 1d4b f83c 86f3 04bd 3bcd afba 6eff c7bd
000001e0: 5738 ce3c f33b 183b c8e9 84bd bf9d ee3c
000001f0: 4121 7dbc 8f1c 71bd 1395 2abd 0be6 6e3d
00000200: 43d9 5f3c feb0 08bd e408 533d e27f 9cbd
00000210: 4ee7 b83c d150 a0bd 46d7 b7bd c643 793d
00000220: a10b 0ebe c18e bf3c 7016 a839 a073 15be
00000230: e3b5 adbc dace e2bd bfdc eb3c 92b0 2dbd
00000240: 0284 4bbd 5bbe a63d f6af 673d 61f5 5f3d
00000250: 5e37 73bd c381 dabc e50a 05be f776 d1bc
00000260: cad3 d03c bbda 26bb 7b26 fbbd 2e1c 3a3d
00000270: 426b 30bd ca35 6bbd d86e b9bc 40ed a23d
00000280: 5c77 e4bd 3ded 0539 a3bf 1e3d 81e3 19be
00000290: 0597 c7bc 5048 3fbd c862 af3c 33d0 2dbd
000002a0: 1814 213c 8220 de3c 1d08 0dbd e6c8 2a3c
000002b0: c28f deba 9b70 b8bd aa08 2dbd aacf adbd
000002c0: 81cc 223b c432 783d fa16 cdbd 1707 cbbd
000002d0: 731f 8dbc 58f1 403d c131 31bd 5c33 86bd
000002e0: c965 e3bd 104e 3fbd 0b3f 1ebd 7a53 05bd
000002f0: 0a3b 1fbd 7ddf 77be d0aa f53c 3466 3fbd
00000300: 65a8 173c 13d8 91bc 602e 9ebd 77c5 7cbd
00000310: 5304 84bd 32f3 30bd 0e2d 1dbe 7d6c f93c
00000320: c430 b7bc 763e a13b 1548 87bd 00a0 48bd
00000330: ce80 37bd 13f3 4f3d 95d4 eabd 1bd3 9a3c
00000340: 1b6e 373d c115 d9bd 5d56 e0bd 0c59 ffbd
00000350: 0693 7cbd 041b 7ebd 4e84 6bbd 35ff 2abd
00000360: 10bf 0f3d 3220 8d3d 470e 483d 45cd 633b
00000370: d708 b4bd a783 92bc 93fe 04bb d1f7 263a
00000380: 45ff 12bd c4a0 4bbb 4e09 493d 0ed8 dfbd
00000390: 1a97 a5bd 339e 6cbd 3ee8 afbb 28f7 973d
000003a0: 4ad4 023d 64f8 12be f8fd e53a b54d 04be
000003b0: 0eb3 92bd aec2 c8bb 3167 233b e3e3 d9bc
000003c0: d6f1 fb3c 8d9b 91bd 8cce 41bd 4e16 1ebc
000003d0: fa8f 913c de1c 52bd 99c9 43bd 9c94 2bbc
000003e0: 3ec7 86bb 3b33 84bd bfba 7abd 742b 1f3d
000003f0: 529b 20bc 6150 1cbd a24f 81bd 6032 b53d

linear_relu_stack.0.bias f4 [256]
-0.35491395 -0.057186324 -0.046145674 -0.11995158 -0.10101584 -0.07798934 -0.076939225 -0.2564806
0.028701685 -0.057966076 -0.0440234 0.069341645 -0.08274961 -0.14974807 -0.072918616 -0.19389106
-0.16386835 -0.09990433 -0.028501227 -0.13681538 -0.045567475 -0.07070226 -0.10455548 -0.09592197
-0.13232446 -0.027948674 -0.17674053 -0.30950668 -0.08488466 -0.34009683 -0.068801664 -0.030452503
-0.09605495 0.30161494 -0.13606374 -0.02882332 -0.008202567 -0.36734676 -0.1231446 -0.09548258
-0.03925197 -0.110667214 0.010353008 -0.17935097 0.10452326 -0.07270112 -0.10297497 -0.10645884
-0.46822613 -0.08022194 -0.062079273 -0.087898634 -0.21808155 -0.05572408 -0.041873198 -0.040407825
-0.20239137 -0.13971297 -0.10735534 -0.08067576 -0.049029365 -0.04681049 -0.020699978 -0.12457631
-0.04598759 -0.12878889 -0.31216687 -0.056114532 -0.054301348 -0.04225735 -0.05542714 -0.0839615
0.26976818 -0.15286204 -0.055465892 0.06498171 -0.086104035 -0.4707237 -0.096100286 -0.16438766
-0.078624696 -0.13406058 -0.17843075 -0.48255256 -0.10204716 -0.09545149 -0.09493097 -0.035607766
-0.037510216 -0.075236775 -0.051392063 0.089171916 -0.06769065 -0.13251841 -0.13645405 -0.057723455
-0.116449125 -0.20307297 -0.06904943 -0.16786276 -0.08453496 -0.13993819 -0.19014089 -0.016267655
-0.04341191 -0.09107299 -0.19869694 -0.08862131 -0.11312195 -0.50140786 0.15929136 -0.101151854
-0.14390907 -0.09884331 -0.061929736 -0.05953497 -0.23091792 -0.10804905 -0.074909456 -0.1237537
-0.08317238 -0.077924326 -0.07956329 0.37542754 -0.23324612 -0.15517835 -0.089542024 -0.010134165
-0.036931194 -0.16146523 -0.055857588 -0.11271711 -0.07614782 -0.026158752 -0.0442189 -0.083271295
-0.11617631 -0.048020873 -0.084807985 -0.023720682 -0.06631946 -0.14348115 -0.29232058 0.20293035
-0.05836642 -0.09738534 -0.7862834 -0.076119915 -0.07770811 -0.06723582 -0.056716308 -0.15244907
-0.02134976 -0.042327803 -0.29319608 -0.018985476 -0.04912293 -0.5201295 -0.013231501 0.02414633
-0.043296903 -0.117089465 -0.009787919 -0.04617692 -0.02873673 -0.13726309 -0.06490666 -0.06028533
-0.052936032 -0.09027331 -0.07508846 -0.10594564 -0.114725895 -0.07450863 -0.109932914 -0.07925947
-0.08594177 -0.0912121 -0.08379934 0.13046278 -0.04898491 -0.17998789 -0.040661965 -0.11204666
-0.06668093 0.12954836 -0.0553347 -0.37123507 -0.060263354 -0.0914131 0.29515418 -0.07571136
-0.10140474 -0.051542245 -0.038949933 -0.103150785 -0.033512797 0.1040893 -0.049303826 -0.08120163
-0.054929372 -0.09503159 -0.10681364 -0.05939701 -0.06720772 -0.083765164 -0.02763896 -0.029140444
-0.07040709 -0.12018493 -0.083568476 -0.06839816 -0.14739084 -0.06956643 -0.042453513 -0.042233486
-0.06755336 -0.07315975 -0.14865772 -0.08883181 -0.11058231 -0.017799683 0.4092103 -0.08898366
-0.08664297 -0.14784169 -0.09131577 -0.047754936 -0.12419548 -0.16745086 -0.12685534 -0.09155377
-0.048831567 -0.14961378 -0.064516075 0.053490482 -0.037100222 -0.12012191 -0.09905424 -0.052179318
-0.1183417 -0.17469591 -0.08310909 -0.032236964 -0.09785027 -0.0852452 -0.11169312 -0.08991161
0.124069944 -0.066769786 -0.098665476 -0.2339702 -0.19568554 -0.12594907 -0.08552135 -0.44512317
00000000: 48b7 b5be 353c 6abd 3f03 3dbd 2da9 f5bd
00000010: 65e1 cebd e0b8 9fbd 5092 9dbd 6d51 83be
00000020: cc1f eb3c d66d 6dbd e151 34bd fe02 8e3d
00000030: a178 a9bd 8f57 19be 5b56 95bd 618b 46be
00000040: 1bcd 27be a49a ccbd 687b e9bc 5519 0cbe
00000050: f6a4 3abd 59cc 90bd 2f21 d6bd bd72 c4bd
00000060: 1080 07be 9ef4 e4bc 78fb 34be a977 9ebe
00000070: 02d8 adbd 2c21 aebe e3e7 8cbd 8777 f9bc
00000080: 75b8 c4bd 466d 9a3e 4b54 0bbe e21e ecbc
00000090: 0f64 06bc e014 bcbe 3c33 fcbd 5f8c c3bd
000000a0: acc6 20bd 7ea5 e2bd aa9f 293c c8a7 37be
000000b0: 4a10 d63d 53e4 94bd 8be4 d2bd 1807 dabd
000000c0: 56bb efbe 674b a4bd d646 7ebd 3304 b4bd
000000d0: c550 5fbe ef3e 64bd 3b83 2bbd ad82 25bd
000000e0: af3f 4fbe eb10 0fbe 1edd dbbd 5539 a5bd
000000f0: 04d3 48bd 5bbc 3fbd 0093 a9bc dd21 ffbd
00000100: 7c5d 3cbd 3ce1 03be 56d4 9fbe 5ad8 65bd
00000110: 176b 5ebd 0b16 2dbd 9207 63bd 02f4 abbd
00000120: 0e1f 8a3e de87 1cbe 3430 63bd 2115 853d
00000130: 5057 b0bd b202 f1be 3ad0 c4bd 3d55 28be
00000140: fc05 a1bd 2d47 09be 8db6 36be 2111 f7be
00000150: 1afe d0bd 127c c3bd 2b6b c2bd 73d9 11bd
00000160: 50a4 19bd bd15 9abd 7c80 52bd c49f b63d
00000170: 65a1 8abd e8b2 07be 9cba 0bbe 6e6f 6cbd
00000180: e17c eebd 5cf2 4fbe ca69 8dbd 37e4 2bbe
00000190: aa20 adbd f54b 0fbe 4bb4 42be bf43 85bc
000001a0: b0d0 31bd 7a84 babd 3677 4bbe 177f b5bd
000001b0: 7bac e7bd 445c 00bf 461d 233e b428 cfbd
000001c0: e65c 13be 5c6e cabd 09aa 7dbd f1da 73bd
000001d0: bf75 6cbe d248 ddbd 216a 99bd 9472 fdbd
000001e0: 4856 aabd ca96 9fbd 14f2 a2bd 0a38 c03e
000001f0: 12d8 6ebe 13e7 1ebe cf61 b7bd c509 26bc
00000200: 2a45 17bd 2457 25be edca 64bd 3ad8 e6bd
00000210: 63f3 9bbd e14a d6bc e11e 35bd 248a aabd
00000220: d8ed edbd 89b1 44bd cfaf adbd e051 c2bc
00000230: 7fd2 87bd b9ec 12be 0bab 95be f9cc 4f3e
00000240: a111 6fbd f771 c7bd de49 49bf c2e4 9bbd
00000250: 6e25 9fbd efb2 89bd 5c4f 68bd 9c1b 1cbe
00000260: b1e5 aebc eb5f 2dbd cc1d 96be 6e87 9bbc
00000270: 2035 49bd 3527 05bf f0c8 58bc 86ce c53c
00000280: 1858 31bd 9acc efbd 825d 20bc 0324 3dbd
00000290: 4a69 ebbc b28e 0cbe c8ed 84bd c0ed 76bd
000002a0: 74d3 58bd 37e1 b8bd fbc7 99bd 07fa d8bd
000002b0: 69f5 eabd fb97 98bd 8224 e1bd ca52 a2bd
000002c0: 3d02 b0bd 69cd babd fd9e abbd 0998 053e
000002d0: 67a4 48bd bf4e 38be 298d 26bd b878 e5bd
000002e0: 0390 88bd 53a8 043e a3a6 62bd 8612 bebe
000002f0: b5d6 76bd cb36 bbbd 731e 973e 8f0e 9bbd
00000300: 4aad cfbd f61d 53bd f789 1fbd b840 d3bd
00000310: b744 09bd c52c d53d cff2 49bd 0a4d a6bd
00000320: 9ffd 60bd ec9f c2bd 1cc1 dabd 474a 73bd
00000330: 33a4 89bd 128d abbd 1a6b e2bc f1b7 eebc
00000340: 9831 90bd 8423 f6bd f325 abbd 5614 8cbd
00000350: a0ed 16be d878 8ebd bce3 2dbd 05fd 2cbd
00000360: 6a59 8abd c7d4 95bd bb39 18be 74ed b5bd
00000370: fa78 e2bd a4d0 91bc 0384 d13e 113d b6bd
00000380: df71 b1bd d063 17be c303 bbbd ae9a 43bd
00000390: 335a febd 3d78 2bbe 5ee6 01be 8b80 bbbd
000003a0: 9c03 48bd 5b34 19be 0121 84bd d618 5b3d
000003b0: 67f6 17bd 7a02 f6bd f3dc cabd fbb9 55bd
000003c0: 225d f2bd 7ce3 32be 1935 aabd e80a 04bd
000003d0: b965 c8bd 0995 aebd 5dbf e4bd 9423 b8bd
000003e0: 6218 fe3d 99be 88bd 2011 cabd e295 6fbe
000003f0: ca61 48be cbf8 00be d125 afbd 2fe7 e3be

linear_relu_stack.3.weight f4 [256, 256]
-0.07721493 0.018468712 -0.03450064 0.0536148 0.006820754 0.028751539 -0.08388201 -0.04738198
-0.063903496 0.015857628 -0.06829814 -0.06444068 0.02410805 -0.059448503 -0.066897795 -0.06440542
-0.0005527709 0.04232652 -0.02928335 0.018516824 -0.05400476 0.020128477 -0.0023442083 -0.06446747
-0.049584847 0.06732256 0.024196804 -0.028039666 0.016054498 0.04725002 -0.057224818 0.018823989
0.0111008305 -0.047757354 -0.023927484 -0.022357514 -0.003995501 0.027889326 -0.05181684 -0.007903738
0.05624985 -0.020309445 -0.08468799 -0.0680124 0.02397764 -0.008120609 0.018126965 0.060279537
-0.057068888 -0.019819664 0.0009153724 0.053022426 -0.0630743 0.0028701352 -0.04221934 -0.007935131
-0.006691226 -0.05712329 -0.02361768 0.010696381 -0.038004614 0.0032173109 -0.025382195 -0.026246391
-0.045263797 0.024921691 -0.012413312 0.0041329646 -0.06556378 -0.010066382 -0.06308904 -0.012042067
-0.04467804 0.024524162 0.05536705 0.044214033 -0.06904399 -0.021005286 0.019866575 0.028368477
0.020458894 -0.06863205 -0.037215758 -0.015167654 0.012391085 0.029009536 -0.004176077 -0.018947262
-0.04754573 0.04371212 -0.058206398 -0.006838722 0.021196732 -0.009337617 -0.00920166 0.053948477
-0.026553586 -0.05392399 -0.057831816 -0.0049949572 -0.030856008 -0.055413283 0.038240265 -0.026917566
0.008628506 -0.0456122 -0.040927578 0.061124004 0.04489228 -0.03800554 0.028065782 -0.02984738
0.0082294885 0.025629865 -0.080538705 -0.028568614 -0.014131665 0.035119954 0.057870016 -0.07592927
0.036618084 -0.031099986 -0.032685284 0.00067594356 -0.0014494964 0.058935404 0.03781004 -0.05604483
-0.058454584 -0.09967877 -0.011164253 -0.031714633 -0.06985705 0.013603514 -0.029172074 -0.037218675
-0.049535062 0.043849446 -0.008156372 -0.055062868 -0.040029965 0.018799521 -0.08472243 0.020939482
0.026086032 0.04536101 0.036451735 -0.004507618 -0.04738356 -0.022676349 -0.006171641 0.04821519
-0.01363314 -0.091665655 -0.011788311 0.026178023 0.035577167 -0.08470035 -0.04202324 -0.034970134
0.0141493855 -0.035833783 -0.065982275 0.029359404 -0.022663487 -0.03353351 -0.028529426 -0.007799296
-0.027147865 -0.003424277 0.048360504 -0.019095834 0.026182337 -0.08402273 -0.08735209 -0.018671721
-0.0032321298 -0.039562292 -0.05158433 0.022612689 -0.045404166 0.020572692 -0.044390917 0.020316629
-0.037668873 -0.038808186 0.009814771 0.024406295 0.05317003 0.027979575 -0.020469086 -0.008612729
-0.015749063 -0.08060646 0.04222879 -0.04546561 -0.016082268 0.050233476 -0.041891105 0.02760752
-0.038037732 -0.050492827 0.023207406 -0.02559349 0.032782443 -0.0464625 -0.047295846 0.03852202
-0.055277582 0.035902783 -0.017754463 0.05021574 -0.03801619 -0.0043695043 0.050517917 0.028850157
0.05230477 -0.0335543 -0.026444303 0.008632575 0.04322769 -0.0106857205 0.045847356 -0.03224482
-0.023312641 -0.061683692 0.026966548 0.034431275 0.026664909 -0.10032207 0.05657798 -0.026548954
-0.041796044 0.05045655 0.06657859 -0.06234788 0.010580232 0.0395131 -0.042662643 0.021306893
0.04412108 -0.03951382 0.051186122 -0.044873998 0.04678549 0.038366184 -0.041608173 0.040131256
-0.046627462 0.028089974 -0.0027246866 0.035532538 0.0029886449 0.057401635 -0.025576632 0.035998683
00000000: dc22 9ebd b24b 973c 8b50 0dbd 319b 5b3d
00000010: a280 df3b 5988 eb3c 55ca abbd 9b13 42bd
00000020: d6df 82bd dbe7 813c e5df 8bbd 7af9 83bd
00000030: 3f7e c53c 4680 73bd b601 89bd fde6 83bd
00000040: d4e7 10ba 935e 2d3d a3e3 efbc 98b0 973c
00000050: 1834 5dbd 7ae4 a43c 4aa1 19bb 8507 84bd
00000060: 7b19 4bbd 69e0 893d 6038 c63c 71b3 e5bc
00000070: b984 833c 3d89 413d 9264 6abd c434 9a3c
00000080: 42e0 353c 379d 43bd 9203 c4bc 1b27 b7bc
00000090: b1ec 82bb 2878 e43c e53d 54bd ae7e 01bc
000000a0: 3e66 663d fe5f a6bc e670 adbd 164a 8bbd
000000b0: c16c c43c 4e0c 05bc 007f 943c ade7 763d
000000c0: 11c1 69bd d95c a2bc 9af5 6f3a 0b2e 593d
000000d0: 192d 81bd e118 3c3b 30ee 2cbd 5a02 02bc
000000e0: 1242 dbbb 1cfa 69bd dd79 c1bc e03f 2f3c
000000f0: baaa 1bbd 85d9 523b 52ee cfbc ac02 d7bc
00000100: 8866 39bd 9328 cc3c 3461 4bbc d26d 873b
00000110: 4e46 86bd 77ed 24bc d434 81bd 174c 45bc
00000120: 5200 37bd e5e6 c83c 8fc8 623d c619 353d
00000130: ef66 8dbd 4713 acbc 3abf a23c 0265 e83c
00000140: 6999 a73c f68e 8cbd 8d6f 18bd c081 78bc
00000150: fa03 4b3c 68a5 ed3c 79d7 88bb 4a37 9bbc
00000160: 50bf 42bd 7b0b 333d d569 6ebd 5c17 e0bb
00000170: c5a4 ad3c cefc 18bc 8fc2 16bc 14f9 5c3d
00000180: e886 d9bc 67df 5cbd 0ee1 6cbd bdac a3bb
00000190: bdc5 fcbc 0af9 62bd d3a1 1c3d 3a82 dcbc
000001a0: 945e 0d3c dcd3 3abd ada3 27bd 2a5d 7a3d
000001b0: f8e0 373d b2ab 1bbd 36ea e53c 7e82 f4bc
000001c0: fad4 063c b9f5 d13c 7af1 a4bd ba08 eabc
000001d0: 8088 67bc f1d9 0f3d 1c09 6d3d ce80 9bbd
000001e0: d8fc 153d 66c5 febc 01e1 05bd ce31 313a
000001f0: 07fd bdba 4066 713d b3de 1a3d 438f 65bd
00000200: 136e 6fbd 6224 ccbd 45ea 36bc 34e7 01bd
00000210: 3711 8fbd 46e1 5e3c 46fa eebc 9c72 18bd
00000220: 47e5 4abd 7a9b 333d 4ea2 05bc 9a89 61bd
00000230: 76f6 23bd 7401 9a3c f482 adbd 4789 ab3c
00000240: 60b2 d53c 77cc 393d 6a4e 153d a4b4 93bb
00000250: 4415 42bd c0c3 b9bc 7a3b cabb 4b7d 453d
00000260: 895d 5fbc 34bb bbbd c323 41bc 4b73 d63c
00000270: 5db9 113d 6177 adbd 9020 2cbd d83c 0fbd
00000280: d3d2 673c 72c6 12bd b721 87bd 2283 f03c
00000290: c7a8 b9bc 6f5a 09bd 8bb6 e9bc 3d91 ffbb
000002a0: 3365 debc d669 60bb aa15 463d de6e 9cbc
000002b0: 577c d63c 1c14 acbd a7e5 b2bd 70f5 98bc
000002c0: 24d2 53bb 120c 22bd 174a 53bd 3f3e b93c
000002d0: b8f9 39bd 1088 a83c 40d3 35bd 0f6f a63c
000002e0: ad4a 1abd 55f5 1ebd 22ce 203c b6ef c73c
000002f0: d1c8 593d 6c35 e53c c9ae a7bc 671c 0dbc
00000300: 2e04 81bc 0015 a5bd 18f8 2c3d 263a 3abd
00000310: f6be 83bc 9ec1 4d3d 0296 2bbd 2a29 e23c
00000320: 74cd 1bbd 91d1 4ebd 751d be3c 70a9 d1bc
00000330: e246 063d 764f 3ebd 4ab9 41bd 44c9 1d3d
00000340: bf6a 62bd cc0e 133d cf71 91bc 05af 4d3d
00000350: ddb6 1bbd 0f2e 8fbb e0eb 4e3d 2a57 ec3c
00000360: 873d 563d 3c70 09bd b9a1 d8bc a56f 0d3c
00000370: 850f 313d 2913 2fbc 70ca 3b3d 2513 04bd
00000380: 27fa bebc 0aa8 7cbd f3e8 dc3c cf07 0d3d
00000390: 5e70 da3c a875 cdbd 50be 673d 317d d9bc
000003a0: 5432 2bbd 87ab 4e3d 5b5a 883d 7e60 7fbd
000003b0: b658 2d3c 7dd8 213d 06bf 2ebd cb8b ae3c
000003c0: 4eb8 343d 3ed9 21bd 8aa8 513d cccd 37bd
000003d0: 24a2 3f3d dc25 1d3d 556d 2abd ac60 243d
000003e0: 70fc 3ebd f21c e63c a890 32bb 918a 113d
000003f0: 24dd 433b fa1d 6b3d 1686 d1bc 5b73 133d

linear_relu_stack.3.bias f4 [256]
-0.08283255 -0.044110727 -0.09546611 -0.08044981 -0.061665785 -0.07874865 0.006625789 -0.043206505
-0.05502899 -0.06621816 -0.054569986 0.06410926 -0.11992523 0.017089052 -0.08850448 -0.032251876
0.11022171 0.61666214 0.18417689 -0.030077316 -0.038572814 -0.06853411 -0.08834416 0.06158753
-0.120928705 -0.047774512 -0.09460478 -0.057275437 -0.05954247 -0.08248216 -0.07231699 -0.07783816
-0.13424201 0.0649194 -0.08988354 -0.05173417 0.047364797 -0.06983431 -0.057819195 -0.081433214
-0.05772303 -0.039135594 -0.028776918 -0.037271228 -0.0023530116 -0.051651567 -0.056656986 -0.06847072
-0.08186629 0.0044639986 -0.031780157 -0.07695371 -0.056203928 0.35439485 -0.016767843 -0.04558518
-0.035456453 -0.026184049 -0.064832814 -0.07560754 -0.053211715 -0.040747922 -0.016256217 -0.07599846
0.007774106 -0.049521413 -0.08389623 -0.03078667 -0.039335478 -0.050986797 4.4172295e-05 -0.025870094
-0.07081918 -0.05110645 -0.041744366 -0.05015469 -0.0119148465 -0.032453243 0.03546264 -0.05524782
-0.017192025 -0.037779126 -0.047839135 -0.026320131 -0.04307377 -0.047217853 0.0030836046 -0.07584274
-0.10262455 -0.16492566 -0.06684905 -0.12603587 -0.14864537 -0.02716887 -0.06162889 -0.008573463
-0.07983803 -0.04833639 -0.093470134 -0.060893796 -0.038507607 -0.07564831 -0.09771527 0.09320098
-0.027580326 -0.023116449 -0.023340646 -0.08498056 -0.10356984 -0.028175797 -0.086901784 -0.026042301
-0.06232926 -0.037267484 -0.038189273 -0.006410355 -0.029485773 -0.02653392 0.011628116 -0.096242376
-0.021072648 -0.057438415 -0.021935517 -0.0018007021 -0.04155365 -0.04134956 -0.09240069 -0.05968857
-0.092542805 -0.073631324 -0.069081314 -0.06442861 -0.02096617 -0.10654504 -0.112216994 -0.054537546
-0.1755978 -0.0798812 -0.044711296 -0.06727518 -0.099611655 -0.060426235 -0.11725134 -0.003584353
0.13875538 0.00011169977 -0.028213503 -0.068417564 -0.07398647 0.15554525 0.0020358749 -0.029513787
-0.1351213 -0.08419527 -0.04603258 -0.04243153 -0.055594154 -0.06110797 -0.023679705 -0.05969831
-0.046114493 -0.028638368 -0.014591728 -0.08181176 -0.06990296 -0.049197562 -0.073003195 -0.07172999
-0.041347522 -0.06817451 -0.018198764 -0.089131676 -0.07254297 -0.055097885 0.019627875 -0.092834994
-0.1024495 -0.13688381 -0.04713253 -0.03328664 -0.093074135 -0.105605334 -0.07774826 -0.0560899
-0.019138461 -0.07703083 -0.03249625 -0.08255212 -0.06210988 -0.098265134 -0.087334596 -0.054569103
-0.045843225 -0.03369724 -0.07983567 -0.01694127 -0.022337994 -0.1733005 -0.080041125 -0.03001676
-0.06066965 -0.022587521 -0.0027444009 -0.09975858 -0.052221052 -0.045393236 -0.041073892 -0.22612213
-0.01077806 -0.10866366 -0.0010583008 0.018679792 0.120308295 -0.09001984 -0.0020358234 0.28462127
-0.05883054 -0.027963325 -0.07504264 -0.044705104 -0.12506144 -0.028436018 -0.023770703 -0.026228415
-0.03846309 -0.07591648 -0.05385775 -0.09412481 0.0020738184 -0.116772294 -0.0044606924 -0.10572206
-0.06583527 -0.069109045 -0.028689815 -0.029891038 -0.038706157 -0.07986926 -0.06005433 -0.050902084
-0.041898668 -0.00040154922 -0.0883666 0.0007985662 -0.05704312 -0.008335373 -0.09867568 -0.087907396
-0.02579251 -0.07777792 -0.037647337 -0.02309735 -0.036167327 -0.019964572 -0.022557603 -0.015031237
00000000: 1da4 a9bd 73ad 34bd bc83 c3bd dfc2 a4bd
00000010: 4395 7cbd f946 a1bd 261d d93b 4ef9 30bd
00000020: 1466 61bd 639d 87bd c784 5fbd b74b 833d
00000030: 5c9b f5bd 57fe 8b3c d641 b5bd 8b1a 04bd
00000040: ebbb e13d 92dd 1d3f de98 3c3e b464 f6bc
00000050: 87fe 1dbd 9d5b 8cbd c8ed b4bd 3543 7c3d
00000060: 78a9 f7bd 35af 43bd 27c0 c1bd a699 6abd
00000070: cee2 73bd 68ec a8bd ee1a 94bd 9d69 9fbd
00000080: bd76 09be 76f4 843d dd14 b8bd 36e7 53bd
00000090: 9701 423d 4a05 8fbd d2d3 6cbd 75c6 a6bd
000000a0: fc6e 6cbd a54c 20bd 92bd ebbc b7a9 18bd
000000b0: fc34 1abb 9890 53bd 2811 68bd 603a 8cbd
000000c0: 83a9 a7bd bc46 923b e92b 02bd e899 9dbd
000000d0: 1736 66bd 3e73 b53e b75c 89bc 87b7 3abd
000000e0: c93a 11bd ee7f d6bc 11c7 84bd 20d8 9abd
000000f0: 87f4 59bd 4be7 26bd c22b 85bc 15a5 9bbd
00000100: eebd fe3b f7d6 4abd c9d1 abbd 5434 fcbc
00000110: 3d1e 21bd 88d7 50bd a445 3938 85ed d3bc
00000120: a509 91bd ff54 51bd 24fc 2abd 016f 4dbd
00000130: 7d36 43bc b1ed 04bd 4641 113d 8a4b 62bd
00000140: 4ad6 8cbc 49be 1abd f8f2 43bd 519d d7bc
00000150: 1f6e 30bd 8267 41bd 4d16 4a3b 7053 9bbd
00000160: d22c d2bd 46e2 28be 28e8 88bd 8c0f 01be
00000170: 7e36 18be 4091 debc 936e 7cbd b677 0cbc
00000180: 1f82 a3bd 61fc 45bd 456d bfbd c66b 79bd
00000190: 27ba 1dbd 80ed 9abd f21e c8bd 28e0 be3d
000001a0: 23f0 e1bc b55e bdbc e234 bfbc 4a0a aebd
000001b0: 6d1c d4bd eed0 e6bc 90f9 b1bd aa56 d5bc
000001c0: f74c 7fbd caa5 18bd 5b6c 1cbd f50d d2bb
000001d0: 268c f1bc aa5d d9bc da83 3e3c b91a c5bd
000001e0: 8ca0 acbc 8b44 6bbd 1db2 b3bc 8905 ecba
000001f0: 2934 2abd 285e 29bd 933c bdbd 017c 74bd
00000200: 1587 bdbd 05cc 96bd 817a 8dbd 26f3 83bd
00000210: 3fc1 abbc 4934 dabd 06d2 e5bd c362 5fbd
00000220: e9cf 33be c198 a3bd 3123 37bd 92c7 89bd
00000230: 3201 ccbd 8081 77bd 7821 f0bd 77e7 6abb
00000240: e415 0e3e 5b40 ea38 0120 e7bc 821e 8cbd
00000250: 3886 97bd 4147 1f3e 506c 053b e6c6 f1bc
00000260: 3d5d 0abe 926e acbd a98c 3cbd afcc 2dbd
00000270: b2b6 63bd 5a4c 7abd f1fb c1bc 3786 74bd
00000280: 8de2 3cbd 039b eabc 2512 6fbc ed8c a7bd
00000290: 4829 8fbd 6283 49bd b382 95bd 2ce7 92bd
000002a0: 055c 29bd 149f 8bbd 9315 95bc ab8a b6bd
000002b0: 6991 94bd 52ae 61bd a3ca a03c 4620 bebd
000002c0: 0bd1 d1bd 452b 0cbe 0a0e 41bd 9257 08bd
000002d0: a79d bebd 9c47 d8bd 7b3a 9fbd 86be 65bd
000002e0: 43c8 9cbc 57c2 9dbd ca1a 05bd 1611 a9bd
000002f0: ee66 7ebd 3b3f c9bd 7bdc b2bd da83 5fbd
00000300: 1bc6 3bbd 1e06 0abd e280 a3bd 6bc8 8abc
00000310: 2bfe b6bc b075 31be 9aec a3bd b5e5 f5bc
00000320: bd80 78bd 7709 b9bc 68db 33bb 3a4e ccbd
00000330: bee5 55bd 42ee 39bd 193d 28bd 8f8c 67be
00000340: 7696 30bc 0e8b debd afb6 8aba 5d06 993c
00000350: 3264 f63d 525c b8bd 736b 05bb e1b9 913e
00000360: 4bf8 70bd 5813 e5bc f5af 99bd b31c 37bd
00000370: 1b10 00be a7f2 e8bc c7ba c2bc f9dc d6bc
00000380: 798b 1dbd 197a 9bbd f299 5cbd 82c4 c0bd
00000390: e6e8 073b 5026 efbd 002b 92bb cf84 d8bd
000003a0: a4d4 86bd 0b89 8dbd e706 ebbc 0dde f4bc
000003b0: 598a 1ebd 7f92 a3bd 87fb 75bd b47e 50bd
000003c0: f09d 2bbd 0687 d2b9 8cf9 b4bd df56 513a
000003d0: 0ca6 69bd 1791 08bc 7a16 cabd cb08 b4bd
000003e0: d04a d3bc 084a 9fbd 1834 1abd a736 bdbc
000003f0: 3124 14bd be8c a3bc b9ca b8bc 9445 76bc

linear_relu_stack.6.weight f4 [2, 256]
-0.015907926 -0.039445363 -0.022580417 -0.018428316 0.009985789 -0.0038413836 0.0036906071 -0.03695759
0.00069461827 0.024416761 -0.03816844 -0.023575258 -0.018882597 0.020515224 -0.033533555 -0.042837754
0.008333931 -0.32694104 0.014721201 -0.009286876 -0.027778802 -2.206078e-05 -0.027812472 0.19804902
-0.0035109972 -0.002669205 -0.0018845086 0.027279004 0.0060614753 -0.032072462 -0.016024606 0.005339904
-0.5965976 -0.31845704 -0.00088551536 -0.014807535 0.38020423 -0.029975832 -0.007731387 0.007345911
-0.0071278326 0.030767234 0.017239168 -0.0036492986 0.022674495 -0.03779948 0.009095004 -0.0063654985
-0.0210926 0.009933687 0.008666019 -0.027754221 -0.027239367 -0.20107616 -0.058032785 -0.021645745
0.00097265746 0.011962648 -0.010837088 -0.00089084596 0.01472699 -0.0290732 -0.005358905 -0.009929812
0.023906209 -0.00051639363 -0.0026487398 -0.050920404 0.030420467 -0.020493418 -0.0037910393 0.0028207933
-0.060143832 0.007937805 -0.02070355 -0.002081282 0.011951095 -0.02986501 -0.12991537 0.019699343
-0.029995205 -0.02252068 0.0088169295 -0.012851806 -0.033019863 -0.0009744772 -0.028079186 0.022007126
-0.0042941025 -0.05416942 -0.027356092 0.014203167 -0.023144545 0.005610769 0.002279005 -0.013856376
-0.014867107 -0.17886488 -0.008472555 0.0016247127 0.030895844 -0.0036657867 -0.027828597 -0.24144787
0.02819401 -0.024238156 0.030680934 0.015155107 0.011443506 0.01759123 -0.0029807247 -0.0055987793
-0.029753596 0.0040134382 -0.017713519 -0.007689512 -0.014723481 -0.0012728364 -0.015776541 0.016780345
-0.0163117 0.017659424 0.52816814 0.00027695394 -0.0008796415 0.011158378 -0.024115337 -0.02176916
0.023245241 -0.0010031472 -0.011571007 -0.022358445 -0.04573892 -0.038896132 -0.0106863305 -0.012976014
-0.005269216 -0.040554017 -0.009163017 0.01063203 0.030114448 0.0043873363 0.027735794 0.00010882875
-0.0028734873 -0.016988665 0.002074909 0.01774996 0.0049189506 -0.13757567 -0.0001996269 0.010702599
-0.006994844 -0.016317042 0.03834038 0.0021658412 -0.022222962 0.018868132 0.0037985484 -0.00037622266
0.030036261 0.016312417 0.0234552 -0.017823214 0.00638895 -0.018337116 0.035684437 0.005085965
0.053239394 0.02955461 -0.0026958315 0.025335576 -0.031176085 -0.0062887454 0.56949514 0.014566826
-0.010231337 -0.0123280715 -0.0041367896 -0.015651492 0.027557768 -0.01703324 0.028498147 -0.025589159
0.004703385 0.029272888 -0.016883375 -0.004981591 -0.01961337 0.0019504721 -0.0027238813 0.0032997138
-0.046091475 0.025686476 -0.016048867 0.48025805 0.0025248576 0.10943858 0.011972621 0.0022317497
-0.016963828 -0.012459044 -0.019307895 0.016926907 -0.034566864 -0.024770815 0.009341393 0.10786907
-0.011979039 -0.031517036 -0.02217333 0.0521233 -0.44281745 0.003721536 -0.0007789374 -0.2714131
-0.014153751 0.010917603 0.015195055 0.0051537887 0.025494847 0.026582157 -0.032433588 0.004061196
-0.016898146 -0.011533001 0.026573092 0.03178975 -0.0037725654 0.02835494 -0.02635701 0.01551712
0.006813037 0.002851922 -0.0052953367 -0.024418086 -0.015724149 0.013140017 -0.0066086245 -0.038185176
-0.016171545 -0.028597148 -0.022674557 -0.001407309 0.032304257 -0.004889378 0.013328319 0.06376889
0.025231136 -0.0018274579 0.17152126 0.025801415 0.0074395495 0.6287242 -0.011855639 -0.021070363
00000000: 5751 82bc 7691 21bd 91fa b8bc fbf6 96bc
00000010: 6f9b 233c b9bf 7bbb 1dde 713b d860 17bd
00000020: 0b17 363a a905 c83c 8356 1cbd e620 c1bc
00000030: adaf 9abc 8b0f a83c 7b5a 09bd a476 2fbd
00000040: 0a8b 083c d164 a7be 3131 713c fb27 18bc
00000050: 5f90 e3bc 2a0f b9b7 fbd6 e3bc 5dcd 4a3e
00000060: c218 66bb d4ed 2ebb 9e01 f7ba 3878 df3c
00000070: 579f c63b 6a5e 03bd 0946 83bc 5dfa ae3b
00000080: 9fba 18bf cd0c a3be ee21 68ba 4e9b 72bc
00000090: 21aa c23e e08f f5bc 9357 fdbb f8b5 f03b
000000a0: 9890 e9bb 910b fc3c 2839 8d3c 1229 6fbb
000000b0: ddbf b93c a1d3 1abd 3603 153c ac95 d0bb
000000c0: 63ca acbc e7c0 223c ebfb 0d3c d25c e3bc
000000d0: 1825 dfbc e9e6 4dbe c9b3 6dbd 6b52 b1bc
000000e0: f0f9 7e3a fbfe 433c 0b8e 31bc a987 69ba
000000f0: 7949 713c eb2a eebc c199 afbb a6b0 22bc
00000100: f4d6 c33c 975e 07ba 7b96 2dbb ea91 50bd
00000110: 5834 f93c d0e1 a7bc 1673 78bb 0fdd 383b
00000120: 6159 76bd 910d 023c 7e9a a9bc 1e66 08bb
00000130: 87ce 433c 77a7 f4bc 8908 05be 8460 a13c
00000140: 81b8 f5bc 4a7d b8bc e274 103c 6290 52bc
00000150: d63f 07bd 0f74 7fba 5206 e6bc 4a48 b43c
00000160: 8bb5 8cbb c1e0 5dbd e219 e0bc 66b4 683c
00000170: a199 bdbc 8bda b73b 5c5b 153b da05 63bc
00000180: 2b95 73bc 5b28 37be 79d0 0abc 50f4 d43a
00000190: 4819 fd3c b23d 70bb ccf8 e3bc 1c3e 77be
000001a0: 20f7 e63c 198f c6bc 9556 fb3c 204d 783c
000001b0: 8b7d 3b3c 7c1b 903c 4358 43bb f775 b7bb
000001c0: d0bd f3bc 2983 833b f11b 91bc 4df8 fbbb
000001d0: c13a 71bc 4dd5 a6ba ce3d 81bc ef76 893c
000001e0: 1da0 85bc 7faa 903c 0736 073f 2134 9139
000001f0: be97 66ba a1d1 363c 878d c5bc 3d55 b2bc
00000200: ce6c be3c 097c 83ba 5294 3dbc 0f29 b7bc
00000210: bc58 3bbd 8d51 1fbd b815 2fbc 5999 54bc
00000220: 63a9 acbb f81b 26bd 7b20 16bc f731 2e3c
00000230: 93b2 f63c a5c3 8f3b 2d36 e33c fe3a e438
00000240: 1e51 3cbb d02b 8bbc 32fb 073b 5d68 913c
00000250: 262f a13b a3e0 0cbe f052 51b9 f459 2f3c
00000260: 0135 e5bb 51ab 85bc cd0a 1d3d c9f0 0d3b
00000270: ee0c b6bc 5791 9a3c 11f1 783b c03f c5b9
00000280: 9b0e f63c 9ea1 853c 1f25 c03c fd01 92bc
00000290: 665a d13b b837 96bc d829 123d 2ba8 a63b
000002a0: 8d11 5a3d 821c f23c 8cac 30bb 8e8c cf3c
000002b0: fd64 ffbc d211 cebb 6fca 113f b2a9 6e3c
000002c0: 56a1 27bc aefb 49bc e88d 87bb 8f37 80bc
000002d0: d4c0 e13c 4b89 8bbc f274 e93c 5ba0 d1bc
000002e0: da1e 9a3b b2cd ef3c 014f 8abc 9d3c a3bb
000002f0: 38ac a0bc fca6 ff3a 2583 32bb 0340 583b
00000300: 6aca 3cbd 726c d23c ea78 83bc 62e4 f53e
00000310: 1578 253b 5621 e03d d028 443c 8c42 123b
00000320: baf7 8abc 0521 4cbc 972b 9ebc 4caa 8a3c
00000330: fc95 0dbd 2aec cabc a40c 193c 75ea dc3d
00000340: bb43 44bc 0218 01bd d8a4 b5bc 3e7f 553d
00000350: f8b8 e2be 03e5 733b 9b31 4cba a8f6 8abe
00000360: 22e5 67bc bfdf 323c aef4 783c 1de1 a83b
00000370: 92da d03c d3c2 d93c 15d9 04bd c813 853b
00000380: fb6d 8abc eaf4 3cbc d0af d93c f835 023d
00000390: 253d 77bb 9e48 e83c a8ea d7bc 853b 7e3c
000003a0: e63f df3b 50e7 3a3b 8184 adbb 7008 c8bc
000003b0: eecf 80bc 3a49 573c 298d d8bb 0f68 1cbd
000003c0: 307a 84bc 9144 eabc febf b9bc 7475 b8ba
000003d0: 7851 043d 1337 a0bb 065f 5a3c 4499 823d
000003e0: 87b1 ce3c 5087 efba 45a3 2f3e 7d5d d33c
000003f0: 77c7 f33b 12f4 203f 273e 42bc c19b acbc

linear_relu_stack.6.bias f4 [2]
0.7171514 0.033183917
00000000: 3c97 373f dceb 073d
