Assets/ONNX/ffn.onnx (onnx, 282363 bytes, 6 tensors)

linear_relu_stack.0.weight f4 [256, 15]
0	0xbe643eb8	-0.2228955
1	0xbe76ff77	-0.2412089
2	0xbe1f0dd1	-0.15532614
3	0x3e4a6f57	0.19769035
4	0xbc11cb00	-0.008898497
5	0x3e4d2e18	0.20037115
6	0xbe665714	-0.22494155
7	0xbd629450	-0.055317223
8	0xbea115b3	-0.31461868
9	0x3e3d39b6	0.18479046
10	0xbbe396a4	-0.006945448
11	0x3b355698	0.0027670022
12	0xbec40837	-0.38287517
13	0x3c32bfb6	0.010909965
14	0xbdd20c26	-0.102562234
15	0x3d72b19c	0.059251413
16	0xbd31e1a8	-0.043428093
17	0xbcfb82df	-0.030702053
18	0x3e1f900d	0.15582295
19	0xbe3566a9	-0.17714943
20	0x3dbdfa43	0.09276249
21	0xbe4e6bad	-0.20158263
22	0xbcf2c865	-0.029636571
23	0x3e347f98	0.17626798
24	0x3db59f56	0.088682815
25	0xbe256bbb	-0.16154377
26	0x3e7b1db4	0.2452305
27	0xbe49be51	-0.19701506
28	0x3e5eec7c	0.21769899
29	0xbb393608	-0.0028260965
30	0xbde4911f	-0.11160492
31	0x3da38445	0.07984213
32	0xbefd0ad6	-0.4942233
33	0xbe232c29	-0.15934815
34	0x3e15fc0b	0.14646928
35	0xbcbed730	-0.023295969
36	0xbeeb9857	-0.46014664
37	0x3d367d52	0.04455311
38	0xbf2677f0	-0.6502676
39	0x3e3a884b	0.18216054
40	0x3dba3719	0.0909254
41	0xbdee0283	-0.11621573
42	0x3cb5cb2b	0.022191605
43	0x3ea07800	0.31341553
44	0x3d38f721	0.045157555
45	0x3dd64e34	0.10464135
46	0xbe513823	-0.2043157
47	0x3e1202c8	0.14258873
48	0xbd95d088	-0.07315165
49	0x3de42228	0.11139327
50	0xbe29541f	-0.16535996
51	0x3ec7919a	0.38978273
52	0x3dc0325b	0.093846045
53	0xbdf333ae	-0.118750915
54	0x3e302a43	0.17203622
55	0xbe9a5a59	-0.30147055
56	0xbe08955b	-0.13338225
57	0x3d00360d	0.031301547
58	0xbd953904	-0.072862655
59	0xbb2c68cf	-0.0026307588
60	0xbcc80b77	-0.02441953
61	0x3e0de629	0.1385733
62	0xbdab844a	-0.083748415
63	0x3ced00ae	0.028930988
64	0xbe21ee25	-0.15813501
65	0xbd58d2e6	-0.052935503
66	0xbca0087d	-0.019535298
67	0x3c14b514	0.0090763755
68	0x3e1ec47b	0.15504639
69	0xbda8d699	-0.08244056
70	0x3e42b3d2	0.19013909
71	0xbe33a977	-0.17545114
72	0xbeb45e4e	-0.352282
73	0xbe729e2e	-0.23693153
74	0x3e39a4fe	0.18129346
75	0xbb875cfa	-0.0041309567
76	0xbf214c16	-0.6300672
77	0xbebb0c85	-0.3653299
78	0xbe9c9b47	-0.30587217
79	0x3e21cbc2	0.15800384
80	0xbe0b4b96	-0.13603052
81	0xbf0612e0	-0.5237255
82	0x3ec731ea	0.3890527
83	0x3df6309d	0.12020991
84	0x3ea6de99	0.32591704
85	0xbf9bbeea	-1.2167637
86	0xbe0f66a7	-0.14004003
87	0xbf016b66	-0.505545
88	0xbd85369c	-0.065045565
89	0xbdd134cd	-0.10215149
90	0xbd025301	-0.03181744
91	0xbe5f68f7	-0.21817385
92	0x3dda5c81	0.10662175
93	0x3ddb665b	0.10712882
94	0xbd33f031	-0.043930236
95	0xbdc5ea56	-0.09663837
96	0x3d55f0c9	0.052231584
97	0xbe5987c5	-0.21243198
98	0xbe671ff2	-0.2257078
99	0x3d820065	0.063477315
100	0xbdb7f28d	-0.0898181
101	0x3e866a1b	0.26252827
102	0xbdc5f3d5	-0.09665648
103	0x3e49d932	0.1971176
104	0x3d79896f	0.060922083
105	0xbe25db6b	-0.16196983
106	0x3e2dea22	0.16983846
107	0x3c5b9b91	0.013403789
108	0x3deac492	0.11463274
109	0xbe164938	-0.14676368
110	0x3cf9620c	0.03044226
111	0xbcf78e7f	-0.030219315
112	0xbe5e5c77	-0.2171496
113	0xbe1b0dc5	-0.15141971
114	0xbe8ce860	-0.27521038
115	0x3c4d6999	0.0125373835
116	0x3cb716d7	0.022349758
117	0x3ca2cd76	0.019873362
118	0xbe9a33fb	-0.30117783
119	0xbde03cda	-0.109491065
120	0xbcc53d01	-0.02407694
121	0x3e40960b	0.18807237
122	0xbde8e157	-0.11371105
123	0x3f06fdfd	0.52731305
124	0x3ea646fe	0.32476038
125	0x3d953f7c	0.07287499
126	0xbbe1d79a	-0.006892157
127	0xbdac85ab	-0.08423933
128	0x3f165f10	0.58738804
129	0xbe151bcb	-0.14561383
130	0x3e8264df	0.25467584
131	0xbe6937b8	-0.22775161
132	0xbf9ce759	-1.2258102
133	0xbec751eb	-0.38929686
134	0xbe75edac	-0.24016446
135	0x3dc4509e	0.09585689
136	0xbdb66d0d	-0.089075185
137	0xbcd07d6a	-0.025450427
138	0xbd1572a3	-0.03648628
139	0x3ca148de	0.019688066
140	0x3d7af46e	0.061268263
141	0xbe76fd87	-0.2412015
142	0xbeb298af	-0.34882113
143	0xbcd2414e	-0.025665905
144	0xbe31499e	-0.17313239
145	0x3d5e366b	0.054251116
146	0xbde5e8a1	-0.11226011
147	0xbf0c86ec	-0.54893374
148	0xbe99aa4c	-0.3001274
149	0x3e475322	0.19465306
150	0xbdb6a197	-0.089175396
151	0xbdd193e9	-0.1023329
152	0xbeb6c19d	-0.3569459
153	0xbe1edd4d	-0.15514107
154	0xbf490e00	-0.7853699
155	0xbe80337d	-0.25039282
156	0x3e9d7206	0.30751055
157	0x3e0319e7	0.1280285
158	0xbf354e1c	-0.7082231
159	0xbfa43ec4	-1.2831655
160	0xbfb445f5	-1.4083849
161	0xbe0c3070	-0.13690352
162	0x3a62b18b	0.0008647672
163	0x3e95f9a7	0.29292032
164	0xbd9dbda3	-0.07702186
165	0x3e37deec	0.17956132
166	0x3c0da4cc	0.008645248
167	0xbd7ef21a	-0.062242605
168	0xbdc84a43	-0.09779789
169	0xbdac1c6c	-0.084038585
170	0xbd9056e4	-0.07047823
171	0x3dfe75f7	0.12424844
172	0xbe057ccc	-0.13035887
173	0xbdf18ec6	-0.1179481
174	0xbec1c79f	-0.3784761
175	0xbb01c8cc	-0.0019803522
176	0xbe7e1c23	-0.24815421
177	0xbe8930cb	-0.2679504
178	0x3cda1295	0.026620189
179	0xbd1023a3	-0.035190236
180	0x3ddb678d	0.1071311
181	0x3e436fbd	0.19085594
182	0xbe78bd81	-0.2429104
183	0x3db541e3	0.088504575
184	0xbe93214d	-0.28736344
185	0xbed1e104	-0.40991986
186	0xbed5ff75	-0.4179646
187	0x3e8755b8	0.26432586
188	0xbf206576	-0.6265482
189	0x3e710e68	0.23540652
190	0xbfcaec35	-1.5853335
191	0xbe6c67d4	-0.23086482
192	0xbdc61bf4	-0.096733004
193	0x3f00670d	0.50157243
194	0x3d1c956f	0.03822845
195	0xbdbdf487	-0.092751555
196	0xbe0099b5	-0.12558635
197	0x3e2628bc	0.16226476
198	0x3d99491c	0.07484648
199	0x3e218e19	0.15776862
200	0xbe076404	-0.13221747
201	0xbda4a5d7	-0.08039444
202	0x3de5e5b1	0.11225451
203	0xbdfd2a62	-0.123615995
204	0x3e1f072b	0.15530078
205	0x3e1ac087	0.15112506
206	0xbce2273d	-0.0276066
207	0xbe6962ed	-0.22791643
208	0xbc4db507	-0.012555367
209	0x3bac8d54	0.005265871
210	0xbd446d75	-0.04795595
211	0xbe2d506e	-0.16925213
212	0xbdb1332e	-0.0865234
213	0x3c9d83f4	0.01922796
214	0xbe7e7a01	-0.24851228
215	0xbb841c3d	-0.0040316866
216	0xbe431353	-0.1905034
217	0xbe4adb9e	-0.1981034
218	0x3db89078	0.0901193
219	0xbdb1489c	-0.08656427
220	0x3dc51aad	0.096242286
221	0x3e004267	0.1252533
222	0x3e2d021a	0.16895333
223	0x3e3f63b7	0.18690382
224	0x3e2e2001	0.17004396
225	0xbe1dce36	-0.15410694
226	0x3e91f7e3	0.28509435
227	0xbb736210	-0.0037137307
228	0x3dbc9038	0.09207195
229	0x3e34edb8	0.17668808
230	0x3d3fdd40	0.04684186
231	0x3e281a07	0.16416179
232	0x3d9833d6	0.07431762
233	0x3f9c023b	1.2188181
234	0xbf5419b0	-0.82851696
235	0xbfa1833d	-1.2618176
236	0xbea991bc	-0.33119
237	0xbe80ccb2	-0.2515617
238	0xbe1c2e4a	-0.15252033
239	0x3e1d2198	0.15344846
240	0x3cd7dec8	0.026351348
241	0xbc6e3193	-0.014538187
242	0xbd3aaeae	-0.045576744
243	0xbcfd9b86	-0.030957948
244	0x3c9dc7a5	0.019260237
245	0x3d3de728	0.046363026
246	0x3f53fac6	0.82804525
247	0xbd96a0d0	-0.07354891
248	0x3e09c8d8	0.13455522
249	0xbe091ca2	-0.13389829
250	0xbd289f4a	-0.041167535
251	0x3e5b4715	0.21413834
252	0xbdd55920	-0.1041739
253	0xbd16fbcd	-0.03686123
254	0xba19c062	-0.0005865154
255	0x3d2896bf	0.041159388

linear_relu_stack.0.bias f4 [256]
0	0xbd8b4b34	-0.06801453
1	0xbe39f17a	-0.18158522
2	0xbe93ee41	-0.2889271
3	0xbeaede2f	-0.34153888
4	0xbebaa98f	-0.36457488
5	0x3da94368	0.0826481
6	0xbe29e22b	-0.16590182
7	0xbe8c017b	-0.2734488
8	0xbe1ebe66	-0.15502319
9	0x3d974779	0.07386679
10	0xbe3f250c	-0.18666476
11	0xbeae0869	-0.3399079
12	0xbe66c873	-0.22537403
13	0xbdf238dd	-0.11827252
14	0xbe099541	-0.13435842
15	0xbed818cf	-0.42206427
16	0xbec1fde0	-0.37889004
17	0xbb730db9	-0.0037087037
18	0xbe5f734f	-0.2182133
19	0x3ece842b	0.4033521
20	0x3d22d212	0.03975112
21	0xbe201f00	-0.15636826
22	0xbe14e6a9	-0.14541115
23	0xbbd0f00a	-0.006376271
24	0xbe1ee6ab	-0.1551768
25	0xbe5bcba1	-0.21464397
26	0xbea86201	-0.3288727
27	0xbe6c13d5	-0.2305444
28	0xbe6466b6	-0.22304806
29	0xbe8ccc3a	-0.27499563
30	0xbe579f00	-0.21056747
31	0x3d64811b	0.055787187
32	0xbe4cb8bf	-0.1999235
33	0xbe50b506	-0.20381555
34	0x3c295a5b	0.010336484
35	0xbdb14c14	-0.08657089
36	0xbe83f0b9	-0.25769594
37	0xbe69cd3e	-0.228322
38	0x3e601170	0.21881652
39	0xbce901ad	-0.028443182
40	0xbdb87fbb	-0.09008738
41	0xbdbcabb0	-0.09212434
42	0x3d92a7af	0.07160889
43	0xbe3e5de0	-0.18590498
44	0xb93b1a97	-0.00017843615
45	0x3d24e104	0.040253654
46	0xbca5dff1	-0.020248385
47	0xbd302d72	-0.04301209
48	0x3c9bd24d	0.019021178
49	0xbe9062f1	-0.28200486
50	0x3e3e2aa1	0.18570949
51	0x3e050e9d	0.12993856
52	0xbe3bdd60	-0.18346167
53	0xbe130e30	-0.14360881
54	0xbe5dccb8	-0.21660125
55	0xbe52d9c7	-0.20590888
56	0xbe359403	-0.17732243
57	0xbe0da04c	-0.1383068
58	0xbed7916a	-0.4210313
59	0xbe41e2b1	-0.18934132
60	0x3da91fd5	0.082580246
61	0xbe72fa69	-0.23728336
62	0xbd98f1c8	-0.07467991
63	0xbef2365c	-0.47307098
64	0xbe80b217	-0.25135872
65	0xbe15474e	-0.14577982
66	0xbe8516b4	-0.25993884
67	0x3e0a6066	0.13513336
68	0xbe2ed86b	-0.17074744
69	0xbe98e0df	-0.29859063
70	0xbe976a0c	-0.29573095
71	0x3dcda0ef	0.10040461
72	0x3b77c4a3	0.0037806414
73	0xbe49d2ae	-0.19709274
74	0xbf1a40b2	-0.6025497
75	0x3da09b64	0.078421384
76	0xbd10fc67	-0.03539696
77	0xbd4292c2	-0.04750324
78	0xbd4366d8	-0.0477055
79	0x3e6d8ae8	0.2319752
80	0xbdc3692e	-0.09541546
81	0xbe85dd28	-0.2614529
82	0xbe3c8dd2	-0.18413475
83	0x3d61707c	0.055038914
84	0xbf0cf2ac	-0.5505779
85	0xbe1fbad1	-0.15598609
86	0xbd86a516	-0.065744564
87	0xbe917bfe	-0.2841491
88	0x3ea03c60	0.31296062
89	0xbe3af4e4	-0.18257481
90	0x3e83bac5	0.2572843
91	0xbe79d5a3	-0.24397902
92	0x3d8a481e	0.067520365
93	0xbec4e3d9	-0.38455084
94	0xbe77b4fa	-0.24190131
95	0xbc8b622c	-0.017014585
96	0xbe4cc74a	-0.19997898
97	0xbd830aeb	-0.06398567
98	0x3ea940bb	0.33057198
99	0xbe463c7f	-0.19359015
100	0x3e48c49e	0.19606254
101	0xbda4bd63	-0.08043935
102	0xbe4d0e9d	-0.20025106
103	0x3cbab4fa	0.022791374
104	0x3d9db551	0.07700599
105	0xbd7f5bb5	-0.062343318
106	0xbe931002	-0.2872315
107	0xbe38ea0c	-0.18058032
108	0xbedc35db	-0.43009838
109	0xbdc10125	-0.094240464
110	0xbe4a7837	-0.19772421
111	0x3e989fd9	0.29809454
112	0x3e1f177c	0.15536302
113	0xbd1e03a1	-0.03857768
114	0x3d09cdf2	0.03364367
115	0xbe879a2f	-0.2648482
116	0x3d51adff	0.051191326
117	0x3c9df88d	0.019283557
118	0xbe974b12	-0.29549462
119	0x3d97b3a1	0.07407308
120	0x3c5f5f79	0.013633602
121	0xbe5f0db1	-0.21782567
122	0xbe61eddf	-0.22063397
123	0xbbc45e83	-0.005992712
124	0xbe244601	-0.1604233
125	0x3d3fa5f9	0.046789143
126	0xbeaa0e66	-0.3321411
127	0x3db8bd61	0.09020496
128	0xbe12fcef	-0.14354299
129	0xbe22fdd2	-0.15917137
130	0xbcceef84	-0.025260694
131	0xbe883419	-0.26602247
132	0xbd59ccd1	-0.053173844
133	0x3ab62227	0.0013895676
134	0xbc57c08c	-0.013168465
135	0xbe2aa707	-0.16665278
136	0xbd5401ab	-0.051759403
137	0xbe6a04a3	-0.22853331
138	0x3d7e7295	0.062120993
139	0xbe073a13	-0.13205747
140	0xbee71c90	-0.4513898
141	0xbd65875a	-0.056037284
142	0xbf0dc096	-0.5537199
143	0x3f137c37	0.5761141
144	0xbe934c08	-0.28768945
145	0xbe262ba1	-0.1622758
146	0xbda315ea	-0.07963164
147	0x3ba28ec0	0.004960865
148	0x3e0c3bc8	0.1369468
149	0xbe7642b5	-0.24048884
150	0xbe449aaa	-0.19199625
151	0x3d63a6fe	0.055579178
152	0x3ccd16a6	0.025035214
153	0xbdb01ac9	-0.08598859
154	0xbe823f4a	-0.2543891
155	0xbc9ee218	-0.01939492
156	0xbcb4367c	-0.021998636
157	0xbdb00fc5	-0.08596758
158	0x3d85f0ba	0.065400556
159	0xbe82c391	-0.2553983
160	0xbe306b3c	-0.17228407
161	0xbecc09d7	-0.39851257
162	0xbe7d9b1e	-0.24766204
163	0xbec83b76	-0.39107865
164	0xbe329fc0	-0.17443752
165	0x3e30005f	0.17187642
166	0x3cc8fd96	0.024534982
167	0xbdd9cc4f	-0.10634672
168	0x3e8c1117	0.2735679
169	0xbe0273af	-0.12739442
170	0x3d1fac6d	0.038982797
171	0x3d66d205	0.056352634
172	0xbdf76c99	-0.1208126
173	0xbf1cae54	-0.61203504
174	0xbdebbf16	-0.11511056
175	0xbeb1a56f	-0.34696528
176	0xbe5d495d	-0.21610017
177	0xbecfe9e5	-0.40608135
178	0xbe2495d1	-0.16072775
179	0xbea321b3	-0.31861648
180	0xbed2090d	-0.4102253
181	0xbecea1da	-0.40357858
182	0xbdd751fb	-0.105136834
183	0xbe2815a2	-0.16414502
184	0xbe338734	-0.17532045
185	0xbdb38d50	-0.087671876
186	0xbe552fec	-0.20819062
187	0xbe89c94d	-0.26911393
188	0x3d39ab80	0.04532957
189	0x3dfa1341	0.12210704
190	0xbedeb688	-0.43498635
191	0x3e2e262a	0.17006746
192	0xbe1af99f	-0.15134285
193	0x3d0f1931	0.034936134
194	0xbdc867a7	-0.09785395
195	0xbcb39d52	-0.021925602
196	0xbe499a7d	-0.19687839
197	0xbebc5457	-0.36783096
198	0xbe37b46f	-0.17939924
199	0xbe6510c2	-0.22369674
200	0xbcafc708	-0.02145721
201	0x3e04522a	0.12921968
202	0xbe8603b7	-0.2617471
203	0xbe8bba1e	-0.27290434
204	0xbe85eab1	-0.26155618
205	0xbd326742	-0.043555506
206	0xbd521fd4	-0.051299885
207	0xbcec90de	-0.028877672
208	0xbc18007d	-0.00927746
209	0xbdc8d27a	-0.0980577
210	0xbd8ea404	-0.06964877
211	0xbe9e88c2	-0.30963713
212	0xbd17ca6a	-0.03705827
213	0xbe32e4b6	-0.17470059
214	0xbe91e45f	-0.28494546
215	0x3e4d8de0	0.20073652
216	0xbe0f4e4a	-0.13994709
217	0xbe69c4a1	-0.22828914
218	0xbca43d49	-0.020048754
219	0xbe833f50	-0.2563424
220	0xbdf1ba72	-0.1180314
221	0xbed482dc	-0.41506088
222	0x3e0c6e96	0.1371406
223	0xbec76ef8	-0.3895185
224	0xbec040c6	-0.37549418
225	0xbe5be222	-0.21472982
226	0xbea53d83	-0.32273492
227	0xbe236376	-0.1595591
228	0x3cb1ed31	0.021719547
229	0xbe956000	-0.29174805
230	0xbe50059e	-0.20314643
231	0xbdc4f985	-0.096179046
232	0xbe32cb77	-0.17460428
233	0xbd26ac45	-0.040691633
234	0xbe60b264	-0.2194305
235	0xbe741b21	-0.23838474
236	0xbe4e8fe4	-0.20172077
237	0x3ea6ab86	0.32552737
238	0xbdaae70a	-0.083448485
239	0x3c275637	0.010213426
240	0xbb4d1309	-0.0031291863
241	0xbe5cdb09	-0.2156793
242	0xbd48d6d3	-0.049032997
243	0xbde743cc	-0.11292228
244	0xbc9afe73	-0.018920159
245	0xbe9cb42c	-0.3060621
246	0xbd41dad5	-0.047327835
247	0xbe927a28	-0.28608823
248	0xbe4ac7c8	-0.19802773
249	0xbdfd4b0f	-0.12367832
250	0xbe38b067	-0.18036042
251	0xbe9167c3	-0.28399476
252	0x3e0f2b87	0.13981448
253	0xbe8f1cd1	-0.27951673
254	0xbea1a7a1	-0.31573203
255	0x3e126f87	0.14300357

linear_relu_stack.3.weight f4 [256, 256]
0	0xbdf5c1c1	-0.11999846
1	0xbc0f3442	-0.008740487
2	0xbef6ca32	-0.48201138
3	0x3e49b504	0.19697958
4	0xbb7d9381	-0.0038692656
5	0x3e9ae5fc	0.3025359
6	0xbd277a2e	-0.040888004
7	0x3d0ff58a	0.035146274
8	0xbf2c67c5	-0.6734584
9	0xbdb1d6d9	-0.08683557
10	0x3d82caed	0.06386361
11	0x3de22c6b	0.11043628
12	0xbe79bc94	-0.24388343
13	0x3c8cf328	0.01720579
14	0x3cdb7019	0.02678685
15	0x3e21bb5a	0.15794125
16	0x3e6c1ba7	0.23057424
17	0x3d58ca8d	0.052927542
18	0xbd97e2da	-0.074163154
19	0xbea6b16d	-0.3255724
20	0xbe4eee89	-0.20208181
21	0xbdf78045	-0.12085012
22	0x3dca613f	0.098818295
23	0x3e29232f	0.16517328
24	0xbcbdbdda	-0.023161817
25	0xbd1952bc	-0.037432417
26	0xbea1b8a8	-0.31586194
27	0xbf0fd8d6	-0.5619024
28	0x3c9c0370	0.019044608
29	0x3cf0bfd6	0.02938835
30	0x3cdc85d8	0.02691929
31	0xbc3c63ee	-0.0114984345
32	0xbd07855a	-0.03308616
33	0x3da728b1	0.08162058
34	0x3ed016a0	0.40642262
35	0x3db58e02	0.088649765
36	0x3c4f2d97	0.012645147
37	0x3c826e33	0.015921688
38	0xbf18b2d4	-0.5964787
39	0xbd95a18f	-0.073062055
40	0xbd6011e6	-0.05470457
41	0x3baedd3a	0.005336431
42	0xbeec1940	-0.46113014
43	0xbccf8fad	-0.025337065
44	0xbdca3a7e	-0.09874438
45	0x3db9cdf3	0.09072485
46	0x3e6134df	0.21992825
47	0xbc1592ae	-0.009129209
48	0xbe0d79fd	-0.13816066
49	0x3ccc3544	0.024927743
50	0x3efc8f0d	0.4932789
51	0xbf91595f	-1.1355399
52	0x3d955196	0.07290952
53	0x3d08d873	0.033409547
54	0xbc53dabf	-0.012930571
55	0xbe058c67	-0.1304184
56	0x3d85d714	0.065351635
57	0xbe178f60	-0.14800787
58	0x3caa15a4	0.020762272
59	0x3dadb5fe	0.08481978
60	0xbdc01a90	-0.093800664
61	0x3c7251c8	0.014790006
62	0xbe3eae03	-0.18621068
63	0xbfe73e5c	-1.8065906
64	0xbde81c87	-0.11333566
65	0xbc9549ee	-0.018223729
66	0xbde797b9	-0.11308236
67	0xbf1b459d	-0.60653096
68	0xbd2ff3c4	-0.042957082
69	0xbf54a120	-0.8305836
70	0xbebf0877	-0.37311146
71	0xbed927da	-0.42413217
72	0x3ea7548f	0.326817
73	0x3d7006b8	0.058600157
74	0xbec23a49	-0.37935093
75	0xbd433f64	-0.047667876
76	0x3e30b024	0.17254692
77	0xbc96a626	-0.018389773
78	0x3d93976c	0.07206616
79	0xbd0cffcf	-0.034423646
80	0xbbc1e0c0	-0.005916685
81	0xbd335fe6	-0.043792628
82	0x3e525dc4	0.20543581
83	0xbe37d2bb	-0.17951481
84	0xbdc4758b	-0.09592732
85	0x3e0ec39d	0.13941808
86	0xbd0a82d3	-0.03381617
87	0xbcbd6c2b	-0.023122868
88	0xbe57729d	-0.21039815
89	0x3db144e0	0.08655715
90	0xbee9bd76	-0.4565236
91	0xbd82ce1b	-0.06386968
92	0xbd85063d	-0.064953305
93	0xbeb94f6d	-0.3619341
94	0xbc0caf28	-0.008586682
95	0xbd5601ca	-0.0522478
96	0xbdc4ac53	-0.09603181
97	0xbc423dbf	-0.011855542
98	0xbd5ee012	-0.05441291
99	0xbd097556	-0.033559166
100	0xbea8e11c	-0.32984245
101	0xbea4c9e6	-0.32185286
102	0x3dcc34d3	0.09971013
103	0xbc26a39c	-0.010170843
104	0xbd5f525b	-0.0545219
105	0x3d42727f	0.047472473
106	0x3d932565	0.07184867
107	0xbda29088	-0.079377234
108	0xbeacea88	-0.33772683
109	0xbd9e67e6	-0.07734661
110	0xbc65eeef	-0.014034017
111	0xbfbd73ec	-1.4801002
112	0xbe64f2e4	-0.2235828
113	0x3d86426b	0.06555637
114	0xbdfbb27c	-0.122899026
115	0xbcc641e8	-0.024201348
116	0xbe590cde	-0.21196315
117	0xbf013220	-0.5046711
118	0xbdb848ca	-0.089982584
119	0xbc361128	-0.011112489
120	0x3c460061	0.012085051
121	0xbed34a7b	-0.41267762
122	0x3d310331	0.043215934
123	0x3da51c7e	0.08062075
124	0x3d11a43b	0.035557013
125	0x3edc55c2	0.43034178
126	0x3dc73b9b	0.09728166
127	0xbe0be4a2	-0.13661435
128	0x3cee3bb3	0.029081201
129	0xbc8e5b5a	-0.017377544
130	0x3d9541f7	0.072879724
131	0xbe99b88f	-0.3002362
132	0x3cbd3083	0.023094421
133	0x3d5fd4bf	0.05464625
134	0xbed02bfa	-0.4065855
135	0xbdcc8746	-0.09986739
136	0x3e0545da	0.13014928
137	0xbcdbcf04	-0.026832111
138	0xbe0fc47c	-0.14039797
139	0xbcd7c94f	-0.026341109
140	0xbbf52435	-0.007481123
141	0x3d60355c	0.054738387
142	0xbd892957	-0.06697338
143	0xbdaffdab	-0.08593305
144	0xbc38b584	-0.011273745
145	0xbccdf0c7	-0.025139226
146	0x3c8a112d	0.016853893
147	0x3da5438a	0.08069523
148	0xbda338e3	-0.07969835
149	0xbca779c9	-0.020443814
150	0x3dcfe40b	0.101509176
151	0xbc265724	-0.010152612
152	0x3cfaecd5	0.030630508
153	0xbf92bbb7	-1.1463536
154	0xbcf74e7c	-0.030188791
155	0x3dcb230d	0.09918795
156	0xbd47aae5	-0.048746962
157	0x3eb26c9b	0.34848484
158	0xbe9b1850	-0.30291986
159	0xbce8ba78	-0.028409228
160	0x3e376295	0.179087
161	0xbf1538f0	-0.58290005
162	0x3e8217b8	0.2540872
163	0xbf59733c	-0.8494146
164	0x3e13d22c	0.14435643
165	0xbea4ed92	-0.32212502
166	0xbec1920e	-0.37806743
167	0x3f040c48	0.5158124
168	0xbe28706a	-0.16449133
169	0x3d038a80	0.032114506
170	0xbe5ef9dd	-0.21775003
171	0xbd12c0f3	-0.035828542
172	0x3e08e32b	0.13367908
173	0xbec56648	-0.38554597
174	0xbdc72b4f	-0.09725057
175	0xbd219074	-0.0394444
176	0x3d9e1c0e	0.07720195
177	0x3eb69b59	0.35665396
178	0xbd0b1007	-0.03395083
179	0xbf825b3c	-1.0184093
180	0xbdeab84e	-0.114609346
181	0xbe6c7ef0	-0.23095298
182	0x3db802a3	0.08984878
183	0x3d24f10e	0.04026895
184	0xbe79777a	-0.24361983
185	0x3b292c83	0.0025813885
186	0xbe165d64	-0.14684063
187	0xbd05badb	-0.032648902
188	0x3f88380d	1.0642105
189	0xbe39ab2e	-0.18131706
190	0xbee5f17d	-0.44910803
191	0x3ebc5bc5	0.36788765
192	0x3d0ef104	0.03489782
193	0x3db3cc8d	0.08779249
194	0xbd100e14	-0.035169676
195	0x3d1ff92f	0.039056
196	0x3d0ad76e	0.033896856
197	0x3eaf5261	0.34242538
198	0x3dadcee6	0.08486728
199	0xbd31204c	-0.04324369
200	0xbceb1318	-0.028695628
201	0xbedddf89	-0.43334606
202	0x3d65994e	0.056054406
203	0x3ce5e660	0.028063953
204	0xbc75a018	-0.014991783
205	0xbd3340d2	-0.04376299
206	0xbed8b9c1	-0.4232922
207	0xbdc9aab0	-0.09847009
208	0x3d2d3745	0.042289037
209	0xbd750183	-0.059815895
210	0xbcea3ba9	-0.028592901
211	0x3d164af0	0.03669256
212	0x3be3a7b2	0.006947481
213	0xbe0e77db	-0.13912909
214	0xbba66c6e	-0.005078844
215	0xbd640a5b	-0.05567394
216	0xbd15b129	-0.036545906
217	0x3d17b9ba	0.037042357
218	0x3cff040e	0.031129863
219	0x3b96ce58	0.004602235
220	0x3d618480	0.055058002
221	0xbf0e72b1	-0.55643755
222	0xbeb29bfc	-0.34884632
223	0xbf08641f	-0.5327777
224	0xbde0c167	-0.109743886
225	0xbe2c278d	-0.16811962
226	0xbf5e5b91	-0.8685847
227	0x3d084321	0.033267144
228	0x3dc72fec	0.09725937
229	0xbda2738f	-0.07932197
230	0x3b6c7cbd	0.0036085092
231	0x3c2c0009	0.010498055
232	0x3cf6bc07	0.030118955
233	0x3bcb616f	0.0062066833
234	0x3b372880	0.0027947724
235	0xbd8f89dd	-0.07008717
236	0xbf22da0d	-0.6361397
237	0xbde02fa0	-0.10946584
238	0x3c059f84	0.008155707
239	0x3c9f99e6	0.019482564
240	0x3e4806e7	0.19533883
241	0xbd132da0	-0.035932183
242	0x3df9490f	0.12172138
243	0xbd5e7994	-0.054315165
244	0xbd1a3c66	-0.037655257
245	0xbe22c534	-0.1589554
246	0x3db9c3c1	0.0907054
247	0x3d815a21	0.06316019
248	0x3e51d53b	0.20491497
249	0x3bdbba87	0.0067055854
250	0xbda078d0	-0.07835543
251	0x3ca0d90b	0.019634744
252	0xbdbfb016	-0.093597576
253	0x3d14ea90	0.03635651
254	0xbd053cad	-0.032528568
255	0x3e80e76e	0.25176567

linear_relu_stack.3.bias f4 [256]
0	0x3e89a710	0.2688527
1	0x3e6f73e1	0.23384048
2	0xbd2fd35d	-0.04292618
3	0xbe23f792	-0.1601241
4	0x3b18deff	0.0023326275
5	0xbcbd5f01	-0.02311659
6	0xbdd6541d	-0.10465262
7	0x3d5cfd97	0.05395278
8	0xbdafce52	-0.08584274
9	0xbd6892f6	-0.056780778
10	0xbbac8a7e	-0.005265533
11	0xbce5065c	-0.027957134
12	0x3cbde72f	0.023181526
13	0xbd688ec5	-0.05677678
14	0xbd18974e	-0.03725367
15	0xbd98326a	-0.07431491
16	0xbd8cd919	-0.068773456
17	0xbd875c70	-0.06609428
18	0x3aa8be7c	0.0012874152
19	0x3df9d0ed	0.121980526
20	0xbd1ee8ce	-0.03879624
21	0xbd073248	-0.033006936
22	0xbccde935	-0.025135616
23	0xbc93338c	-0.017968915
24	0xbd076fe4	-0.03306569
25	0xbbfd7ca3	-0.007735805
26	0xbd99d615	-0.07511536
27	0xbce36d66	-0.027762126
28	0x3d82ac68	0.0638054
29	0xbcdafd4c	-0.02673211
30	0xbdccfe6c	-0.100094646
31	0xbdb81e18	-0.08990115
32	0xbc749266	-0.014927482
33	0xbd91b7b7	-0.07115119
34	0xbdb2dbf6	-0.087333605
35	0xbd8436d5	-0.06455771
36	0xbdcdde07	-0.10052114
37	0xbda9e02c	-0.082947105
38	0x3d31c2ce	0.04339867
39	0xbd52639e	-0.051364534
40	0xbc18da9b	-0.009329463
41	0x3f06851c	0.5254686
42	0x3d0f23ff	0.034946438
43	0xbd094d34	-0.033520892
44	0xbd5aff20	-0.053465962
45	0xbd9e552d	-0.0773109
46	0x3ba90301	0.005157829
47	0xbd1c0753	-0.038092922
48	0xbca64d1b	-0.020300439
49	0xbce2056e	-0.02759048
50	0xbd41cb31	-0.04731292
51	0xbda9372d	-0.08262477
52	0xbd9fc243	-0.07800724
53	0xbd75c335	-0.060000617
54	0xbd3fa090	-0.046783984
55	0xbb83611c	-0.004009379
56	0xbd6671c5	-0.056260843
57	0xbdabc345	-0.08386854
58	0x3e1f9a68	0.15586245
59	0xbcc4cb3d	-0.024022693
60	0xbd887c0e	-0.066642866
61	0xbd12d47c	-0.035847172
62	0x3c6335d4	0.013867814
63	0xbd8ce75d	-0.068800665
64	0xbdbd65af	-0.0924791
65	0xbcface80	-0.030616045
66	0xbd240866	-0.040047072
67	0xbcaf95b9	-0.021433698
68	0xbdfdf2bb	-0.12399813
69	0xba84f682	-0.0010144266
70	0xbd83f082	-0.064423576
71	0xbd1097fa	-0.035301186
72	0xbda48549	-0.080332346
73	0xbc862c3d	-0.016378516
74	0xbd7982f8	-0.060915917
75	0xbdace90c	-0.08442888
76	0xbd1067df	-0.03525531
77	0xbd390d20	-0.045178533
78	0xbcf4a9ca	-0.029866118
79	0xbd8e03bb	-0.06934305
80	0xbcccb8ed	-0.024990523
81	0xbda70402	-0.08155061
82	0xbc93ebe8	-0.018056825
83	0xbd91c2e3	-0.0711725
84	0xbc85d74a	-0.01633801
85	0xbd412297	-0.047152128
86	0xbd36d985	-0.044641037
87	0xbdba5288	-0.09097773
88	0xbd76a7b6	-0.060218535
89	0xbd86c44b	-0.06580409
90	0xbd379654	-0.0448211
91	0xbd4bb865	-0.0497364
92	0xbcf42706	-0.029803764
93	0xbc9a14d5	-0.018808762
94	0x3dc5ed8c	0.09664449
95	0xbc3ff2c6	-0.011715597
96	0xbd8c5e2a	-0.06853898
97	0xbd956ebe	-0.07296513
98	0xbd84d523	-0.06485965
99	0xbd8338ab	-0.06407293
100	0xbd78bdc8	-0.060727865
101	0xbd5fb20c	-0.054613158
102	0xbdcda8a2	-0.1004193
103	0xbd4472e7	-0.047961142
104	0xbc17d4f6	-0.009267082
105	0xbd6efda2	-0.05834735
106	0xbd27f04f	-0.04100066
107	0xbd4f97e3	-0.05068196
108	0xbd44e790	-0.048072398
109	0xbdae9737	-0.08524936
110	0xbd5a0647	-0.053228643
111	0xbcb512b4	-0.022103645
112	0xbc721807	-0.014776236
113	0xbd541eab	-0.05178706
114	0xbd5e91a9	-0.05433813
115	0xbd6b54fd	-0.057454098
116	0xbce41331	-0.027841182
117	0xbd6541d6	-0.05597099
118	0xbdb2eab1	-0.0873617
119	0xbd5c3fa1	-0.05377162
120	0xbdfa579a	-0.1222374
121	0xbc56ac54	-0.01310261
122	0xbc00ae83	-0.007854107
123	0xbda1ffc8	-0.079101145
124	0xbc1d5efd	-0.0096051665
125	0xbcc87f7d	-0.024474854
126	0x3e8349c1	0.25642207
127	0xbcc97dc6	-0.024596106
128	0xbd903371	-0.07041062
129	0xbd643d77	-0.05572268
130	0xbcc2cb89	-0.023778694
131	0xbd18269a	-0.03714619
132	0xbc434752	-0.01191886
133	0xbdbdcb40	-0.092672825
134	0xbcc7e4b9	-0.024401056
135	0xbdce1776	-0.100630686
136	0xbdd34cf9	-0.10317416
137	0xbc942601	-0.018084528
138	0xbd9bf255	-0.076145805
139	0xbd7ea829	-0.06217209
140	0x3dfa5cbd	0.1222472
141	0xbc890d3d	-0.016729945
142	0xbcbb500d	-0.02286532
143	0x3ea2ac01	0.31771854
144	0xbc3d597b	-0.011556978
145	0xbde10ff0	-0.10989368
146	0xbd883318	-0.0665037
147	0xbe7f2b43	-0.24918847
148	0xbcb8a96c	-0.022541724
149	0xbd5aeebb	-0.053450327
150	0xbd7bc0b4	-0.061463073
151	0xbda03c8f	-0.07824051
152	0xbd6c0662	-0.057623275
153	0xbc1c4ffe	-0.009540556
154	0xbcd943a5	-0.026521513
155	0xbd2e2e7d	-0.042524803
156	0xb9f291eb	-0.00046266554
157	0xbbb1762d	-0.005415699
158	0x3d5d02dc	0.053957805
159	0xbcd0f55e	-0.025507625
160	0x3de0f8ec	0.10984978
161	0xbd3d470e	-0.04621034
162	0xbd387e80	-0.045042515
163	0xbd8f5121	-0.06997896
164	0xbd8255f8	-0.063640535
165	0xbbdbd7e4	-0.006709086
166	0xbe031f0d	-0.12804814
167	0xbd6830c3	-0.056687128
168	0xbd171513	-0.036885332
169	0x3e731e57	0.23742042
170	0xbd45f4c5	-0.048329134
171	0xbd3e46a7	-0.046454098
172	0xbdbc18ef	-0.09184443
173	0xbd89d383	-0.06729796
174	0x38f1e831	0.000115350245
175	0xbda400ef	-0.080079906
176	0xbd93edd8	-0.072230995
177	0xbd6cfae8	-0.05785647
178	0xbcb439fe	-0.02200031
179	0xbd3f914b	-0.04676942
180	0xbc559e14	-0.013038177
181	0xbd91fc7d	-0.071282364
182	0xbc8df0c2	-0.017326716
183	0xbd86ed63	-0.06588247
184	0xbc54e233	-0.012993383
185	0xbcf5f00a	-0.030021686
186	0xbd150bbc	-0.036388144
187	0xbd7d9b14	-0.061915472
188	0xbd8a2803	-0.06745913
189	0xbd18ff4d	-0.03735285
190	0xbda85843	-0.082199596
191	0xbd20b282	-0.03923274
192	0x3c60f2ac	0.0137297325
193	0xbd9c9b05	-0.07646755
194	0x3d18cbbc	0.03730367
195	0xbd600e06	-0.054700874
196	0x3e970705	0.29497543
197	0xbd1360d4	-0.035981014
198	0xbd063f0b	-0.032774966
199	0xbd4fc71d	-0.050727
200	0xbb73483d	-0.0037121915
201	0x3d1e03e4	0.03857793
202	0xbd8a1d5d	-0.06743882
203	0xbd444660	-0.047918677
204	0xbdba7e8e	-0.0910617
205	0xbdaecf13	-0.0853559
206	0xbd97e08f	-0.07415878
207	0xbdca509a	-0.09878655
208	0xbdc5fd02	-0.09667398
209	0xbd829a39	-0.06377072
210	0xbcd4ba08	-0.025967613
211	0xbc8dd268	-0.017312244
212	0xbc57a7c4	-0.013162557
213	0xbd7e73a8	-0.062122017
214	0xbd480b64	-0.048838988
215	0xbccde0d7	-0.025131626
216	0xbd8d64ae	-0.06903969
217	0xbd72cc82	-0.059277065
218	0xbd3feca7	-0.04685655
219	0xbd8d0cac	-0.068871826
220	0xbcc6784d	-0.024227286
221	0xbd1b3dfb	-0.037900906
222	0xbd8f6f9a	-0.07003708
223	0x3dd5ed93	0.10445704
224	0xbd241034	-0.040054515
225	0xbca3ef4e	-0.02001157
226	0xbd91c1e0	-0.07117057
227	0xbdae02bf	-0.084966175
228	0x3e94a717	0.2903373
229	0xbce5d88d	-0.028057361
230	0xbcc818c0	-0.024425864
231	0xbcd44976	-0.025913935
232	0xbd4b7b05	-0.049677867
233	0x3b08d4b9	0.0020878746
234	0x3d693c04	0.056942
235	0x3e3a9b61	0.18223335
236	0x3eb431da	0.35194284
237	0xbd120300	-0.035647392
238	0x3e168c57	0.14701973
239	0xbe3d4680	-0.18483925
240	0xbd1fb04a	-0.03898648
241	0xbdaa91e4	-0.08328608
242	0xbd981bdc	-0.07427189
243	0xbc5b66e7	-0.013391233
244	0x3af12c6c	0.001840008
245	0xbb6b6f19	-0.0035924374
246	0x3db4d115	0.08828942
247	0xbda2abf9	-0.079429574
248	0xbcf02f85	-0.029319534
249	0xbce2f9c5	-0.02770699
250	0x3c0f16ac	0.008733433
251	0xbdbc715c	-0.09201309
252	0xbd7e869c	-0.062140092
253	0xbdf07712	-0.11741461
254	0xbca94002	-0.020660404
255	0xbd1a7f2a	-0.03771893

linear_relu_stack.6.weight f4 [2, 256]
0	0xbde72de6	-0.11288051
1	0x3f0537ae	0.52038085
2	0xbc7e8ca7	-0.015536464
3	0x3b00dbc8	0.001966225
4	0xbb57dc21	-0.0032937604
5	0xbc3d0253	-0.011536199
6	0x3cdd53e0	0.027017534
7	0x3f338b7c	0.7013471
8	0xbcc2514c	-0.023720406
9	0x3ba5875b	0.005051536
10	0xbcb80aa2	-0.022466008
11	0x3ceeaed4	0.029136099
12	0x3dcdfa95	0.1005756
13	0x3cee18d5	0.029064575
14	0x3c26116c	0.01013599
15	0xbca3a7f0	-0.01997754
16	0xbc8c11fb	-0.017098418
17	0xbc7c1f5a	-0.015388334
18	0x3bcf398d	0.0063239993
19	0x3e0cfe62	0.13768914
20	0x3a84cde0	0.0010132156
21	0x3bf3468d	0.007424182
22	0x3cae9fb7	0.021316392
23	0xbcaa9941	-0.02082503
24	0xbb701b68	-0.003663743
25	0xbcb8d890	-0.022564203
26	0x3f028ad7	0.509931
27	0x3cefaf5a	0.029258419
28	0x3eb3bf2a	0.35106784
29	0x3c8f5887	0.017498268
30	0xbc4adefa	-0.012382263
31	0xbce6d7b1	-0.028179022
32	0xbd74548d	-0.059650946
33	0x3ca27e9a	0.019835759
34	0xbd16863d	-0.036749113
35	0xbc5fa5e6	-0.013650393
36	0xbc7e61f0	-0.01552628
37	0x3c4e71ca	0.012600372
38	0xbba7fa5e	-0.0051262816
39	0xbc5ebced	-0.013594848
40	0x3c84218e	0.016129281
41	0xbe86afa9	-0.26305893
42	0x3ec81c13	0.3908392
43	0x3ca1f116	0.019768279
44	0x3c07436f	0.0082558235
45	0xbd0b336b	-0.033984583
46	0xbb3a5c21	-0.002843626
47	0x3bab58a1	0.0052290712
48	0x3bdb27d2	0.0066880966
49	0x3cc71316	0.024301093
50	0x3c0dd739	0.00865727
51	0xbcadd61f	-0.021220265
52	0xbc9c5a72	-0.019086096
53	0x3cba91c8	0.022774592
54	0xbcdc9416	-0.026926082
55	0x3a8385a8	0.001003434
56	0xbc0dc0e9	-0.00865195
57	0xbca16700	-0.019702435
58	0x3f05057f	0.5196151
59	0xbc2cd0a6	-0.010547793
60	0xbc9366c1	-0.017993333
61	0x3ca8fefc	0.020629399
62	0xbe037485	-0.12837417
63	0xbcf814fc	-0.030283444
64	0xbc208458	-0.009797178
65	0xbcb23186	-0.02175213
66	0x3cee3340	0.029077172
67	0xbb3aadc0	-0.002848491
68	0xbbfe79ba	-0.007765976
69	0x3f3ff864	0.7498839
70	0xbc2af88d	-0.010435236
71	0x3cff3386	0.031152498
72	0x3cb26831	0.021778198
73	0xbcd01bce	-0.025403883
74	0x3a7f1447	0.00097304996
75	0xbc8c630d	-0.017137075
76	0x3c8c8f54	0.017158188
77	0xbb01d722	-0.0019812067
78	0x3b272315	0.0025503088
79	0x3cd1d759	0.025615381
80	0xbcb0fcd5	-0.021604935
81	0x3cc9641b	0.024583867
82	0xb953a7a3	-0.00020184978
83	0xbcb594db	-0.022165706
84	0x3ced16a4	0.02894146
85	0xbc326e6b	-0.0108905835
86	0x3ad1bfb6	0.0016002569
87	0x3cacc398	0.02108936
88	0xbd05b1a6	-0.032640122
89	0x3d3f3625	0.046682496
90	0x3cc17755	0.023616472
91	0x3cea98fc	0.028637402
92	0xbbd30d20	-0.0064407736
93	0xbda1add9	-0.07894487
94	0xbf636187	-0.8882069
95	0x3b3ccdf9	0.0028809293
96	0x3d2e8ad5	0.04261287
97	0x3bb6e26e	0.0055811917
98	0x3c96c05c	0.018402271
99	0xbcd1c046	-0.025604378
100	0xbd66a3a1	-0.056308392
101	0x3d387cb7	0.045040812
102	0x3c754e9d	0.014972356
103	0x3c6b909b	0.014377738
104	0xbb8d9cfe	-0.0043216934
105	0xbca8a82d	-0.020588005
106	0xbc0efb0a	-0.008726845
107	0x3b80ed8d	0.0039345683
108	0xbca50b8d	-0.02014711
109	0xbd47881d	-0.048713792
110	0x3c634917	0.013872406
111	0x3ce8577e	0.028362032
112	0x3c09721d	0.008389023
113	0xbca4c7dd	-0.020114833
114	0xbce0c8d2	-0.027439509
115	0xbcbd63e3	-0.023118919
116	0xbbf975b5	-0.0076129087
117	0xbca7956d	-0.020456994
118	0xbca3898a	-0.019963045
119	0xbcba8ca9	-0.02277215
120	0xbef6ddf2	-0.48216206
121	0x3c38c34b	0.01127703
122	0xbc9a4c33	-0.018835163
123	0x3d1d1080	0.038345814
124	0xbb558c1e	-0.0032584737
125	0x3cdfc12a	0.027313787
126	0xbe6d8841	-0.23196508
127	0x3b20967b	0.0024503756
128	0xbcaf33a0	-0.021386921
129	0x3b9f0c1d	0.004853739
130	0x3ee228e9	0.44171837
131	0x3c789dde	0.015174357
132	0xbb367051	-0.0027837942
133	0xbc838440	-0.016054273
134	0xbc46d728	-0.012136258
135	0x3d0878b9	0.033318255
136	0x3bcd1502	0.006258608
137	0x3cfb51fc	0.030678742
138	0xb93eff8a	-0.00018215008
139	0xbcadef4f	-0.021232275
140	0x3e62e647	0.22158156
141	0xbcdf9611	-0.027293237
142	0x3c302a78	0.010752313
143	0x3e082230	0.13294291
144	0x3c75e4ff	0.01500821
145	0xbc2929e9	-0.010324934
146	0xbca555ba	-0.02018248
147	0x3dd8dfb3	0.10589542
148	0x3b067351	0.0020515511
149	0x3bd4f851	0.006499328
150	0xbbed4671	-0.0072410633
151	0x3d0617a6	0.032737397
152	0x3c834bf8	0.016027436
153	0x3c9837fe	0.018581387
154	0xbccf36c4	-0.025294669
155	0x3bba4f5d	0.0056857304
156	0xbaa1bb51	-0.001233915
157	0x3efefdea	0.49803096
158	0x3ea78394	0.32717574
159	0xbc2618e4	-0.01013777
160	0xbd73664e	-0.059423737
161	0x3cd89048	0.026435986
162	0xbc916e6e	-0.017752852
163	0xbc828ca7	-0.015936209
164	0xbc86843d	-0.016420478
165	0xbce902de	-0.02844375
166	0x3c9f3106	0.019432556
167	0xbe5bc1fb	-0.21460716
168	0x3ddc683a	0.10762067
169	0x3d2f22a6	0.042757653
170	0x3cc13914	0.023586787
171	0xbb5ce4f2	-0.0033705798
172	0xbc0de6c8	-0.00866098
173	0xbc1a9015	-0.009433766
174	0x3c642180	0.013924003
175	0x3bfa3db3	0.0076367497
176	0xbc9898d8	-0.01862757
177	0xbcad2fe4	-0.021141
178	0xbc136c34	-0.008997966
179	0xbca951b3	-0.02066884
180	0x3b165583	0.0022939153
181	0xbbaf0070	-0.0053406283
182	0x3cb07b2b	0.021543106
183	0x3b38534e	0.0028125825
184	0x3c1c036a	0.009522298
185	0x3d07e157	0.033173885
186	0x3cc7f6db	0.024409702
187	0xbb6d82da	-0.0036241324
188	0xbc2dd221	-0.010609181
189	0x3c1d8aae	0.009615583
190	0xbc36ca86	-0.011156684
191	0xbcd1ae1f	-0.025595723
192	0xbc98d22a	-0.018654902
193	0x3c87f9fa	0.01659869
194	0xbddf23c4	-0.108954936
195	0x3cfea71b	0.031085541
196	0x3e039c47	0.12852584
197	0xbd12af81	-0.035811905
198	0x3c526539	0.012841516
199	0xbd3eda51	-0.04659492
200	0xbc18482f	-0.009294554
201	0x3f01629e	0.505411
202	0xbcbe2ec3	-0.023215657
203	0xbc827f35	-0.015929798
204	0xbb8f550f	-0.0043741534
205	0xbc53a003	-0.012916568
206	0xba55dd9c	-0.00081583275
207	0x3db5686e	0.08857809
208	0xbba02672	-0.0048873955
209	0x3c995e94	0.018721856
210	0xbd22e748	-0.03977135
211	0xbc53772b	-0.01290683
212	0x3b524577	0.0032084861
213	0xbc8f2245	-0.017472396
214	0xbca29573	-0.019846654
215	0x3bbc9a7b	0.00575572
216	0xbc090f31	-0.008365438
217	0xbc388894	-0.0112630315
218	0xbc818cba	-0.015814174
219	0xbc464ef1	-0.012103782
220	0xbcb18d32	-0.021673772
221	0x3ba544ec	0.0050436165
222	0xbc1f3980	-0.009718299
223	0x3ec92039	0.39282396
224	0x3ce24adc	0.027623586
225	0xbc6abdd1	-0.014327482
226	0x3c43b6da	0.011945451
227	0x3c4e7deb	0.012603263
228	0xbe492c52	-0.19645813
229	0x3b87c550	0.0041433945
230	0x3c97b116	0.018517058
231	0xbcc157db	-0.023601463
232	0x3d19780b	0.037467998
233	0xbcf37cc9	-0.029722588
234	0x3f0174ee	0.50569046
235	0xbeb34c10	-0.3501897
236	0x3e346117	0.17615162
237	0xbc3f8f4f	-0.011691882
238	0xbe60efda	-0.21966496
239	0xbdedefe1	-0.11618019
240	0x3cd9271b	0.026507905
241	0x3c245f66	0.01003251
242	0xbc1d63ff	-0.00960636
243	0x3d2268ea	0.039650835
244	0xbc7c2476	-0.015389552
245	0xbcfe9e68	-0.031081393
246	0xbf040b7a	-0.5158001
247	0x3cea4ab5	0.028600076
248	0xbcd217f2	-0.025646184
249	0xbbb61422	-0.0055565992
250	0x3bb66a19	0.005566847
251	0x3b5681a8	0.003273109
252	0xbc8a5193	-0.0168846
253	0x3bdcaf0e	0.0067347353
254	0x3cf3f545	0.02978004
255	0x3aec51d0	0.0018029753

linear_relu_stack.6.bias f4 [2]
0	0x3f1d68fa	0.61488307
1	0x3f00aac4	0.5026057
