Assets/ONNX/ffn.onnx (onnx, 338681 bytes, 5 tensors)

linear_relu_stack.0.weight f4 [256, 71]
000000 61 9c 64 be aa 83 fa 3e 09 c9 54 3e c4 2a 0c 3f
       -0.22325279 0.48928577 0.20779814 0.54752755
000010 bd b3 b5 be 25 52 c4 3e a4 7a 43 bb b3 86 45 3d
       -0.35488692 0.3834392 -0.0029827738 0.048224162
000020 3f 2c de bd bb 95 18 3e 59 94 93 bd 06 65 ca 3d
       -0.10848283 0.14900868 -0.072060294 0.0988255
000030 3e 96 fc 3c 06 0e ce bd a5 da f8 bd 5d 59 fb bc
       0.03083336 -0.100612685 -0.12151078 -0.03068226
000040 c0 ac 91 bd 1b 69 a7 3d 69 d7 6c bd 69 e5 2d 3c
       -0.071130276 0.08174344 -0.05782262 0.010613778
000050 99 9c 55 3d e8 86 05 3e 39 76 99 bb 6d 0e 5a 3d
       0.052151296 0.13039744 -0.0046832827 0.053236414
000060 57 83 6d bd 0a b5 a6 bd 4d 2f 95 bd 80 95 52 3e
       -0.057986584 -0.08139999 -0.072844125 0.20564842
000070 9c e0 e2 b9 99 c1 18 bd 18 33 ae bd 26 3b 73 bd
       -0.00043273426 -0.037294004 -0.08505839 -0.05938258
000080 be f2 f8 bd 0b 83 b0 3c 46 ad 04 3d 64 7a 5d bd
       -0.121556744 0.021546861 0.03239181 -0.0540718
000090 99 14 ea 3d db b9 80 bd 7d df d9 bd ac ba 38 bd
       0.1142971 -0.06285449 -0.1063833 -0.0450999
0000a0 ea d9 e4 bd f3 e6 fa 3d 0a 37 17 be 00 2b 4f 3c
       -0.11174376 0.12251081 -0.1476709 0.012644529
0000b0 7d 89 82 3d b2 52 2e 3e b3 15 05 3f 3c 2a 6f bb
       0.0637388 0.17023733 0.51986235 -0.003649368
0000c0 46 87 b7 bd d8 0d 09 bd 8a 47 11 bd 0d f5 16 3d
       -0.08961348 -0.033460468 -0.035468616 0.036854792
0000d0 a2 7a 27 be 27 48 25 3e b3 b2 1e 3c 3d a5 ac bd
       -0.16355374 0.16140805 0.00968616 -0.08429954
0000e0 8c 2c 81 3d ed ea 31 3c 78 81 88 3e 18 fd 5d 3d
       0.06307325 0.010859233 0.26661277 0.054196447
0000f0 4e 8a 53 bd a1 00 05 3f d5 33 99 bd 69 a9 c1 bd
       -0.05164557 0.51954085 -0.07480589 -0.094561405
000100 28 df dc 3d 88 67 63 be ff da e6 bd 6a 74 1d 3d
       0.10784751 -0.22207463 -0.11272239 0.0384411
000110 43 02 5a bc c8 25 dc bc 3b 12 11 3d f4 11 6f 3e
       -0.013306203 -0.026873484 0.035417777 0.23346692
000120 f9 bd 4b bf 13 5a 4e be 14 0e 84 bd ed 2d 51 bf
       -0.7958675 -0.20151548 -0.06447998 -0.817107
000130 e5 75 91 3d 78 27 df ba 68 57 95 3d e9 b5 a4 3d
       0.07102565 -0.0017025312 0.07292062 0.08042509
000140 07 a7 b8 ba 8e 33 c4 bd d7 a1 08 3e ab 71 a1 bd
       -0.0014087864 -0.09580146 0.13342987 -0.078830086
000150 c1 28 3e bf 59 5c c4 bd 27 8a 9d be a7 5b 8b 3d
       -0.74280936 -0.095879264 -0.30769464 0.06804591
000160 7a ea 41 bd 17 3a 55 be 96 b6 df 3c ce c3 88 bc
       -0.047342755 -0.20822941 0.027308743 -0.01669493
000170 58 1a 28 3b 30 30 4c 3c 93 34 d9 bc 59 64 29 bd
       0.0025650468 0.012462661 -0.026514327 -0.041355465
000180 e1 d9 8b bb 4a b1 54 be da 5d 21 3e 1f 97 07 be
       -0.0042679165 -0.20770755 0.15758458 -0.13241242
000190 88 ed b6 bd 3b 86 31 3d 47 a9 4b 3c 84 8c a9 bc
       -0.08932024 0.043340903 0.012430496 -0.020696886
0001a0 3c 57 45 3d 04 8c 70 3d 5e 3e 06 3c b7 ec 5d 3d
       0.048178896 0.05872728 0.00819358 0.054180827
0001b0 64 8c 24 bf 44 95 9a bd 6c 71 8c bd f6 d1 3b bf
       -0.6427672 -0.075480014 -0.06857571 -0.7336725
0001c0 fc 5b b0 bb c2 7f f5 be b8 7f 9e bd 87 ac b6 bd
       -0.005382059 -0.47949034 -0.07739204 -0.08919626
0001d0 93 f3 32 bf 80 86 9b be 0a 56 bf bb f0 f3 0d 3e
       -0.69902915 -0.30376053 -0.005839114 0.13862586
0001e0 3c fa ac 3d c0 1d b0 3b f1 a6 b2 3b 80 da 15 bf
       0.08446166 0.00537464 0.00545203 -0.5853653
0001f0 87 6c 13 be 28 16 1e bd a7 e1 b6 ba 83 7b 91 bc
       -0.14396869 -0.03859535 -0.0013952748 -0.01775909
000200 cf 45 f5 bd 63 8a 1f bf 91 27 0f be 08 3e 9c bd
       -0.119762056 -0.62320536 -0.13979937 -0.07629019
000210 10 24 91 bf 2d 16 07 be b1 9e ed 3c 0e 9b f9 bb
       -1.133913 -0.13192053 0.029006334 -0.007617361
000220 78 dc fc be b9 f5 0b be c7 5f 8f bd b3 ef 31 bd
       -0.49386954 -0.13667955 -0.0700069 -0.043441486
000230 9e 10 7f be ff f2 01 be dd f0 86 bd 50 0f 13 be
       -0.24908683 -0.12690352 -0.0658891 -0.1436131
000240 f4 0c d5 bc bc 02 93 3d cc 3e 8e bd da 94 a7 3c
       -0.026007153 0.07178256 -0.06945571 0.02045672
000250 5c ec a8 bd ec 66 c0 bd 6b 52 94 3d 8b b0 af bd
       -0.08248207 -0.09394631 0.072422825 -0.08578595
000260 2e 4e 8d bd cb 57 e5 bd 14 21 d3 bc 29 11 9f bd
       -0.06899677 -0.11198386 -0.025772609 -0.07766945
000270 c4 59 13 bc 95 a1 8f bb 55 95 4c 3d 17 42 12 3d
       -0.00899357 -0.0043832758 0.0499471 0.03570756
000280 ea b6 01 3c f7 76 9f bc af 17 0e be 08 3a 83 3d
       0.007917145 -0.019465907 -0.13876222 0.06407553
000290 39 ba 91 bd 46 5b ba 3c b6 43 ab 3c 45 b8 25 bc
       -0.07115597 0.0227486 0.02090631 -0.010114734
0002a0 9b 1e 66 3d 22 de 9d bd ec 1a 89 3c 32 65 ba 3d
       0.05618153 -0.07708384 0.01673647 0.09101333
0002b0 fe 69 8b 3c 01 4b 55 3d c6 92 b4 3d 5a 5d 28 3d
       0.017018314 0.052073482 0.08817057 0.041104652
0002c0 be 46 f0 b9 26 a2 b9 bd 61 63 93 bb b9 59 1e 3d
       -0.00045829074 -0.090641305 -0.004497931 0.038659785
0002d0 84 28 ca 3d 57 08 06 bd f3 5c 37 3d 64 58 9f 3d
       0.09871009 -0.032722797 0.044766378 0.07780531
0002e0 63 d1 e2 bd 04 c8 7a 3c 4f c7 97 bd 7b 7b 0e be
       -0.110750936 0.0153064765 -0.07411062 -0.13914292
0002f0 56 18 7f bd ec 63 55 bd 22 4a 51 3d ab 76 af 3d
       -0.062279068 -0.052097246 0.05109609 0.08567556
000300 49 bd c3 3c 71 57 ed 3c 38 aa 1c bc 4c 7b 5f bd
       0.02389397 0.02897236 -0.009562068 -0.054560944
000310 f6 67 c3 bd 96 68 4c bd 14 ab cc bd f2 5a 45 3d
       -0.09541313 -0.04990443 -0.09993568 0.048182435
000320 9e 9c ca bd 04 74 c1 3b e6 25 8f bd cd ae 44 3d
       -0.098931536 0.0059037227 -0.069896504 0.048018266
000330 28 5c ee 3d ed 7b 04 bd c5 f8 c1 3d ef cb a9 3d
       0.11638671 -0.032344747 0.09471277 0.0829085
000340 9d fe c7 bd 3c 46 c5 3d 2a 3f a7 bd 52 1e e0 bd
       -0.097653605 0.09632537 -0.081663445 -0.10943283
000350 99 d9 da bc be b0 84 3d 0e c2 31 be 96 db 12 bd
       -0.026715087 0.064790234 -0.17359182 -0.035853945
000360 fd cd 3c bd 59 f4 a2 3c 14 86 a5 bc 74 15 2b bd
       -0.046094883 0.019891905 -0.020205535 -0.041768506
000370 f6 79 fe 3c c6 fd a9 bd 22 db 76 3d 0c 2a 73 3d
       0.031064015 -0.083003566 0.060267575 0.05936627
000380 fc 1b fe 3d f3 32 dd bc 06 f8 b6 3c e2 53 95 3d
       0.12407681 -0.027001834 0.022335064 0.0729139
000390 fd ce e7 3c 23 81 a0 3c 26 a0 84 3d 90 9d 11 be
       0.028296942 0.019592827 0.064758584 -0.14220262
0003a0 2a e4 c8 bd 6a f0 c3 3d f1 ef ed 3c f5 b2 33 3b
       -0.09809144 0.0956734 0.029045077 0.00274199
0003b0 f2 f7 1f be 10 68 eb bc e8 77 e7 bd 40 7b 09 be
       -0.15621927 -0.028736144 -0.11302167 -0.13425922
0003c0 95 ec 67 bb bf b6 eb bd dd 24 08 3d d4 8a b3 3d
       -0.0035388817 -0.115094654 0.03323828 0.08766714
0003d0 c7 6e 33 3d c0 e2 11 bd bb 65 22 bd d0 07 1f be
       0.043806817 -0.035616636 -0.0396478 -0.15530324
0003e0 f8 40 02 bd bc 7f 64 3b ce 7f bc 3c b8 9c 87 3d
       -0.03180024 0.0034866175 0.02301016 0.066216886
0003f0 ea 46 57 3d d2 02 71 bd 83 bb b2 bc 05 10 9a 3c
       0.052557863 -0.05884058 -0.021817928 0.018806467

linear_relu_stack.0.bias f4 [256]
000000 01 f5 75 bd 8c 29 c0 3e 10 3b 63 bd c4 1e 97 bd
       -0.060048107 0.37531698 -0.05547625 -0.07378915
000010 09 5d cb 3d 77 16 05 bd a2 01 65 bc ef 9a d5 bd
       0.099298544 -0.032492127 -0.01397744 -0.10429942
000020 24 f8 19 be da d5 3c bd e6 95 0d be 78 50 07 be
       -0.15036064 -0.046102382 -0.13826713 -0.1321429
000030 3d 54 1e bc 44 63 11 bd 8d e4 8a be 2f f1 5f bc
       -0.009663639 -0.035495058 -0.27127495 -0.0136683425
000040 0d 3e dd bd 99 ad cb bd 6d 0c f1 bc ed 07 4e be
       -0.10802851 -0.099452205 -0.02942487 -0.20120211
000050 9b c2 0e be 89 c9 8d bd b1 eb ea bd fc b5 cf bd
       -0.13941424 -0.069232054 -0.11470736 -0.10142133
000060 38 a8 d1 bd 19 ea ce bd fc 82 5f be a8 bd 52 be
       -0.10237163 -0.10103244 -0.2182731 -0.2058016
000070 e9 d0 e4 bd 6a 06 57 bd 89 17 f6 bd 09 14 ca bd
       -0.11172659 -0.05249635 -0.12016208 -0.09867103
000080 11 93 ef bd 14 6d 72 3e ba 66 fd bd 72 2d c0 bd
       -0.116979726 0.23674423 -0.12373109 -0.09383668
000090 f1 ed ea bc 79 5f 0d bb 7d 1d 42 bd 79 c0 99 bd
       -0.028677912 -0.0021571799 -0.047391403 -0.07507414
0000a0 b2 a3 c4 be 6b b6 9a bd 7c f9 12 be 69 ec 03 be
       -0.3840614 -0.07554325 -0.14352983 -0.12883152
0000b0 8e d6 9e bd ba 43 c8 bd 40 3e d6 bd 6e 85 b8 bd
       -0.07755767 -0.09778543 -0.10461092 -0.09009825
0000c0 9a 2c f4 bd d7 0c 73 bd ba 1d d7 bd 94 3f c6 bd
       -0.119225696 -0.059338417 -0.10503717 -0.09680095
0000d0 c9 ae 13 be 0c f1 98 bd 2f d8 2a be 15 86 6b bd
       -0.14422144 -0.07467851 -0.1668403 -0.057500917
0000e0 cd 3f 1a bd 86 d6 9e bd fd 9e 26 bd 99 ff 22 bd
       -0.0376585 -0.07755761 -0.040678967 -0.03979454
0000f0 56 0e e3 bd e6 e4 3e be ad 46 82 bd ff 4f 1b be
       -0.11086719 -0.18642005 -0.063611366 -0.15167235
000100 31 d8 86 bd 49 5c 7c bd c6 34 a1 be df eb de bc
       -0.06584204 -0.061611447 -0.31485575 -0.027212081
000110 b9 cf 9d be b7 2f c1 bd 73 d0 6d be cd 12 b5 bc
       -0.30822542 -0.09432929 -0.23224048 -0.022103691
000120 7e 5e 61 bd 71 7e 50 be 49 09 9a bd 4f d1 de bd
       -0.055021755 -0.20360734 -0.07521302 -0.10879766
000130 4a bc 98 bd 79 97 e5 bd b6 0d 9f bd 5c c5 d6 bd
       -0.07457788 -0.11210532 -0.07766287 -0.10486862
000140 31 e6 4b bd 46 ec aa bd fc fd ba bd ec b0 3e be
       -0.049780075 -0.08345847 -0.09130475 -0.18622178
000150 a1 55 ae bd ad b2 64 bd 28 08 09 be cd fd 0b be
       -0.08512426 -0.05583446 -0.13382018 -0.13671036
000160 6d 12 2f bd c7 6b 18 bd 5e 55 2c bc 93 51 8a bd
       -0.04274218 -0.03721216 -0.0105184 -0.0675384
000170 d0 9c e1 bd 66 e7 86 bc 6e 3a e9 bd 1b c6 0a be
       -0.11016238 -0.016467761 -0.11388098 -0.13552134
000180 ff e5 06 bd af bb d8 ba 42 8c 3b be 5d ee ca bd
       -0.032934185 -0.0016535426 -0.18315223 -0.099087454
000190 af fe 07 be bb 2d 8f 3e b2 04 eb bd 1f 80 56 be
       -0.13280748 0.27964577 -0.11475505 -0.20947312
0001a0 f0 f6 d7 bd 4e 40 30 be f0 b3 11 bd 0c 36 8c be
       -0.105451465 -0.1721203 -0.035571992 -0.27384984
0001b0 2b fd 60 bd 1b 2a 7e be 19 51 07 bf cb 4a d2 bd
       -0.05492894 -0.2482075 -0.5285812 -0.10268172
0001c0 57 0e 2b be 03 ab 1d bd e5 0b f8 bd d7 f3 7c bc
       -0.16704689 -0.038493168 -0.12111644 -0.015438995
0001d0 39 b2 b4 bd 38 4a 21 bd bc 67 fb bd 71 12 83 bd
       -0.08823056 -0.03937742 -0.12275645 -0.06400002
0001e0 dc bf 1d be 21 4b 75 bd 92 02 48 be e5 9a d4 bd
       -0.1540522 -0.0598861 -0.1953223 -0.10381106
0001f0 ed 4b 99 bd 65 7e b4 bd 42 2d 76 3e 8b 8d 8a be
       -0.07485185 -0.0881317 0.24040702 -0.27061114
000200 23 c3 81 bd 3e 3f 0b bd 94 8b ae bd 7a 1d b1 bd
       -0.063360475 -0.03399586 -0.08522716 -0.086482
000210 83 6f 58 bd ce 20 ad bd 98 40 e6 bd 62 f4 85 be
       -0.05284072 -0.084535226 -0.11242789 -0.26163012
000220 f8 e3 ef bd 49 c6 62 bd 24 45 eb bd d9 7e fe bd
       -0.117134035 -0.05536488 -0.11487797 -0.12426538
000230 a3 71 a3 bc 4a c9 96 bd f6 59 d9 bd f0 19 c9 3d
       -0.019951647 -0.073626116 -0.10612862 0.098194
000240 4c 32 1a be 33 3e ef bd d7 ed 06 be dc b0 11 bf
       -0.15058249 -0.116817854 -0.13176666 -0.5691049
000250 49 34 25 bd 3d ff 96 be 4b 20 6a be db 9f 11 be
       -0.040333066 -0.29491606 -0.22863881 -0.14221136
000260 f6 ff 97 bd 3f 89 be bd 66 4d cb bc 73 6e ec bc
       -0.074218675 -0.09303521 -0.02481718 -0.02886126
000270 6c 71 e7 bd c1 dc f5 bc 63 86 0a bf 34 13 9a bd
       -0.113009304 -0.03001249 -0.5411131 -0.07523194
000280 23 04 dc bd 3e 5e ee bd 57 ef f7 bd 7a af 91 bd
       -0.107429765 -0.11639069 -0.12106197 -0.071135476
000290 fc 21 96 bd b5 bc 24 be e0 1a bf 3c 6b 96 11 be
       -0.07330701 -0.16087611 0.023328245 -0.14217536
0002a0 00 c9 0e be 93 d4 16 be 5d ad ca bd a3 ed f8 3d
       -0.13943863 -0.14729528 -0.09896348 0.121547006
0002b0 92 91 0f bf 40 30 92 bd 2b 90 73 bd d4 d6 00 be
       -0.560815 -0.07138109 -0.05946366 -0.1258195
0002c0 a3 9c 1a be d2 45 81 bd fb 84 0d be 76 c6 d5 3e
       -0.15098815 -0.06312145 -0.1382026 0.41752976
0002d0 73 70 e9 bd d7 6d 23 be 3d 61 20 bf 40 29 d3 bd
       -0.11398401 -0.1595987 -0.62648374 -0.10310602
0002e0 85 64 0b be 13 fd 7f bd 2c 4f df bd a9 17 80 bd
       -0.13612564 -0.06249721 -0.10903773 -0.06254513
0002f0 9d e7 02 3d 82 ac bd 3d 24 72 8f bd dd b8 f6 bd
       0.031959165 0.09261419 -0.070041925 -0.120469786
000300 a8 f2 ce bc 82 54 83 3e 5e d5 d5 bd 82 c2 e9 bd
       -0.025262192 0.25650412 -0.10441087 -0.114140525
000310 ea e2 d4 bd 10 03 83 bd d3 96 92 bd 9d 60 ae bd
       -0.10394843 -0.063970685 -0.07157674 -0.08514521
000320 0d bf ff bd db 31 02 bd 32 86 01 be 38 28 43 bd
       -0.12487612 -0.031785827 -0.12648848 -0.047645777
000330 c3 92 d6 bd 87 7c 36 bf 49 8a 59 bc 2c c8 eb bd
       -0.10477211 -0.71283764 -0.013277599 -0.11512789
000340 e1 5c 18 be fb 48 fc bb 7f b4 b9 bd e4 2c 8a 3e
       -0.1487918 -0.0076991296 -0.0906763 0.26987374
000350 7e e4 ef bd 1d f3 82 bd c1 bb e5 bd ab 99 16 be
       -0.11713503 -0.063940264 -0.11217452 -0.14707057
000360 52 6a bf bd 1f 9c 1b be 8e 31 3c be ae 5b 30 be
       -0.09346451 -0.15196274 -0.18378279 -0.17222473
000370 e5 22 24 be fe 89 53 bc b1 83 10 be ad 80 9f bd
       -0.16028936 -0.012911318 -0.14112736 -0.07788215
000380 60 f2 54 bd c3 ba 9a bd 0b 17 ab bd bd fd 4f be
       -0.05198896 -0.07555153 -0.083540045 -0.20311637
000390 0f 1b f1 bd b5 9f f7 bd e6 f2 cb bd 72 36 bd bc
       -0.11772739 -0.120910086 -0.099584386 -0.02309725
0003a0 1c cd ba bd 8d 2f db bd 97 a5 10 be d5 c3 2f 3e
       -0.09121153 -0.10702429 -0.14125668 0.17164548
0003b0 c5 9d 80 bd ef a5 03 be f0 7f ca bd 18 6a 88 bd
       -0.06280092 -0.12856267 -0.098876834 -0.06660861
0003c0 1c 9b b7 bd ff c7 d5 bd 64 25 93 bd bb 90 f4 bd
       -0.08965132 -0.10438537 -0.07184866 -0.11941668
0003d0 39 49 36 be ba ae b5 bd 72 c4 cc bd a0 a3 e6 bd
       -0.1780137 -0.08871217 -0.099984065 -0.11261678
0003e0 bc da d1 bd e2 85 b7 bd 26 e6 26 be 73 59 02 be
       -0.102467984 -0.08961083 -0.16298732 -0.12729435
0003f0 0d 3c bb bd d9 ca 93 bd 66 b5 f0 bd e7 b0 c3 bd
       -0.09142313 -0.072164245 -0.11753349 -0.09555226

linear_relu_stack.3.weight f4 [256, 256]
000000 cc ab 97 bc 28 84 cc bc be 30 00 3d 88 01 5b bd
       -0.018514536 -0.02496536 0.031296484 -0.053468257
000010 ee 8e 67 bd cc 58 60 bd 5c 70 40 3d 10 12 70 3c
       -0.056532793 -0.054772183 0.046982154 0.014652744
000020 b6 9d 0d 3d 00 b1 81 b9 1c 3f 8c bc e0 b2 7e bc
       0.034574233 -0.00024736673 -0.017119937 -0.015545577
000030 00 da fb b9 3a 0f 08 bd 17 0c 6e bd e4 66 2d bd
       -0.00048036873 -0.033217646 -0.058117 -0.042334452
000040 72 b4 48 3d 10 b9 20 3c 20 14 0d bc f0 73 bc bc
       0.04900021 0.009809747 -0.008610755 -0.023004502
000050 10 07 f8 3c f4 0d 9f bc 58 84 0b bd b8 2d cc bc
       0.030276805 -0.019415833 -0.03406176 -0.024924144
000060 70 15 0d 3c c8 1a 53 3c 22 3a 4e 3d 5e ce 33 bd
       0.008611068 0.012884803 0.05034841 -0.04389798
000070 2a 6a 35 bd 44 ff 46 bd 8e 6d 57 3d 78 9c 87 bc
       -0.0442907 -0.048583284 0.052594714 -0.016554102
000080 f4 d0 a6 bc 42 bc 21 bd d4 c4 52 bd 7e 1d 3f 3d
       -0.020363308 -0.039486177 -0.05145724 0.046658985
000090 18 d2 56 bd bc b0 39 3d 8a 43 29 bd 18 2c 39 3d
       -0.052446455 0.045334563 -0.041324176 0.045208067
0000a0 00 d9 11 3d 4e 00 77 bd 00 30 3e 3c f8 82 06 bd
       0.035607338 -0.060303025 0.011608124 -0.032839745
0000b0 5e 5e 1b 3d 64 11 4c 3d 58 1a cb 3c a2 ae 71 bd
       0.037931792 0.049821272 0.024792835 -0.059004433
0000c0 0e 56 6c bd c8 92 7a bd 84 9f df bc 40 27 87 bb
       -0.057699256 -0.061175138 -0.027297743 -0.004124552
0000d0 60 2e d3 bb e0 55 e1 bc 5c 5f c2 bc a0 49 09 bb
       -0.0064447373 -0.027506769 -0.023727112 -0.0020948425
0000e0 ae a8 36 3d ea e6 1d bd 12 91 2e 3d b0 32 77 bc
       0.04459446 -0.038550295 0.04261882 -0.015087768
0000f0 36 c3 69 3d 33 03 79 3c a0 fc 68 bb 00 d4 f1 bc
       0.057070933 0.015198517 -0.0035550967 -0.029520035
000100 34 03 e7 3c 78 20 7a 3c 5f 36 a0 bd a0 7c 06 3b
       0.02819977 0.01526653 -0.078228705 0.002052106
000110 dc f5 d8 3c 88 ae 9d bc 01 33 19 bc 00 0a 6e bb
       0.026484422 -0.019248262 -0.009350539 -0.0036321878
000120 7c eb 4d 3d ea d3 7f bd 00 c4 58 3c f0 f2 36 bc
       0.050273404 -0.062457956 0.013230324 -0.011166319
000130 68 54 4a bc f8 3c 4e bd f8 74 41 bd 20 a7 01 3b
       -0.012349226 -0.050351113 -0.04723069 0.0019783452
000140 12 e1 29 3d 00 64 26 bd ea db 50 bd 94 f0 f1 bc
       0.04147441 -0.04062271 -0.050990976 -0.029533662
000150 9e dc 77 bd 3e 0b 7f 3d c0 f2 84 3a f0 d5 52 bc
       -0.06051313 0.06226658 0.0010143146 -0.0128683895
000160 48 6d 75 3d 60 d0 20 bc 94 ce 72 bd 3b 8f e7 bc
       0.05991867 -0.0098153055 -0.05927904 -0.02826654
000170 6e 74 45 3d 3c 2a 2e bd ac ab a3 3c 60 85 67 3c
       0.04820674 -0.042520747 0.01997932 0.01413092
000180 14 94 b7 bc b0 7e 9c 3b 5c e7 f4 3c 90 35 68 3c
       -0.022409476 0.0047758445 0.029895477 0.014172927
000190 0c 55 19 bd d0 03 91 3c 80 45 77 bb 16 f2 55 bd
       -0.037434623 0.017702013 -0.0037730634 -0.052232824
0001a0 a8 25 33 bc 58 b1 15 bc c6 9a 32 3d 8e 2e b1 bc
       -0.010934271 -0.00913652 0.043604635 -0.021628644
0001b0 82 eb 24 3d cf fe 8c bd 90 9a 9a 3c 40 8e 40 bc
       0.04026366 -0.068845384 0.01887253 -0.011752665
0001c0 2e 02 20 3d 6a d2 69 3d e4 3e 54 bd 0a a7 28 bd
       0.03906458 0.057085432 -0.05181779 -0.041174926
0001d0 a0 89 e2 3c 2a 57 12 bd ba 5b 58 bd ae 4a 58 bd
       0.027653515 -0.035727657 -0.052821852 -0.052805595
0001e0 2c d2 53 bd a0 1c b0 3c 6c db 46 3d 98 a6 24 bd
       -0.051714107 0.021498024 0.0485491 -0.04019794
0001f0 a8 5c 5f 3d 6e ef 61 bd 00 53 4d bd 20 bc 73 bc
       0.054531723 -0.05515998 -0.050127983 -0.014876395
000200 04 a8 80 3c d8 c6 5a 3d 98 99 29 3d 50 33 25 bd
       0.015705116 0.05341229 0.041406244 -0.04033214
000210 60 a6 8e 3c 08 c1 37 bd 00 09 d6 3a 1e 53 71 bd
       0.017413318 -0.044861823 0.0016329587 -0.058917157
000220 1a a7 3d bd 2a 5e 20 3d 46 ce 66 bd d8 d2 b3 3c
       -0.04630194 0.0391523 -0.05634906 0.021951124
000230 a0 be 7f 3c ac 43 98 bc 60 06 05 bd 94 24 0f 3d
       0.015609413 -0.018586956 -0.032476783 0.034946993
000240 fc ab 34 3d 04 eb 4f 3d 10 54 4d 3c b8 02 f7 3c
       0.04410933 0.050761238 0.012532249 0.030152664
000250 d4 25 b7 bc 08 2c 77 bd a6 5b 4f 3d 74 9b 78 bd
       -0.022356905 -0.060344726 0.050624512 -0.060695127
000260 50 07 5b bc 7e 01 32 3d bc f6 57 bd 36 97 46 bd
       -0.013368443 0.043458454 -0.05272554 -0.04848405
000270 ee bc 09 bd 70 3e da 3b 0e 51 07 bd 12 63 5f 3d
       -0.033627443 0.006660275 -0.033036284 0.05453784
000280 ec 42 c0 bc 2b ba bb bd b4 69 d5 3c ae 6f 37 3d
       -0.02346941 -0.09166368 0.02605138 0.04478424
000290 58 ad 06 3c 3c 2d 62 3d 40 ac 02 bc f0 fa 64 3d
       0.008220039 0.05521892 -0.007975638 0.055903375
0002a0 b0 87 ab bc 14 8c b5 bc d0 82 96 bb e0 88 c6 bc
       -0.020938724 -0.022161521 -0.004593231 -0.024235189
0002b0 6e c2 5e bd 2a 87 00 3d ba a3 0c bd 38 c5 c3 bc
       -0.05438464 0.031378902 -0.03433583 -0.023897752
0002c0 6a cf 07 3d 10 41 4b 3d 7e c7 1c bd b0 db 3f bd
       0.03315679 0.049622595 -0.038276188 -0.04684037
0002d0 f8 da 23 3d f2 71 2a 3d 82 b1 3a bd 00 88 35 bd
       0.040003747 0.041612573 -0.04557944 -0.044319153
0002e0 b2 8d 01 3d d0 5b db bb 52 bf 04 bd 5a 1b 63 bd
       0.03162927 -0.0066942945 -0.03240902 -0.055446006
0002f0 30 c5 54 bc 6c 06 a1 3c 98 e0 e6 bc b4 9d 43 bd
       -0.012986466 0.019656383 -0.028183267 -0.04775782
000300 20 6f f5 3b 54 d7 a1 bc 5c 13 dc 3c d0 14 f2 bc
       0.007490054 -0.019755997 0.0268647 -0.02955094
000310 01 65 f2 bc 74 37 08 bd e0 b7 8e 3b 78 f3 8f bc
       -0.029589178 -0.03325601 0.0043554157 -0.01757215
000320 50 52 90 bc 86 34 0a bd 38 50 1e bc 08 f1 16 bd
       -0.017617375 -0.033741497 -0.00966268 -0.03685096
000330 2a a6 33 3d 40 bb 6e 3d 9a 90 6b 3d 4a ef 43 3d
       0.04385964 0.058284044 0.05751095 0.047835626
000340 1a 8a 45 3d b3 85 ab bd 80 d1 0a bb e6 59 3e bc
       0.048227407 -0.083751105 -0.0021182 -0.011618113
000350 3a 49 44 3d a8 75 63 bc 0a ec 30 bd 50 5e 7a 3d
       0.047921397 -0.013883032 -0.043193854 0.0611251
000360 6c 15 c6 bc ae 4b 3f bd f8 c9 79 bc 70 72 23 3d
       -0.024180137 -0.046703033 -0.015245907 0.039904058
000370 00 f4 5b bd fc 96 63 bd 8e 17 2e bd 14 55 51 bd
       -0.053699493 -0.05556391 -0.042502932 -0.051106527
000380 b0 e3 dd bb a8 2e 3b bc b4 c4 03 bd 96 45 13 bd
       -0.006771527 -0.011424698 -0.032170013 -0.035955034
000390 26 6f 22 3d 9e 8a 68 3d ea 6b 5b 3d 20 e1 6b 3b
       0.03965678 0.05677282 0.05356971 0.003599234
0003a0 fa bc 0c bd 88 9b 61 bc 4c e7 8d bc d6 c5 19 bd
       -0.03435991 -0.013769992 -0.017322205 -0.037542187
0003b0 00 e7 64 3b e4 2f 08 bd 36 b3 01 3d 66 5b 19 bd
       0.0034927726 -0.033248797 0.03166505 -0.03744068
0003c0 32 a1 79 3d c8 ff b9 3c b0 9a 14 bd f2 f0 4b 3d
       0.060944743 0.022704974 -0.036280334 0.04979033
0003d0 84 aa bd 3c fa 37 1d 3d 30 05 d2 3c fa 0f 77 bd
       0.023152597 0.03838346 0.02563724 -0.06031797
0003e0 20 b6 0e bb d0 c9 32 bd 00 3d d7 39 7e 8c 67 bd
       -0.0021776035 -0.043649495 0.00041053444 -0.05653047
0003f0 e8 d4 a5 bc 32 34 10 3d 60 48 7f bb 00 0c 7f 3a
       -0.020243123 0.035206027 -0.003895305 0.0009729266

linear_relu_stack.3.bias f4 [256]
000000 1f 12 11 bd bc dc 96 bd c3 7f fd bc f2 02 7d bd
       -0.035417672 -0.073663205 -0.03094471 -0.061770387
000010 01 f4 8e bd 1d c3 a4 bd 2d f0 a8 bd af 5a 7f bc
       -0.06980134 -0.080450274 -0.08248935 -0.0155855855
000020 94 7f 5e bd d8 5d cc bd b5 a5 4d bd 34 90 c1 bd
       -0.054320887 -0.09978837 -0.05020686 -0.09451333
000030 7e 9a 36 bd 12 49 03 bd f0 82 7c bd 8d 99 65 bd
       -0.04458093 -0.032052107 -0.06164831 -0.05605464
000040 f3 11 52 bc 4e 39 7e bc f2 42 cb bb 3d 4b 86 bd
       -0.012821662 -0.015516592 -0.006203049 -0.06557319
000050 54 13 f8 bc 47 90 31 bd 9f 6f 7a bd 11 ff 8f bd
       -0.030282654 -0.043350484 -0.061141606 -0.07031072
000060 7f f1 3a bd 83 e6 29 bd 82 a7 91 bd e4 1e 1e be
       -0.045640465 -0.0414796 -0.07112028 -0.15441471
000070 c7 79 bc bd c3 fc fe bd 5c 05 84 bd 25 8b 3d be
       -0.09202915 -0.12450554 -0.06446335 -0.1851011
000080 5c 7e ac bd 2c 52 c8 bc 40 45 7b bd 53 9b 33 bd
       -0.08422539 -0.024453245 -0.06134534 -0.0438493
000090 05 63 94 bd d0 d5 8b bd ed 2c 71 bc f1 ac 32 bd
       -0.07245449 -0.06827891 -0.014720184 -0.04362196
0000a0 14 a3 5a bd bd d9 4f bd cc f1 1f bd a6 54 a1 bd
       -0.05337818 -0.05074476 -0.039048955 -0.078774735
0000b0 b4 d9 3b bc 3d ae 5a bd c8 26 77 bc 78 c7 61 bd
       -0.011465479 -0.053388823 -0.01508493 -0.05512187
0000c0 2c 04 32 3d 76 5a 05 bd a5 37 74 bd d6 9d 69 bc
       0.04346101 -0.032556973 -0.05962338 -0.014258822
0000d0 9e 0e 80 bc aa 86 a3 37 51 23 95 bd 4b 89 96 bd
       -0.01563197 1.9493822e-05 -0.07282127 -0.07350405
0000e0 a5 45 ad bc 8b 07 50 3e f0 ed c8 bc 5a e7 28 be
       -0.021151373 0.20315377 -0.02452752 -0.16494504
0000f0 16 0d a0 bd 79 76 c1 bd d1 75 52 bd ba 09 01 bd
       -0.07814996 -0.09446425 -0.05138189 -0.031503417
000100 9b 6f ce bc 07 79 f6 bb fc 35 d5 bd 88 5d 04 3f
       -0.025199702 -0.007521752 -0.10410687 0.5170522
000110 7f 60 3e bd d9 93 a8 bd ad 4a 54 ba 0e 38 d8 bd
       -0.046478745 -0.08231325 -0.0008098286 -0.105575666
000120 54 dc e3 bc 75 fc cd bc 73 5e 49 3e 96 0a c1 3d
       -0.027815022 -0.025144795 0.19664936 0.09425847
000130 46 3c 01 be 64 ea 90 bd 67 1c 37 bd 37 16 0c bd
       -0.12620649 -0.070759565 -0.04470482 -0.034200873
000140 8b c2 96 bd 1d 85 bf bd 67 d1 34 bd aa f9 42 bd
       -0.07361325 -0.09351561 -0.044145014 -0.04760138
000150 ff 7f 0b bd c8 1d 41 bd 53 19 a8 bd 96 eb ee bc
       -0.034057613 -0.047147542 -0.08207955 -0.02916507
000160 4c bb ed bd 28 b8 3a bd be 88 b8 bd 88 29 7d bd
       -0.1160799 -0.04558578 -0.090104565 -0.061807185
000170 b4 f7 61 bd 44 86 a7 bc 64 9e 84 bd 3d 22 38 bd
       -0.05516787 -0.020449765 -0.06475523 -0.044954527
000180 c8 d9 d7 bc ce 49 75 bd d1 04 bb bc 87 3f c5 bd
       -0.026348963 -0.05988484 -0.022829445 -0.096312575
000190 7a 74 39 3c 28 9f ef bc ab 58 1d bd 03 f6 2d bf
       0.011319274 -0.029250696 -0.03841464 -0.6795351
0001a0 2f 07 0c bd b9 3b 8f bd 60 88 6b bc f5 51 ae bd
       -0.03418654 -0.06993813 -0.014375776 -0.08511726
0001b0 a0 d2 ba bb d8 eb 9e bc c4 01 a9 bd 4c 1f 3e bd
       -0.005701378 -0.019399568 -0.0825229 -0.046416566
0001c0 19 76 33 3d 5c e0 95 bd ac 8f 65 bc 8a 32 21 be
       0.0438138 -0.07318184 -0.014011305 -0.15741935
0001d0 b5 a9 17 bd ad 53 35 bd 2c 76 3b bd 9b 24 4e bd
       -0.03702708 -0.044269253 -0.045766994 -0.05032788
0001e0 16 79 8b 3d b1 b7 a6 3c 1d 58 05 bd d5 30 7a bd
       0.06810205 0.020351263 -0.032554734 -0.061081726
0001f0 51 f1 4e bd 59 a4 21 bd ae f0 97 bd f5 47 b4 bd
       -0.050523106 -0.039463375 -0.07418953 -0.08802787
000200 a4 7e 9c bd 1c 12 54 bd b7 c4 02 bd 59 fc 3b bd
       -0.07641342 -0.051775083 -0.031925883 -0.045894954
000210 00 47 b0 bd a6 4b 82 bd 3e 2e cf 3d ba e2 9c bd
       -0.08607292 -0.06362085 0.10116242 -0.07660432
000220 21 e2 21 be 09 f8 8a bd 37 be 3d 3b ee 1d 59 bd
       -0.15808918 -0.0678559 0.0028952488 -0.05300706
000230 82 34 9b bd 14 69 44 bd 9a 93 d0 bc 5e db 9e 3b
       -0.075783744 -0.047951773 -0.025461007 0.004847928
000240 0d bf b4 bd dd 81 d0 bd 21 a5 3c bd ac 04 d6 bd
       -0.088255025 -0.101810195 -0.046055917 -0.1045011
000250 6c 10 f2 bc f1 ea 9a bd 00 f6 c7 bd 8f 77 70 3d
       -0.029548846 -0.07564343 -0.09763718 0.05870777
000260 64 57 a9 bd 15 8a 8e bd bd f9 31 bd bc e8 b5 bd
       -0.082686216 -0.06959931 -0.04345106 -0.08882281
000270 5b cb 78 bd 13 d2 cb bd 95 8a 82 3e 41 28 e4 3d
       -0.06074081 -0.09952178 0.25496355 0.1114049
000280 c1 05 be bd 53 2f e6 bc 4f e6 d7 bc 45 cf b9 bd
       -0.09278441 -0.028098738 -0.026354937 -0.09072737
000290 07 26 b5 bd 30 25 df bd 99 d8 b0 bd 8f 78 80 bd
       -0.08845144 -0.10895765 -0.08635063 -0.06272995
0002a0 d3 43 12 3e 5e d2 d1 bd 9f 2b ad 3e f6 39 20 bd
       0.14283685 -0.102452025 0.33822343 -0.039117776
0002b0 2b 0d f5 bd d7 74 ad bd 98 2b cf bc 74 7a 5f bd
       -0.11965402 -0.08469551 -0.025289342 -0.05456014
0002c0 57 db ef bc 19 f0 d3 bd 81 ba f1 bc fc 28 a8 bd
       -0.029279394 -0.10348529 -0.029507877 -0.08210942
0002d0 9b e9 5e bd da cf 4b bd 24 6c 81 bd 0d 5f bd bd
       -0.054422002 -0.04975877 -0.06319454 -0.09246645
0002e0 95 d6 a3 bd e4 84 65 bd 6a 9d 47 bd be 54 93 bd
       -0.07999913 -0.056034938 -0.048734106 -0.07193898
0002f0 07 d8 ed 3d 40 32 82 bd 9c c2 90 bd e7 36 22 bc
       0.116134696 -0.06357241 -0.07068369 -0.009900785
000300 ac 05 6b bc 50 bb 8e bd 1a d4 2e bd 34 50 4d bd
       -0.014344614 -0.06969321 -0.042682745 -0.050125316
000310 23 f1 38 bd fd 5f de bd 8b 44 07 bd 1d b4 b9 3d
       -0.04515184 -0.10858152 -0.033024352 0.09067557
000320 61 05 51 be bf 24 0b bd 56 53 b0 bd 4a a3 a5 bc
       -0.20412208 -0.03397059 -0.08609645 -0.020219464
000330 af ab 7c bd 3b 6b 0f bd c0 8a d0 bc b4 20 50 bc
       -0.061687168 -0.035014372 -0.025456786 -0.0127031095
000340 0c bb 44 bd e2 eb 01 bc 88 a9 ac bd 03 a1 a1 bd
       -0.048029944 -0.007929774 -0.08430773 -0.07892039
000350 b0 ec 96 bd 48 7b a0 bd bd ae a6 bd ef 67 aa bc
       -0.07369363 -0.07836014 -0.081387974 -0.020801513
000360 94 7d 88 bd f6 ec 80 bd ca 83 2d bd db f8 9e bd
       -0.06664577 -0.06295197 -0.042362012 -0.07762309
000370 c0 73 01 bd 00 e0 d6 bd 7d 74 8d bd c7 d2 ee 3d
       -0.03160453 -0.10491943 -0.06906984 0.11661296
000380 b8 b4 4f bd d5 04 19 be 8b e3 af bd 63 36 0d bd
       -0.050709456 -0.1494325 -0.08588322 -0.034475695
000390 75 44 ac bd 90 45 91 bd 91 d8 aa bd 6c 2d a7 bc
       -0.08411495 -0.07093346 -0.08342088 -0.020407401
0003a0 75 fb 6b bc 32 67 1d 3c d1 28 b8 bd 9e 01 88 bc
       -0.014403214 0.009607123 -0.0899216 -0.016602334
0003b0 d0 38 2f bd be de 92 bb 15 65 f4 ba af 26 8e bd
       -0.04277879 -0.0044821193 -0.0018645847 -0.06940972
0003c0 7c 25 43 bd 58 6a 6b bd 70 f2 f6 bc 50 a4 a2 bd
       -0.04764317 -0.057474464 -0.0301449 -0.07941496
0003d0 3e c5 98 bc cb b8 93 bd 6e 55 78 bd 1a 30 80 bd
       -0.01864874 -0.07212981 -0.060628347 -0.06259175
0003e0 ea e7 15 bd 00 d3 6a bd 5c d3 fc bb 23 61 d3 3d
       -0.036598124 -0.05733013 -0.0077156257 0.10321262
0003f0 c9 4d 4f bd 22 e1 9a bd e1 4a 00 bd d1 a9 61 bc
       -0.05061129 -0.07562472 -0.03132141 -0.013773398

linear_relu_stack.6.weight f4 [1, 256]
000000 bf da 8f bc a5 64 34 bc de 58 86 bc df 00 ca bc
       -0.017560361 -0.011010324 -0.016399797 -0.024658618
000010 4f a2 a8 b9 a9 b9 9e 3b 3c db 08 3b c3 e4 2e 3c
       -0.00032164386 0.0048439098 0.0020882627 0.010674658
000020 89 48 f3 bb 94 61 07 ba 49 85 98 bc cb 36 31 3c
       -0.0074244183 -0.00051643816 -0.018618243 0.010816286
000030 e5 bf 99 bb 66 9e 81 bc 4d ce ef 3c 77 a9 01 bd
       -0.004692065 -0.0158226 0.029273177 -0.031655755
000040 ac 3b 9d 3c 44 61 89 3a e2 8a 7a bb 1e c0 3e 3d
       0.019193493 0.0010481258 -0.0038229753 0.046569936
000050 73 02 33 3b c7 63 70 3c ae 22 05 3d 20 60 a1 3a
       0.0027314692 0.014672226 0.032503776 0.0012311973
000060 7b 0d 4f 3c 59 e4 eb bb 12 e8 81 3c 87 91 b7 bc
       0.012637491 -0.007198852 0.01585773 -0.02240826
000070 b5 e3 db 3b aa bd 33 3b 1e 8a e6 3c e9 36 23 bd
       0.0067104944 0.002742628 0.028142031 -0.03984729
000080 40 7e a6 bb 82 6e d9 3c 90 52 f3 3c f4 91 0f bc
       -0.005080968 0.026541952 0.029702455 -0.008762825
000090 d8 24 f8 bc 62 95 58 bc 58 91 89 bc 19 4e af bc
       -0.030291006 -0.013219209 -0.016792938 -0.021399545
0000a0 42 64 98 3c 30 54 f6 3c bb bc e1 3b fa bc ff bc
       0.018602494 0.03006944 0.0068889535 -0.03121804
0000b0 d3 7c 1c 3c 00 67 61 3c 91 70 3d 3c 14 d0 c2 b9
       0.009551245 0.013757467 0.011562482 -0.00037157594
0000c0 e0 ab 22 3f 0b 0d 96 3c 07 77 fa 3c 9e f0 df bc
       0.6354351 0.018316766 0.030574335 -0.027336415
0000d0 23 66 a8 bc af ca c9 3c 64 a6 96 39 0a 8b 8a 3c
       -0.020556515 0.02463278 0.000287342 0.016912002
0000e0 86 8e b2 ba f1 b9 f4 3d 95 72 d8 3c 04 01 cb 3c
       -0.0013622798 0.11949528 0.026421824 0.024780758
0000f0 3e a9 60 3c b4 4a d4 bc 42 80 cb 3c ed bd 52 bb
       0.0137122255 -0.025914527 0.024841432 -0.0032156662
000100 5e 4b 6a 3c f4 dc a6 3c b5 b1 af bc a0 5f c4 be
       0.0143001955 0.02036903 -0.021447042 -0.38354206
000110 fa 07 df 3c 56 f5 40 3b fc 71 e3 bc b6 3e 7c bc
       0.027225483 0.0029443107 -0.027764313 -0.015395811
000120 7e dc 9e 3c 20 36 95 3c 74 0c 0f 3f 50 cb 31 3e
       0.019392248 0.018214285 0.55878377 0.17362714
000130 06 96 12 3c 9a 65 f3 3c 03 97 88 bc 66 59 db 3c
       0.008946901 0.029711533 -0.01667357 0.026776027
000140 4d ba b0 3c 31 bc c4 3b 79 f2 f2 b9 4a 3b e7 3b
       0.02157321 0.0060038795 -0.00046338493 0.0070566284
000150 95 ac 45 bd 0d b2 f3 bc b8 e0 98 bc 35 ae 1b 3d
       -0.04826029 -0.029747987 -0.018661842 0.038007934
000160 d1 0a 69 3c f8 92 02 3a 33 ec 48 bc 8b d3 55 3d
       0.01422377 0.00049810065 -0.0122633455 0.052203696
000170 26 62 fe bc 30 b0 6e 3b e5 26 6d bc f8 f8 c7 bc
       -0.03105266 0.0036420934 -0.014474605 -0.02441071
000180 67 7c ba bc 61 fe 16 bc 79 ae bf bc bc 26 00 3d
       -0.022764398 -0.009215922 -0.023398625 0.03128694
000190 ee 42 f6 3d f6 62 53 3c a5 8b da 3c 87 bd 39 be
       0.120244846 0.012902012 0.026677916 -0.18138705
0001a0 4f d5 94 3c 2d cc b0 bc bf 0e 97 3c 5d 37 db 39
       0.01816812 -0.021581734 0.018439649 0.00041812184
0001b0 02 1a 10 bb 0a 70 ce bc 4e da 0d bb 91 1e 9d 3c
       -0.0021988158 -0.025199909 -0.0021645012 0.019179614
0001c0 50 5a 08 3f 8a 2a 70 3c 33 8f cb 3c 7f 2c 32 3e
       0.53262806 0.01465858 0.024848556 0.17399786
0001d0 2f 55 1c 3c 01 83 66 bc 3f c3 97 3c 7e e8 e9 3c
       0.009541794 -0.01406932 0.018525718 0.028553244
0001e0 68 14 89 3e 39 e7 95 3e ee ca 1c bc 02 ec 87 bc
       0.2677338 0.2927797 -0.009569867 -0.01659203
0001f0 b1 e6 43 bc 77 4c cf bb 47 4e 7a bc e1 58 ac bc
       -0.011956857 -0.006326254 -0.015277452 -0.021038475
000200 ea 80 cc bb 55 4e d6 bb 7b 6c c5 bc 70 df 3b 3c
       -0.0062409537 -0.0065400996 -0.02409958 0.011466846
000210 05 20 48 bc 88 6c d8 bc 24 26 f2 3e 43 82 bb bb
       -0.012214665 -0.02641894 0.47294724 -0.0057223155
000220 14 e4 ca 3d 06 19 dd bc b4 4f 08 bc 89 23 fc 3b
       0.09906784 -0.026989471 -0.008319784 0.007694666
000230 c3 b6 8b 3c e5 2d ae 3c 17 02 f3 bc 7a a2 a8 bc
       0.017054921 0.021262119 -0.029664082 -0.020585287
000240 c5 4b ba 3a d5 1c 0d 3c f8 90 cd bc a4 24 12 3c
       0.0014213255 0.008612831 -0.02509354 0.008919869
000250 d0 7c b5 3c 3a 9b 98 bc ec 24 e3 3c 93 e1 2d bf
       0.022154242 -0.018628705 0.027727567 -0.67922324
000260 5f 18 fe bb ef 25 b8 3c 04 b9 e2 3c 6a 97 50 3c
       -0.00775437 0.022479026 0.027676113 0.012731412
000270 d8 67 33 bc 7c 12 59 bc e9 7b 38 3e 5f aa 29 bf
       -0.010950051 -0.013249036 0.18016018 -0.6627559
000280 e3 89 c4 3c 07 ce 94 bc e5 e9 7d bc 9b 9e 15 be
       0.02399153 -0.018164648 -0.015497659 -0.14611284
000290 26 c6 94 3c 2f ef 3e 39 ad 0a 74 3c 2c 80 a6 bc
       0.01816089 0.00018208915 0.014895123 -0.020324789
0002a0 01 0b 93 3e 0e f7 55 bb d8 e7 8b be 80 12 99 3c
       0.28719333 -0.0032648477 -0.2732532 0.01868558
0002b0 e3 80 bf bc 0d 2f 27 3c a9 3c e5 3c 7d de 86 bc
       -0.023376888 0.010204089 0.027983027 -0.016463513
0002c0 a4 2a 9f bc e7 ec 6a 3c ce 04 4b 3c 07 6d a4 3b
       -0.019429512 0.0143387085 0.012391282 0.00501788
0002d0 04 a1 c4 bc 7c cb d1 bc 6d 26 ce 3b e6 25 bf bc
       -0.02400256 -0.025609724 0.006291202 -0.023333501
0002e0 66 11 90 3c 8e 86 f5 3c 27 c0 3f bc 0a e4 b0 3c
       0.017586421 0.029971387 -0.0117035275 0.021593112
0002f0 55 0d 36 3f fc f2 51 bd 95 b1 e8 3c 9f c4 00 bd
       0.71114093 -0.05125712 0.02840499 -0.031437512
000300 85 8f e6 3b b4 39 bd bc 93 3a 0e bc 52 a8 83 3c
       0.007036152 -0.023098804 -0.008680957 0.016071472
000310 66 da fe bc bc d5 04 bd 66 37 ed bb 4a e1 8d 3c
       -0.03111 -0.032430395 -0.00723927 0.01731934
000320 83 70 37 be 11 ae aa 3c 3d e8 fd bc aa bb cf 3b
       -0.17914014 0.020834954 -0.030994529 0.00633951
000330 7f 8f 56 be 59 58 a0 bc ee 37 4c bc b0 c7 fb bb
       -0.20953177 -0.019573377 -0.012464507 -0.0076837167
000340 69 94 c8 3c f2 6c d8 bc 0d cc fc bc 7c 41 91 3c
       0.02448483 -0.026419137 -0.030859018 0.01773142
000350 15 fe 87 bc 5f cc 9e 3c b1 00 42 bb b2 7a 94 bc
       -0.016600648 0.019384561 -0.0029602463 -0.018124912
000360 c0 c6 d7 3d 88 fc 10 3c ec 0a fb 3b 00 14 8d bc
       0.105359554 0.008849271 0.007661214 -0.01722145
000370 13 30 e7 3b e8 bf da 3b 55 8a 5c 3c cf c4 33 3e
       0.0070552914 0.006675709 0.013460715 0.17555545
000380 39 3d b1 3c 22 9d 08 3b 8d 20 95 b9 09 24 dc bc
       0.021635639 0.0020845612 -0.00028443747 -0.026872652
000390 45 3f 2b 3c 96 09 29 3c 8a a4 b9 bb 1f 29 a7 3c
       0.010452096 0.010317227 -0.0056653665 0.02040535
0003a0 79 71 ce bc c2 ff fb 3e 93 da b2 3c 96 fe ca 3c
       -0.025200592 0.49218565 0.02183274 0.0247796
0003b0 b9 f5 0d 3c af 99 c8 bc 4d 81 24 3b 59 1f da bc
       0.008664542 -0.024487345 0.0025101483 -0.026626276
0003c0 ab b8 2a bb cb ef ac ba d3 f7 09 bc df ba b3 bc
       -0.0026050012 -0.0013194022 -0.008420902 -0.021939693
0003d0 3b 56 25 3c 55 ad 5a bc 21 82 e9 b8 41 e3 56 3c
       0.01009136 -0.01334699 -0.00011134544 0.013115705
0003e0 80 79 d1 bc 4d f9 d1 3c 17 c6 30 bb 94 52 0b 3e
       -0.025570631 0.025631571 -0.002697354 0.1360572
0003f0 9f bc 54 3b 3c 5f c8 3c 45 df 3d 3c cc c6 86 bc
       0.003246106 0.024459474 0.011588876 -0.016452216
