Assets/ONNX/ffn.onnx (onnx, 338681 bytes, 5 tensors)

linear_relu_stack.0.weight f4 [256, 71]
0.023427878 -0.06638119 0.04054621 0.08397828 0.04216103 0.103520036 -0.06824789 -0.11834737
0.08636326 -0.015262458 -0.018580016 0.08455482 -0.038833078 0.038860083 -0.008390138 0.037265547
-0.05192618 -0.07595889 0.09239341 -0.092483185 0.062441166 -0.09564041 0.08129027 0.02825301
-0.058028623 0.008707457 -0.019201254 -0.045649447 -0.0018226955 -0.096352056 0.0746018 -0.07721874
-0.096674964 -0.103322715 0.029379584 -0.060468085 -0.02925076 -0.041244473 -0.02364676 -0.03659469
-0.051086914 -0.055374503 -0.09359165 -0.115767 0.08427516 0.017226093 -0.0046671163 0.07348121
0.020877266 0.077456474 -0.01614015 -0.02335844 -0.0029328016 0.056732092 -0.07407812 -0.04885976
-0.08930393 -0.008413355 0.055074804 -0.01528996 -0.10145565 -0.10522059 0.060055334 0.106285185
-0.069482274 0.027582843 -0.10893813 0.10133197 -0.01288049 0.08071216 0.079785705 -0.0022873085
-0.074910045 0.11057662 -0.014395287 0.07168967 0.06654162 -0.07640368 0.05880393 -0.0012769004
0.0806093 0.02003263 0.07892055 -0.081907876 -0.018651748 -0.07942815 0.070648916 0.012688272
0.09452591 0.003622234 -0.050813034 -0.100925975 -0.04084201 -0.06435765 -0.024876986 -0.10050633
0.051878683 -0.065399155 -0.017253552 0.010898006 0.0021628703 0.099477634 -0.10603108 -0.10519544
0.060536653 -0.0676256 -0.017006889 -0.059149668 0.001673838 -0.054104522 0.054939948 0.005773116
0.02469747 0.040265948 0.058889292 -0.002094834 -0.03772553 -0.09549309 -0.00091642165 -0.016693823
0.006334197 0.09998245 -0.004678961 0.055218738 0.069362946 -0.020944096 0.104418166 -0.11639041
-0.01375256 -0.12482601 -0.07241423 -0.0055626873 -0.037199594 0.028737765 0.06396578 0.047593813
-0.1465093 0.09205313 -0.07643487 0.016496234 -0.06940636 0.030256575 -0.09272341 0.10291131
-0.041718237 -0.02037711 0.12664066 0.04350035 -0.027493486 -0.01062884 -0.040783755 -0.07478459
0.09144415 -0.1030737 0.11846839 0.10206402 -0.047295477 0.039707962 0.07042817 0.11234145
-0.0026314678 -0.07290066 0.036919396 0.023223316 -0.0034116937 -0.14133099 -0.01659038 -0.0035741886
0.010761533 0.089442864 -0.10251269 -0.08756031 -0.068291396 -0.028974041 -0.060995527 0.05034231
0.024184637 -0.05974919 0.09821817 -0.07298093 0.06550111 -0.03782558 0.09845792 -0.10363094
-0.026540233 0.08236623 0.011462073 -0.08167913 -0.091055766 0.099670455 -0.040657062 -0.037598953
0.038678944 0.024507014 -0.03069776 -0.025884474 -0.0058316467 0.123166665 -0.012864541 0.064237505
0.11251919 -0.1206527 -0.0031012704 0.051979452 -0.012769932 0.01316637 0.1027376 -0.097395286
-0.008435321 0.021787217 -0.08212488 0.03419745 0.084690765 -0.11677856 0.082776815 -0.07106048
-0.10299373 0.059328936 -0.10481155 0.031366885 0.017881228 -0.09365255 -0.059868228 -0.01598101
-0.1172882 -0.06715828 -0.04850139 0.0018909072 -0.15392976 -0.04591749 -0.08872284 -0.10307031
0.032802843 -0.07506308 0.06948442 0.12321169 -0.09125181 -0.023243308 0.0289895 -0.09381821
-0.051939175 -0.08596327 -0.06843944 0.087609604 -0.08494333 -0.0011728561 -0.08695154 -0.061103165
-0.0786075 -0.04626446 0.022463439 -0.06986633 -0.046418335 -0.035500534 -0.104106575 0.091664664
00000000: d2eb bf3c ddf2 87bd c813 263d cefc ab3d
00000010: 0bb1 2c3d 5002 d43d 8dc5 8bbd 1b60 f2bd
00000020: 39df b03d 630f 7abc 1e35 98bc 142b ad3d
00000030: 6f0f 1fbd c02b 1f3d ca76 09bc c2a3 183d
00000040: 8cb0 54bd 5690 9bbd c238 bd3d d367 bdbd
00000050: 4fc2 7f3d 1fdf c3bd 837b a63d db72 e73c
00000060: 6caf 6dbd b9a9 0e3c f34b 9dbc eafa 3abd
00000070: 83e7 eeba 3a54 c5bd d4c8 983d dc24 9ebd
00000080: 86fd c5bd dc9a d3bd 74ad f03c 62ad 77bd
00000090: 4a9f efbc f7ef 28bd dab6 c1bc 50e4 15bd
000000a0: 8340 51bd 60d0 62bd fbac bfbd 4017 edbd
000000b0: 7598 ac3d bc1d 8d3c 9cee 98bb 517d 963d
000000c0: cd06 ab3c 80a1 9e3d 5938 84bc 335a bfbc
000000d0: 3f34 40bb e95f 683d 45b6 97bd 2c21 48bd
000000e0: fbe4 b6bd 2bd8 09bc 1e96 613d be82 7abc
000000f0: fbc7 cfbd e57d d7bd 95fc 753d 0cac d93d
00000100: b94c 8ebd 6af5 e13c f41a dfbd 2387 cf3d
00000110: b108 53bc 6b4c a53d b066 a33d abe6 15bb
00000120: 706a 99bd ff75 e23d 36da 6bbc 09d2 923d
00000130: f946 883d 8879 9cbd 64dc 703d ab5d a7ba
00000140: 7d16 a53d 781b a43c 19a1 a13d 51bf a7bd
00000150: 8dcb 98bc 3aab a2bd 61b0 903d 78e2 4f3c
00000160: cd96 c13d 0163 6d3b 5421 50bd 47b2 cebd
00000170: f449 27bd f2cd 83bd d2ca cbbc 43d6 cdbd
00000180: be7e 543d feef 85bd 5257 8dbc 8d8d 323c
00000190: f1be 0d3b eeba cb3d d326 d9bd b570 d7bd
000001a0: 48f5 773d 4a7f 8abd 0852 8bbc ec46 72bd
000001b0: af64 db3a b49c 5dbd b608 613d 682c bd3b
000001c0: 5952 ca3c e8ed 243d e635 713d 7c49 09bb
000001d0: 1686 1abd e291 c3bd 043c 70ba 7cc1 88bc
000001e0: 188f cf3b 99c3 cc3d f851 99bb 0b2d 623d
000001f0: 290e 8e3d f492 abbc 31d9 d53d 185e eebd
00000200: 6b52 61bc c7a4 ffbd e94d 94bd 3447 b6bb
00000210: 9a5e 18bd 766b eb3c 7e00 833d bbf1 423d
00000220: 8906 16be 5a86 bc3d e389 9cbd 1c23 873c
00000230: ec24 8ebd a3dc f73c c5e5 bdbd 2ac3 d23d
00000240: bee0 2abd e6ed a6bc 17ae 013e 6c2d 323d
00000250: 053a e1bc 9624 2ebc de0c 27bd aa28 99bd
00000260: 1247 bb3d 4e18 d3bd 8e9f f23d f106 d13d
00000270: e7b8 41bd d1a4 223d a53c 903d 4613 e63d
00000280: b474 2cbb f14c 95bd cb38 173d d33e be3c
00000290: b996 5fbb 12b9 10be 8ce8 87bc ef3c 6abb
000002a0: 2451 303c d22d b73d 2cf2 d1bd d252 b3bd
000002b0: 5cdc 8bbd f85a edbc 72d6 79bd bd33 4e3d
000002c0: dc1e c63c 91bb 74bd 9c26 c93d 0777 95bd
000002d0: 7225 863d ffee 1abd 4ea4 c93d 753c d4bd
000002e0: e76a d9bc a0af a83d 6bcb 3b3c 6347 a7bd
000002f0: 727b babd 0620 cc3d 0588 26bd 5c01 1abd
00000300: d06d 1e3d efc2 c83c de79 fbbc ad0b d4bc
00000310: 6617 bfbb ce3e fc3d ccc5 52bc f48e 833d
00000320: 7670 e63d c318 f7bd af3e 4bbb 68e8 543d
00000330: fa38 51bc c2b7 573c 1768 d23d 2e77 c7bd
00000340: 4d34 0abc 1b7b b23c 1731 a8bd a012 0c3d
00000350: 5a72 ad3d 9929 efbd e486 a93d 2888 91bd
00000360: 60ee d2bd e602 733d 70a7 d6bd 907a 003d
00000370: a77b 923c e8cc bfbd 6338 75bd 9bea 82bc
00000380: cc34 f0bd 488a 89bd 65a9 46bd 51d8 f73a
00000390: c39f 1dbe fa13 3cbd 52b4 b5bd 8716 d3bd
000003a0: 465c 063d acba 99bd d94d 8e3d 6956 fc3d
000003b0: 3be2 babd c068 bebc 637b ed3c c323 c0bd
000003c0: 2cbe 54bd 830d b0bd fa29 8cbd aa6c b33d
000003d0: c5f6 adbd 85ba 99ba a613 b2bd 5047 7abd
000003e0: f8fc a0bd cd7f 3dbd 3f05 b83c 1416 8fbd
000003f0: 2721 3ebd 0269 11bd d435 d5bd afba bb3d

linear_relu_stack.0.bias f4 [256]
-0.0036597021 -0.15862876 0.068587124 -0.067666955 -0.03591961 0.020164402 -0.013227545 0.06787075
-0.10480034 -0.023417013 0.1292024 -0.07979197 -0.09029903 0.009075157 -0.07532969 -0.0631365
0.04642184 -0.08984749 -0.12489383 -0.009362102 -0.10336197 0.11435067 -0.13192359 -0.05472717
-0.16368477 -0.04525366 0.12970646 0.01910485 -0.04788594 -0.028118355 0.10197364 0.06820771
0.05923928 -0.027565727 -0.121713005 0.0066283424 -0.11550994 -0.11398437 -0.11357273 0.06716694
-0.006937938 0.098634906 -0.09380414 -0.020092875 0.0014144733 0.102782674 -0.026026722 -0.0941683
-0.10018163 -0.039814238 -0.067752905 0.108503565 0.061691463 -0.00030022056 -0.04671304 -0.04014274
-0.026715089 -0.13520525 -0.019585416 0.14899524 -0.06801132 0.07294015 -0.09503442 0.06659655
-0.020860063 -0.10314432 0.0012182082 -0.16584529 -0.0059839627 0.12200036 -0.10980545 0.0833619
0.051303368 0.06260104 -0.015168153 -0.02987005 -0.011402531 -0.04338578 -0.06320431 0.116968095
0.03240551 -0.057138167 -0.15309472 0.003573196 -0.100457355 -0.016410746 -0.048228286 -0.027661009
0.15787175 0.13000882 0.045525443 -0.03157237 -0.05222531 0.08481628 -0.1527025 0.09588648
-0.058492705 -0.025991105 -0.090422586 0.02371197 0.16056362 0.012163788 -0.045811355 -0.0175878
0.067243434 0.057551004 -0.050509825 -0.09110931 0.06859608 -0.1230788 -0.17196377 -0.015724748
-0.0908386 0.08652735 0.1336611 0.08390007 -0.16785365 0.03244585 -0.06863941 0.049803812
-0.01762327 -0.031659596 -0.05560452 0.0068054968 -0.06134087 -0.009494558 -0.1499898 0.13450725
-0.14858936 0.03630428 0.11022886 -0.10865019 -0.01908139 -0.10145206 0.123084456 -0.13003577
-0.048642803 -0.14007267 0.14226829 -0.06203596 0.06142296 -0.05372248 -0.04644294 -0.18183126
0.028163617 0.14988779 0.087072365 0.0918822 0.1307123 -0.051736534 0.02884021 -0.13425344
0.09555058 -0.15133435 -0.09082256 -0.07362356 -0.047758795 0.015145947 -0.10655459 -0.051348306
0.044032164 0.14384183 -0.027745027 0.057935607 -0.07173201 0.12831503 0.091651246 -0.042887703
0.117321365 -0.08973857 -0.051271245 -0.09114587 -0.08731127 -0.08633233 -0.11836609 -0.10157218
-0.017230121 0.0033850537 -0.016657222 0.11622857 -0.17349845 0.10794973 -0.15194197 -0.052554414
-0.10947717 0.0022163931 -0.078709714 -0.057303622 -0.049065646 0.049168665 -0.13128318 -0.07271173
0.12822717 0.02507555 -0.014325941 -0.048184067 0.1425969 0.03892873 0.047369212 0.012509723
-0.0038686139 0.031827334 -0.15992934 -0.13793331 0.050345976 -0.0382774 -0.10520441 -0.015667664
0.031910796 -0.013711016 0.10369533 0.12919633 -0.0068217544 -0.05730213 0.07953372 -0.16681273
0.0044562253 0.0656711 0.027422296 -0.11548074 -0.083927855 -0.022006176 0.064226195 -0.005897387
0.013382865 -0.07563321 -0.020931894 -0.13702883 0.13261047 -0.056284085 0.031121947 -0.060147557
0.14356157 -0.105037846 0.12806809 -0.08489573 0.06037185 -0.10178224 -0.020287786 -0.1371212
-0.06114154 -0.097347304 -0.06357019 -0.113014154 0.12755246 -0.12234442 -0.0853522 0.08461723
0.14146224 -0.01604515 0.016015142 -0.13328232 0.04392897 -0.05788005 0.02306581 -0.10657799
00000000: 9dd7 6fbb 946f 22be 6877 8c3d f994 8abd
00000010: 7120 13bd d12f a53c 58b8 58bc d2ff 8a3d
00000020: 90a1 d6bd 09d5 bfbc a24d 043e f969 a3bd
00000030: b3ee b8bd f8af 143c 7446 9abd b64d 81bd
00000040: d424 3e3d f601 b8bd 56c8 ffbd 8063 19bc
00000050: 71af d3bd af30 ea3d fa16 07be 9929 60bd
00000060: fb9c 27be e75b 39bd c5d1 043e c681 9c3c
00000070: 0c24 44bd 7758 e6bc 8ed7 d03d 7cb0 8b3d
00000080: e3a4 723d 85d1 e1bc ab44 f9bd 9132 d93b
00000090: 7a90 ecbd a370 e9bd d298 e8bd d28e 893d
000000a0: a457 e3bb 1901 ca3d 631c c0bd d099 a4bc
000000b0: d965 b93a b97f d23d fe35 d5bc 4fdb c0bd
000000c0: 072c cdbd 4114 23bd 09c2 8abd 1e37 de3d
000000d0: 30b0 7c3d ec66 9db9 2c56 3fbd b76c 24bd
000000e0: 9ad9 dabc 3f73 0abe 9871 a0bc 3592 183e
000000f0: 8549 8bbd a561 953d 68a1 c2bd c663 883d
00000100: b9e2 aabc 543d d3bd 49ac 9f3a 59d3 29be
00000110: 1e15 c4bb 53db f93d aee1 e0bd a5b9 aa3d
00000120: 7b23 523d f934 803d d883 78bc 09b2 f4bc
00000130: aed1 3abc 4ab5 31bd 4371 81bd f88c ef3d
00000140: a4bb 043d b609 6abd ddc4 1cbe 482c 6a3b
00000150: 96bc cdbd d46f 86bc 068b 45bd 5799 e2bc
00000160: 22a9 213e 0821 053e e378 3a3d 0852 01bd
00000170: 35ea 55bd 28b4 ad3d 0b5e 1cbe 2160 c43d
00000180: 0c96 6fbd 4ceb d4bc 7a2f b9bd 9b3f c23c
00000190: ca6a 243e a04a 473c b0a4 3bbd 4a14 90bc
000001a0: edb6 893d 9aba 6b3d 64e3 4ebd 8597 babd
000001b0: 1a7c 8c3d bd10 fcbd 4517 30be 30d1 80bc
000001c0: 9709 babd 4035 b13d 75de 083e cdd3 ab3d
000001d0: d4e1 2bbe f1e5 043d d292 8cbd 15ff 4b3d
000001e0: ad5e 90bc 7ead 01bd 91c1 63bd a500 df3b
000001f0: 9040 7bbd 108f 1bbc ed96 19be 45bc 093e
00000200: cf27 18be ccb3 143d abbf e13d fe83 debd
00000210: 9350 9cbc 19c6 cfbd b413 fc3d 1928 05be
00000220: ad3d 47bd 366f 0fbe c7ae 113e 6b19 7ebd
00000230: a496 7b3d 1a0c 5cbd f43a 3ebd f931 3abe
00000240: 63b7 e63c 2f7c 193e ff52 b23d bc2c bc3d
00000250: 72d9 053e b0e9 53bd 4e42 ec3c bc79 09be
00000260: 06b0 c33d 64f7 1abe 2e01 babd f3c7 96bd
00000270: ba9e 43bd b526 783c 4b39 dabd 9a52 52bd
00000280: 125b 343d 464b 133e 8a49 e3bc e34d 6d3d
00000290: 3be8 92bd 0465 033e a6b3 bb3d 04ab 2fbd
000002a0: 2f46 f03d dbc8 b7bd cc01 52bd b0aa babd
000002b0: 40d0 b2bd 01cf b0bd ec69 f2bd 1305 d0bd
000002c0: 2f26 8dbc c7d7 5d3b ba74 88bc 3f09 ee3d
000002d0: 94a9 31be bf14 dd3d ad96 1bbe 4c43 57bd
000002e0: 9135 e0bd e840 113b 8f32 a1bd 34b7 6abd
000002f0: 0ff9 48bd 1565 493d 196f 06be e3e9 94bd
00000300: fc4d 033e 3d6b cd3c 5ab7 6abc a85c 45bd
00000310: ec04 123e bb73 1f3d 3806 423d 95f5 4c3c
00000320: 9288 7dbb 615d 023d 84c4 23be 643e 0dbe
00000330: 9537 4e3d c3c8 1cbd 6975 d7bd 7959 80bc
00000340: e5b4 023d 2ba4 60bc 385e d43d 0b4c 043e
00000350: 0689 dfbb a3b5 6abd 93e2 a23d f5d0 2abe
00000360: 8705 923b 927e 863d b9a4 e03c 2b81 ecbd
00000370: 5ee2 abbd 4c46 b4bc 0689 833d de3e c1bb
00000380: ce43 5b3c 96e5 9abd 5d79 abbc 4951 0cbe
00000390: 0acb 073e 248a 66bd 74f3 fe3c 495d 76bd
000003a0: ce01 133e 151e d7bd 4824 033e d0dd adbd
000003b0: 7948 773d 3573 d0bd 9232 a6bc 8069 0cbe
000003c0: 8d6f 7abd 065e c7bd 1631 82bd f773 e7bd
000003d0: 1d9d 023e b68f fabd 22cd aebd cc4b ad3d
000003e0: 7adb 103e 1e71 83bc 3032 833c 297b 08be
000003f0: ddee 333d a213 6dbd 82f4 bc3c 9045 dabd

linear_relu_stack.3.weight f4 [256, 256]
0.056799993 -0.009680191 -0.048273258 -0.020809287 0.045498904 0.01984066 -0.057792846 0.032657754
-0.0061592977 0.015199494 0.003142469 0.038444463 0.020374767 -0.019827563 0.025375022 -0.06347137
-0.051584378 -0.050067566 -0.024447152 0.02540791 0.014423584 0.0318286 0.061959688 -0.031239025
-0.0148970075 0.016166631 -0.0021468364 -0.03747268 0.008794978 -0.039362762 -0.040786278 -0.07831031
0.019656727 -0.013896066 0.033988364 0.043897312 -0.062442563 0.0012532672 0.047885306 -0.058445662
-0.033660043 -0.008383437 0.024362639 0.01889156 -0.040324572 0.044926923 -0.0033934095 -0.05502508
0.009750286 -0.039674547 -0.013496217 -0.0449718 0.003877837 0.028143035 0.032405764 -0.058272794
-0.03333467 0.05257468 0.024047997 -0.048615832 0.032488618 -0.03866772 -0.023070883 -0.0015993125
-0.023704257 0.020125397 -0.0786451 0.017426496 0.011047744 -0.0420346 0.02518718 -0.016734716
-0.0040512164 -0.033913523 -0.04168564 0.0016546317 -0.009302579 -0.0016847459 -0.043593213 -0.021734605
0.03430014 0.011815052 0.04444788 0.054175626 -0.016657129 -0.05055332 -0.016750783 0.024689496
0.04143017 -0.01651283 -0.04519931 0.03309775 -0.027407343 0.040475693 0.041485302 -0.050050184
0.051909424 -0.04669171 -0.0639715 0.015479889 -0.051301554 0.0014729253 -0.071944594 -0.04757888
-0.055916123 -0.022786727 -0.04875563 -0.002268903 -0.030997107 -0.016877178 -0.0372233 -0.035697717
-0.022103943 0.03738628 -0.04188673 0.0015304085 -0.012936652 0.034019712 0.057942804 0.0009692938
-0.010654315 -0.011636959 -0.009810291 0.04727336 0.035259467 0.027576158 -0.0577987 -0.009449797
-0.012149078 0.048752643 -0.04994976 -0.01311893 0.06168041 -0.03486774 -0.024240892 -0.03432265
-0.012802161 0.008849253 -0.040322762 -0.07059811 0.006815569 -0.07639077 0.07166493 -0.0536048
0.02465651 0.023624828 -0.039690804 -0.056992415 -0.001980231 -0.009190485 -0.041207027 0.049971443
-0.04247627 -0.0065049864 0.002973059 0.03456519 0.052724868 -0.004526758 0.013520896 0.001478093
-0.041399248 0.04039608 -0.047406714 -0.052679505 0.008549146 0.033847377 -0.064202994 -0.056204412
-0.0010284858 0.048428807 0.014055774 -0.022859873 0.012446957 0.019287765 -0.04670541 -0.042753674
-0.06279175 -0.041210745 0.038590763 0.033296764 0.050789066 -0.07106977 0.04238755 0.026374537
-0.014168054 0.03759097 -0.06377355 -0.028428635 -0.0507346 -0.09515098 0.023154939 -0.05011248
-0.03944531 0.048841417 0.014173079 -0.052287333 -0.001064132 0.01107873 -0.046499062 -0.011512679
0.010678776 0.032655265 -0.01854475 0.061106227 0.078212775 -0.041607477 -0.028594004 -0.018789746
-0.039914273 -0.037215166 0.010182566 0.014665394 0.04456513 0.07870417 -0.021181483 -0.009830076
0.06099584 -0.049530115 -0.04740999 0.034003057 0.004687622 -0.0053632557 -0.071717784 0.014976153
0.009941246 -0.051440723 0.06455288 0.045828465 0.017276179 -0.0037704334 -0.011545372 0.0392532
-0.05505058 -0.018663004 -0.027685657 0.05631519 -0.01959805 -0.04738059 -0.018753326 0.043636296
0.03552837 -0.033515 -0.009438494 0.0149476025 0.04954211 -0.026408175 -0.070319995 0.0507489
-0.081302576 -0.0645338 0.012087319 -0.010352723 -0.02610142 0.058785923 -0.0027055475 -0.048846316
00000000: 1ca7 683d aa99 1ebc 2eba 45bd 3d78 aabc
00000010: 0f5d 3a3d e188 a23c 31b8 6cbd 23c4 053d
00000020: efd3 c9bb 4c07 793c e2f1 4d3b f177 1d3d
00000030: fce8 a63c 6a6d a2bc 47df cf3c 47fd 81bd
00000040: 244a 53bd a613 4dbd 6545 c8bc 4024 d03c
00000050: e550 6c3c b55e 023d 71c9 7d3d fce8 ffbc
00000060: 9412 74bc e26f 843c f0b1 0cbb f47c 19bd
00000070: d018 103c d93a 21bd 830f 27bd 2861 a0bd
00000080: 2507 a13c 53ac 63bc 6237 0b3d abcd 333d
00000090: c6c3 7fbd ab44 a43a 6223 443d b864 6fbd
000000a0: 1ddf 09bd af5a 09bc 2894 c73c 79c2 9a3c
000000b0: 612b 25bd 4b05 383d f763 5ebb fa61 61bd
000000c0: aabf 1f3c c781 22bd 3d1f 5dbc 5a34 38bd
000000d0: 4f23 7e3b 398c e63c e8bb 043d 74af 6ebd
000000e0: ef89 08bd 8c58 573d 4e00 c53c 6521 47bd
000000f0: c912 053d 0b62 1ebd 26ff bcbc 06a0 d1ba
00000100: 6e2f c2bc 04de a43c af10 a1bd 03c2 8e3c
00000110: 9901 353c 792c 2cbd 5855 ce3c 3e17 89bc
00000120: 11c0 84bb e8e8 0abd 90be 2abd 3ae0 d83a
00000130: d869 18bc b1d2 dcba cc8e 32bd c50c b2bc
00000140: 4e7e 0c3d eb93 413c fb0e 363d 43e7 5d3d
00000150: 8874 88bc 0011 4fbd f038 89bc a041 ca3c
00000160: afb2 293d ea45 87bc e922 39bd 8291 073d
00000170: 5d85 e0bc d7c9 253d 7eec 293d 6c01 4dbd
00000180: fa9e 543d ce3f 3fbd 7d03 83bd 5c9f 7d3c
00000190: 9421 52bd 2c0f c13a b057 93bd 12e2 42bd
000001a0: 4e08 65bd 3bab babc fcb3 47bd e0b1 14bb
000001b0: a5ed fdbc 0242 8abc 7677 18bd c537 12bd
000001c0: 5413 b5bc 5b22 193d 6b91 2bbd fd97 c83a
000001d0: 40f4 53bc 4158 0b3d 6f55 6d3d 3518 7e3a
000001e0: 708f 2ebc f2a8 3ebc 58bb 20bc b6a1 413d
000001f0: 3b6c 103d 65e7 e13c 54be 6cbd 52d3 1abc
00000200: ed0c 47bc dab0 473d 1f98 4cbd c8f0 56bc
00000210: 99a4 7c3d 7ad1 0ebd d694 c6bc e895 0cbd
00000220: 28c0 51bc 75fc 103c 7b29 25bd be95 90bd
00000230: 2355 df3b c472 9cbd 10c5 923d b590 5bbd
00000240: 73fc c93c db88 c13c d392 22bd e170 69bd
00000250: c3c6 01bb b093 16bc b3c8 28bd dbae 4c3d
00000260: 99fb 2dbd c827 d5bb a7d7 423b 3b94 0d3d
00000270: 08f6 573d 3355 94bb c086 5d3c 92bc c13a
00000280: 4292 29bd 5c76 253d 8b2d 42bd 77c6 57bd
00000290: b811 0c3c 8ca3 0a3d dc7c 83bd 9936 66bd
000002a0: 42ce 86ba 495d 463d 304a 663c a144 bbbc
000002b0: 52ee 4b3c 6001 9e3c 2c4e 3fbd 7a1e 2fbd
000002c0: f698 80bd 99cc 28bd 5911 1e3d 3062 083d
000002d0: 3208 503d 078d 91bd 919e 2d3d 6a0f d83c
000002e0: 2021 68bc fdf8 193d b59b 82bd 2be3 e8bc
000002f0: 15cf 4fbd 84de c2bd 6daf bd3c be42 4dbd
00000300: 6891 21bd f00d 483d 3436 683c 3e2b 56bd
00000310: 587a 8bba 9083 353c cd75 3ebd ad9f 3cbc
00000320: 08f6 2e3c 87c1 053d 29eb 97bc 864a 7a3d
00000330: 052e a03d 9a6c 2abd f93d eabc f4ec 99bc
00000340: 267d 23bd ee6e 18bd c7d4 263c 1f47 703c
00000350: ed89 363d a72f a13d ca84 adbc 540e 21bc
00000360: c6d6 793d 17e0 4abd fa30 42bd ca46 0b3d
00000370: a09a 993b 40be afbb c6e0 92bd 8a5e 753c
00000380: 9ce0 223c 82b3 52bd 4d34 843d a1b6 3b3d
00000390: c686 8d3c 6019 77bb cd28 3dbc f7c7 203d
000003a0: b87c 61bd 28e3 98bc 08cd e2bc c2aa 663d
000003b0: 178c a0bc 2612 42bd 93a0 99bc f9bb 323d
000003c0: 3286 113d 0647 09bd eaa3 1abc cae6 743c
000003d0: abec 4a3d f555 d8bc ee03 90bd 14de 4f3d
000003e0: f781 a6bd 4c2a 84bd e409 463c 789e 29bc
000003f0: a5d2 d5bc 82c9 703d 8e4f 31bb 1313 48bd

linear_relu_stack.3.bias f4 [256]
-0.039695278 0.067341805 -0.018740032 -0.037225578 0.13618833 0.03888279 0.0144354245 0.12130649
0.036172763 -0.06871582 -0.029471641 -0.04765166 0.0990203 0.01999434 0.056638654 0.011883788
0.09261709 0.025950333 0.055973914 -0.048972636 -0.04217258 0.064355485 -0.00707308 -0.020132042
0.029717058 0.060284324 -0.055596262 0.061124202 -0.023786299 -0.013555706 -0.019277435 0.0691408
-0.05915587 0.0153217 -0.062188417 -0.048805013 0.0911996 -0.015380197 0.08011159 -0.054672055
0.028487477 0.06674572 -0.017133234 -0.0735621 0.025994651 0.030633874 -0.0027677147 -0.011758942
0.0732065 -0.020732224 0.07015228 0.068345875 -0.0010987327 -0.05206404 -0.040405966 0.038981464
0.10481571 0.02750229 0.06653652 0.10643484 -0.05888682 0.0340933 -0.034320693 0.012416962
-0.018324373 0.0793297 0.021482892 -0.031138772 -0.06429626 0.028509945 0.045227304 0.07194005
0.00869277 -0.0139949145 -0.028502781 0.028210403 0.042872585 -0.05393756 0.064048775 0.01653167
0.07838623 -0.050780866 -0.06484809 -0.02148293 0.078441 -0.04293905 0.040584408 0.09214431
0.111594684 -0.056048635 0.07318046 -0.030664826 -0.026712595 -0.006574074 0.06889931 0.095982715
-0.06469611 0.06601144 0.10839241 -0.031071853 -0.03632991 -0.022752604 -0.060786065 0.026165545
0.030908559 -0.05449127 -0.056285333 0.025946556 -0.03439695 0.11127218 -0.01202919 -0.056985505
0.040007528 0.042864498 0.13510664 -0.05966404 0.06754396 0.08330101 0.120037705 -0.05427474
0.11358426 0.015080905 0.026086507 0.016072126 -0.023999099 0.0901788 -0.035534166 -0.031558674
0.007860621 0.024923842 -0.059376206 0.03491012 0.012726344 -0.011832466 0.06647378 0.11833868
0.09357768 -0.049310423 0.0046728053 0.00093123084 0.12975755 0.07981167 -0.094739735 0.10658889
-0.038100347 0.08063075 -0.05483421 0.043741416 -0.022268865 -0.0029259692 0.033645686 -0.07425088
-0.03154166 -0.040189434 0.016772967 0.016616484 0.032210592 -0.029043417 0.11937671 -0.0026429547
0.0879725 -0.034608334 -0.01487376 -0.010836475 -0.03401218 -0.060353633 -0.049755566 0.04181013
-0.01021066 -0.05695291 -0.05918869 -0.01720718 -0.06355341 0.11027664 0.099455886 0.11032044
0.11273901 -0.023604026 -0.046677202 -0.017610056 -0.0226003 -0.01758632 -0.047713313 0.121613696
-0.0603517 -0.043497935 0.03924004 -0.04440836 0.10342778 0.025144393 0.011378372 -0.046036534
-0.012771665 0.023164662 0.00146192 0.0050497595 0.05536133 -0.08099213 0.028844196 -0.042395897
-0.03829754 -0.07674451 -0.075422734 0.019484343 0.008587797 -0.0020795912 0.0134118255 0.045174915
-0.026676288 0.05907048 0.091946214 -0.024492314 -0.06269987 0.11180668 0.016656458 -0.03841516
0.01735189 -0.036663964 -0.061183956 0.015966551 -0.045590155 0.109312415 0.0544041 0.04341213
-0.06344604 -0.06588589 -0.011198403 0.039413214 0.016740417 -0.03503654 0.094155416 0.02429567
-0.0011176639 -0.07072048 0.002271901 -0.008086628 -0.015120325 -0.06735447 0.053001784 0.033277202
0.028308852 -0.06451535 -0.04734382 0.012887257 0.095043816 -0.018764017 0.067476876 -0.0437371
-0.0052832924 0.10388077 -0.033833247 0.026117962 0.07705874 0.088297755 -0.008107365 -0.0045209974
00000000: 8497 22bd 80ea 893d b284 99bc d979 18bd
00000010: f474 0b3e 8f43 1f3d 8f82 6c3c 896f f83d
00000020: e429 143d e1ba 8cbd 836e f1bc 632e 43bd
00000030: 28cb ca3d 2ccb a33c effd 673d 38b4 423c
00000040: 07ae bd3d cb95 d43c e744 653d 8897 48bd
00000050: 28bd 2cbd cfcc 833d 4cc5 e7bb f4eb a4bc
00000060: 3071 f33c b2ec 763d e8b8 63bd 5f5d 7a3d
00000070: 7cdb c2bc c018 5ebc b6eb 9dbc b199 8d3d
00000080: 6d4d 72bd de07 7b3c 48b9 7ebd c4e7 47bd
00000090: dbc6 ba3d 39fd 7bbc 8c11 a43d ceef 5fbd
000000a0: 925e e93c fbb1 883d ff5a 8cbc baa7 96bd
000000b0: bcf2 d43c e4f3 fa3c 8c62 35bb 94a8 40bc
000000c0: 4aed 953d a0d6 a9bc 00ac 8f3d ecf8 8b3d
000000d0: 5a03 90ba 1a41 55bd ba80 25bd 07ab 1f3d
000000e0: 9ea9 d63d 7c4c e13c 4d44 883d 82fa d93d
000000f0: 4e33 71bd 6ba5 0b3d db93 0cbd 8370 4b3c
00000100: ff1c 96bc 9c77 a23d e4fc af3c bd16 ffbc
00000110: c2ad 83bd b08d e93c 4440 393d 4e55 933d
00000120: 1f6c 0e3c ed4a 65bc aa7e e9bc 8119 e73c
00000130: 2a9b 2f3d a2ed 5cbd 012c 833d 6d6d 873c
00000140: f688 a03d 99ff 4fbd 13cf 84bd f8fc afbc
00000150: ada5 a03d dbe0 2fbd d63b 263d 28b6 bc3d
00000160: c18b e43d 4193 65bd a3df 953d cd34 fbbc
00000170: 5fd4 dabc 546b d7bb 151b 8d3d 9692 c43d
00000180: 657f 84bd 0131 873d d7fc dd3d 668a febc
00000190: acce 14bd ab63 babc cffa 78bd 2059 d63c
000001a0: f233 fd3c 3d32 5fbd 738b 66bd df8d d43c
000001b0: d1e3 0cbd abe2 e33d 1416 45bc a269 69bd
000001c0: efde 233d af92 2f3d 6559 0a3e 4862 74bd
000001d0: 7d54 8a3d b899 aa3d 54d6 f53d 314f 5ebd
000001e0: dd9e e83d e615 773c 5fb3 d53c b1a9 833c
000001f0: c299 c4bc aaaf b83d 468c 11bd ab43 01bd
00000200: d6c9 003c 162d cc3c 7734 73bd eafd 0e3d
00000210: 2882 503c f6dc 41bc 6823 883d 8d5b f23d
00000220: a8a5 bf3d baf9 49bd 551e 993b d81d 743a
00000230: 2adf 043e 4d74 a33d e806 c2bd 474b da3d
00000240: 1c0f 1cbd bc21 a53d d699 60bd 332a 333d
00000250: 326d b6bc 9ec1 3fbb 0fd0 093d d810 98bd
00000260: d431 01bd ad9d 24bd 7667 893c 4b1f 883c
00000270: 41ef 033d 76ec edbc c77b f43d 6c35 2dbb
00000280: ed2a b43d 78c1 0dbd 12b1 73bc 788b 31bc
00000290: 5b50 0bbd 5f35 77bd 7ecc 4bbd 1941 2b3d
000002a0: 9d4a 27bc 7447 69bd d76f 72bd 12f6 8cbc
000002b0: 4a28 82bd b8d8 e13d 87af cb3d afef e13d
000002c0: b6e3 e63d 3b5d c1bc 9830 3fbd f742 90bc
000002d0: 4424 b9bc 3011 90bc 096f 43bd 9a10 f93d
000002e0: 5833 77bd e42a 32bd 2aba 203d 8ae5 35bd
000002f0: f2d1 d33d 9dfb cd3c 5a6c 3a3c ce90 3cbd
00000300: 3f40 51bc d1c3 bd3c e59d bf3a 7478 a53b
00000310: 90c2 623d 34df a5bd aa4a ec3c 52a7 2dbd
00000320: e2dd 1cbd 3a2c 9dbd 3c77 9abd a19d 9f3c
00000330: d5b3 0c3c c049 08bb 46bd 5b3c 5509 393d
00000340: 3b88 dabc e3f3 713d 4c4e bc3d 1ba4 c8bc
00000350: ca68 80bd e7fa e43d 2073 883c 3759 1dbd
00000360: 8d25 8e3c f42c 16bd 079c 7abd 49cc 823c
00000370: bebc 3abd 30df df3d d5d6 5e3d ebd0 313d
00000380: ffef 81bd 2eef 86bd 8279 37bc c06f 213d
00000390: 3323 893c 7a82 0fbd 8ed4 c03d b707 c73c
000003a0: 947e 92ba e6d5 90bd 2ce4 143b c77d 04bc
000003b0: 3dbb 77bc 24f1 89bd 6618 593d ad4d 083d
000003c0: f7e7 e73c a020 84bd 98eb 41bd 1325 533c
000003d0: 55a6 c23d ffb6 99bc 5131 8a3d ac25 33bd
000003e0: 781f adbb 71bf d43d bb94 0abd 56f5 d53c
000003f0: f9d0 9d3d 74d5 b43d c1d4 04bc e024 94bb

linear_relu_stack.6.weight f4 [1, 256]
-0.0027068502 0.0140037965 -0.024923386 -0.012124391 0.06525514 -0.037501052 0.007911448 0.0386352
0.002376276 -0.0016486031 -0.047181886 -0.037046157 0.045269966 0.0026966967 0.014780216 -0.00046200835
0.05508563 -0.04180417 0.011499469 0.05298964 0.019056527 -0.048963573 0.00028718868 -0.002683394
-0.04817604 0.03369261 -0.023207776 0.0023316178 0.0017547511 -0.05408565 -0.00632143 0.012882229
-0.018955387 0.00058987195 -0.028468972 -0.052436423 0.06401324 0.0033419675 0.002893652 -0.003261854
-0.002738128 0.0073004756 -0.0029662584 -0.028341798 0.0006990803 -0.027549682 -0.031334978 0.0035267158
0.035084315 0.0014137244 0.022220852 -0.0027017968 -0.016605772 0.004378305 0.051933452 0.006671983
0.022370948 -0.040088356 0.04214896 0.013015563 -0.043494478 0.013849675 0.032457396 -0.051373783
-0.0076624793 0.056204356 -0.014899019 -0.018061778 -0.003223009 0.01846134 0.004684687 0.00321399
0.0016101057 0.001708205 -0.049977075 0.010907158 -0.0031441767 0.029090673 -0.050368022 -0.026434049
0.025583971 0.030580645 -0.0150182145 0.00049468875 0.0056454577 -0.005203433 0.00916652 0.043508645
0.06431454 -0.01592702 0.007343699 -0.030251496 -0.031903926 0.005389956 0.067959964 0.05170725
-0.0035115972 0.052307434 0.020203775 -0.023598526 -0.047659036 -0.0056867376 -0.03848335 0.055058777
0.031469647 -0.034147315 0.019757085 -0.031034853 -0.00010826905 0.054509208 -0.003351069 0.0013755363
-0.027870754 -0.041326314 0.07302554 -0.019454533 0.04723197 0.051463854 0.026835926 0.0023725026
0.06420925 -0.00060665334 -0.0342421 -0.001568626 0.045999113 0.0045637297 0.009826268 -0.002303574
-0.030892415 -0.0338134 -0.019126525 -0.041275285 -0.048416264 -0.018694945 0.04110246 0.04336424
0.006849531 0.0010219029 -0.025297012 -0.0055619497 0.054202087 0.0438463 -0.012591354 0.059274826
0.002578682 0.039093353 -0.006561941 0.0023373778 -0.00018805571 -0.024988117 0.0028895244 0.006658262
-0.011052095 -0.008805414 0.018295376 -0.014241686 0.021085724 -0.046610117 0.028048962 -0.01090157
0.026644168 -0.0030492407 -0.047979716 0.040301677 -0.037486136 0.0067042224 0.0032807088 0.045382485
0.0023155264 -0.03789088 0.053764883 0.002350491 0.009998553 0.05745809 0.044821985 0.017479522
0.02052256 -0.037640855 0.0041824435 0.00096751883 -0.037319027 0.0048471857 -0.030242866 0.03677552
-0.016109116 0.0014918637 0.0006952183 0.003499322 0.058505166 -0.010825621 0.0018485365 6.487715e-05
0.013524407 -0.0025108375 0.001962096 0.014959563 0.011096116 -0.006517384 -0.01295755 0.0024910122
0.004018061 -0.022732878 0.014807706 -0.035840068 0.019117218 0.055015072 -0.016005121 -0.019470884
-0.017522864 0.004916113 0.04659686 0.030661987 -0.00027662134 0.055738036 -0.0029231382 -0.042705007
0.037564427 -0.0015291204 -0.005777941 -0.03662043 -0.04176359 0.053004026 0.024651151 0.010956324
-0.0073819137 0.020910554 -0.03570901 -0.006482805 -0.004837546 -0.010988168 0.03800973 0.010366074
-0.009828076 -0.0173443 0.0015876049 0.0006150238 -0.00019998572 -0.014962121 0.0018279876 -0.0039129746
-0.007964247 -0.02467097 -0.0009036333 -0.030896937 0.023130242 -0.012907681 0.013260708 0.015137077
-0.031937394 -0.10357797 -0.044339523 0.0011300247 0.025286792 0.008028068 -0.022363527 -0.045865163
00000000: 6965 31bb 2e70 653c 212c ccbc 62a5 46bc
00000010: 7da4 853d b49a 19bd 059f 013c f23f 1e3d
00000020: 4cbb 1b3b f115 d8ba cb41 41bd b6bd 17bd
00000030: 006d 393d 10bb 303b b828 723c b639 f2b9
00000040: 78a1 613d d93a 2bbd 4568 3c3c aa0b 593d
00000050: 6f1c 9c3c 078e 48bd d091 9639 e1db 2fbb
00000060: 3d54 45bd 4301 0a3d 3c1e bebc 0ece 183b
00000070: adff e53a ea88 5dbd 0024 cfbb fc0f 533c
00000080: 5448 9bbc a3a1 1a3a c337 e9bc 93c7 56bd
00000090: 6019 833d e904 5b3b 6da3 3d3b d4c4 55bb
000000a0: 2a72 33bb d438 ef3b 8f65 42bb 0f2d e8bc
000000b0: 7c42 373a dfaf e1bc 1b59 00bd 7920 673b
000000c0: 92b4 0f3d b84c b93a 8108 b63c a110 31bb
000000d0: d408 88bc e277 8f3b 2cb8 543d a6a0 da3b
000000e0: 4743 b73c b033 24bd 63a4 2c3d 3a3f 553c
000000f0: 4427 32bd bfe9 623c 0cf2 043d 516d 52bd
00000100: 8915 fbbb 8a36 663d 041b 74bc 4bf6 93bc
00000110: 1e39 53bb 3c3c 973c 0182 993b cea1 523b
00000120: 2f0a d33a d9e5 df3a c3b4 4cbd f0b3 323c
00000130: 880e 4ebb 904f ee3c b34e 4ebd 388c d8bc
00000140: 7a95 d13c 4384 fa3c f50e 76bc 00ae 013a
00000150: 88fd b83b 8f81 aabb 2c2f 163c 1f36 323d
00000160: 57b7 833d 6279 82bc 6aa3 f03b fcd1 f7bc
00000170: b1ad 02bd 3a9e b03b 982e 8b3d fbca 533d
00000180: d322 66bb 5240 563d 6382 a53c b251 c1bc
00000190: 1f36 43bd d057 babb b8a0 1dbd 5085 613d
000001a0: 51e6 003d 0ede 0bbd 9cd9 a13c ce3c febc
000001b0: 810e e3b8 0c45 5f3d 9c9d 5bbb 574b b43a
000001c0: 3551 e4bc c845 29bd 6a8e 953d 1d5f 9fbc
000001d0: 4f76 413d c3cb 523d 04d7 db3c fd7b 1b3b
000001e0: 2480 833d d107 1fba 7241 0cbd 5b9a cdba
000001f0: 9169 3c3d 578b 953b 5bfe 203c 8ff7 16bb
00000200: 1712 fdbc eb7f 0abd 3baf 9cbc 4610 29bd
00000210: 2250 46bd 2426 99bc 0e5b 283d b49e 313d
00000220: 0872 e03b 5ff1 853a ae3b cfbc 0441 b6bb
00000230: 0203 5e3d 2e98 333d f74b 4ebc 29ca 723d
00000240: 1bff 283b 5a20 203d 8d05 d7bb b12e 193b
00000250: d230 45b9 e1b3 ccbc 2d5e 3d3b 8d2d da3b
00000260: d913 35bc 9544 10bc 2fe0 953c f655 69bc
00000270: f8bb ac3c 40ea 3ebd f0c6 e53c 809c 32bc
00000280: df44 da3c c5d5 47bb 6186 44bd 5f13 253d
00000290: 108b 19bd 18af db3b 2901 573b fce2 393d
000002a0: 16c0 173b 7833 1bbd 9138 5c3d b20a 1a3b
000002b0: f9d0 233c 2d59 6b3d 4297 373d 3731 8f3c
000002c0: ee1e a83c 4c2d 1abd e10c 893b 17a1 7d3a
000002d0: d6db 18bd 24d5 9e3b e3bf f7bc eda1 163d
000002e0: 44f7 83bc a48a c33a 4f3f 363a e254 653b
000002f0: 1da3 6f3d f25d 31bc 984a f23a a80e 8838
00000300: 7995 5d3c dd8c 24bb 8296 003b f418 753c
00000310: 7ccc 353c c88f d5bb e74b 54bc 4040 233b
00000320: f0a9 833b 4d3a babc 059c 723c 09cd 12bd
00000330: b69b 9c3c 7c57 613d 2c1d 83bc 6781 9fbc
00000340: 1c8c 8fbc 5817 a13b 59dc 3e3d d92e fb3c
00000350: 7d07 91b9 914d 643d 1f92 3fbb 72eb 2ebd
00000360: 28dd 193d c46c c8ba e254 bdbb 4eff 15bd
00000370: 4c10 2bbd c01a 593d 36f1 c93c 2782 333c
00000380: fbe3 f1bb 9c4c ab3c 9c43 12bd b66d d4bb
00000390: 4784 9ebb b807 34bc 17b0 1b3d 77d6 293c
000003a0: f005 21bc a215 8ebc 2e17 d03a 8c39 213a
000003b0: 42b3 51b9 af23 75bc 1699 ef3a 6938 80bb
000003c0: 797c 02bc c61a cabc cee1 6cba 931b fdbc
000003d0: a27b bd3c bd7a 53bc 7143 593c 8101 783c
000003e0: c9d0 02bd b020 d4bd 5c9d 35bd 561d 943a
000003f0: 3f26 cf3c 2888 033c b733 b7bc 1cdd 3bbd
