Assets/ONNX/ffn.onnx (onnx, 338681 bytes, 5 tensors)

linear_relu_stack.0.weight f4 [256, 71]
0	0xbd9b4ad7	-0.07582634
1	0xbd974541	-0.07386256
2	0xbd0ae86a	-0.033913054
3	0x3ba9d274	0.0051825587
4	0xbe5b18c3	-0.21396165
5	0xbbfcfaa1	-0.007720307
6	0xbde69b0e	-0.11260043
7	0xbdc73562	-0.09726979
8	0xbe2644ab	-0.16237132
9	0x3dbf2012	0.09332289
10	0xbd39cbc5	-0.045360345
11	0xbc322643	-0.01087338
12	0x3d530663	0.051519763
13	0x3d9857e3	0.07438638
14	0xbd9842bb	-0.07434603
15	0xbe13e6ac	-0.14443463
16	0xb9a09cd9	-0.0003063444
17	0x3d8d14fe	0.068887696
18	0xbd935c6f	-0.07195365
19	0x3d3000d4	0.04296954
20	0xbe1a397d	-0.15060993
21	0x3d8c57ce	0.06852685
22	0xbdfe1ad8	-0.12407464
23	0xbe18c5ad	-0.14919157
24	0x3d1d2a40	0.03837037
25	0x3ce014c8	0.02735366
26	0x3d4cabbb	0.049968462
27	0x3cbd343c	0.023096196
28	0xbdca7e17	-0.09887331
29	0xbc5aca93	-0.0133539615
30	0xbdce8a74	-0.100850016
31	0xbe08c186	-0.13355073
32	0xbe04413f	-0.12915514
33	0xbda73321	-0.08164049
34	0x3cb1807b	0.02166771
35	0x3e0fa326	0.1402708
36	0xbd8feb16	-0.07027261
37	0xbdde3f52	-0.10851921
38	0xbd70144c	-0.058613107
39	0xbd1275de	-0.03575694
40	0xbd58c984	-0.052926555
41	0xbd9d9ed1	-0.076963075
42	0xbd98b492	-0.07456316
43	0xbca88673	-0.020571923
44	0xbdbe1f22	-0.09283282
45	0xbdd89103	-0.10574534
46	0xbd55b8f0	-0.052178323
47	0x3cceb97f	0.025234936
48	0x3caa445a	0.020784546
49	0x3c0074e4	0.007840369
50	0x3db415c9	0.08793218
51	0xbe040f70	-0.12896514
52	0xbddbfaf0	-0.10741222
53	0x3da84fe5	0.08218364
54	0xbc4840a7	-0.012222446
55	0xbd991967	-0.07475548
56	0xbba8d807	-0.0051527056
57	0x3c3ff8c3	0.011717024
58	0x3d87cc0e	0.06630717
59	0xbd9ebb0d	-0.07750521
60	0x3d1f0a1c	0.038828
61	0x3cd7315b	0.026268652
62	0x3dafef58	0.08590573
63	0xbd0083d5	-0.031375725
64	0xbdc4d785	-0.096114196
65	0xbe30cdc3	-0.17265992
66	0x3dcc6617	0.099804096
67	0xbd9cdb33	-0.076589964
68	0x3d06f734	0.032950595
69	0xbdd029f9	-0.10164256
70	0xbdc85601	-0.09782029
71	0xbd5b8315	-0.053591806
72	0xbe9aab5a	-0.30208856
73	0xbd9c0df9	-0.076198526
74	0xbce56b3b	-0.028005233
75	0xbe894a8c	-0.26814687
76	0x3d402f3a	0.04692004
77	0xbe0c8fe1	-0.1372676
78	0x3d6044bf	0.05475306
79	0xbe1375fa	-0.14400473
80	0x3ca9f51b	0.020746758
81	0xbe86bd55	-0.26316324
82	0xbdb422e8	-0.0879572
83	0xbd6a51ef	-0.057207044
84	0x3da18ae1	0.07887817
85	0x3d809e60	0.06280208
86	0xbe8c73a1	-0.27431968
87	0x3cf1ce4a	0.029517312
88	0xbd78b892	-0.060722895
89	0xbdc62fda	-0.09677096
90	0x3d19e4fc	0.037571892
91	0xbe9da46d	-0.3078951
92	0xbd5f45ca	-0.054509915
93	0x3a60f66a	0.00085816404
94	0x3d34e88e	0.044167094
95	0xbe1a6bb4	-0.15080148
96	0x3d3a45eb	0.045476835
97	0xbd84495d	-0.064593054
98	0xbe67887d	-0.2261066
99	0xbe027b0d	-0.12742253
100	0x3d707a5e	0.05871045
101	0x3cf5054e	0.029909756
102	0xbd9ed1c3	-0.077548526
103	0xbda257ce	-0.07926904
104	0x3dd0f367	0.10202675
105	0xbcb36ed4	-0.021903433
106	0x3dbc482a	0.09193452
107	0xbda866e5	-0.082227506
108	0x3cac601d	0.021041924
109	0xbd269fb6	-0.040679656
110	0xbd169f69	-0.03677312
111	0xbcddcdaa	-0.027075607
112	0xbd1a461b	-0.037664514
113	0xbd7f2a81	-0.062296394
114	0x3d27d165	0.04097118
115	0xbdee3255	-0.11630694
116	0x3d267f6a	0.040648855
117	0xbde357b8	-0.111007154
118	0x3d80f9df	0.06297659
119	0xbdf2f892	-0.11863817
120	0xbde3f3b7	-0.11130469
121	0x3d4dae97	0.05021533
122	0xbe0e38d5	-0.13888867
123	0x3e0467f1	0.12930275
124	0x3d927183	0.07150557
125	0x3d89da6e	0.06731115
126	0xbdc81ce3	-0.09771135
127	0x3cf3fcdc	0.029783659
128	0xbe0536fe	-0.13009259
129	0x3d10a154	0.035310104
130	0xbdc2f0a2	-0.09518553
131	0xbe9ca45a	-0.3059414
132	0x3c8307a9	0.015994864
133	0xbdb8228e	-0.08990966
134	0xbe11c8e4	-0.1423679
135	0xbd775464	-0.060383216
136	0x3d97ac69	0.074059315
137	0x3d8394f3	0.06424894
138	0xbc3cb326	-0.011517322
139	0xbd6ca649	-0.05777577
140	0xbdc91b19	-0.098196216
141	0x3d7739ed	0.060357977
142	0xbc8e0f1b	-0.017341187
143	0xbe094734	-0.13406068
144	0x3da22e17	0.07918947
145	0x3dc9347d	0.098244645
146	0xbe0a1da3	-0.13487868
147	0xbd34e773	-0.04416604
148	0xbda96e6b	-0.08273014
149	0xbdd2be76	-0.10290234
150	0x3d2f551d	0.04280578
151	0xbd6bea72	-0.05759663
152	0xbc5e4146	-0.013565367
153	0xbd788251	-0.060671154
154	0x3de8c321	0.11365343
155	0xbd54ce02	-0.051954277
156	0x3c6e6b36	0.014551928
157	0xbdc133f3	-0.09433737
158	0xbd7e6a97	-0.06211337
159	0xbbc534aa	-0.006018241
160	0xbcb141ee	-0.021637883
161	0x3d717945	0.058953542
162	0xbe101568	-0.14070666
163	0xbc73c07b	-0.014877434
164	0x3d865153	0.0655848
165	0xbe0f229b	-0.13978045
166	0xbd6bded5	-0.057585556
167	0xbcab7daa	-0.020933945
168	0x3d2a8f97	0.041640844
169	0xbe1f2631	-0.15541913
170	0xbd7d8897	-0.06189784
171	0xbd6188d1	-0.05506212
172	0x3dd6d908	0.10490614
173	0x3d5e19be	0.05422377
174	0xbd007620	-0.031362653
175	0xbda80dd8	-0.082057655
176	0x3c545eda	0.0129620675
177	0xbdb3af0d	-0.08773623
178	0xbdcb8bee	-0.09938799
179	0x3b98f5d8	0.0046679787
180	0xbe16734c	-0.1469242
181	0xbd8328f9	-0.06404299
182	0xbdda5355	-0.106604256
183	0x3cdb38c1	0.02676046
184	0x3cb24dec	0.021765672
185	0x3cc699b0	0.024243206
186	0x3be54893	0.006997177
187	0xbdd5ca63	-0.10438993
188	0xbd64866b	-0.055792253
189	0xbcea4c8d	-0.028600955
190	0xbe6225bc	-0.22084707
191	0xbe007e1d	-0.12548108
192	0xbbe6cdeb	-0.0070435903
193	0xbda4be51	-0.080441125
194	0x3d90ac03	0.07064059
195	0x3cb1d64c	0.02170863
196	0xbdac3339	-0.084082074
197	0x3d1bbb00	0.038020134
198	0xbc804138	-0.015656099
199	0xbce68a75	-0.028142193
200	0x3dd9ca1f	0.10634255
201	0x3cafcf79	0.021461235
202	0xbe07cfbd	-0.1326284
203	0xbcc82e66	-0.024436187
204	0xbd81159d	-0.063029505
205	0xbd9035df	-0.07041525
206	0xbd81e5aa	-0.06342633
207	0xbce941f4	-0.028473832
208	0xbcf72ffa	-0.030174244
209	0x3d1343de	0.035953395
210	0x3d489269	0.048967753
211	0xbd7db725	-0.06194224
212	0xbceb100c	-0.028694175
213	0xbc4e0873	-0.012575257
214	0xbe48747d	-0.19575687
215	0x3d2f2703	0.042761814
216	0x3d82b318	0.06381816
217	0xbe24a906	-0.16080102
218	0x3db3d8cf	0.08781587
219	0xbd535927	-0.051598694
220	0xbcf57d2f	-0.029966919
221	0xbe157fdf	-0.1459956
222	0x3d997b4b	0.074942194
223	0xbd216cda	-0.03941045
224	0x3d29e07c	0.04147385
225	0x3d9c1d07	0.07622724
226	0xbd582aeb	-0.052775305
227	0x3de53d28	0.11193305
228	0xbe125cb1	-0.14293171
229	0x3cd11f3b	0.025527587
230	0x3dc4a098	0.09600943
231	0xb805922d	-3.1845808e-05
232	0x3d02907e	0.03187608
233	0xbddbc6d4	-0.10731283
234	0xbd89bec0	-0.06725836
235	0xbdce0289	-0.10059077
236	0xbe019af1	-0.12656762
237	0xbdde84ba	-0.10865159
238	0x3b48b311	0.003062431
239	0x3d92d872	0.0717019
240	0x3bab2ffa	0.005224225
241	0x3da6b917	0.08140772
242	0xbe4994f3	-0.19685726
243	0x3d849fe7	0.064758115
244	0xbddb62b4	-0.107121855
245	0x3dae9d30	0.08526075
246	0x3c707e30	0.014678523
247	0xbdee94ca	-0.11649473
248	0xbd67703d	-0.056503523
249	0xbd24d914	-0.040246084
250	0x3de58127	0.112062745
251	0x3d8ad119	0.067781635
252	0x3d949084	0.07254127
253	0xbd56a89f	-0.052406903
254	0x3c4822a5	0.012215291
255	0x3cc75dc1	0.024336698

linear_relu_stack.0.bias f4 [256]
0	0xbd7564e1	-0.05991066
1	0xbe3798f6	-0.17929444
2	0xbd892c7a	-0.06697936
3	0xbdb65779	-0.08903403
4	0xbdb4c65a	-0.08826895
5	0xbdd113f6	-0.10208885
6	0xbd20a5d9	-0.039220665
7	0xbde5f18f	-0.11227714
8	0xbd9f74c2	-0.07785942
9	0xbd20c86e	-0.039253645
10	0xbe0504bf	-0.12990092
11	0xbdd1baca	-0.10240705
12	0x3eb066f3	0.34453544
13	0xbdd95b13	-0.10613074
14	0x3bd7e94f	0.006589092
15	0xbe869fb4	-0.2629372
16	0xbd058f38	-0.032607287
17	0xbe474793	-0.19460897
18	0xbd37c115	-0.04486187
19	0xbe20a77a	-0.15688887
20	0xbdd8c3eb	-0.105842434
21	0x3d7c594d	0.0616086
22	0xbdd92581	-0.106028564
23	0xbc6bfdeb	-0.0144038005
24	0xbdc0a55c	-0.0940654
25	0x3ebfabe5	0.37435833
26	0xbd9c9bb9	-0.07646889
27	0xbd4ffc0b	-0.050777476
28	0xbdb7690e	-0.089555845
29	0xbe4d6683	-0.20058636
30	0xbdc20c38	-0.09474987
31	0xbc9ffff0	-0.01953122
32	0xbefafe9d	-0.4902238
33	0xbd7df4a8	-0.0620009
34	0xbd81eac6	-0.063436076
35	0xbdbcc9d3	-0.092181824
36	0x3dd5e1af	0.10443436
37	0xbe0016a7	-0.12508641
38	0xbd12cd40	-0.035840273
39	0xbd5a793e	-0.05333828
40	0xbdcde2d8	-0.10053033
41	0xbcf977d5	-0.030452648
42	0xbd6e5f40	-0.058196306
43	0xbe89f123	-0.26941785
44	0xbd5d5587	-0.054036643
45	0xbda30e6d	-0.07961736
46	0xbe29a0b9	-0.16565217
47	0xbd62196c	-0.055200025
48	0xbe22db8a	-0.1590406
49	0xbe7a12dc	-0.24421257
50	0xbe41a6c1	-0.18911268
51	0xbe009112	-0.1255534
52	0xbdd8a825	-0.10578946
53	0xbe20efca	-0.15716472
54	0xbe2292ab	-0.15876262
55	0xbdd68a4e	-0.10475598
56	0xbda6c0e0	-0.08142257
57	0xbeaa5842	-0.3327046
58	0xbe027094	-0.12738258
59	0xbce8d802	-0.028423313
60	0xbcaeea70	-0.021352023
61	0xbec988d2	-0.39362198
62	0xbda66534	-0.08124772
63	0xbdd03f7e	-0.1016836
64	0xbe1bc9b5	-0.15213664
65	0xbdab815a	-0.08374281
66	0xbceb5d27	-0.028730942
67	0xbe0e0ae8	-0.13871348
68	0xbdffd0a3	-0.12490966
69	0xbdcff26f	-0.101536624
70	0x3ccf6be9	0.02532001
71	0x3e7f9d13	0.24962263
72	0xbdb5279b	-0.08845445
73	0xbe99115b	-0.29896054
74	0xbdd0abc3	-0.10189011
75	0xbdd4d3b9	-0.103919454
76	0xbdc93127	-0.09823828
77	0x3e545ce6	0.20738563
78	0xbe849a94	-0.25899184
79	0xbe8d76a3	-0.27629575
80	0xbda4202d	-0.080139495
81	0xbdd44a64	-0.103657514
82	0xbd2dbec3	-0.042418253
83	0xbd319ebc	-0.04336427
84	0xbdd9faf2	-0.10643567
85	0xbe4c855a	-0.19972745
86	0xbd611417	-0.0549508
87	0xbd8a37b9	-0.067489095
88	0xbe069d9e	-0.13146064
89	0xbda22d56	-0.079188034
90	0xbd040d16	-0.032239042
91	0xbdd27368	-0.10275918
92	0xbe094339	-0.1340455
93	0xbd4d50e9	-0.05012599
94	0xbcd0e280	-0.025498629
95	0xbdd3813a	-0.103273824
96	0xbd054723	-0.032538544
97	0xbe617356	-0.22016653
98	0xbe021178	-0.12701976
99	0xbdad5941	-0.084642895
100	0xbd1dce0f	-0.03852659
101	0x3e6b9e52	0.23009613
102	0xbd891285	-0.066929854
103	0xbdaf9773	-0.085738085
104	0xbd8b35e7	-0.067973904
105	0xbd32bdce	-0.043638043
106	0xbe1e564c	-0.15462607
107	0xbe2d6e8d	-0.16936703
108	0x3cdc5bd8	0.026899263
109	0xbdf62ae8	-0.120199025
110	0xbef01a4e	-0.4689507
111	0xbd42555a	-0.04744468
112	0xbe34dcca	-0.1766235
113	0xbe1982c7	-0.14991294
114	0xbd4dae43	-0.050215017
115	0xbdc01094	-0.09378162
116	0xbd830a61	-0.06398464
117	0xbe045cd3	-0.12926035
118	0xbb6a5867	-0.0035758258
119	0xbe9a147a	-0.30093747
120	0xbdf5fe51	-0.12011398
121	0x3e9d50d5	0.30725732
122	0xbe533ce2	-0.20628694
123	0xbe8c006d	-0.27344075
124	0xbdbe11ec	-0.09280762
125	0xbdbf0a41	-0.09328128
126	0xbe0c6198	-0.13709104
127	0xbd130ad3	-0.035898995
128	0xbdb4407b	-0.08801361
129	0xbd7a1ddd	-0.061063636
130	0xbd51ca50	-0.05121833
131	0xbd9851e6	-0.07437496
132	0xbe2e2cfa	-0.17009345
133	0xbd7b6732	-0.06137771
134	0xbe0f5191	-0.13995959
135	0xbe34aeb3	-0.17644767
136	0xbd8c9da3	-0.06866004
137	0xbde9bbc9	-0.1141277
138	0xbec59a2f	-0.38594195
139	0xbe1fef91	-0.15618731
140	0xbcbed8fc	-0.023296826
141	0x3cfd6750	0.030933052
142	0xbd91b31a	-0.07114239
143	0xbde49dc2	-0.111629024
144	0xbdcbd72e	-0.09953152
145	0xbe1cf97e	-0.15329549
146	0xbe1b4de0	-0.15166426
147	0xbdc8e4ab	-0.0980924
148	0xbe141dcb	-0.1446449
149	0xbe7e45f2	-0.2483137
150	0xbd15a5a8	-0.036534935
151	0xbd2ae3d1	-0.04172117
152	0xbe0107d2	-0.1260064
153	0xbe0aa0a0	-0.13537836
154	0xbd66cae6	-0.056345843
155	0xbb2e5aad	-0.002660434
156	0xbda02d43	-0.07821133
157	0x3c94a334	0.018144228
158	0x3d0e217e	0.03469991
159	0xbdd8f594	-0.10593715
160	0xbd5988da	-0.053109027
161	0xbefec391	-0.4975858
162	0xbdde0501	-0.10840798
163	0xbdac134d	-0.08402119
164	0xbd42378a	-0.047416247
165	0xbe11da93	-0.14243536
166	0xbdc64d2b	-0.09682687
167	0xbdac6135	-0.08416978
168	0xbe6ec9bb	-0.23319142
169	0xbdc30279	-0.09521956
170	0xbc5f528d	-0.0136305215
171	0x3e935fee	0.28784126
172	0xbd86ab99	-0.065756984
173	0xbdd5f1f8	-0.104465425
174	0xbe925bd4	-0.28585684
175	0xbe08b68a	-0.13350883
176	0xbe3d8144	-0.18506342
177	0xbdd3746f	-0.10324942
178	0xbd4be473	-0.049778413
179	0xbc98f46e	-0.01867124
180	0xba38bfc5	-0.0007047619
181	0xbe1bb9f2	-0.15207651
182	0xbe0914bc	-0.13386816
183	0xbe07ee53	-0.13274507
184	0xbd24535a	-0.040118553
185	0xbe3b45d2	-0.18288353
186	0xbeec3dd6	-0.46140927
187	0xbd88d1fd	-0.06680677
188	0xbe026a30	-0.1273582
189	0xbe967354	-0.29384863
190	0xbd89599c	-0.06706545
191	0xbdbcef6a	-0.09225352
192	0xbdd06e93	-0.1017734
193	0xbd9d6fd3	-0.076873444
194	0xbd4391f8	-0.04774663
195	0xbde74276	-0.11291973
196	0xbd87bc5c	-0.066277236
197	0xbe299c06	-0.16563424
198	0xbe1ac919	-0.15115775
199	0xbde8d2c8	-0.11368328
200	0xbdd4b1d7	-0.10385483
201	0xbe1cdc98	-0.15318525
202	0xbdaae6da	-0.08344813
203	0xbdf3e9a6	-0.11909799
204	0xbe04537f	-0.12922476
205	0xbcccc874	-0.024997927
206	0xbe7a8725	-0.24465616
207	0xbdfd31ab	-0.12362989
208	0xbe695c6a	-0.2278916
209	0xbd8595f7	-0.06522744
210	0xbe03668c	-0.12832087
211	0xbd0029e4	-0.03128995
212	0xbdbc929d	-0.09207652
213	0xbe2eb0a1	-0.17059566
214	0xbea48acb	-0.3213714
215	0xbdd89613	-0.105754994
216	0xbd1eb597	-0.038747396
217	0xbdd9b992	-0.10631098
218	0xbd9fc970	-0.07802093
219	0xbe5005b2	-0.20314673
220	0xbe1af88e	-0.15133879
221	0xbd828a18	-0.063739955
222	0xbc9a9ddc	-0.018874101
223	0xbcf0e942	-0.029408101
224	0xbd9b34b3	-0.07578411
225	0xbdbef655	-0.09324328
226	0xbe540e16	-0.20708498
227	0xbd5abeef	-0.053404745
228	0xbe0215d2	-0.12703636
229	0x3eb502d8	0.35353732
230	0xbdb4a29a	-0.08820076
231	0x3ed74252	0.42042786
232	0xbca1e756	-0.01976363
233	0xbd9a2e66	-0.07528381
234	0xbdf9810d	-0.121828176
235	0xbde7d6b3	-0.113202475
236	0xbd535373	-0.051593255
237	0xbd7ea2cb	-0.06216697
238	0xbdd0c537	-0.10193866
239	0xbe6cab29	-0.23112167
240	0xbe91ac9e	-0.2845201
241	0xbe1afec8	-0.15136254
242	0xbe4f5207	-0.20246135
243	0xbc5596d2	-0.013036447
244	0xbda831dc	-0.08212635
245	0xbe15768c	-0.14596003
246	0xbe9945ef	-0.29936168
247	0xbdae08ea	-0.08497794
248	0xbd3390f4	-0.04383941
249	0xbe2fb38f	-0.1715834
250	0xbd4c86d7	-0.04993328
251	0xbee55ce1	-0.44797423
252	0xbddb3522	-0.10703494
253	0xbd9b8fa5	-0.075957574
254	0xbe068e19	-0.13140143
255	0xbd94c1b4	-0.072635084

linear_relu_stack.3.weight f4 [256, 256]
0	0x3cbeacf7	0.023275835
1	0xbded1662	-0.11576535
2	0xbcab7122	-0.02092797
3	0xbc9d8bc8	-0.019231692
4	0xbd862050	-0.06549132
5	0xbd64d748	-0.05586937
6	0xbdc8eb77	-0.09810536
7	0xbca33154	-0.019920982
8	0xbc580f89	-0.013187298
9	0x3d81662e	0.06318317
10	0x3cb6bef8	0.022307858
11	0xbc0d4e7d	-0.00862467
12	0x3e15ab4e	0.14616129
13	0x3d29367e	0.041311733
14	0x3d10e9ca	0.03537921
15	0xbdce95b7	-0.100871496
16	0xbcfe118c	-0.031014226
17	0x3c6d184f	0.014471128
18	0xbd586f9f	-0.052840825
19	0xbb442b1a	-0.0029932917
20	0xbcf9c910	-0.030491382
21	0xbd4440e5	-0.04791345
22	0xbd946d5c	-0.07247421
23	0xbc8e909a	-0.017402936
24	0xbbadf9a8	-0.0053093024
25	0x3dafda1c	0.08586523
26	0x3cacbba9	0.021085577
27	0xbd6be435	-0.057590682
28	0x3c9adf80	0.018905401
29	0xbdab1621	-0.0835383
30	0x3d88b2c8	0.06674725
31	0xbd8c7260	-0.06857753
32	0xbc4cd5ba	-0.012502128
33	0xbd26fe17	-0.040769663
34	0x3d038f78	0.032119244
35	0xbd17458a	-0.036931552
36	0x3da090af	0.07840096
37	0x3c805710	0.015666515
38	0xbc3b9a47	-0.011450357
39	0x3c6f818e	0.014618291
40	0xbc4591d2	-0.012058692
41	0xbc436ab1	-0.011927293
42	0xbca43726	-0.020045828
43	0xbdadde33	-0.08489647
44	0x3d2bb74d	0.041922856
45	0xbdcc3925	-0.09971837
46	0x3be0b590	0.0068575814
47	0xbc73979c	-0.014867689
48	0x3ccb58c0	0.024822593
49	0xbce3cf34	-0.027808763
50	0xbd70bbf6	-0.058773004
51	0xbcf6a22c	-0.030106626
52	0x3cd0da74	0.025494792
53	0xbbbc7f52	-0.0057524825
54	0x3bf27219	0.0073988554
55	0x3b8e53aa	0.0043434696
56	0x3c4aabc6	0.012370056
57	0xbd128756	-0.035773598
58	0xbcd4d9e3	-0.025982803
59	0xbb0f1768	-0.002183402
60	0xbd82768f	-0.063702695
61	0x3c99dad8	0.01878111
62	0xbda38119	-0.07983608
63	0x3d36b9ca	0.044610776
64	0xbc6889ae	-0.014192982
65	0xbbd514a3	-0.006502704
66	0xbcdaf0a3	-0.026726073
67	0x3cd3925b	0.025826624
68	0x3d5ec5f0	0.054387987
69	0x3d3f2e78	0.046675175
70	0x3d353a6e	0.044245176
71	0xbdd99211	-0.10623563
72	0x3cf1ece4	0.029531904
73	0x3e2137ef	0.15743993
74	0xbd061d81	-0.03274298
75	0xbbefa779	-0.0073136655
76	0x3d4aba94	0.04949434
77	0xbd767456	-0.06016954
78	0xbc643280	-0.013928056
79	0xbca388ab	-0.01996263
80	0x3d62864e	0.055303864
81	0x3d97c767	0.0741108
82	0x3d55c4a9	0.052189503
83	0x3d3154b6	0.043293677
84	0xbcbdcf1d	-0.023170048
85	0xbd69fe35	-0.057127196
86	0x3c9ecd3d	0.019384975
87	0xbd211adc	-0.039332256
88	0x3d20c9ba	0.03925488
89	0x3d152966	0.036416434
90	0xbd9c5785	-0.076338805
91	0x3bad4e24	0.005288856
92	0x3c5ade4c	0.013358664
93	0xbdc37860	-0.09544444
94	0xbd876525	-0.06611089
95	0xbd815c65	-0.06316451
96	0x3ca92358	0.020646736
97	0xbcb7575a	-0.02238052
98	0xbc0ebf19	-0.008712553
99	0xbcf80486	-0.030275594
100	0xbe017826	-0.12643489
101	0xbde0c248	-0.10974556
102	0xbd42a2de	-0.047518604
103	0xbca9eff6	-0.020744305
104	0x3d3726b6	0.044714652
105	0xbd298484	-0.041386142
106	0xbc898d51	-0.016791018
107	0xbc73d92b	-0.01488332
108	0x3d834f33	0.064115904
109	0x3cfc97a3	0.030834025
110	0x3d06cc8f	0.032909926
111	0xbe360dd0	-0.17778707
112	0xbd708481	-0.058720116
113	0x3b117c9e	0.0022199522
114	0xbd8e3816	-0.06944291
115	0xbd9c4c65	-0.076317586
116	0x3d34dd24	0.04415621
117	0xbb54b11c	-0.0032454198
118	0xbbe170e7	-0.006879914
119	0xbb9dcdd6	-0.0048157973
120	0x3ca1ee22	0.01976687
121	0xbdbd7eb2	-0.09252681
122	0xbd56ae2c	-0.052412197
123	0xbe044f65	-0.12920912
124	0xbc8b2a38	-0.016987905
125	0x3cdfb3e6	0.027307462
126	0x3d3234db	0.04350744
127	0xbd05a071	-0.032623712
128	0x3caf2ab4	0.021382667
129	0x3d245432	0.040119357
130	0x3d09060a	0.033453025
131	0x3c1bc733	0.009507942
132	0xbd42b691	-0.04753739
133	0xbd6f7231	-0.05845851
134	0x3d90d372	0.0707158
135	0xbc741015	-0.014896412
136	0xbcc7d4cc	-0.024393462
137	0xbc6b7dba	-0.014373237
138	0xbd27d545	-0.040974874
139	0xbc502eb2	-0.0127064455
140	0xbd21f40e	-0.03953939
141	0xbdc0c382	-0.0941229
142	0xbc84a0b3	-0.016189909
143	0xbd9e9c33	-0.077446364
144	0x3ce09894	0.027416505
145	0xbd914942	-0.07094051
146	0xbb00cdb0	-0.001965385
147	0xbd2f200d	-0.042755175
148	0xbc8c7cd9	-0.017149376
149	0xbdbe71af	-0.09299027
150	0x3d20386e	0.039116316
151	0x3baa965c	0.0052059125
152	0x3d1c31b4	0.038133338
153	0xbd365e8b	-0.044523757
154	0xbdb1e64b	-0.08686503
155	0xbda8dddc	-0.08245441
156	0xbbfd9c5b	-0.0077395863
157	0xbdcfb9b6	-0.101428434
158	0xbd198484	-0.037479892
159	0xbbefa682	-0.0073135504
160	0xbab49729	-0.0013777959
161	0xbd263580	-0.040578365
162	0xbc921826	-0.01783378
163	0xbd307e9f	-0.043089505
164	0x3b7e1982	0.0038772528
165	0x3c7adaca	0.015310952
166	0x3d1a27e4	0.0376357
167	0xbda8715b	-0.08224746
168	0x3e02acc8	0.12761223
169	0x3d187757	0.037223186
170	0xbd83cf46	-0.06436019
171	0xbd8b6e44	-0.06808141
172	0xbceaa465	-0.028642843
173	0xbd2aad3b	-0.04166911
174	0xbdf1ac8d	-0.118004896
175	0xbd4df890	-0.050285876
176	0xbdb9de0f	-0.090755574
177	0xbce478ae	-0.027889576
178	0xbdc14bbf	-0.094382755
179	0xbda2263e	-0.0791745
180	0xbd95264f	-0.072826974
181	0x3d05a061	0.032623652
182	0xbd8266d8	-0.06367272
183	0xbb8eba35	-0.0043556937
184	0xbd8af121	-0.06784273
185	0xbcd7a13b	-0.026321998
186	0xbd985315	-0.07437722
187	0x3d23982a	0.039940037
188	0x3c5e4758	0.013566814
189	0x3ddceaba	0.10786958
190	0xbd6451b7	-0.05574199
191	0x3b0168c7	0.001974629
192	0x3cf6e03d	0.030136222
193	0x3d2711e7	0.040788557
194	0x3d0e1f68	0.03469792
195	0xbbd5d4e1	-0.0065256213
196	0x3d219361	0.039447192
197	0xbd41dd3d	-0.04733013
198	0xbd282a86	-0.04105618
199	0x3d3e1956	0.04641088
200	0x3d5141b4	0.05108805
201	0x3c92f262	0.017937843
202	0x3d5bb955	0.053643543
203	0x3cdfbc9d	0.027311618
204	0xbdc6ac33	-0.09700813
205	0x3cc7eaf8	0.024404034
206	0x3c224a32	0.009905385
207	0x369e54f3	4.7186563e-06
208	0x3d3b76b0	0.045767486
209	0xbc3144a9	-0.0108195925
210	0xbca15d3b	-0.019697776
211	0xbca88f8c	-0.020576261
212	0xbd5c1832	-0.053734012
213	0x3ac55208	0.0015054354
214	0xbd91744f	-0.07102262
215	0xbcdc79d7	-0.026913567
216	0xbc46aba3	-0.012125882
217	0xbdf8ff4c	-0.12158069
218	0xbda01b4f	-0.07817709
219	0xbd762a43	-0.060098898
220	0xbd6eda4a	-0.058313645
221	0x3c17e37c	0.009270545
222	0x3d301aa1	0.042994145
223	0x3d3ea95c	0.046548232
224	0x3d3034ac	0.04301898
225	0xbc76e83a	-0.015070016
226	0x3d274cd7	0.040844765
227	0x3d2e9561	0.042622928
228	0xbd4d77d0	-0.05016309
229	0x3dc37162	0.095431104
230	0xbca5cde5	-0.02023978
231	0xbd701654	-0.058615044
232	0x39de3bc9	0.00042387683
233	0xbd2bc799	-0.041938398
234	0x3bc991f8	0.006151434
235	0x3daddddb	0.08489581
236	0xbca50cdd	-0.020147735
237	0x3cce334e	0.025170948
238	0xbd2496c7	-0.040182855
239	0xbd02230d	-0.03177171
240	0xbcac03ec	-0.020997964
241	0xbd11baa1	-0.035578374
242	0xbc9a95ab	-0.018870195
243	0x3cf1356b	0.029444417
244	0xbd467f23	-0.04846109
245	0x3d5e6763	0.054297816
246	0xbcc17fbf	-0.023620484
247	0x3c3816db	0.011235918
248	0xbc47abae	-0.012186928
249	0x3cb710ea	0.022346932
250	0xbd3a9e04	-0.04556085
251	0xbdcc40ae	-0.09973274
252	0xbd03f9e9	-0.032220755
253	0x3bbda3ad	0.005787334
254	0xbdc3431a	-0.09534283
255	0x3d3b2243	0.04568697

linear_relu_stack.3.bias f4 [256]
0	0xbd143c51	-0.036190335
1	0xbd781cd7	-0.06057438
2	0xbd9da230	-0.076969504
3	0xbd27a231	-0.040926162
4	0xbd9ca54d	-0.07648716
5	0xbceec87d	-0.029148335
6	0xbda07369	-0.07834513
7	0xbd202967	-0.039101984
8	0xbbc2d3d6	-0.005945663
9	0xbdd9ccd1	-0.10634769
10	0xbdb65aed	-0.089040615
11	0xbdb463aa	-0.08808072
12	0xbd63ab7a	-0.055583455
13	0xbd1b7be5	-0.037959952
14	0xbd303982	-0.043023594
15	0xbd877027	-0.06613188
16	0xbd9f61ec	-0.07782349
17	0xbd791b26	-0.060816906
18	0xbd500845	-0.050789136
19	0xbcb6972d	-0.022288883
20	0xbd8c95d8	-0.06864518
21	0xbd957176	-0.072970316
22	0xbdd79eb3	-0.10528316
23	0xbc7d86d0	-0.015474036
24	0xbd148066	-0.036255263
25	0xbcc0807a	-0.023498762
26	0xbdc7ed41	-0.097620495
27	0xbd826c58	-0.06368321
28	0xbc758560	-0.014985412
29	0xbda91e39	-0.08257718
30	0xbcf4e246	-0.029893052
31	0xbd2951a3	-0.04133762
32	0xbcc254e7	-0.023722125
33	0xbdb5c8a8	-0.08876163
34	0x3a99f946	0.0011747263
35	0xbdab400b	-0.083618246
36	0xbca3655e	-0.019945797
37	0xbcd95273	-0.026528573
38	0xbbdeacf0	-0.006795518
39	0xbcc8d29d	-0.02451449
40	0xbc8390a4	-0.016060181
41	0xbd85f1fc	-0.065402955
42	0xbdbc54dc	-0.09195873
43	0x3e992072	0.29907566
44	0xbd9f3dbb	-0.07775446
45	0xbda0be3d	-0.07848785
46	0xbd091420	-0.03346646
47	0xbd8892a1	-0.06668592
48	0xbc909798	-0.01765041
49	0xbbc37e16	-0.0059659583
50	0xbd97efdf	-0.07418799
51	0xbd8137fb	-0.063095056
52	0x3e3613b0	0.17780948
53	0xbc983f68	-0.018584922
54	0xbd8f2cd8	-0.06990975
55	0xbdeb99b9	-0.1150393
56	0xbd7eba3d	-0.06218933
57	0xbd1d4630	-0.038397014
58	0xbb8edc5d	-0.0043597654
59	0xbdae298d	-0.08504019
60	0xbd5699a5	-0.05239262
61	0xbcfd386b	-0.030910691
62	0xbc88a0fd	-0.016678328
63	0xbda00122	-0.07812716
64	0xbdeb5c13	-0.11492171
65	0xbca52fb6	-0.020164352
66	0xbcbf8957	-0.023380918
67	0xbc4c3881	-0.012464643
68	0xbdcc290d	-0.09968767
69	0xbbe10bbd	-0.0068678544
70	0xbdb2989f	-0.087205164
71	0xbd79691b	-0.060891252
72	0xbc9e7933	-0.019344902
73	0xbd2a074f	-0.041510876
74	0xbcb2e011	-0.021835359
75	0xbd8fe539	-0.070261426
76	0xba1ed71e	-0.00060592766
77	0x3dea9ccb	0.11455687
78	0xbd65a579	-0.05606601
79	0xbdb708ed	-0.08937249
80	0xbf2d4e0d	-0.6769722
81	0xbd1c3a8d	-0.038141776
82	0x396df4a2	0.00022693214
83	0xbcbde070	-0.02317831
84	0xbdaa020c	-0.08301172
85	0x3b39e2ae	0.0028363871
86	0xbdf1efb2	-0.118132964
87	0xbddc572b	-0.107588135
88	0xbca8773a	-0.020564664
89	0xbd1e1eaa	-0.038603462
90	0x3df2aaaa	0.11848958
91	0xbd90432e	-0.070440635
92	0x3e40fa48	0.18845475
93	0xbd3311d8	-0.04371819
94	0xbd81ac9d	-0.063317515
95	0xbd8aa3e1	-0.06769539
96	0xbdb93241	-0.09042788
97	0xbd9332d5	-0.0718743
98	0xbca9780a	-0.020687122
99	0xbdb8f1de	-0.090305075
100	0xbd80a57e	-0.06281565
101	0xbcbb2da3	-0.02284891
102	0xbd1cb5e5	-0.038259406
103	0xbd106c0a	-0.035259284
104	0xbd5783cd	-0.05261593
105	0xbdebeefb	-0.11520191
106	0xbc137627	-0.009000338
107	0xbd00375a	-0.031302787
108	0xbcca1183	-0.024666553
109	0xbcddcc56	-0.027074974
110	0xbd1e5e66	-0.038664244
111	0xbdb341a2	-0.08752753
112	0xbd2e96fa	-0.04262445
113	0xbd6f7f12	-0.058470793
114	0xbd57ed8b	-0.052716773
115	0xbc6cb0f5	-0.014446487
116	0xbd2bdd40	-0.041959047
117	0xbd298062	-0.0413822
118	0xbcce050d	-0.025148893
119	0xbdc1881c	-0.09449789
120	0xbcb22dee	-0.021750417
121	0xbb9156d4	-0.0044353995
122	0xbdc38da5	-0.09548501
123	0xbdd27432	-0.10276069
124	0xbd8ea57d	-0.06965158
125	0x3a56a154	0.0008187492
126	0xbd7ca846	-0.061683916
127	0xbe2b37f5	-0.16720565
128	0x3e842733	0.25811157
129	0x3c106b50	0.008814648
130	0xbd401f17	-0.04690465
131	0xbdd2b45a	-0.102883056
132	0x3e97c6d7	0.2964389
133	0xbb0a5edf	-0.0021113676
134	0xbd891769	-0.06693918
135	0xbdb26706	-0.087110564
136	0xbd812dbe	-0.06307553
137	0xbdb5d516	-0.088785335
138	0xbc1cad16	-0.009562751
139	0xbd3beb78	-0.045878857
140	0xbdac468b	-0.084118925
141	0xbde60fb7	-0.11233466
142	0xbcca2e75	-0.024680356
143	0xbd7fb5a0	-0.06242907
144	0xbc2efaa6	-0.010679876
145	0xbc3a1291	-0.011356966
146	0xbdc0c943	-0.094133876
147	0xbc195255	-0.009358008
148	0xbc67609f	-0.014122157
149	0xbdcac508	-0.09900862
150	0xbdba763f	-0.09104585
151	0xbd37ff53	-0.04492123
152	0xbd5e98d6	-0.054344974
153	0xbd076923	-0.03305925
154	0xbd673ce2	-0.056454547
155	0xbd8b4649	-0.06800515
156	0xbd8964a3	-0.06708648
157	0x3ab08a7e	0.0013469008
158	0xbc607350	-0.013699368
159	0xbd077926	-0.03307452
160	0xbd9f867d	-0.077893235
161	0xbdb3e213	-0.087833546
162	0xbd186626	-0.03720679
163	0xbc51e017	-0.012809775
164	0xbdc88d95	-0.0979263
165	0xbdb423c7	-0.087958865
166	0xbd1612ad	-0.036638904
167	0xbdb41de4	-0.08794764
168	0xbdae3f7a	-0.08508201
169	0xbe0343b2	-0.12818792
170	0xba44031e	-0.0007477271
171	0xbd6fbd9e	-0.058530442
172	0xbceee373	-0.02916119
173	0xbc7d86ee	-0.015474064
174	0xbda9b0eb	-0.082856975
175	0xbd84e369	-0.064886875
176	0xbda6b839	-0.081406064
177	0xbd1719a1	-0.036889676
178	0xbd459779	-0.04824016
179	0xbdf4ecfc	-0.11959264
180	0xbdaa8f59	-0.08328123
181	0x3e2b2754	0.16714221
182	0xbd26054e	-0.040532403
183	0xbd23c727	-0.03998485
184	0xbd70330e	-0.05864244
185	0xbda9d9ff	-0.082935326
186	0xbd17dc56	-0.037075363
187	0xbbec398e	-0.0072090095
188	0xbdcb5137	-0.099276
189	0xbdb1c28e	-0.086796865
190	0xbdbafce2	-0.09130265
191	0xbd932699	-0.07185096
192	0xbdb94c66	-0.09047775
193	0xbd2d590b	-0.042321246
194	0xbd5baea9	-0.053633366
195	0xbd83f5fa	-0.06443401
196	0xbdb54723	-0.08851459
197	0xbcba6b78	-0.022756323
198	0xbdc55eb8	-0.09637207
199	0xbd811bb4	-0.06304112
200	0xbd33fe18	-0.043943495
201	0xbda1d38a	-0.07901676
202	0x3d0f83df	0.03503787
203	0xbd8be691	-0.068310864
204	0xbd9a1cf9	-0.07525057
205	0xbc8c1463	-0.017099565
206	0xbd86e491	-0.06586564
207	0xbd2f3854	-0.042778328
208	0xbdc6a8a0	-0.097001314
209	0xbd302a4c	-0.043009087
210	0xbd9bee2d	-0.07613788
211	0xbc817175	-0.01580117
212	0xbbe51cb7	-0.0069919485
213	0xbdbb9208	-0.091587126
214	0xbdc2516f	-0.094881885
215	0xbc236d71	-0.009974823
216	0xbdb3c9a2	-0.08778693
217	0xbd480d23	-0.048840653
218	0x3e817a68	0.252887
219	0xbd6cae70	-0.057783544
220	0xbc8835bd	-0.016627187
221	0xbdcffd9b	-0.10155793
222	0xbcd03ca3	-0.025419539
223	0x3bd850fe	0.006601452
224	0xbdee9e72	-0.11651315
225	0xbd0cef84	-0.034408107
226	0xbc920603	-0.017825132
227	0xbda705d4	-0.081554085
228	0xbc65e032	-0.014030503
229	0xbc77217b	-0.015083666
230	0xbdce093f	-0.10060357
231	0xbd678658	-0.056524605
232	0xbceb7c6f	-0.028745858
233	0xbcff3a70	-0.031155795
234	0xbdcaeae8	-0.09908086
235	0xbd838b54	-0.06423059
236	0xbdfc6058	-0.123230636
237	0xbd5e2e3f	-0.054243322
238	0xbdfd2624	-0.1236079
239	0x3e3cc11b	0.18433039
240	0x3bbd61b3	0.005779469
241	0xbcad98b4	-0.021190979
242	0xbca0f663	-0.019648736
243	0xbd1feb7a	-0.039042927
244	0xbda4a323	-0.08038928
245	0xbd5bdc6b	-0.053677004
246	0xbdbaad23	-0.091150545
247	0xbd38d43b	-0.045124274
248	0xbd3df350	-0.04637462
249	0xbd95b601	-0.07310105
250	0xbd9d232c	-0.07672724
251	0xbcdefba6	-0.027219605
252	0xbc6014ab	-0.013676803
253	0xbd0006aa	-0.031256355
254	0xbd115b1a	-0.03548727
255	0xbd595888	-0.053062946

linear_relu_stack.6.weight f4 [1, 256]
0	0xbb0aecc1	-0.0021198245
1	0x3c1ab8e2	0.009443494
2	0xbce9eace	-0.028554346
3	0xbcff83be	-0.03119075
4	0x3bcd926a	0.0062735574
5	0x3ce4ca50	0.027928501
6	0xbce292a1	-0.027657809
7	0xbca99007	-0.02069856
8	0xbcd03d48	-0.025419846
9	0x3e06dda4	0.13170487
10	0xbcda9858	-0.026683971
11	0x3c6a23dc	0.014290776
12	0xbcb8c978	-0.022557005
13	0x3cb7b2a8	0.022424057
14	0xbb9c6604	-0.0047729034
15	0x3cc0113e	0.023445722
16	0x3ae2cf37	0.0017304186
17	0xbc30cb62	-0.010790678
18	0xbca11ef1	-0.019668074
19	0x3c6987b2	0.014253544
20	0x3d38663a	0.045019366
21	0x3ccfb001	0.02535248
22	0xbb5ff7de	-0.003417484
23	0x3ce75ec3	0.028243428
24	0x3c974112	0.018463645
25	0x3bf556a8	0.007487137
26	0xbc73edbd	-0.014888224
27	0x3ce2850b	0.02765133
28	0x3ca647b8	0.02029787
29	0x3c8a4806	0.016880047
30	0xbcb8f542	-0.022577886
31	0x3cee0cb7	0.029058797
32	0xbcf4c0f0	-0.029877156
33	0x3c5b9ba9	0.0134038115
34	0x3e897918	0.268502
35	0x3cc54372	0.024080012
36	0x3c9a671b	0.018847993
37	0x3c0bd73d	0.0085352035
38	0xbd01db8c	-0.031703517
39	0xbccf04cd	-0.025270844
40	0x3bea9abc	0.007159559
41	0x3c346f26	0.011012828
42	0xba6d8e77	-0.00090620614
43	0x3e127146	0.14301023
44	0xbc35a134	-0.011085797
45	0xbc0469cc	-0.008081865
46	0xbc41d921	-0.011831553
47	0x3cb63e63	0.022246545
48	0x3a8ac992	0.0010588637
49	0x3eb571ac	0.35438287
50	0xba00076c	-0.00048839184
51	0xbef69fbe	-0.4816875
52	0xbf141713	-0.5784771
53	0xbcaa1f08	-0.02076675
54	0x3c1d201d	0.009590176
55	0xbcd0e18e	-0.025498178
56	0xbcd994aa	-0.026560146
57	0x3ccb0f26	0.024787497
58	0x3c817559	0.015803026
59	0x3bf3c1e5	0.0074388855
60	0xbbec2dfd	-0.0072076307
61	0xbc9f637c	-0.019456618
62	0xbb15f76a	-0.0022883066
63	0xba855778	-0.0010173162
64	0xbca5c889	-0.020237224
65	0xbcf73d3c	-0.030180566
66	0xbb9bf70f	-0.0047596763
67	0xbce4c089	-0.02792384
68	0x3b315895	0.0027060856
69	0xbb123e3b	-0.0022314924
70	0xbca52320	-0.02015835
71	0xbc59ff98	-0.013305567
72	0xbcc7eca5	-0.024404833
73	0x3c875019	0.016517686
74	0x3aec5515	0.0018030728
75	0xbc7663c4	-0.015038434
76	0xbcce69bc	-0.025196902
77	0xbece9f30	-0.40355825
78	0xbb99e72e	-0.004696748
79	0xbcddbe2c	-0.02706822
80	0xbe292a8e	-0.1652014
81	0xbca49ff9	-0.020095812
82	0x3cf40dad	0.029791677
83	0xbcb66399	-0.022264289
84	0xbcac7d11	-0.02105573
85	0xbb7756fb	-0.0037741053
86	0x3cb4bfcb	0.02206411
87	0xbae39ef8	-0.0017366102
88	0xbc4835de	-0.012219874
89	0xbc0c4fbc	-0.008563932
90	0x3f222730	0.63341045
91	0xbce62d29	-0.028097706
92	0xbed24638	-0.41069198
93	0x3c9cae1c	0.01912599
94	0x3cecd131	0.028908344
95	0x3cb20426	0.021730494
96	0x3b9d97a6	0.0048093377
97	0xbbe86ec0	-0.0070932806
98	0x3cb6d693	0.022319114
99	0x3cd0ee01	0.025504114
100	0xbcf5ef5c	-0.030021362
101	0x3ca9f5a7	0.020747019
102	0xbc979d35	-0.01850758
103	0x3ce9d491	0.028543742
104	0xbb1a0b3e	-0.0023505236
105	0xbca7e8ce	-0.020496752
106	0x3af18b8f	0.0018428433
107	0x3cd82a3f	0.026387332
108	0x3cab9643	0.020945674
109	0x3babe235	0.005245472
110	0xbc5e7340	-0.013577282
111	0x3cb4fa9e	0.02209216
112	0xbcea1aec	-0.02857729
113	0x3c05588a	0.008138785
114	0xbcc9a82d	-0.024616325
115	0xbcc5311c	-0.024071269
116	0xbb94bd8b	-0.004539197
117	0xbcbbb365	-0.02291269
118	0x3bc7208c	0.006076878
119	0x3c2ffa89	0.010740885
120	0x3c37706a	0.011196235
121	0x3dd03279	0.10165877
122	0xbbb845ad	-0.0056235404
123	0xbcebc1dd	-0.028778965
124	0x3cdaf339	0.026727306
125	0xbcc28506	-0.023745071
126	0xbae4d94c	-0.0017459779
127	0x3bba3133	0.0056821345
128	0xbeef31a9	-0.46717575
129	0x3cdebe69	0.027190404
130	0x3cb9e48b	0.022691986
131	0x3c81a881	0.01582742
132	0x3e074359	0.13209285
133	0x3c0a2d25	0.008433615
134	0x3c12fda7	0.008971608
135	0xbb4dca0f	-0.0031400954
136	0xbd1920fc	-0.037384972
137	0xbc5efd4a	-0.0136101935
138	0xbc4799e8	-0.01218269
139	0xba354278	-0.00069145067
140	0x3abf8b59	0.0014613672
141	0x3babb610	0.0052402094
142	0xbc74d624	-0.014943633
143	0xbc50682e	-0.012720151
144	0xbbc57482	-0.0060258517
145	0xbb52e99c	-0.00321827
146	0x3cd71859	0.026256727
147	0xbcee7bb3	-0.029111719
148	0x3b722eab	0.0036954086
149	0xbc967582	-0.018366579
150	0x3c93ff64	0.018066116
151	0x3c5761ce	0.013145877
152	0xbc4069c8	-0.01174397
153	0x3cb17ff7	0.021667464
154	0x3ccbf0aa	0.024895031
155	0x3ba1a8f6	0.004933472
156	0xbb168034	-0.0022964599
157	0x3be4d3c5	0.0069832527
158	0xbcf6d8ac	-0.030132614
159	0x3ec28a25	0.3799602
160	0xbbb29c80	-0.005450785
161	0x3cac7727	0.02105291
162	0xbcdb9bd4	-0.026807703
163	0xbc1773fe	-0.009243963
164	0xbc3719fe	-0.011175631
165	0x3d00ceb5	0.03144713
166	0x3ba6e8e4	0.0050936807
167	0xbcd63b22	-0.026151244
168	0x3c9634ab	0.01833566
169	0xbc5ebc46	-0.013594693
170	0xbcdabe39	-0.026702033
171	0x3c5bf110	0.013424173
172	0xbbb243e9	-0.0054402244
173	0x3ba4e936	0.0050326837
174	0xbb8d27a9	-0.0043077064
175	0xbb313b5a	-0.0027043433
176	0xbcc04bcd	-0.023473645
177	0x3ae9f4b7	0.001784942
178	0x3cba726d	0.02275964
179	0xbcd33621	-0.025782647
180	0xbcd8df7d	-0.026473755
181	0x3e47ecf3	0.19523983
182	0xbc12ae86	-0.008952742
183	0xbcb30f34	-0.021857835
184	0x3c296c88	0.010340817
185	0x3cf04f20	0.029334605
186	0xbc8619ee	-0.016369786
187	0xbc4f4988	-0.012651809
188	0x3d38832b	0.045046967
189	0xbc64d74c	-0.013967346
190	0xbcaceee9	-0.021110015
191	0xbc550f1e	-0.0130040925
192	0x3ceb7ee6	0.028747033
193	0xbcc976be	-0.024592753
194	0x3b937c80	0.0045009255
195	0x3c90b708	0.017665401
196	0x3ccb6130	0.024826616
197	0x3a7fea00	0.0009762347
198	0xbc8948fc	-0.016758434
199	0x3c662ae8	0.014048316
200	0xbc2aac7a	-0.010417098
201	0x3cf14834	0.029453374
202	0xbbb25a21	-0.005442873
203	0xbcbcc50f	-0.023043184
204	0x39f1d208	0.00046123588
205	0x3caa9150	0.020821244
206	0x3cf62653	0.030047571
207	0xbba6a24c	-0.0050852653
208	0xbc2b978f	-0.010473146
209	0xbcf189d3	-0.029484665
210	0xb9407efa	-0.0001835785
211	0xbc9413d9	-0.01807587
212	0xbcf55929	-0.029949741
213	0x3b61242a	0.003435383
214	0xbced643e	-0.028978463
215	0xbce6f92d	-0.028194988
216	0x3b12f87e	0.0022425945
217	0xbce590b8	-0.028023109
218	0x3df8f9d0	0.12157023
219	0x3ce42c1e	0.027853068
220	0x3c76fe69	0.015075305
221	0xbe0e6452	-0.13905457
222	0xbc650c76	-0.013980022
223	0xbe5a3d2e	-0.213124
224	0x3c9870c7	0.018608464
225	0x3cef4246	0.029206406
226	0xbcc2b359	-0.02376716
227	0xbc20448b	-0.009781967
228	0xbc70c49e	-0.014695315
229	0x3b7683ea	0.0037615248
230	0xbcea82c9	-0.028626816
231	0xbc428710	-0.011873022
232	0x3d054989	0.03254083
233	0xbc8d4ea0	-0.017249405
234	0xbd01bbff	-0.031673428
235	0xbcdc0b3d	-0.026860828
236	0x3c036879	0.008020514
237	0xba821ca4	-0.0009926748
238	0x3c0ed8f0	0.008718714
239	0x3d2673fd	0.04063796
240	0x3ac0028b	0.0014649195
241	0xbc8a7954	-0.016903557
242	0xbd59441b	-0.053043466
243	0xbcd502fb	-0.026002398
244	0xbc0094f4	-0.007848013
245	0x3bfd89f1	0.007737391
246	0x3d08a575	0.033360917
247	0x3c9fe630	0.019518942
248	0xbc1017fb	-0.00879478
249	0x3ce671bf	0.02813041
250	0xbc142aad	-0.009043378
251	0xbcdabb02	-0.0267005
252	0x3c5964bb	0.013268645
253	0x3cfed7a3	0.031108683
254	0xbceec5a9	-0.029146986
255	0x3c1039d2	0.008802848
