PythonScripts/dynamic_ssim_multimodel/cnn.onnx (onnx, 374396 bytes, 8 tensors)

cnn.0.weight f4 [32, 3, 3, 3]
000000 6d 4a 04 3d ed ab 45 bd 0a 58 11 3c fa 73 29 be
       0.03229754 -0.048259664 0.008871088 -0.16548148
000010 cb df bf bd d7 f3 3e 3e 6b 07 b0 bd 58 d9 92 3d
       -0.09368857 0.18647705 -0.08595165 0.07170361
000020 05 0f 7e 3d da 61 11 be e1 7c 00 be 76 0e dc bd
       0.062026042 -0.14197484 -0.12547638 -0.10744946
000030 6d 4e b7 3d eb 7a 99 bc 87 52 d4 3d 91 0c 59 bd
       0.089505054 -0.01873537 0.10367303 -0.0529905
000040 5a b5 15 3e 9c 4a 26 3e 1e 5a f0 bd 75 90 f7 3b
       0.14619961 0.16239399 -0.117359385 0.0075550624
000050 08 7f dd 3c 74 fb 44 bc f1 2d 92 3d a4 3c 41 3e
       0.027038112 -0.012022842 0.07137669 0.18870789
000060 75 c1 f4 3d 12 6e 6c 3d 66 9f 0b bc ce ba 3a be
       0.119509615 0.05772216 -0.00852189 -0.18235323
000070 86 88 c5 3c aa 9d 38 bd 4f 1a 02 3e 20 77 6e 3d
       0.024112951 -0.045072235 0.12705348 0.058219075
000080 b2 5c 2a be 56 13 d2 bd 93 89 f8 3d 2f 18 0b bd
       -0.16636923 -0.10257594 0.12135615 -0.03395861
000090 31 7f 34 bc 4c d5 db 3d bb 3c 2f be ee 39 5b 3c
       -0.011016653 0.107340425 -0.1711301 0.013380511
0000a0 24 2b 6a 3d 22 71 03 3e 46 91 c7 3c 2a 7a 46 bd
       0.05717005 0.12836125 0.024361264 -0.04845635
0000b0 f6 4e 13 be 16 60 d7 3d db 30 3d be 8b e7 e3 bd
       -0.1438559 0.10516374 -0.18475668 -0.11128148
0000c0 48 f7 4b 3d 3b 93 61 bc b9 08 ba 3d 2f df 31 3e
       0.049796373 -0.013768013 0.09083695 0.17370294
0000d0 61 13 59 3c ac 8b 23 be 29 a5 e0 3d 04 1a da bd
       0.013249249 -0.1597125 0.10969002 -0.10649493
0000e0 1e 58 89 3d 07 cc 76 bd 5f ce 67 bd de ba 1e 3e
       0.0670626 -0.06025317 -0.056593295 0.15500972
0000f0 a1 9d 0e bd 4a 77 ff 3d 5a f0 f1 bc 90 3a ad bd
       -0.034818295 0.124739245 -0.029533554 -0.084584355
000100 1d b9 03 3c b4 79 c5 bc c0 3b 3d 3e 57 29 c7 3d
       0.00803974 -0.024105884 0.18479824 0.09724682
000110 42 7b 90 3d ee 91 55 3d 62 e2 ac 3d 8e 03 f6 3d
       0.070547596 0.052141123 0.084416166 0.12012397
000120 ce d2 f6 bd 26 c4 9c 3d 1b 79 07 3e 5c 9a d0 bd
       -0.120519266 0.076546 0.13229792 -0.10185692
000130 48 28 14 3e 97 a4 0d 3d a4 e9 8c bd 1d f9 b3 3d
       0.14468491 0.034580793 -0.06880501 0.08787749
000140 21 dd 08 be aa 5c fb 3d 93 01 06 be ec ba c1 3d
       -0.13365604 0.12273534 -0.13086538 0.09459481
000150 94 d2 f5 3d 93 2d 6c 3c ac 0b d8 bd ec 8c de bd
       0.12003055 0.014415163 -0.10549101 -0.108667225
000160 08 6f 5c 3d 44 32 ab 3d bf b9 f9 3d 08 2a 10 be
       0.053816825 0.08359197 0.121936314 -0.14078534
000170 d8 d5 04 3e b3 c6 fa bd 81 11 5b 3c 4e 68 bd 3d
       0.129722 -0.1224493 0.0133708725 0.0924841
000180 22 c9 2b be 54 d1 68 3d d3 90 a1 3c 71 36 7a bd
       -0.16775945 0.056840256 0.019722378 -0.061087076
000190 bd 17 2c be d5 a6 f3 bd 5d cc 9a bd 3d 35 b5 bc
       -0.1680593 -0.11897055 -0.075585105 -0.022120113
0001a0 9a 99 b7 bd 1c dc d6 3c 0b d0 14 be 55 01 85 bd
       -0.08964844 0.026228003 -0.14532487 -0.06494395
0001b0 55 7a ea 3c f2 21 4c 3d 70 94 2b 3e 05 20 e1 bb
       0.028622786 0.04983706 0.16755843 -0.006870272
0001c0 ea 6e d1 3d dd c1 fc bc e8 98 2c 3e aa 28 1d 3e
       0.10226233 -0.03085416 0.16855204 0.15347543
0001d0 cf 02 cc bd 57 3d 19 3e 2d 6e 96 bc 1a d5 1c 3d
       -0.09961473 0.14964806 -0.018363083 0.038289167
0001e0 ac ef 2f 3e 6f d4 43 3e fa 19 df 3d 59 18 90 3c
       0.17181271 0.19124006 0.108936265 0.017589735
0001f0 cd c9 3f 3d 46 b5 31 bc 43 82 13 be 4a b9 93 bd
       0.04682331 -0.010846442 -0.1440516 -0.072130755
000200 5a b9 73 bd e1 30 2d 3b 4d 78 cc 3d 7b cc a9 3d
       -0.059502937 0.002642684 0.09983883 0.08290955
000210 f3 ad 3f be fe 75 5d 3d 96 c1 07 be 32 8d f6 3d
       -0.187187 0.054067604 -0.13257441 0.120386496
000220 40 4b 8f 3d 8c 11 28 39 a7 04 d9 bd c1 a5 11 be
       0.06996775 0.00016028265 -0.105965905 -0.14223386
000230 66 d4 7c bc 1f c4 0a be 4d e8 b6 bd 45 f3 3f bd
       -0.015431499 -0.13551377 -0.089310266 -0.04686286
000240 5d 39 cc 3d cf d0 97 3b 2c c8 ea 3c 1f de 62 bd
       0.09971879 0.004633046 0.028659903 -0.055387612
000250 9a bd 8d bc 78 1b 00 3e 88 82 2f be 37 bc c3 3d
       -0.017302323 0.12510478 -0.17139637 0.095573835
000260 44 59 87 bd 84 8e c8 bd c0 72 13 bd c9 7f 4a bd
       -0.06608823 -0.09792808 -0.035998106 -0.04943827
000270 b8 30 b2 bc 84 e2 77 3d ca 76 0a 3e e8 35 b5 3d
       -0.021751747 0.060518757 0.13521877 0.088481724
000280 6c 85 38 be 3e 89 0b 3e e0 9c 19 3e 79 8e 53 bd
       -0.18019646 0.13626572 0.1500125 -0.051649544
000290 67 f1 42 be 99 ba b6 3b 9e 42 30 3d f3 91 36 3e
       -0.190374 0.0055764434 0.04303228 0.17829113
0002a0 cd c2 84 3d bb 35 e2 bd 51 4a 9e bc c6 35 8c 3d
       0.06482468 -0.110454045 -0.019322546 0.06846194
0002b0 eb cb 05 3d 4c e3 ef 3d db ff 25 3e 48 32 1c be
       0.032665174 0.11713275 0.16210882 -0.15253556
0002c0 8f 25 02 be cb a4 dd bd e5 67 90 bd 83 aa 8a bb
       -0.1270964 -0.108224474 -0.07051066 -0.0042317524
0002d0 20 ca cb bb 4f 08 1c 3e 3f d5 11 3e 74 94 d7 3d
       -0.0062191635 0.15237544 0.14241503 0.10526362
0002e0 f4 23 ad bd 91 46 f8 3d cb 13 ce bc c8 68 3c be
       -0.08454123 0.121228345 -0.025155922 -0.18399346
0002f0 95 9b 75 bd c9 2f 67 bb 0a 70 13 3e 48 48 ae 3d
       -0.059962828 -0.0035276285 0.14398208 0.0850988
000300 31 9d 2b be 2d 0a 19 3e 64 02 20 3d cc 45 7b bd
       -0.16759183 0.14945288 0.03906478 -0.06134586
000310 ca 07 e8 3d 0d 14 44 bd 46 ca fb 3d df 6f 2c 3e
       0.11329611 -0.047870684 0.1229444 0.1683955
000320 57 46 d1 3c 72 fd 8e 3d 64 a1 3c be 14 42 94 3d
       0.025546236 0.069819346 -0.1842094 0.07239166
000330 b3 65 0d 3e 65 e5 2d be 21 d5 3b be 85 92 26 bd
       0.13808326 -0.16982038 -0.18343021 -0.040667076
000340 67 ca fd 3d 52 c4 1b be e2 94 f9 bb ef 43 2e be
       0.12392121 -0.15211609 -0.007616625 -0.17018102
000350 6c f1 26 be 13 35 a7 3c f3 60 bf 3d 51 cf 17 3c
       -0.16303033 0.02041105 0.093446635 0.009265737
000360 e8 91 14 be ef ef 22 be a9 39 b8 3c 29 84 a2 3d
       -0.14508784 -0.1591184 0.022488432 0.07935364
000370 d2 57 aa bd cb 0b 16 bd b8 15 65 3d 6a 24 fa 3d
       -0.08317532 -0.03663234 0.055928916 0.12213977
000380 00 62 31 3e 47 2a 89 3d 98 8a 7b bb d9 c2 80 bd
       0.1732254 0.06697517 -0.003838217 -0.06287164
000390 36 84 52 bd 74 48 bc bd 07 a0 ba bd b5 e0 d3 3d
       -0.051395617 -0.09193507 -0.09112554 0.10345594
0003a0 db a3 49 3d 64 b0 d7 bd 43 6f ac 3d 16 b0 c2 bd
       0.04922853 -0.10531691 0.08419659 -0.09506242
0003b0 27 43 31 bd 0c d3 2c 3e e7 77 37 3e 5c 4a 2c 3e
       -0.043276932 0.16877383 0.17916833 0.16825241
0003c0 0d 10 8b bd b5 7a b9 bc f7 8b 1b be 6c 4f d3 bd
       -0.06790171 -0.02264152 -0.15190111 -0.10317883
0003d0 8b ff 28 bd 15 9e 2d be 80 b6 1f 3d 87 2c 35 3e
       -0.04125933 -0.16954835 0.038992405 0.17692767
0003e0 e2 03 13 3e 83 96 16 3e 9e 29 24 3e ff 55 12 3e
       0.1435695 0.14705853 0.160315 0.14290617
0003f0 52 c4 12 be 8f 40 e4 3d 39 68 aa bb 67 7e 02 be
       -0.14332703 0.11145126 -0.0052004126 -0.12743531

cnn.0.bias f4 [32]
000000 6f dc b5 bd fc 02 2f 3d d2 b4 08 be f0 db 20 bd
       -0.08879935 0.042727455 -0.13350227 -0.03927225
000010 1d db 5b bc fb 5a 38 be 68 a3 06 be e3 68 02 3e
       -0.01341894 -0.18003456 -0.13148272 0.12735324
000020 8d 29 41 be 49 ec 0a be db 36 2f be 2e 58 15 3e
       -0.18863507 -0.13566698 -0.1711077 0.14584419
000030 d5 45 c3 bd 4f 28 2e 3d 26 54 55 3d e3 f0 0a be
       -0.09534804 0.04251891 0.052082203 -0.13568453
000040 ba 4e 08 3e 23 c7 d3 3a ea 5f 0f 3e 79 5d 09 3e
       0.13311282 0.001615737 0.14001432 0.13414563
000050 67 17 45 3e a6 ee 6e 3c c9 84 1a 3e 22 e2 2c be
       0.19247209 0.014583265 0.15089716 -0.16883138
000060 a5 84 e4 3d 15 1a c9 3c bd f3 e9 bd 45 d3 15 3e
       0.111581124 0.02454857 -0.114234425 0.14631374
000070 f1 04 06 be cd b8 0d be d0 05 2a 3e 96 19 18 be
       -0.13087822 -0.13840027 0.1660378 -0.1485351

cnn.3.weight f4 [64, 32, 3, 3]
000000 fa 7a 29 3c 0a 55 b2 bc fd 83 e0 3c 00 5a 48 3d
       0.010344261 -0.021769065 0.027406687 0.048913956
000010 8c f6 09 bb 39 b5 d7 3c 82 7d 44 3c 77 19 3f bd
       -0.0021051494 0.02633153 0.011992814 -0.046655145
000020 98 04 2e 3d c2 e5 a6 3c 31 b4 20 bd d3 92 ac 3c
       0.04248485 0.020373229 -0.039234344 0.021066105
000030 a9 14 fb 3c d9 3f 16 bd f4 c5 d4 bc 16 2c 2b bd
       0.0306495 -0.036681984 -0.025973298 -0.04179009
000040 0c 58 27 bd 01 50 e4 3c af 65 15 3d d2 53 a1 bc
       -0.040855452 0.02787018 0.036473926 -0.019693289
000050 d1 75 b5 bc a4 f6 78 3c b4 68 51 3b 17 e9 12 bc
       -0.022150906 0.015195522 0.0031953277 -0.008966706
000060 ab 2e 69 bd cd 81 3f bd 3c 56 5b bc 55 b4 42 3c
       -0.05692927 -0.046754647 -0.013387259 0.011883815
000070 01 e6 9e 3c df 54 04 3c 02 21 96 bc ed 27 25 3d
       0.019396784 0.0080768755 -0.018326286 0.04032128
000080 14 88 1d bc 35 4f 1f bd 73 f3 95 bc b6 8e fc 39
       -0.009614963 -0.038893897 -0.018304562 0.00048171513
000090 db 0f 1d 3d 78 1a 22 3d ed 30 a0 3a 07 fa 42 bc
       0.0383452 0.039576024 0.0012221612 -0.0119004315
0000a0 26 e8 41 bc dc 3f 35 bd bd 6c 12 3d 60 34 94 bc
       -0.011835134 -0.044250354 0.035748232 -0.01809138
0000b0 1f 13 3f bd 73 0f 46 bd c4 5d 81 bd 5f f0 24 bd
       -0.046649095 -0.048354577 -0.063167125 -0.0402683
0000c0 15 90 54 bd 48 a0 d9 bb 6c 92 a6 bc a3 d1 70 3d
       -0.05189522 -0.0066414215 -0.020333491 0.058793675
0000d0 4c 2b 21 bc 3b 03 06 3d dd af 82 3d 19 7f 47 3d
       -0.009836983 0.032717925 0.063811995 0.048705194
0000e0 e9 40 b8 3c 51 d4 60 3b 5b db 6e bc 14 56 36 bd
       0.02249189 0.0034306238 -0.014578666 -0.044515684
0000f0 1a 6b 4c bd d3 c9 5d bd 85 ca 59 bd 6e 2d 94 3c
       -0.049906828 -0.054147553 -0.053171653 0.018088069
000100 80 69 33 3d fb 09 cd bb 75 60 8d bc 85 fb 57 bd
       0.043801785 -0.0062572933 -0.017257908 -0.052730102
000110 52 c4 ea 3c d5 39 39 3c a5 96 ef bc 33 24 7a bb
       0.028658066 0.011305292 -0.029246638 -0.003816855
000120 0e 2f 40 bb cf ed 16 3d 45 04 78 3b 32 04 5a bc
       -0.0029324922 0.036847886 0.0037844342 -0.013306664
000130 08 40 aa 3c f4 ea 32 3d ac 99 93 bc ee 6b 60 bb
       0.020782486 0.0436811 -0.018017612 -0.0034244019
000140 c9 ff f3 bc 7e 85 65 bb 23 90 97 3c 69 31 b9 bc
       -0.029785054 -0.0035022194 0.018501347 -0.022606568
000150 c4 44 3e 3c fa 72 81 bc bb da 52 bd 3e c0 41 3d
       0.011613075 -0.015801895 -0.05147813 0.047302477
000160 8e cf 2c bd 10 aa 0d 3b b6 2d 74 3b 8a 9e 92 3b
       -0.042190127 0.0021616258 0.003725869 0.0044744657
000170 97 cc 1e bd 4a f0 8c 3c 83 9a f0 bb 9f 0e 44 bd
       -0.03876933 0.017204423 -0.007342638 -0.047865506
000180 9e 64 b5 3b 99 2e 99 3d e1 a0 2f bd 79 84 62 3d
       0.005535676 0.07479591 -0.042878035 0.055302117
000190 db 1c 0f bd 56 8e ae 3c 28 2a 16 3c b2 07 68 bd
       -0.034939628 0.021308105 0.009165324 -0.056647964
0001a0 0a 43 ae 3c d8 89 d7 bb 7f 61 da 3c 10 86 36 bd
       0.021272201 -0.0065777116 0.026657818 -0.044561446
0001b0 1a 25 cd bc bf 8d 33 bd 70 d8 35 bd be dd 61 bc
       -0.025042105 -0.04383635 -0.044395864 -0.013785778
0001c0 e7 a7 b0 bc 80 94 21 bd a9 10 8b 3c 1a dd 2b 3d
       -0.021564437 -0.03944826 0.016975718 0.041958906
0001d0 34 c4 2f bd bf 0a ff bc 0d b0 3e 3d 6e 93 6d bd
       -0.042911723 -0.031133054 0.046554614 -0.058001928
0001e0 e1 bc af bc a5 82 92 3c a2 72 64 3c 95 c5 34 bb
       -0.02145237 0.017884562 0.013943346 -0.0027583588
0001f0 f6 8c 97 3c 2c 66 52 3d f4 ba 7b bd c8 15 52 3c
       0.018499833 0.05136697 -0.06145759 0.012822576
000200 5f 55 53 3c 65 91 7a bc a1 5d 35 3d d2 d5 3c bc
       0.012898772 -0.015293454 0.044278745 -0.011525588
000210 d8 a6 1b 3d b5 7d 28 3d e1 67 3c bc f0 d6 6d bc
       0.03800091 0.04113551 -0.011499376 -0.014516577
000220 b5 34 d3 3c a5 54 f8 3b 0b 5b 46 bd ed 11 4c bd
       0.025781969 0.00757845 -0.04842667 -0.049821783
000230 cb 9f 66 bc 29 cb 04 bc 23 cd cd bc 61 1c 4c 3d
       -0.014076184 -0.008105078 -0.02512223 0.04983175
000240 fd ae 36 bd b6 a8 64 3d 0b 37 5b 3d 28 87 29 bd
       -0.044600476 0.055824958 0.05351929 -0.04138866
000250 6f a4 61 bc 65 6d 7d bb eb 93 9d 3c 13 e8 ce bc
       -0.013772114 -0.003866994 0.019235572 -0.025257146
000260 1b 55 6c 3d e9 29 48 bd 65 c0 ef 3b b4 cd 0d 3b
       0.05769835 -0.048868094 0.0073166364 0.0021637501
000270 75 aa d5 bb 48 52 22 bc 74 09 35 3d 3a b4 db 3c
       -0.006520564 -0.009907313 0.04419847 0.026819337
000280 6e f3 c6 3c cf 33 08 3d 47 ec 1b bd 52 5e a1 bc
       0.024285998 0.033252534 -0.03806713 -0.019698296
000290 60 8c f4 3c 36 3e f9 ba 64 f5 b6 3c ad 1e 06 bd
       0.029852092 -0.0019015733 0.022333808 -0.0327441
0002a0 5c 25 0d 3c 24 19 55 3d 8e 5f 6c 3d 69 89 4c bc
       0.008614864 0.05202593 0.057708316 -0.012483933
0002b0 7b 69 2f 3d f7 46 af 3c 0f 0c fd 3c 37 b2 73 bd
       0.042825203 0.021396143 0.030889539 -0.05949613
0002c0 d9 17 47 bd 29 75 32 3c be ec 1f bd 4d 7e 36 bc
       -0.048606727 0.010892191 -0.039044134 -0.011138511
0002d0 fe 00 07 bd b9 36 04 bc 62 9c 17 3d be 4d 3d 3d
       -0.03295993 -0.0080696875 0.037014373 0.04621672
0002e0 56 ce 1d 3d 59 bc 5e 3d 81 b7 33 bb 47 46 62 bc
       0.038526855 0.05437884 -0.002742261 -0.013810701
0002f0 00 05 d5 3c f8 b4 41 3d 1f d8 1b 3b 24 6e 7f bd
       0.02600336 0.047291726 0.0023779941 -0.062360898
000300 6e 09 21 bd b3 14 13 3c 2a ec 3f bd 1b c1 45 bd
       -0.039315633 0.008977103 -0.046856083 -0.048279863
000310 29 2e 20 bc ef 9d ea bc c7 f0 ea ba 7b 79 00 bd
       -0.00977663 -0.028639762 -0.001792454 -0.031365853
000320 f8 26 98 bc af b1 4a bc 96 b2 7f bd 06 d0 28 bd
       -0.01857327 -0.012371465 -0.062426172 -0.04121401
000330 46 25 bc 3c 78 19 08 bc 10 4e 16 bd 94 67 ca bc
       0.022966992 -0.0083068535 -0.03669554 -0.024707593
000340 58 51 fd 3b f0 28 3d bb 96 a7 62 bd 7a 18 00 bd
       0.007730644 -0.0028863512 -0.055335604 -0.031273343
000350 a4 2c 41 bd 06 5a c0 3c bc 69 2a bd 2c e9 26 bd
       -0.047161713 0.023480427 -0.041604742 -0.040749714
000360 f0 96 d1 bb 38 1a 9b bc 91 bc df 3c 02 8e 2d bd
       -0.006396167 -0.0189334 0.027311595 -0.042371757
000370 73 2c 18 bd 41 6f 69 bc 1b 5e 87 bd d9 7c ab 3c
       -0.037151765 -0.014247716 -0.06609746 0.020933555
000380 c7 06 d9 3c f7 98 38 bd 21 55 2c bd 33 0c 65 bd
       0.02649249 -0.045067754 -0.042073373 -0.055919837
000390 7c 78 67 3d 22 f5 14 bc dd a2 6b 3d f0 c0 cb bc
       0.056511387 -0.009091647 0.057528365 -0.024872273
0003a0 67 77 fa 3b 0f c1 20 3d 88 14 f6 3c f4 80 82 3c
       0.0076436284 0.039246615 0.030039087 0.01593063
0003b0 f1 da 21 bc 8b de 6b bc 53 7c 2e bc 17 15 55 3c
       -0.00987886 -0.01439632 -0.010649758 0.0130055165
0003c0 ea 56 5c bd 63 15 7b bd 27 94 6c bd d4 f3 2e bd
       -0.053793825 -0.061299693 -0.057758477 -0.042713
0003d0 c7 35 35 3d 2a d2 44 3d 83 0a f0 bb 9c fe 5d bc
       0.04424074 0.04805199 -0.007325472 -0.013549473
0003e0 48 c7 46 3d ad 53 40 bc b1 d3 1f bd 47 a6 19 3d
       0.048529893 -0.0117387 -0.039020244 0.03751209
0003f0 38 b7 2e 3d 19 9d 87 bc a7 b9 4b 3d 91 72 e5 3c
       0.0426552 -0.016554402 0.0497376 0.028008731

cnn.3.bias f4 [64]
000000 8e 39 b7 3c 41 41 29 3c f6 12 28 bd ad 5f 5f 3d
       0.022366311 0.010330499 -0.041033708 0.054534603
000010 ac 56 24 bd 50 d2 4b bd dc 20 0a bd 96 04 24 bd
       -0.04012172 -0.049761117 -0.033722743 -0.040043436
000020 0b 78 38 bd d3 58 23 bd 06 eb 39 bd c6 2f 8b bb
       -0.045036357 -0.03987963 -0.04539015 -0.0042476384
000030 43 60 e6 bc 39 75 97 bc 8c a6 51 bc 24 dc 0e 3c
       -0.028122073 -0.018488513 -0.0127960555 0.008719478
000040 c5 cd 91 3b cf 7d 4a 3d 8a 6d 49 bc dc cb e7 3c
       0.0044495785 0.049436387 -0.012294183 0.02829545
000050 ce 66 ff 3c a5 65 a9 bb 89 0d dd 3c 5f 66 2b bb
       0.03117695 -0.0051695877 0.026983993 -0.0026153547
000060 80 e5 ab bb 45 f7 ef bb bd 18 62 3b 9e ef 0e 3d
       -0.0052458644 -0.007323178 0.0034499608 0.034896486
000070 10 0a 84 bc 77 82 9b 3c 92 81 b9 3c 83 38 23 ba
       -0.01611808 0.018983109 0.022644792 -0.00062263774
000080 bb bd 62 3d 99 7a 5c bb 18 b5 1a 3d 33 70 35 3d
       0.055356722 -0.003364241 0.03777036 0.044296455
000090 3d b7 84 bb 40 4e b8 bc 24 e8 c5 3c a1 01 79 bd
       -0.004050164 -0.02249825 0.024158545 -0.06079257
0000a0 d6 18 c9 3c 17 4b 33 bd b7 6c fb 3c f5 39 97 bc
       0.024547976 -0.043772783 0.030691488 -0.018460253
0000b0 c1 f1 18 3d 1a fb 08 bc a2 2f 3a bd a4 41 bd bc
       0.03733993 -0.0083606485 -0.045455582 -0.023102589
0000c0 dd 4b e9 3c d6 e8 b7 3c f9 b6 91 3c 78 e4 61 bd
       0.028478557 0.022449892 0.017787443 -0.055149525
0000d0 0c 20 6d 3d 1c 44 01 3d d9 1f 7b bc b4 e4 0d 3d
       0.05789189 0.031559095 -0.015327417 0.034641936
0000e0 53 78 60 bd f8 4e 60 bd 50 16 f1 3c b3 de 70 3d
       -0.05480225 -0.05476281 0.029429585 0.058806133
0000f0 bb 72 7d 3c 2c 90 64 bd 27 2b f4 bb 65 02 52 bd
       0.015469248 -0.055801556 -0.007451433 -0.051271815

cnn.6.weight f4 [64, 64, 3, 3]
000000 11 d6 f2 bc fa 69 2c bd 94 04 61 bc f2 d9 0e bd
       -0.02964309 -0.042093255 -0.013734002 -0.034875818
000010 f5 fc 3b bb 02 29 50 bb e4 98 42 3c 84 40 95 bc
       -0.002868471 -0.0031762724 0.011877272 -0.01821924
000020 45 49 cb 3c 9e d9 fb 3c f3 c0 65 bb 3f 21 19 bd
       0.024815211 0.030743416 -0.0035057634 -0.03738522
000030 fe 5a 19 3d 76 bc 36 3a e5 04 48 bd 54 d4 c7 bc
       0.037440293 0.0006970832 -0.048832793 -0.024393238
000040 62 a5 aa 3c 26 d4 10 bd b9 9b 26 3d fe 3a e0 3c
       0.020830814 -0.03535857 0.040675852 0.02737188
000050 2a c7 cf 3c fa 2e c8 3c e6 76 bf 3c 11 d8 0a 3d
       0.025363524 0.024436463 0.023372125 0.033897463
000060 92 b7 b5 3c 00 98 5b b9 ec e9 01 bd ed 25 e8 bc
       0.02218226 -0.00020942092 -0.031717226 -0.028338397
000070 74 ab eb bc 03 28 a7 bc 02 39 ea 3c b5 a9 14 bd
       -0.028768279 -0.020404821 0.028591637 -0.036294658
000080 61 d9 8f bb 44 13 1f bd 1f 21 12 bd 21 16 9d 3b
       -0.0043899273 -0.038836733 -0.035676118 0.0047938977
000090 0e 7d 0a bd 7c 39 56 bc 20 89 15 3c fd 89 fb bc
       -0.033810668 -0.013075229 0.009126931 -0.030705446
0000a0 b0 9f 72 3c 51 02 a2 bb 05 bd a0 3c c8 16 ee ba
       0.01480858 -0.004944124 0.019621382 -0.0018164748
0000b0 1e 37 25 3b e2 34 50 3c cb d8 14 bd e4 ba a5 3c
       0.0025209854 0.012707921 -0.036339562 0.020230718
0000c0 10 71 8c 3c 00 09 39 bb c7 86 fe bb 78 ae 29 bd
       0.017143756 -0.0028234124 -0.0077675316 -0.041426152
0000d0 5a 49 7f 3c 15 99 e5 3a c0 c9 bb bb b0 4d 59 bb
       0.015581453 0.0017516935 -0.0057308376 -0.0033157878
0000e0 96 83 48 bc ac 10 1c 3c 70 6c bc bc 28 80 c1 3b
       -0.012238404 0.009525459 -0.023000926 0.00590517
0000f0 f8 f9 f0 bb 26 ec cc 3c 00 3a 8a bc 6c a9 4d bc
       -0.0073540173 0.025014948 -0.01687336 -0.0125526
000100 0a 60 17 bd 1b ae f1 bc 08 1e 82 bc e8 fc ab bc
       -0.036956824 -0.029501965 -0.01588346 -0.020994619
000110 cc a3 86 3c 64 6b 74 3c 39 6e 13 3c 92 51 0b 3d
       0.016435526 0.014918182 0.008998447 0.03401334
000120 46 24 f7 bc c6 d7 6b bc 00 62 ae bc 04 7d 6f 3c
       -0.030168664 -0.014394706 -0.021286964 0.014617208
000130 80 2a ad b9 66 93 e5 3c 10 35 0c bb 2c 3c 4a bc
       -0.00033028796 0.028024387 -0.0021393932 -0.012343448
000140 44 21 1e bc 69 79 8b 3c 0a 0a c1 3c ef d5 08 3d
       -0.009651486 0.017025666 0.023564357 0.033407148
000150 e9 54 65 bc 36 67 e5 3c 91 6c aa 3c d9 66 ea bc
       -0.013997295 0.028003316 0.020803722 -0.028613495
000160 4f ec d1 3b 8b f8 57 bc 9e 1f cf 3c 92 8f b3 3c
       0.006406344 -0.013181816 0.025283631 0.021919046
000170 ab 48 fd bc 1d d6 17 3d ce 86 ed 3c 38 f3 c3 3b
       -0.03091844 0.03706943 0.028994944 0.0059799217
000180 d0 b4 0c 3b 76 26 71 bc e0 1b fe 3b 00 4c b5 3c
       0.0021470077 -0.014718642 0.007754788 0.022130966
000190 42 ca 00 3c e9 1d e2 bc 12 13 e5 bc c2 46 2e 3d
       0.007860722 -0.027602153 -0.027963195 0.04254795
0001a0 05 5f 00 bd a1 23 dd bc c0 27 9a bc 9f f2 19 3a
       -0.031340618 -0.026994528 -0.018817782 0.000587264
0001b0 6b ac 81 bc 4a 47 20 3b 7f 77 1f bd 3d d6 0c 3d
       -0.015829286 0.0024456554 -0.03893232 0.034384
0001c0 56 3c 0b bd 78 e4 58 3c d8 d6 8b 3c 97 30 c7 bc
       -0.033993088 0.013238065 0.017070219 -0.024315162
0001d0 2a 5f 5a bc 9c 39 8b ba ab a3 6b 3b 22 d4 08 3c
       -0.013328353 -0.0010622027 0.0035955708 0.008351358
0001e0 c6 8a 18 3d 55 65 ce bc 39 9a ac 3b 6c d7 a7 3c
       0.03724172 -0.025194803 0.005267408 0.020488463
0001f0 6c 7a 17 3c cf 8d f7 3c 97 d8 18 3d 80 78 60 bb
       0.009245496 0.030218987 0.03731593 -0.003425151
000200 50 ca a8 bc 1e 09 90 3c 52 9f c7 3c 4c f2 0f bd
       -0.020604283 0.017582472 0.024367962 -0.03514318
000210 20 22 70 bc 53 ae 84 bc bc 0d 76 3c 8a e8 5f bc
       -0.0146565735 -0.016196406 0.015017923 -0.0136662815
000220 81 7f eb bc 09 fa c2 3c 49 ea 52 bc 9e df 6f 3c
       -0.028747322 0.023800867 -0.012873241 0.014640717
000230 f4 26 0c 3d da d8 16 b8 89 89 cb 3c cf cc 1a bd
       0.034216836 -3.5964746e-05 0.024845855 -0.037792977
000240 db f8 18 3c c8 ec 8c 3c 4f 60 85 bc ef 05 15 bd
       0.0093366755 0.01720275 -0.016281275 -0.03638261
000250 31 d1 ec bb 2f b0 3b bb 80 c3 d1 bc 9e e1 05 3d
       -0.007227086 -0.002863895 -0.025605917 0.03268587
000260 86 4b 85 3c b0 aa d4 bc 70 2c 55 3c 90 bd 83 bc
       0.016271364 -0.025960296 0.013011083 -0.016081601
000270 92 85 2a bd c8 55 c1 bc 57 2c 19 bd 83 8f fa bc
       -0.04163129 -0.023600474 -0.0373958 -0.03058601
000280 44 fc 28 bc a1 ad 01 3d 6d 26 28 3d b4 e5 30 3c
       -0.010314051 0.031659726 0.04105227 0.010796953
000290 34 c0 15 bd 00 7b bc 3c 76 b1 06 bd d0 b5 31 bd
       -0.036560252 0.02300787 -0.032884084 -0.04338628
0002a0 7d 81 0a bd ba 05 60 bc 2b 71 06 3d 8c 38 bb bc
       -0.033814896 -0.01367324 0.03282277 -0.022854112
0002b0 a0 03 cf 3c b7 d7 11 3d 3a c4 06 bd 2f 04 2e bd
       0.025270283 0.035606112 -0.03290198 -0.04248446
0002c0 cf 24 8f bc a0 d1 24 bd ea 38 12 bc c2 87 44 bd
       -0.017473606 -0.040238976 -0.008924702 -0.04798103
0002d0 95 13 a4 bc bb 96 94 bc 14 e5 73 3c 66 76 09 bd
       -0.020028869 -0.01813828 0.014886159 -0.03356018
0002e0 80 d1 7a bc 4b 13 9f bc 1c 10 4b bd d9 83 22 bd
       -0.015308738 -0.01941838 -0.04957591 -0.03967652
0002f0 d5 5f f4 bb 56 e4 33 bd b5 3f d9 bb 0e be ea 3c
       -0.007457713 -0.04391893 -0.006629909 0.028655078
000300 b6 0f 55 bc e1 4e 1a bd 9b d8 3b bd eb 85 58 3c
       -0.013004234 -0.03767288 -0.045860868 0.013215522
000310 74 d3 1d 3d cc 01 18 bc b0 22 0f 3c ab 67 10 bd
       0.038531736 -0.009277772 0.0087362975 -0.035255115
000320 88 ab d5 bb cc a8 75 3c 06 2f f2 3c a0 e4 83 ba
       -0.0065206923 0.014993858 0.029563438 -0.0010062642
000330 00 bf 8c 3c 94 58 17 3c ec 3c 03 bd 67 54 0b 3d
       0.01718092 0.009237427 -0.03204052 0.03401604
000340 8d 13 28 bd 2d 65 d0 bc 3b c8 04 bd 8e 89 8a bc
       -0.04103427 -0.02543887 -0.032417517 -0.016911294
000350 96 01 e0 bc 08 58 13 3c 79 94 c2 bc fe 21 ff bc
       -0.027344506 0.008993156 -0.023752438 -0.031144138
000360 ab ed 1d bd 43 aa 14 3d 20 d3 ad bb d9 65 04 3d
       -0.038556736 0.036295187 -0.005304709 0.032323692
000370 d6 14 64 bc 68 89 0f bd c6 43 00 bd 5a f3 ed 3c
       -0.013920983 -0.03504315 -0.031314634 0.029046703
000380 80 89 a2 3b 4f 14 7b 3c 59 ed e2 3c eb 81 07 3d
       0.004960239 0.015324666 0.027701067 0.033082884
000390 a7 d8 ae bc d8 f7 04 3d 5b 26 92 bc 50 e7 14 3c
       -0.021343542 0.032462925 -0.017840555 0.009088352
0003a0 88 cf 76 3c bf 7f 42 3c 64 5f 1b bc c4 8b 22 bc
       0.015064128 0.011871277 -0.009483192 -0.009921018
0003b0 b8 97 b4 bc 7f 19 0b bd 1c ac 94 bb 2c 3c 20 bd
       -0.022045001 -0.03395986 -0.0045371186 -0.039119884
0003c0 9a 7a 11 3b 04 cf 2d 3d 9c 00 3e 3c 1c 41 48 bc
       0.002219832 0.042433754 0.011596825 -0.012222555
0003d0 07 f5 54 3c 86 e0 2a bd 7d f7 f6 bc b7 3d 0a bd
       0.012997872 -0.04171803 -0.030147308 -0.033750262
0003e0 8a 3a 15 3c 63 79 87 3c fc 9f 12 3c f4 9e 29 bd
       0.009108195 0.016537374 0.008949276 -0.041411355
0003f0 4c 07 38 bc 92 4e 81 3c 7e 39 bd 3c 62 c9 1c 3c
       -0.011232208 0.015784536 0.023098703 0.009569498

cnn.6.bias f4 [64]
000000 ed 46 2e 3c 7c 5a 35 3d ec 83 50 bc 04 a1 35 3c
       0.010637027 0.044275746 -0.012726765 0.011085752
000010 2c 17 2b bd b8 33 c0 3c 0a 26 e4 3b ce 59 24 bc
       -0.041770145 0.023462161 0.0069625424 -0.010031177
000020 c0 b2 0e 3d bf 97 6d bc f7 dd 9d bc bf ee aa bc
       0.034838438 -0.014501511 -0.01927088 -0.020865796
000030 54 5b be 3a 69 2f 46 3c fc 9a 2b bc 43 ff 6c 3c
       0.0014523068 0.012096264 -0.010473963 0.014465156
000040 0d 49 21 3d 0d de 0d 3d 28 34 d3 bb f8 33 1e bc
       0.039376307 0.034635592 -0.0064454265 -0.009655945
000050 94 ad 00 3d 2b f2 21 3d a1 3b b6 bc 19 73 cf bc
       0.031415537 0.03953759 -0.02224523 -0.025323438
000060 78 89 db 3c b4 2c eb 3c 24 9c 49 3c 23 a2 33 3d
       0.026798949 0.02870784 0.012305293 0.043855797
000070 8e 6a 11 3c 42 3a a8 bc 23 77 cd bc 7d 2c e4 3c
       0.008875502 -0.020535592 -0.025081223 0.027853245
000080 10 a3 50 3c af 71 5c bc e3 56 5f bc 8b 35 43 bd
       0.01273419 -0.013454839 -0.013631555 -0.047658484
000090 f1 19 12 3d f1 23 a6 bc cb 38 c0 3c fe ff 77 3c
       0.03566927 -0.02028081 0.023464581 0.015136717
0000a0 91 67 40 bd 82 a5 c2 3c c8 43 d0 bc cb 7e 33 3d
       -0.04697377 0.02376056 -0.025422946 0.04382209
0000b0 85 dd cf bc fe 4b a1 3c 60 5f c2 bc 70 c9 2e bd
       -0.025374183 0.019689556 -0.023727119 -0.042672575
0000c0 fb 1e 79 3b 26 eb f1 bc 14 8a 69 3c c7 48 1e 3d
       0.003801285 -0.029531073 0.014254112 0.038643625
0000d0 36 af 34 3c fe 5d b7 3c 37 7b 1c 3b 4a a1 13 3d
       0.011028102 0.022383686 0.0023877153 0.03604249
0000e0 dd 56 42 b9 48 71 66 3c 59 07 75 bc af ae e8 bc
       -0.00018533641 0.014065094 -0.014955365 -0.028403608
0000f0 66 b4 25 3c 24 7b 00 3d e5 6e a2 bb 42 f1 c1 bb
       0.010113811 0.031367436 -0.0049570673 -0.0059186528

cnn.9.weight f4 [64, 64, 3, 3]
000000 20 e3 0d bd 20 71 79 3c 38 07 d1 bc e8 b3 a9 bc
       -0.03464043 0.015224725 -0.025516137 -0.020715669
000010 9b 8e c4 bc 68 44 d7 3b 30 2c 4b 3b a9 42 1c 3d
       -0.02399378 0.006569434 0.003100168 0.03814951
000020 33 31 d1 bc ae c2 10 bd 12 d0 bb bc e0 b5 34 bc
       -0.025536155 -0.03534191 -0.022926364 -0.0110296905
000030 c8 84 e2 bc 20 26 9e bc d6 c0 8d 3b b4 e1 e7 3c
       -0.027651206 -0.019305289 0.0043259664 0.028305866
000040 59 ad 07 3d 7e d4 9e 3c 49 66 b4 bb 40 3e 23 bb
       0.0331243 0.019388434 -0.0055053574 -0.002490893
000050 cc 5e 36 3c 86 c6 59 3c be 8e 03 3d 6c 71 23 3d
       0.011131 0.013291961 0.03211855 0.03990309
000060 31 95 01 bd dc 2c 58 3c 6f 0c b1 bc e9 6a 33 3d
       -0.03163642 0.013194289 -0.021612374 0.04380313
000070 8a b6 10 bd b9 ad 06 bd 00 d0 42 3c b0 be 0e bd
       -0.035330333 -0.03288052 0.011890411 -0.034849823
000080 4d 1b 1e bd 33 43 b3 bc b1 8e c4 3c 34 0d c8 bc
       -0.038600255 -0.021882629 0.023993822 -0.024420358
000090 06 e5 dc 3c 00 a5 13 bc c8 b1 05 bd b9 02 04 3d
       0.026964676 -0.009011507 -0.03264025 0.03222916
0000a0 eb 22 1d bc 6b eb d5 bc 1e 66 ed 3c cc 42 37 3d
       -0.009590845 -0.026113233 0.028979357 0.044741437
0000b0 70 bf 18 3d f5 92 43 3d 25 7a 2d 3d 10 49 5d 3b
       0.037291944 0.04774757 0.042352814 0.0033765472
0000c0 b9 9c 43 3d 5b bc 3b bc 71 02 bd 39 a4 9b 26 3d
       0.047756884 -0.011458482 0.00036050708 0.040675774
0000d0 a1 0f 02 3d f6 e5 ea bc 79 2f 01 3d 79 8e e7 3c
       0.031753186 -0.028674107 0.031539414 0.028266178
0000e0 bf ba 14 bd 04 51 8a bc 81 0f b8 bc 80 88 01 3d
       -0.036310907 -0.016884334 -0.02246833 0.031624317
0000f0 4a c2 1d 3d ed 9c 7e 3c 1d 57 b0 bc 34 49 cc 3b
       0.038515367 0.015540344 -0.021525914 0.0062343124
000100 eb ae 6c ba 80 1f 92 3c 01 60 94 bc 20 d4 45 bb
       -0.00090287504 0.017837286 -0.018112184 -0.003018625
000110 72 8a 8c 3c c0 c1 6e 3c 7f 5c 5a 3c 2e f0 bd 3c
       0.01715586 0.014572561 0.013327717 0.023185816
000120 bc 1c 35 bc fa 2b d2 3c 40 ed ee bc 84 bd 2a 3c
       -0.011054214 0.025655735 -0.029165864 0.010421161
000130 8b 2a 2a bd 00 94 37 ba d2 bf c6 3c 3b cc ff bc
       -0.04154448 -0.000700295 0.024261389 -0.031225314
000140 62 14 ba 3c 6e 1e 8b 3c 2e 1c 0d 3b 4a 5e 00 bd
       0.022714797 0.016982283 0.002153169 -0.03133992
000150 cf 30 a8 3c a6 99 a8 3c 2d f8 a5 bc 89 87 46 bb
       0.020531086 0.020581078 -0.020259941 -0.0030293188
000160 47 4f 01 bc 13 33 bb 3b cf ab aa bc 45 bc 21 ba
       -0.007892436 0.0057128756 -0.020833878 -0.0006169717
000170 09 34 e5 bc 4a 98 7d 3c ab 63 13 bb bd 2b ad 3c
       -0.027978914 0.015478203 -0.0022489827 0.02113902
000180 e5 0a db 3c c2 70 67 bc 32 27 f8 3c e1 b7 d0 bc
       0.026738593 -0.014126005 0.030292127 -0.025478305
000190 28 11 c8 bc 28 7f a7 bc a0 2f e7 bc 4b 3f cd bc
       -0.024422243 -0.020446375 -0.028220952 -0.025054595
0001a0 1a 04 a3 bc 57 72 27 3c 34 9f 75 bc df f3 16 3c
       -0.019899417 0.010220132 -0.01499157 0.009213417
0001b0 25 ca 83 3c 26 1c e0 3c 7c a9 45 bc 32 ef 52 ba
       0.016087601 0.027357172 -0.012064334 -0.0008046507
0001c0 23 47 5d bc 83 63 28 bd d9 1b e7 3c 71 a9 af 37
       -0.01350573 -0.041110527 0.028211521 2.0940528e-05
0001d0 a3 9c 84 bc 4c c2 11 3d 56 2b 3c bb 59 c8 51 3c
       -0.016187971 0.035585687 -0.0028712354 0.012804114
0001e0 79 16 15 3d 45 c3 05 3d 23 11 e9 3b 21 10 03 bc
       0.036398385 0.032656927 0.0071126386 -0.007999451
0001f0 c0 27 8a bc 54 50 fa bb bb b4 7c 3c a6 dc 0c bd
       -0.016864657 -0.0076389704 0.015423949 -0.034390114
000200 9d 47 7e bc 14 fa 93 bc 48 09 f7 3c 98 b2 21 bd
       -0.015520004 -0.018063582 0.030155793 -0.03947696
000210 be ea c4 3c 66 fc b8 3b 31 5c c8 bc c7 2b 96 3b
       0.024037715 0.0056453226 -0.024458023 0.0045828554
000220 d1 81 e4 3b 18 ea d3 bc 47 61 01 bc 17 1c 13 3d
       0.006973483 -0.02586846 -0.007896728 0.03591546
000230 0e 1d 03 3d 5e bc 12 3c 9e 24 e2 3c c4 08 0b bb
       0.03201013 0.008956043 0.027605351 -0.0021214942
000240 f3 ef df 39 de 78 67 bc 53 ef 25 bd 97 65 b0 3c
       0.0004271265 -0.014127938 -0.04051144 0.021532817
000250 d4 0b ef bb 68 7c 24 bc 70 e6 bb 3c 21 7d aa bb
       -0.007295111 -0.010039426 0.02293703 -0.005202905
000260 52 b2 2d bc 46 85 50 bb 96 a4 8c 3b 06 c6 cd 3c
       -0.010601597 -0.0031817718 0.004292081 0.025118839
000270 73 12 e0 b9 42 10 5f 3b 5c fc 81 bc 71 4a c1 bc
       -0.00042738355 0.003403679 -0.015867405 -0.023595067
000280 79 5e 92 3c e4 47 7a 3c 7b db 89 bc e0 fd f2 bb
       0.017867314 0.015275929 -0.01682829 -0.007415518
000290 40 4a ab bc b0 b9 96 3c 58 a0 e4 bb f0 19 33 bc
       -0.020909429 0.01839909 -0.0069771223 -0.010931477
0002a0 10 0d 27 bb c3 6c ba bc 16 8c 45 bc 89 a7 e5 3c
       -0.0025489964 -0.02275694 -0.012057325 0.028033989
0002b0 74 35 41 bc c5 3d 1d bc 37 37 19 bd 6b 52 89 3c
       -0.011792529 -0.009597247 -0.037406173 0.016762933
0002c0 5e 4d 25 bd 9f 08 88 3c 9e 62 32 3d b3 a4 35 bc
       -0.040356986 0.016605673 0.04355108 -0.011086631
0002d0 77 15 e4 3c 5d 95 2e 3b b4 1d 09 3d ee 6b d1 3c
       0.027842266 0.002663932 0.033475593 0.02556416
0002e0 ed 22 14 3d a0 29 0b 3d a1 a1 84 3c 23 a0 d5 bb
       0.03616612 0.033975244 0.016190352 -0.006519334
0002f0 c5 62 b0 3c cf 7b 22 3d bd 42 bc 3c ec 7e 38 bd
       0.021531472 0.039668854 0.022981042 -0.045042917
000300 b8 e8 56 3c aa d2 ff 3c 8f c2 d3 bc 52 3a b4 3c
       0.013117008 0.031228382 -0.025849609 0.022000466
000310 06 19 a7 3c a8 78 e3 3c b3 7f 82 3c 2c 9e 11 bb
       0.020397674 0.027767494 0.015930032 -0.0022219522
000320 8e 98 50 bc f3 b2 2d bd 18 b1 20 3d f6 af d9 bc
       -0.012731684 -0.042406987 0.03923139 -0.026573163
000330 d1 86 b5 bc c6 76 39 3d 8a ad 92 3c 9f a7 0f bd
       -0.022159012 0.045279287 0.017905015 -0.035071965
000340 7f 1b 0f bd 1a 59 e3 3c a7 38 1f 3d 70 49 b5 bc
       -0.03493833 0.027752448 0.038872387 -0.022129744
000350 38 42 e8 bb 61 1f 19 bd 4f 9b 31 3d 02 eb c8 bc
       -0.007087972 -0.03738344 0.043361004 -0.024526123
000360 9b 53 02 3c 91 c9 72 3c 86 87 3a 3c e5 e3 c2 3c
       0.007954503 0.014818565 0.01138485 0.02379031
000370 60 3d 0c 3d d3 a1 9d 3c 0e ef 9e bc 2c 05 45 3c
       0.03423822 0.019242203 -0.0194011 0.012025159
000380 07 04 46 bc a7 b6 d8 3c b4 f1 e0 bc b0 11 bb 3c
       -0.012085921 0.026454283 -0.027459003 0.022835582
000390 3f f0 85 3b 5b cd aa 3c c2 b4 d3 bc b3 de 02 bd
       0.0040874775 0.020849874 -0.025843028 -0.031950664
0003a0 a7 89 1d 3a 35 a5 1f 3d 25 42 3d 3c 25 df 1f bc
       0.00060095865 0.038975913 0.011551415 -0.009757792
0003b0 bc 3b 03 bd dd 43 b7 3a 0d 57 31 bb b3 5c 39 bc
       -0.03203939 0.0013982017 -0.0027059943 -0.011313605
0003c0 67 ad 2a 3d bf f9 19 3d 61 c9 14 3d 40 fb 20 3d
       0.041669276 0.037591692 0.036324862 0.03930211
0003d0 c9 41 5d bc f7 f2 b9 bc c7 0f 27 bb fa 82 14 bc
       -0.013504454 -0.022698862 -0.0025491582 -0.00906443
0003e0 d7 1f 52 bc 15 92 e4 bc b7 eb 1e 3b c8 11 0d bd
       -0.012824974 -0.027901689 0.0024249384 -0.034440786
0003f0 37 c4 ea 3c 63 69 c0 bc 30 f1 09 bc ab bc 16 3d
       0.028658016 -0.023487752 -0.00841932 0.03680102

cnn.9.bias f4 [64]
000000 d8 6d fa 3c 3b 33 f2 bc 41 b0 c9 3c 3c 33 08 3c
       0.030569956 -0.029565444 0.024620177 0.0083129965
000010 6a 1c a6 3c ac bf 25 bd 69 9f 85 39 0c 45 33 3d
       0.02027722 -0.040465996 0.00025486507 0.04376702
000020 68 36 30 3c ba a3 88 bc a4 5c 81 3c b9 85 1b bc
       0.010755159 -0.016679633 0.015791245 -0.009492331
000030 23 06 af 3c 42 9c 99 3c 2a 13 23 3c d1 4e 49 bd
       0.02136523 0.018751267 0.0099533 -0.04914743
000040 29 ae fd bc 2a 14 68 bc 80 0c 00 bd 56 f1 d5 bc
       -0.030966835 -0.014164964 -0.03126192 -0.026116055
000050 7e 10 11 3c 29 a2 2d bd a3 ad 31 bd fe 2b 00 bd
       0.00885403 -0.042390976 -0.043378484 -0.031291954
000060 a5 60 55 3c 8e 07 b1 3b 26 ca f9 bc b2 b3 ae 3c
       0.01302353 0.005402512 -0.0304919 0.02132592
000070 2e be 66 bc d3 ff 09 bd c8 e5 fc bc d0 af e7 bc
       -0.014083428 -0.03369124 -0.030871287 -0.028282076
000080 ae 39 04 bd 15 17 d9 3c 52 45 38 3d 77 c4 84 bb
       -0.03228157 0.026500264 0.044987984 -0.0040517407
000090 51 63 91 3c 6b 8e eb 3a 54 de 92 3c 04 ac 02 bd
       0.017747553 0.0017971521 0.01792828 -0.031902328
0000a0 ec 2c 52 3d b5 5d 49 3c 28 7f 18 bd 7e 86 1c 3d
       0.051312372 0.012290408 -0.03723064 0.0382142
0000b0 e6 ed 12 3d 9f 39 8b bc e5 2c 6f 3c 97 fd b7 bb
       0.03587141 -0.01699525 0.014598106 -0.005614947
0000c0 84 4a 28 bd 79 8f b4 bc 0c 2f cf bc 3c 72 29 bc
       -0.04108669 -0.02204107 -0.025290988 -0.010342177
0000d0 e4 21 a4 bc 18 dd d1 3a 9b 0f 1b 3d 5e 79 d7 3c
       -0.020035692 0.0016011326 0.03785668 0.02630299
0000e0 9a 28 68 bb 3d 15 50 3d 00 5f 85 3b c7 dc 9b 3b
       -0.003542459 0.050801504 0.004070163 0.0047565433
0000f0 98 c8 27 3d 4d c5 dd bc 35 76 d1 3c 84 a3 3b 3c
       0.040962785 -0.02707162 0.02556906 0.011452559
