PythonScripts/dynamic_ssim_multimodel/ffn.onnx (onnx, 338681 bytes, 5 tensors)

linear_relu_stack.0.weight f4 [256, 71]
00000000: aa18 e2bc 6a82 813d 90b3 f53d ccec 06be
00000010: 2663 9d3d 0e04 ee3d d8f8 84bd e0d9 543d
00000020: 1bd7 893c afc8 f23b 3954 873c f795 16bd
00000030: 1d42 5a3d 45d6 afbd ffb6 873d d149 43bd
00000040: 495a 863c 46e1 92bc 6879 c6bc 881a da3c
00000050: a92c 96bd e8fc c8bd d3d3 083d a324 9fbd
00000060: c3de c6bd 7d94 903d d2ce 4cbd b1bb 3dbc
00000070: df09 063d 4177 713d 800d 85bc 2eac d1bd
00000080: 9e30 d63d 9415 1abd 1e3a c5bc 29f2 693d
00000090: c1ca c03a d0a9 3f3d 0830 4bbd 7374 3fbd
000000a0: a4ef 5b3d 030d 5fbd 2121 3fbd d253 3a3d
000000b0: 338a 823d 2e29 f63d 0efe 0cbd 1eda 283d
000000c0: 59e6 983b a8f6 473d 3749 e23d 982f bbbd
000000d0: 7d45 fdbc a6e3 0b3c 2436 d3bd bce6 80bd
000000e0: 6737 d63d e195 fabc 8686 ff3a 86ab cabc
000000f0: 277b 683d 9ef2 3f3c 4b29 fd3d 4ff6 c93d
00000100: afd5 243d 510a a2bd 1c98 80bd 5738 c4bd
00000110: 0e64 923d 337c e1bd ad12 cfbd 1d42 fabd
00000120: d9a6 a4bd 5358 82bd 2b79 32bc 77ea dd3d
00000130: b35a b7bd 4dfd b3bd 99ea b53d 6bbc b7bd
00000140: 3652 1b3c e394 d43c 9df8 ad3d b010 b43c
00000150: d68b a8bd acdb d53d 6ed2 16bd 2862 233d
00000160: 2d28 8cbc 3618 88bd 9055 093d 4855 0e3d
00000170: 00bb d339 914d dcbd 3cd0 d3bc 88e2 8ebd
00000180: cc5a 82bc b9d0 d1bd b0f0 a83b a177 bf3d
00000190: 161f da3d 4424 583d db7a f23d 6969 f43d
000001a0: 7bb2 a0bc 05ee f1bb 43f5 e5bd 8e61 8e3d
000001b0: 766a cabd a090 ea3b 0501 993d e233 d6ba
000001c0: 055c 9dbd 0032 f3bb c56d 7ebd c2ce c5bc
000001d0: 3ebb 51bd bcf3 eebd da8c 61bd b5f1 93bd
000001e0: 2235 b93d aa94 353d 6bdc 47bb d6bb d43c
000001f0: 1511 bb3c 995b a7bb 383d 7fbc 9c43 a7bd
00000200: 803a 8cbb 0869 cf3d ed74 e8bd cd91 7ebd
00000210: 607f 8dbc bbf2 5fbd ba9c e2bd eec6 a63c
00000220: 661f 7a3d 33ed ee3c 1eb2 283d cf4d 643d
00000230: 74ea c83d 19ba c53d d763 d03d fa16 dfbb
00000240: 61da 84bd 71ca bc3d ea8e b6bc 907c 6e3d
00000250: a646 dbbc f557 923a d5e2 053c c52a d5bd
00000260: ee86 bb3c 3983 a43d ec81 2cbd 1b52 bebb
00000270: 2816 82bb 4f55 f6bd 6b9a 433d 2a48 d3bd
00000280: af53 86bd a897 cebc 920e bf3d 28f9 9bbc
00000290: db02 c93d d410 b53d ac7b 6b3d defc aabd
000002a0: e96c 62bc 1902 dd3d bf9c 1e3d 6db1 bebd
000002b0: d38e 103d 9ee4 2c3d 552b 39bd 7411 423d
000002c0: 857e 27bd 2517 a4bd 7177 dabd 1c5b cb3d
000002d0: 0346 e2bd c075 b03d 52a8 093d 0536 52bd
000002e0: 5bfc 913d a07b b73d c8dc 91bd 3b34 c53c
000002f0: d756 d5bd 5771 29bd 1587 e83d 6060 eabd
00000300: 14ef 513d 5411 243d 3490 953d a10e df3c
00000310: 2a30 8cbc 30dc d6bd c96f 8d3d c028 13bd
00000320: 5c37 d83c 2bc5 de3d 0708 4d3c 588b 0abd
00000330: 5c8b 343d 2119 67bd 6368 32bd eb9d d9bd
00000340: 2dc5 6ebd 4e6b b63d cb93 cbbd f8d2 993d
00000350: d6ec 353d 4a27 6a3d 0deb 80bd 027d afbc
00000360: 1ccc 023d 8ed0 94bd d43d 2f3d 5282 1d3d
00000370: 790b 993d 281b 303d c815 b53d 9fbb 98bd
00000380: 72e2 b5bd b095 d4bd 696d cbbd 22c9 c33d
00000390: 2189 18bd fa75 d2bd b781 83bd 4d54 7cbc
000003a0: 3bea 9c3d b828 f1ba 0cbf 2ebd 43a4 f8bd
000003b0: 10d8 ce3b a2fa cfbd 2057 0bbc ddee ee3c
000003c0: 623d e53c 6c9f ce3d 89d4 f8bd 10a4 f7bd
000003d0: a978 acbb a1c9 c0bb 57fa c43d 5002 a63d
000003e0: 8faf 8f3c 155b 73bd 60b9 363d 6074 5f3d
000003f0: 0e8e babd fc1f ab3d 1a8c 9fbc 1df8 a63d
-0.027599651 0.06323703 0.119971395 -0.13176268 0.07684927 0.11621867 -0.06492776 0.051965594
0.016826203 0.0074091773 0.016519653 -0.03676411 0.053285707 -0.085857905 0.066267006 -0.04767782
0.016400473 -0.017929684 -0.024227813 0.02662398 -0.07332737 -0.09813863 0.033405136 -0.0777066
-0.09710457 0.07059572 -0.050001927 -0.011580394 0.032724258 0.05895162 -0.016241789 -0.10237919
0.10458492 -0.037618235 -0.024075564 0.057115708 0.0014708863 0.046792805 -0.049606353 -0.046741914
0.053695336 -0.05445577 -0.046662454 0.045490094 0.06374016 0.12019573 -0.034421973 0.041223638
0.0046661315 0.048819214 0.11049121 -0.09139937 -0.030916924 0.008538162 -0.10313061 -0.06294009
0.10459786 -0.030589046 0.0019495047 -0.024739992 0.056758072 0.011715559 0.12361392 0.09861433
0.040242847 -0.07912124 -0.062790126 -0.095810585 0.0714799 -0.11010017 -0.10110984 -0.12219641
-0.08039636 -0.06364503 -0.0108931465 0.10835736 -0.089528464 -0.08788548 0.088826366 -0.08971485
0.00948005 0.025949901 0.08494685 0.021980613 -0.082297966 0.1044229 -0.036821775 0.03988853
-0.017109001 -0.06645243 0.033528864 0.0347493 0.00040384382 -0.10756982 -0.02585613 -0.06976801
-0.015912436 -0.10244889 0.0051556453 0.09348989 0.106504604 0.05276896 0.11839839 0.11934168
-0.019616356 -0.0073831105 -0.112284206 0.06952201 -0.09883587 0.007158354 0.074708976 -0.0016342367
-0.07683567 -0.007421732 -0.062116403 -0.024146441 -0.05120396 -0.116675824 -0.055065967 -0.07223836
0.090433374 0.04433123 -0.003049637 0.025968473 0.022835294 -0.005107355 -0.0155785605 -0.08167192
-0.0042794347 0.10127455 -0.11350427 -0.062150765 -0.017272651 -0.054674845 -0.110650495 0.020358529
0.0610651 0.02916584 0.04118549 0.055738267 0.098103434 0.09654636 0.10175293 -0.006808159
-0.06486965 0.092183 -0.022284944 0.05822426 -0.026767086 0.0011165129 0.008171757 -0.10408548
0.022891488 0.08032841 -0.04211609 -0.0058081276 -0.0039699264 -0.1202799 0.047754686 -0.103164986
-0.0655893 -0.0252188 0.09328951 -0.019039705 0.09814998 0.088411 0.05749099 -0.08349012
-0.0138199115 0.10791416 0.038723703 -0.09311185 0.035292458 0.042210214 -0.04520734 0.047379926
-0.040892143 -0.08012227 -0.10667313 0.09929487 -0.1104851 0.08616209 0.03360779 -0.05132105
0.07128211 0.089591265 -0.07122189 0.024072757 -0.10416954 -0.041367855 0.1135389 -0.11444163
0.051253393 0.040055588 0.07302895 0.027228655 -0.01711281 -0.10491216 0.06906087 -0.035927534
0.026393585 0.108774506 0.012514121 -0.033824295 0.044078216 -0.05642045 -0.043556582 -0.106258236
-0.05829351 0.089071855 -0.09940299 0.07510942 0.044415317 0.057166375 -0.062948324 -0.021421913
0.031932935 -0.07266341 0.042783573 0.03845436 0.07472891 0.04299465 0.08842045 -0.07457661
-0.08881082 -0.10380113 -0.09932978 0.095598474 -0.03724015 -0.102764085 -0.064212255 -0.015400958
0.076618634 -0.0018398976 -0.042662665 -0.121407054 0.0063123778 -0.10155226 -0.008504659 0.029166633
0.027983371 0.10089001 -0.12149913 -0.12091839 -0.0052634072 -0.005883411 0.09618061 0.0810591
0.017539768 -0.059413034 0.04461038 0.054554343 -0.09109126 0.0835571 -0.019475985 0.081527926

linear_relu_stack.0.bias f4 [256]
00000000: 4ca0 a73c fe50 e1bd 61cb ca3d fa7e 59bd
00000010: b516 cbbd 998c d6bd e343 293d 54ef 8739
00000020: 7a26 87bc c04c 2d3d c516 a0bd c52c 323d
00000030: df58 8ebc ad80 db3d ef46 c0bd c366 253d
00000040: 280c b6bc 2e34 d1bc 3a5c 9abd b846 20bd
00000050: 65fa 033e 4cb0 83bd a2c6 893d f7eb f9bc
00000060: 2dae c73d 5662 3c3d df9a 0b3d 49c6 e3bd
00000070: bafd 95bd 0950 713d e328 9bbc 09b9 af3c
00000080: 727f 2a3d 10fc 3b3c dcc0 9c3d a61a 24bd
00000090: cc40 51bd b4e0 b33d b453 f0bd d28b b13d
000000a0: d6c6 3dbd 6e67 df3c c579 60bd e3a0 69bd
000000b0: 968a f23b df98 1dbc 84e8 4a3d 20b7 be3d
000000c0: ce3d 8ebd b87c 943d eb1f 1d3d d636 c1bd
000000d0: d52b 36bc dd68 babd e705 6dbd 42d8 b43b
000000e0: f89a e5bd 18ab 56bd f1a8 8e3d 6b3b 913b
000000f0: e311 88bd 3940 39bd 10a3 98bd ab91 e53d
00000100: f940 313d d0ce 913d 25da 0a3d ec35 c3bd
00000110: 238b 2c3d 7dac c43c 6567 bebd 3298 28bd
00000120: 12ea ad3b 7068 07bc bfde 80bd 0b63 3b3d
00000130: a083 a1bd 0547 5ebc be18 a8bd 59df c23d
00000140: 4474 463d 694c f83c b0c8 843c eff7 a9bd
00000150: 3768 363c 66ce cb3c d8c9 c3bc ab5b 9d3d
00000160: cd68 23bd 9621 2fbc ada7 8bbd 573b 1dbd
00000170: 8aaf 4cbd c879 873d 30c4 91bc f9dc 103d
00000180: 9561 373d 2c10 4ebd d90f 62bb e036 69bd
00000190: 14e4 7c3b 5e7f a8bd 60dc 5ebb 9136 413d
000001a0: c2eb a33d 9e92 d4bc b60b 87bd cbfd c13c
000001b0: 3cb9 8ebd 47b5 d13d 7422 5fbd 0636 12bc
000001c0: e96c fd3d 6843 70bc 378a a3bd e0f3 49ba
000001d0: a21d 893a f0a3 acbd 46b5 bb3d 2409 a4bc
000001e0: 2c56 28bc 6f42 443d 12d5 ac3d 7b19 893b
000001f0: f41a 1cbd b160 513b b639 6abd 1fb9 21bd
00000200: 6883 233d 30f6 a23d 7f52 90bd fe0f 5cbd
00000210: dc1b 3cbc d327 9fbd e5cc a6bd d9c5 e5bd
00000220: 6ad3 023e f7f0 bc3c 9baa e43d f87d 98bd
00000230: 6cd3 6d3d bfd1 af3c 63ce bcbd 7d5d 10bd
00000240: 176a 9abc 4158 a73d 706a 3b3d 7006 873b
00000250: 7b48 d8bd 8048 7bba 161c 8abd 88e8 013d
00000260: 02b9 24bd d067 413c 1af8 4c3c 053a 21bd
00000270: 3cbf d6bd edcb 24bd 9fff 9cbd 70bd c2bc
00000280: 6384 14bd 8f54 cf3d 8b27 edbd e39c 78bd
00000290: 79c8 91bb d053 a43d 6d43 bbbd fbf0 983c
000002a0: 38ea 513c d324 b63b 7fa5 97bd 7280 f6bc
000002b0: 157a 84bd 481f ddbd 182c b0bc 05d9 873d
000002c0: 7054 49bb c020 c03d dd17 b1bd 3179 83bd
000002d0: 000d 21ba b403 853d cf29 8e3d 30a8 a0bd
000002e0: 43fe b53d 66b1 84bd 3aa5 ce3d ce52 083d
000002f0: e239 523c 7b2f da3d d510 c0bd 0397 bcbd
00000300: 37e2 753d 2d0d e7bd 98ab d0bd aa13 fb3d
00000310: 75a4 cf3d 1fd2 94bc f7c7 52bd 10a7 0e3d
00000320: 5f1d 413d e05d 28bd 7bdc a53d fc22 313d
00000330: f8b6 2a3d e14e 0bbd 0df9 4d3d 1453 483d
00000340: 9833 17bd 4526 0c3d d0fb a6bd 9419 813d
00000350: 8af0 8f3d 1fe1 bbbc 1a2b 673d f505 6a3c
00000360: 5b5b 62bd 28c1 55bd 58eb e5bd ecb2 3fbd
00000370: 43db 91bd eaab f7bd 8c15 56bc c76a bf3d
00000380: 4513 30bd 5507 8bbd c680 90bd acdd 853c
00000390: 22c0 863d 292d e1bd 7781 cd3d b3d2 2b3d
000003a0: ae40 b13d 041b fe3c 81ea 0cbd 5e9e 45bd
000003b0: 06bc 103c 40e9 cb3a 9217 debd b1f7 e3bb
000003c0: d39d e3bd 4dbb 8dbd 93bf b13c 47cd 82bd
000003d0: 5911 8cbd 3e12 0e3c 3fec 2e3d fa60 2c3d
000003e0: 5e24 8dbd 849a 883d 942c efbb 9ac6 cebd
000003f0: 83ed d73d af57 7fbd 14db d7ba 788f 28bd
0.020462178 -0.11001776 0.09902073 -0.05309961 -0.099164404 -0.104760356 0.041324507 0.0002592752
-0.01649784 0.042309523 -0.07816843 0.043499727 -0.017376361 0.10717902 -0.093885295 0.040381204
-0.022222593 -0.025537577 -0.07537122 -0.039129943 0.12888487 -0.0643011 0.06727339 -0.030508025
0.09750018 0.045992218 0.034083243 -0.11121804 -0.07323785 0.058914218 -0.018940395 0.021450536
0.041625448 0.011473671 0.076539725 -0.040064476 -0.051087186 0.08783093 -0.11734715 0.08669247
-0.046332203 0.027270999 -0.05480363 -0.0570382 0.0074017746 -0.009618967 0.04953815 0.09312272
-0.06945382 0.07250351 0.038360517 -0.09434287 -0.011118849 -0.09102032 -0.057866957 0.005518944
-0.112111986 -0.05240926 0.06965817 0.004432132 -0.066440366 -0.045227263 -0.07452977 0.112094246
0.043274853 0.071195245 0.033899445 -0.09531769 0.04212488 0.02400803 -0.09297065 -0.04116077
0.0053074444 -0.008264646 -0.062924854 0.04574875 -0.078864336 -0.013566737 -0.08207844 0.095152564
0.048450723 0.030309873 0.016208977 -0.08299243 0.011133245 0.024878692 -0.023899958 0.076835
-0.039894868 -0.01068916 -0.06819091 -0.03838667 -0.049972095 0.06615025 -0.017793745 0.035366986
0.044770796 -0.05030839 -0.003449431 -0.0569371 0.0038588094 -0.08227418 -0.0034005865 0.04717118
0.080039516 -0.025948819 -0.065940306 0.023680588 -0.069689244 0.10239654 -0.054476216 -0.008924013
0.123742886 -0.014664508 -0.07985347 -0.0007703882 0.0010461102 -0.08429706 0.091654345 -0.02002389
-0.010274451 0.04791492 0.084390774 0.0041839457 -0.038111642 0.0031948502 -0.057183944 -0.039483186
0.03992024 0.07957113 -0.07046985 -0.05372619 -0.011481252 -0.07771268 -0.08144549 -0.11219377
0.1277596 0.02306412 0.11165353 -0.07445902 0.058062956 0.02146232 -0.09219053 -0.035245407
-0.018849416 0.0817113 0.045755804 0.0041206405 -0.105606996 -0.00095856935 -0.06743638 0.0317159
-0.0402155 0.011804536 0.012510324 -0.039361972 -0.10485694 -0.04023354 -0.07665943 -0.023771971
-0.036259066 0.1012355 -0.11579808 -0.060696494 -0.004448947 0.080237985 -0.0914372 0.018669596
0.01281219 0.005558589 -0.07404613 -0.030090544 -0.06468598 -0.10796982 -0.0215054 0.0663319
-0.0030720495 0.093812466 -0.0864713 -0.064196 -0.00061436 0.06494847 0.06941568 -0.07844579
0.08886387 -0.064791486 0.10090108 0.033282094 0.012831183 0.106535874 -0.093782105 -0.09208491
0.06003019 -0.1128181 -0.10188979 0.1225961 0.101387896 -0.0181666 -0.051460233 0.034827292
0.04714715 -0.04110515 0.08098694 0.043246254 0.0416784 -0.03401077 0.05028634 0.048907354
-0.036914438 0.034216184 -0.08153498 0.06303707 0.07028301 -0.022934495 0.05643759 0.014283647
-0.055262905 -0.05218616 -0.11226529 -0.046801493 -0.07121899 -0.12093337 -0.013066661 0.09346538
-0.042987127 -0.06788508 -0.070558116 0.016341053 0.06579615 -0.10994942 0.10034459 0.041948985
0.08654915 0.031018741 -0.034403328 -0.048246734 0.008833891 0.0015557185 -0.108443394 -0.0069570174
-0.11114087 -0.069204904 0.021697795 -0.0638681 -0.06839246 0.008671341 0.04270577 0.04208467
-0.06891702 0.066700965 -0.0072990153 -0.10096474 0.10543349 -0.06233948 -0.0016468489 -0.041152447

linear_relu_stack.3.weight f4 [256, 256]
00000000: 1cbe 8d3c d6df 05bd a870 5b3d d27b 21bd
00000010: da43 9fba 982d 593d 44c1 7abd f263 87bd
00000020: 42cf 06bd 089b e93c 1ad9 263d 0674 3f3d
00000030: a8d5 253d 7032 e03b 9cf0 ff3c dfb5 8bba
00000040: 9ec3 48bd 84a5 2dbd e4b4 64bd 4bcc 2e3d
00000050: 6c32 3c3d 8814 34bd 2694 45bc 40a0 3bbb
00000060: 88c3 783d aea1 4abd 5c95 fa3c 4229 313d
00000070: c65c 193d 1069 cdbb 40c9 523b bc1c 8c3c
00000080: dda1 e7bc 417c 863c de9a ffbc 3241 d2bc
00000090: 9e52 3abd 1d6d 36bd de46 5b3d 77eb 393c
000000a0: 8467 fe3c b2b8 79bd 22ac 2fbd 423c 4c3d
000000b0: c8c0 2fbd 24d4 333d 37c1 2b3c b292 58bd
000000c0: 0020 9bb7 9ec4 9f3b 3ecd 39bd 4c73 673d
000000d0: abba fc3c c351 eb3c e817 bf3c 6c39 fabc
000000e0: 4053 1ebb 5045 cf3b c81e 2cbd ea37 16bc
000000f0: ae74 20bd 8696 24bd 4c08 6d3d 40c2 d7bc
00000100: aa47 ca3c cabe 773d 2a49 87bd 1ee4 5dbd
00000110: f015 d6bb 1250 543d 136e 27bd 0050 14bc
00000120: 1fa4 10bd 2c08 51bd e6fa 4ebd 154b 16bd
00000130: d9be 023d b432 273d 8636 40bd 7a64 0b3d
00000140: 3e61 d63c 20b8 703c 1257 443d 3ca9 673d
00000150: 0441 573d dbeb 67bd 9077 fabb a2ab 6ebd
00000160: 226d 323d dc6b 58bb 36e4 68bb 7ff6 88bd
00000170: 0066 19bd 02de 033d 7c1e 33bd f40a bd3c
00000180: 5e13 e63c 4cfe b0bc de87 253d 2099 263c
00000190: 82ac 5ebd 10d1 f73c 9ae5 2b3d 6c78 fbbc
000001a0: 249c 273d 92d2 f2bc d2d4 19bd 7fd8 1f3c
000001b0: ce3b 7abd 4f86 48bc fbfe 593d a415 903c
000001c0: 4e8b 3cbd 1076 57bc 3230 66bd 8098 b03b
000001d0: 00a0 28bd a039 1ebc cef3 a5bc d8ee 583d
000001e0: 2087 153c 700e 86bd 2e18 57bd 7edd 5f3d
000001f0: b0d8 5fbc 7453 d73c 709a 9a3c f32d 88bd
00000200: 4a68 31bd 4ce4 e13c 08ad b33c 92a0 ab3c
00000210: 1749 59bd c466 9ebc fb47 1dbc 1cf6 c7bc
00000220: ac9a 083d f111 253d d82e 333c 4649 03bd
00000230: c823 903c 6478 003d 8236 763d f41a 093d
00000240: beb5 3d3d dcfa 45bd 67a6 11bd cee8 793d
00000250: 5005 e23c 7c77 50bd 22c2 eb3b 40ff 24bc
00000260: a034 d0bc 865a 7d3d 211b 2e3c 81e6 62bd
00000270: 2c16 39bd aac4 0abd 5c99 81bc d61f 49bd
00000280: a042 a4bc 10f1 993c 6083 f23b c8c6 d73c
00000290: d085 3fbc b63f 543d bc37 48bd c053 4d3c
000002a0: 341a 8dbc 6661 28bd 1242 2d3d 7854 47bc
000002b0: 0420 063d c8d1 103d 6043 ee3b 1500 75bb
000002c0: b061 8b3b e452 0f3d 68e2 5c3d 5470 4cbd
000002d0: 847a e6bc 4eba 603c 690f ca3c 3a3b 74bd
000002e0: 2f2f fd3c 908d 293c 76a0 0ebd 56b2 b7bb
000002f0: 7330 013d 94d3 44bb 94d1 4a3d 5631 103d
00000300: c91e 973c 38e3 7a3d ecf8 58bd 0c85 09bd
00000310: e787 223d 34e0 12bd 2819 053d aa5f 0bbd
00000320: e54a 5b3d e477 fd3c 6905 d63c 70a2 903b
00000330: 2238 57bd 053a 173d cc9c 5cbd da05 103d
00000340: 3002 c33b 97bc 7ebd 5e6b 153d d216 8cbc
00000350: e005 9d3c cb61 88bd 52c6 b1ba 1469 69bd
00000360: a0e2 5b3c 7107 273d 981c 293d c228 0bbd
00000370: 8a40 77bd c06b 77bc a84d 83bd 4ae2 1cbd
00000380: 92c9 123d fad4 ff3a 54bf 623d 394b d8bb
00000390: 530c 8fbc c207 2f3d 1480 1bbd 3367 6bbc
000003a0: e8cf e2bc f32b 14bd 4bd8 723c 3c2e 2c3d
000003b0: d9c7 3f3d 4090 523c 8884 dfbc d81d 383d
000003c0: 95e8 a23c 5656 253d a13c 15bd ecd4 ad3c
000003d0: de92 0e3d 6c0c c1bc 8853 b43c f074 a8bb
000003e0: 0050 9c3c 0e15 21bd 40a4 eeba 1684 273d
000003f0: d251 403c 5139 bf3c 8259 74bc 7937 7b3c
0.017302565 -0.03268417 0.053574234 -0.039424725 -0.0012150959 0.053021997 -0.06121947 -0.0661086
-0.0329125 0.028516307 0.040734388 0.046741508 0.04048696 0.00684195 0.031242661 -0.001065906
-0.04901468 -0.042394176 -0.055836573 0.042675298 0.045946524 -0.043964893 -0.012059247 -0.0028629452
0.060733348 -0.049470596 0.030588798 0.043252237 0.03744199 -0.006268628 0.0032163411 0.017103545
-0.028275425 0.01641667 -0.031201776 -0.025665853 -0.045488946 -0.044537652 0.05353438 0.011347643
0.03105522 -0.060967155 -0.042888768 0.049862154 -0.04290846 0.043903485 0.010483078 -0.052874275
-1.8492341e-05 0.0048757335 -0.04536175 0.05650644 0.030850729 0.02872551 0.02332683 -0.030544959
-0.0024158508 0.0063254014 -0.042021543 -0.009168604 -0.039173774 -0.040182613 0.05786924 -0.026337743
0.024692375 0.060484685 -0.06605752 -0.054172628 -0.006533377 0.051834174 -0.04087646 -0.009052277
-0.035312768 -0.051033184 -0.050532244 -0.036692698 0.031920288 0.04081984 -0.046926998 0.03403137
0.026169416 0.014692336 0.0479346 0.05655788 0.052552238 -0.056621414 -0.0076436475 -0.05826915
0.04356111 -0.0033023274 -0.0035536415 -0.066876404 -0.03745079 0.032194145 -0.043730244 0.023076512
0.028085407 -0.021605633 0.040412776 0.010168344 -0.054363735 0.030251056 0.041967012 -0.03069707
0.04092039 -0.029641423 -0.037556477 0.009756207 -0.06109219 -0.012239053 0.053221684 0.017588444
-0.04603129 -0.013150707 -0.056198306 0.005389273 -0.041168213 -0.009657294 -0.020257857 0.052962154
0.009126455 -0.065457225 -0.052513294 0.05465459 -0.013662502 0.02628491 0.01887247 -0.06649389
-0.04331235 0.02757468 0.021933094 0.02095059 -0.05304822 -0.019336112 -0.009599681 -0.024409346
0.03335063 0.040300313 0.010936461 -0.0320523 0.017595187 0.031364813 0.060110576 0.03347297
0.0463159 -0.04833494 -0.035559084 0.061013035 0.027590424 -0.0508952 0.0071947733 -0.010070622
-0.025415719 0.061853908 0.010626585 -0.055395607 -0.04518716 -0.03387896 -0.015820198 -0.049102627
-0.0200513 0.018791705 0.007400915 0.026339903 -0.011689618 0.051818572 -0.048881277 0.012532175
-0.017224409 -0.04110851 0.042299338 -0.012166135 0.032745376 0.035356313 0.0072712153 -0.0037384082
0.0042535886 0.03499116 0.053926855 -0.049911812 -0.028134592 0.0137162935 0.024665551 -0.059626795
0.030906288 0.010348693 -0.034820996 -0.005605976 0.031540345 -0.0030033337 0.049516276 0.0352033
0.018447297 0.06125185 -0.052971765 -0.03357415 0.039680388 -0.035858348 0.032494694 -0.03402678
0.053538222 0.030940957 0.026125627 0.0044138953 -0.052543767 0.036920566 -0.05386047 0.03516183
0.0059511885 -0.062191572 0.036479346 -0.017100725 0.01916784 -0.066592775 -0.0013563132 -0.056984976
0.013420731 0.04077858 0.041287035 -0.033974417 -0.060364284 -0.015101373 -0.06411296 -0.038301744
0.035836764 0.0019518428 0.055358246 -0.006600764 -0.017461931 0.042732008 -0.03796394 -0.014367866
-0.027687028 -0.036174726 0.014822076 0.04203628 0.04682145 0.012851775 -0.027284876 0.044950336
0.019886294 0.04036554 -0.036434773 0.021219693 0.034808032 -0.023565494 0.022012487 -0.005140893
0.019081116 -0.03932672 -0.0018206909 0.04089745 0.0117382575 0.02334276 -0.014913918 0.01533305

linear_relu_stack.3.bias f4 [256]
00000000: fb99 eebc 7893 1e3d 60fd ca3b bd5c 3f3d
00000010: f989 133d 33ae 26bd 87cc c03c 0777 7d3d
00000020: d670 0ebd 96f9 a9bc bbc1 1f3d 8a7c 5bbd
00000030: 3d6b e83c f276 5bbc fda7 aa3c 1f88 f73b
00000040: 7196 3dbb 3e18 77bd 8fb8 8a3a 0511 283c
00000050: 697d ab3c 0ea5 1f3d c916 803d ac3b f0bc
00000060: 8e1c 1e3d 38d2 9a3c 9451 de3b 10a8 6ebd
00000070: ea76 523d 112a 58bd a06a 69bd 7ca9 0fbd
00000080: 9a08 a3bc 8a79 27bd f608 a3bc c123 0b3d
00000090: f52d 22bd e5c4 d3b9 f60f 89bd 05da d23c
000000a0: 9e67 813b ab12 4d3c 2786 953d 9f3a 4fbd
000000b0: c85a 9cb8 9893 11bc 78d8 c9bc e0ed 213d
000000c0: 0b2e 2fbc f45f c8bc 80c8 e93b 5678 33bd
000000d0: dae3 903d 05b1 403d 14f6 343d 475e 63bd
000000e0: 4694 30bd cbd8 133c 1f99 c43c 7533 f63b
000000f0: 183e 80bc 2dd0 3cbd bcdf a4bc e47f 1fbd
00000100: 5afc 7fbd cefd 53bd 02cc 553d de8b 81ba
00000110: 5f84 31bd 7cd3 993d 9f64 2ebd 3b6c 1d3d
00000120: c69c cbbc 4e96 8cbb da93 5ebd 2b45 57bc
00000130: a82c 3fbd 7f0c 79bd 4742 643c 8009 2fbd
00000140: ef66 47bd d873 c2bc 7b5e 48bc b7bc 563d
00000150: 2c7a ee3c d2d6 1cbd 9129 303d 1ef4 38bd
00000160: b2d8 dd3c 583d aabc b3e5 b2b9 4c63 52bd
00000170: 36bf 9dbc a9b3 683d 615e 3f3c cbe2 68bc
00000180: 5997 00bd c2ea 8f3d ed8a f0bc 3c68 cfbc
00000190: 7be3 5e3c 0094 933a cdaa a73c 6032 2bbd
000001a0: d8b0 173d a6b7 233d eb7f 643d d98a 1d3c
000001b0: c270 0fbd a32b 063d 2653 863d 2eae 063d
000001c0: b0a9 543a 5626 343d a648 1bbd d7e8 44bd
000001d0: da16 533d 0b1c c93c 01a3 08bd b6ca 053d
000001e0: 1cd7 66bd 8693 a0bb 1283 65bb b865 86bd
000001f0: 81e4 42bc 424b d73b 18fc 6b3d c0a5 7e3d
00000200: 8319 123d 145b 54bd ad54 023b 9aa6 883c
00000210: 19a2 3dbc ae8c 613c 5d09 c1bb 61be 53ba
00000220: 6d3c 2e3d 607b 73bd ad4b 923d 40db 5ebb
00000230: 7ad1 58bd 4fe3 22bd 5c9d 5c3d 438c ecbc
00000240: 9e5c f23c a76d 863d 240b e4bc c630 d2ba
00000250: abd5 a7bc 9018 543c da78 333d 42e7 aa3b
00000260: ced3 143d 6fd0 9e3d 1f5a 773d 7a22 37bd
00000270: d659 dfbc ada9 e6bb 931f 4cbd f241 dabc
00000280: 346f 493c 5f50 0fbd c029 fe3c 38eb 65bc
00000290: 9e1d 353d 07a8 c5bc a101 42bd f267 ef3c
000002a0: 50ac 723b e910 c9bc 466a 51bd 0ab0 65bc
000002b0: d116 c63c 3d2d 183d 3f2a 83bc 6d0d 803d
000002c0: c036 56bd f580 183d 2839 433d 1bd9 943d
000002d0: 447a 0a3b ffd4 7bbb 0554 d8bc 4a3b c13c
000002e0: 6d08 963d b853 4d3d 8954 4abc 6e21 0f3c
000002f0: 7b8c 46bd 24e8 ccbc 2ce1 533c 11c7 08bd
00000300: 3475 56bd 07c4 433c c0a4 87bd f2eb af3c
00000310: cae4 563d d832 cf3c d2c7 8b3b e1eb a3bb
00000320: 3ea2 d6bb d271 963c 976a b1bc 17f3 013d
00000330: 1392 1a3d ed9e 333d 19c2 283d f82c 1a3d
00000340: 3660 433d fe3a 51bc 6e46 68bc a6de 593d
00000350: 2733 593d b230 6dbc 847b 97bc 4caf 8d3b
00000360: 6813 f83c 769f 8e3d c422 683d e4bf 113d
00000370: 93cf 59bc d4f5 b23c 3cbe 6a3c d3f1 cf3c
00000380: 2bbf c5bb 626c 3cbd a2e0 033c 9c20 843d
00000390: 3db6 843d fb10 43bc bcc1 7ebd a14a 7a3d
000003a0: 81b6 423d 86d5 513d f42d f93c 3d8c 093d
000003b0: 54fe cabc dd17 0a3d 1880 47bd b33b 453d
000003c0: 9e3f 333d 98f4 4a3c da17 5dbd 7032 19bd
000003d0: 903f 843b 4970 a0bc e117 7a3c 3abc 2b3c
000003e0: 201c a8bc 9e95 81bc 72a6 3d3d 3b1e f0bc
000003f0: 9a96 09bd 2003 16bc 36e2 f83c 4700 a5bc
-0.029126158 0.038714856 0.0061947554 0.0467193 0.036020253 -0.040693473 0.023535026 0.06188109
-0.034775577 -0.020748895 0.039003115 -0.053585567 0.028371448 -0.013395058 0.020832056 0.0075540687
-0.0028928781 -0.060325854 0.0010583567 0.010257964 0.020933824 0.038975768 0.06254346 -0.029325329
0.03860145 0.018899068 0.006784627 -0.058265746 0.051382937 -0.052774493 -0.05698645 -0.035073742
-0.019901562 -0.040887393 -0.019901734 0.033969644 -0.03959461 -0.00040391754 -0.066924974 0.025738725
0.0039491197 0.012516658 0.07300978 -0.050593015 -7.455569e-05 -0.008885287 -0.024639353 0.039533496
-0.01069213 -0.024459817 0.007134497 -0.043815933 0.07074709 0.04704382 0.04417999 -0.05550983
-0.043110155 0.009023855 0.023998795 0.0075134584 -0.015654609 -0.04609697 -0.020126216 -0.038940325
-0.06249652 -0.05175572 0.05219651 -0.0009883603 -0.04333913 0.075110406 -0.04257643 0.038433295
-0.024855029 -0.0042903787 -0.05434022 -0.0131390495 -0.046673447 -0.060802933 0.013931817 -0.04273367
-0.04868215 -0.02373688 -0.012229557 0.052426066 0.02911099 -0.038290806 0.04300839 -0.045154683
0.027080867 -0.020781204 -0.00034121945 -0.051364228 -0.019256216 0.056811962 0.0116802165 -0.014214228
-0.031394336 0.070271984 -0.02936312 -0.025318258 0.01360404 0.0011259317 0.020467186 -0.04179609
0.037033886 0.039970063 0.055786055 0.009615623 -0.035019644 0.03275646 0.06558828 0.032880954
0.00081124436 0.043981872 -0.03791108 -0.048073616 0.051535465 0.024549505 -0.033358578 0.032664023
-0.056357488 -0.0049003987 -0.003502075 -0.0656237 -0.0118953 0.0065702507 0.057613462 0.06216979
0.03566886 -0.05184467 0.0019886896 0.016681004 -0.011574292 0.013766451 -0.005891009 -0.000807738
0.042538095 -0.05944383 0.0714334 -0.0034005195 -0.052934147 -0.03976756 0.053861007 -0.028875476
0.029585179 0.06563883 -0.027837344 -0.0016036264 -0.020487627 0.012945309 0.043816425 0.0052155564
0.036334805 0.07754599 0.06038868 -0.044710614 -0.027264517 -0.00703927 -0.0498348 -0.026642773
0.012294579 -0.034988757 0.031025767 -0.014033131 0.0442177 -0.024127973 -0.047364835 0.02922437
0.0037028976 -0.024544196 -0.05112674 -0.014019022 0.024180802 0.037152518 -0.016011355 0.06252561
-0.052298307 0.037232358 0.04766193 0.07267972 0.0021130005 -0.0038426516 -0.026407251 0.023587842
0.07325826 0.05012867 -0.012349256 0.008735998 -0.048473816 -0.025013037 0.012932103 -0.03339297
-0.052357867 0.011948592 -0.066232204 0.021474812 0.052464284 0.025292799 0.004265764 -0.005002484
-0.0065501025 0.01836482 -0.021657271 0.03172597 0.037736963 0.043852735 0.04120073 0.03764054
0.047699176 -0.0127704125 -0.014176948 0.05319085 0.0530273 -0.014476942 -0.018491514 0.0043238755
0.030282691 0.069640085 0.05667378 0.03558339 -0.013294118 0.021845736 0.014327582 0.025383865
-0.006034752 -0.0460018 0.008049162 0.06451532 0.06480072 -0.011905904 -0.06219648 0.061106328
0.04753733 0.051229022 0.03041742 0.033581007 -0.024779476 0.033714164 -0.048706144 0.048152637
0.043761842 0.012387417 -0.053977825 -0.037401617 0.0040358976 -0.019584792 0.015264482 0.010481888
-0.020521224 -0.015818413 0.046301313 -0.02931129 -0.03359089 -0.0091560185 0.030381303 -0.020141734

linear_relu_stack.6.weight f4 [1, 256]
00000000: 3eaa 7abb 34e0 bf3c a838 55bc d062 33bd
00000010: 21a5 433d fb81 b63b 28b4 e2ba 7c2a 2b3d
00000020: a448 30bd 07a1 e23c c5cf 1fbc d058 983b
00000030: 2466 e3bc 5cd6 7c3d 6bf8 ab3c 9e39 883d
00000040: aee8 84bb 6ce1 f5bc edcb 063d c48d f8bc
00000050: 8ba0 34bd f333 583d 0ac9 503d 84c5 de3c
00000060: db33 963c 403a cabb 23d0 7c3c 7958 07bd
00000070: 6c0e 3a3d 013d 823b 506d e33b e9d8 51bd
00000080: 6f61 20bd 281e af3c 4874 1dbd 28b1 b5bc
00000090: 7cc6 0a3d 2c12 bb3c 68c3 23bd 132b 1fbc
000000a0: 40f8 00bd 4e71 643c d85b db3c 9ced 1abd
000000b0: 89ce 843c fa72 7dbc aaaf 51bd 057e 15bc
000000c0: bcd6 823c fe45 883c 3efb a8bc 4593 903b
000000d0: 96f9 7f3d 710f 253d 88fd ddbc 4c81 473d
000000e0: da01 173d cff6 45bd 9684 023d 6cfd fdbc
000000f0: b0af 09bd a302 38bc 710e b73c 98de 313d
00000100: 628d 023d 9e50 f0bc f3c9 f93c fe72 5ebd
00000110: b48d 673d 29a9 813d 2d61 0abd a5c4 2a3d
00000120: f885 133d 733f 6f3d 1498 5d3d fe9f 873d
00000130: 5a0d 44bd 60e0 e8bc b833 4fbd 4a9b 273d
00000140: bf53 1cbc 0526 3d3d fb66 443a 4e40 523c
00000150: 846b 7b3d 1c3d abbb 97b2 95bc 2feb 5c3d
00000160: 06f4 893d 5051 fa3b 5337 2dbd 96d9 30bc
00000170: b91d 653d 799b 833d 895c 093c d470 5abd
00000180: 04d9 103d 41e2 673d 67dc 44bc 78f7 dabc
00000190: 8478 5bbd 60d0 68bc f794 5dbd 4793 f9bc
000001a0: b444 04bd b5ce cd3c c8fe 663d c3b7 a4bb
000001b0: ae5e 7b3d 358a b3bc a5d5 ba3c 1b36 48ba
000001c0: 5149 1dbd 4198 313b 1fdd b9bc 9f16 67bd
000001d0: 3c2e cb3c f34d 713a a893 4d3d ff26 5c3d
000001e0: acc4 323d 95c5 2d3d 06c7 d3bc cdd2 2fbd
000001f0: 0fec 0d3c 7198 8cbc 3215 533d 2aeb 873d
00000200: e1c1 e8bc 0416 1cbd c616 863c d01e 19bd
00000210: 009f 273c 9161 debc 5ecb f23b 4624 4c3b
00000220: 0a4b 8c3c 2a0a 5a3d 4e6a 513d 6e37 27bd
00000230: dd3a 183d 1cf0 aab8 ee1f e43b ffde 2fbd
00000240: 5ff5 353d 8171 0f3d 5a0c 7ebd 6f81 f33c
00000250: c203 08bd 40e1 993a c409 e93c 75b4 10bd
00000260: 8c8a bb3c 0a42 693d 5c68 243d 1af4 45bd
00000270: fdee 6dbd 7077 883c b2d1 75bb 325b 2b3d
00000280: 1e81 d8bc 37ea bb3c 97be 163d 881f c0bc
00000290: 968a afbc ce78 33bd eef9 3aba 694d e53b
000002a0: d06b 88bc 778e 353b 68ba f53c 1fb6 343d
000002b0: 6baa 423d 70e2 123d 6754 a1bc 82a4 933c
000002c0: 16be 773d 85b1 46bd 0589 4abd fb93 213c
000002d0: e433 673b f6c3 d2bc f597 cb3b 72c2 1abd
000002e0: 5af1 d03c f28c 673d 1248 9fbc 76d3 ddbc
000002f0: b0be 503d 8329 db3c dac4 92bc ada4 59bd
00000300: de08 25bd f994 253d fb96 64bd ae75 2fbd
00000310: 8791 9c3c ebdf 7dbc 5d69 9f3c 58ab afbb
00000320: 0c6b 41bd 0a97 4ebd 1962 f23c 32fd a3bc
00000330: cd68 1bbb 0e3b 063d 9393 15bd 9133 503c
00000340: e378 7d3c ef72 0f3d 81db 4ebd 8307 853b
00000350: c9b2 f83c e193 193d 98a1 b83b 9e0d 00bd
00000360: 8a19 64ba e7ce 2e3d c451 a73c 4902 3fbc
00000370: 5fe5 e2bc dc51 4d3d 4bcd 21bd 4529 edbc
00000380: ff9f 81bc a562 d1bc db70 7c3d dfa6 9d3c
00000390: c742 2b3d ac9a a03c 8384 abbc 0712 b73c
000003a0: 4f5e cabb 6757 8b3d bc5e 883d 200e 94bc
000003b0: 803a dd3c 92e2 2bbc 4166 8a3c 53cc 10bd
000003c0: a19e c53c f017 b53c a2ab 3c3d 522b 8b3c
000003d0: 85ea 9dbb 726d aebc ace1 5b37 529a fd3c
000003e0: 951a 64bd 365b cdbc e4c2 09bd b59e 933c
000003f0: 8945 743c 4fbe 543c 53d9 56bd 3b99 643d
-0.0038248445 0.023422338 -0.013013996 -0.043795407 0.0477649 0.005569694 -0.0017296122 0.041788563
-0.043038025 0.027664674 -0.009754126 0.004649259 -0.027758665 0.061727867 0.020992478 0.066516146
-0.004056058 -0.030014716 0.032909323 -0.030341037 -0.04409842 0.052783918 0.050972976 0.027193792
0.018335273 -0.0061714947 0.015430483 -0.03304336 0.04542391 0.0039745574 0.0069405213 -0.051232252
-0.03915542 0.021376684 -0.038440973 -0.022179201 0.033880696 0.022835813 -0.039981276 -0.00971486
-0.03148675 0.01394303 0.026777193 -0.03782426 0.016211765 -0.015469307 -0.051192917 -0.009124284
0.015971534 0.016634937 -0.020627614 0.004412087 0.062493883 0.04029793 -0.027098432 0.04870729
0.036867 -0.04833108 0.031864725 -0.03100463 -0.033614814 -0.011231097 0.022345753 0.043425173
0.031873114 -0.029335316 0.030491805 -0.054308884 0.056531623 0.06331093 -0.03378408 0.04169144
0.036016434 0.05841012 0.05410011 0.06622313 -0.047864296 -0.028427303 -0.050586432 0.04091958
-0.009541451 0.046178836 0.0007492152 0.012832714 0.06138183 -0.0052257907 -0.018273635 0.053935226
0.06735997 0.0076390877 -0.04228909 -0.010794064 0.05593655 0.064261384 0.0083838785 -0.053330258
0.035363212 0.056612257 -0.012015439 -0.02672933 -0.05358173 -0.014209837 -0.054097142 -0.030465735
-0.032292083 0.02512298 0.056395322 -0.005026789 0.06136959 -0.021916488 0.022806952 -0.0007637457
-0.038399998 0.0027098807 -0.022688447 -0.056418058 0.02480232 0.0009205036 0.050189644 0.053748127
0.043644592 0.042424757 -0.025851738 -0.042925645 0.008662238 -0.017162533 0.051533885 0.06636651
-0.028412761 -0.038106933 0.016368281 -0.0373829 0.01023078 -0.027146133 0.007409497 0.003114955
0.017125625 0.05323235 0.05112677 -0.040824346 0.03716551 -8.1509555e-05 0.006961814 -0.042937275
0.044423457 0.035020355 -0.062023498 0.029724805 -0.03320671 0.0011740103 0.02844704 -0.035328347
0.022893213 0.056947745 0.040138587 -0.048328497 -0.058089245 0.016658515 -0.0037509021 0.041835018
-0.026428755 0.02293883 0.036802854 -0.023452535 -0.021428388 -0.04381638 -0.00071325793 0.0069977534
-0.016652972 0.0027703324 0.029996112 0.044118997 0.047525804 0.03586048 -0.019693566 0.01802278
0.060484014 -0.04850914 -0.04944708 0.009861941 0.0035278732 -0.025728207 0.006213183 -0.037783094
0.02550571 0.0565309 -0.019443545 -0.027078371 0.050963104 0.026753193 -0.017916132 -0.053135563
-0.04029166 0.040425275 -0.05580805 -0.042836837 0.019112362 -0.015495281 0.01945942 -0.005361002
-0.04722123 -0.05043701 0.029587792 -0.020018194 -0.002371359 0.032771163 -0.03651769 0.012707607
0.015470716 0.03502172 -0.050502304 0.0040597334 0.030358689 0.037494544 0.005634498 -0.031262986
-0.00087013154 0.042677786 0.020424731 -0.01165826 -0.027697263 0.050126895 -0.039502423 -0.028950343
-0.015823362 -0.025559733 0.061631065 0.01924461 0.04181173 0.019605003 -0.02093721 0.022347463
-0.0061757932 0.0680378 0.06658694 -0.018073142 0.027005434 -0.01049103 0.016894462 -0.03535111
0.024123492 0.02210614 0.04606212 0.01698843 -0.0048192167 -0.021292422 1.31059605e-05 0.030957375
-0.055689413 -0.025067907 -0.033633128 0.018020013 0.014909157 0.012984826 -0.05245335 0.055810194
