PythonScripts/dynamic_ssim_multimodel/model.onnx (onnx, 274171 bytes, 6 tensors)

linear_relu_stack.0.weight f4 [256, 7]
0	0x3c758687	0.014985687
1	0xbf120c31	-0.5704985
2	0xbea36f8c	-0.3192104
3	0x3e216e30	0.1576469
4	0x3b989ba1	0.0046572243
5	0x3e8c94cf	0.27457282
6	0xbe54f175	-0.20795234
7	0xbe55f4d3	-0.20894174
8	0xbe82028d	-0.2539257
9	0xbe31c774	-0.17361242
10	0x3ded0d90	0.115748525
11	0xbd98bfea	-0.0745848
12	0x3e58ac92	0.2115958
13	0xbd54da2b	-0.051965874
14	0x3e99c4ac	0.3003286
15	0xbe25a6d0	-0.16176915
16	0x3da0ad4d	0.078455545
17	0xbe459a91	-0.19297244
18	0x3de7ab89	0.113120146
19	0xbc2bc9f4	-0.010485161
20	0xbee741ae	-0.45167297
21	0xbe8fbe6d	-0.2807497
22	0xbea651da	-0.32484323
23	0xbe1b01d3	-0.15137415
24	0x3e3f5da4	0.18688065
25	0xbea18442	-0.31546217
26	0xbc4570da	-0.012050832
27	0x3e798ee0	0.24370909
28	0x3e563359	0.20918025
29	0x3de9c097	0.11413687
30	0x3d311cf5	0.043240506
31	0xbe9945d3	-0.29936084
32	0xbe33502a	-0.17511049
33	0x3d26f704	0.040762916
34	0x3ee1bef5	0.44091
35	0xbdfec6e3	-0.124402784
36	0x3df833c9	0.12119252
37	0x3c42ffcc	0.011901807
38	0xbd938493	-0.07203021
39	0xbecf1b9d	-0.40450755
40	0x3d7ce7f8	0.06174466
41	0x3ead8df3	0.3389736
42	0x3e767476	0.24067864
43	0x3e925149	0.2857764
44	0x3dc0476f	0.09388625
45	0xbe995ade	-0.2995214
46	0xbe831ce9	-0.25607994
47	0xbe3310a4	-0.17486817
48	0x3f041ae5	0.5160354
49	0x3d5f44bd	0.054508913
50	0xbddfefa3	-0.10934379
51	0x3e12d9e2	0.14340928
52	0x3e5ce7f7	0.21572863
53	0xbe189754	-0.14901477
54	0xbe587ad7	-0.2114061
55	0x3d90c755	0.070692696
56	0x3ec67925	0.387643
57	0x3d39f641	0.04540086
58	0xbe258ae4	-0.16166264
59	0xbec22879	-0.37921503
60	0xbce7a7f4	-0.028278328
61	0x3e1f1e67	0.15538941
62	0x3b29b8f6	0.0025897599
63	0xbdc8b409	-0.09799964
64	0xbe0f62af	-0.14002489
65	0xbde70f46	-0.1128221
66	0x3dcc58ca	0.09977873
67	0xbef678c0	-0.48139
68	0x3d826e7d	0.0636873
69	0x3eb03164	0.34412682
70	0x3eb5f893	0.3554121
71	0xbe9b48b1	-0.30328897
72	0x3d4b0924	0.049569264
73	0xbe1fea5b	-0.15616743
74	0xbd1fae47	-0.038984563
75	0x3ea9fe2f	0.3320174
76	0xbeefa771	-0.46807435
77	0x3c96aff1	0.018394442
78	0xbeeb212c	-0.45923746
79	0x3e4bbe93	0.19896917
80	0xbe4a228d	-0.19739743
81	0x3e66c55d	0.22536226
82	0x3c963df8	0.018340096
83	0x3eab2539	0.33426836
84	0xbc588e8c	-0.01321758
85	0xbd5d14de	-0.05397498
86	0xbd1392ec	-0.036028787
87	0x3e3b63fa	0.18299857
88	0x3e237530	0.15962672
89	0x3e344db2	0.17607763
90	0xbd69a176	-0.057038747
91	0xbe80ff9c	-0.25195014
92	0xbe544be6	-0.20732078
93	0x3e20e72c	0.15713185
94	0x3e738e83	0.23784833
95	0xbdc86d0a	-0.097864226
96	0x3db8210d	0.08990679
97	0xbcc76299	-0.024339007
98	0x3dc5f11b	0.09665128
99	0x3ea47b77	0.32125446
100	0xbda69112	-0.08133139
101	0xbe26c205	-0.1628495
102	0xbe5e91f8	-0.2173537
103	0x3d3d8447	0.046268728
104	0x3efede18	0.4977882
105	0x3ce4a0f8	0.027908787
106	0x3dc076f6	0.0939769
107	0x3e72b988	0.23703587
108	0xbce90bbb	-0.028447976
109	0xbe15f347	-0.14643584
110	0xbe6d1473	-0.23152332
111	0x3e026e44	0.12737375
112	0x3e7be40b	0.2459871
113	0xbeb2f123	-0.34949598
114	0xbe91c3f2	-0.28469807
115	0x3dd101ed	0.102054454
116	0xbeb77430	-0.35830832
117	0x3ec14783	0.37749872
118	0x3eb1a858	0.3469875
119	0xbd05f4a1	-0.032704
120	0xbe840405	-0.25784317
121	0x3c47d9cf	0.012197926
122	0x3e49059e	0.19631049
123	0x3e33c7f9	0.17556752
124	0x3e8cd3fd	0.27505484
125	0xbea64e39	-0.32481554
126	0x3e37279a	0.178862
127	0xbe8acfec	-0.27111757
128	0xbe8faeb4	-0.28062975
129	0x3dce7f27	0.10082846
130	0xbcd21a49	-0.0256473
131	0xbd1608d6	-0.03662952
132	0xbe4f7a65	-0.20261534
133	0x3e426253	0.1898282
134	0xbdcfdb55	-0.10149256
135	0xbcb7f77f	-0.022456883
136	0xbcc847fe	-0.024448391
137	0x3a312b42	0.000675846
138	0x3ea5b608	0.3236544
139	0xbf00ada6	-0.50264966
140	0x3cbfacf4	0.0233979
141	0x3cf57bf6	0.029966336
142	0xbdeb4c49	-0.114891596
143	0xbd906185	-0.070498504
144	0xbea96371	-0.3308368
145	0x3dde3685	0.108502425
146	0xbdc40ed6	-0.09573142
147	0x3e31a1a7	0.17346822
148	0xbdc2230b	-0.0947934
149	0x3e79a491	0.24379183
150	0xbb42f723	-0.0029749356
151	0x3d09a03c	0.033600077
152	0x3d586c03	0.052837383
153	0xbe8e7db7	-0.27830288
154	0x3e267c28	0.162583
155	0x3d306e86	0.043074153
156	0xbe80f268	-0.2518494
157	0xbcdce038	-0.026962385
158	0xbeed2696	-0.463185
159	0x3e8b0de5	0.27159038
160	0xbe860705	-0.2617723
161	0xbc19f273	-0.009396183
162	0x3e492051	0.19641234
163	0x3e737109	0.23773588
164	0xbd2edb90	-0.04268986
165	0x3e8a061f	0.26957795
166	0xbe4e8a2c	-0.20169896
167	0xbe8745fa	-0.26420575
168	0x3d2abfc2	0.04168678
169	0x3e944e15	0.28965822
170	0xbd524580	-0.05133581
171	0xbcf3cecb	-0.029761693
172	0x3c2f42c1	0.010697068
173	0xbcbca007	-0.023025526
174	0xbed64076	-0.41846055
175	0x3e5e5cf9	0.21715154
176	0xbe811d6e	-0.25217766
177	0x3de70d55	0.1128184
178	0x3e1e012e	0.15430138
179	0xbda2b369	-0.07944376
180	0xbd8acf80	-0.06777859
181	0x3e8c2e45	0.2737905
182	0xbcf7dd59	-0.030256914
183	0x3e466969	0.19376148
184	0x3d023b60	0.031794906
185	0xbca9ed64	-0.02074308
186	0xbe8b6591	-0.27225927
187	0x3e0e343b	0.13887112
188	0xbdbdca33	-0.09267082
189	0x3db633aa	0.08896573
190	0x3da95c49	0.08269555
191	0x3e0cac6a	0.13737646
192	0xbd2facbb	-0.042889338
193	0xbeb6af72	-0.3568073
194	0xbdba90c7	-0.09109645
195	0xbe20ad39	-0.15691079
196	0xbe314f0c	-0.1731531
197	0x3db53867	0.088486485
198	0x3dfde1bd	0.12396572
199	0x3e1a4084	0.15063673
200	0x3d6b93bc	0.057513937
201	0xbe093e9d	-0.13402791
202	0xbe78d660	-0.24300528
203	0x3d0327b6	0.032020293
204	0xbef7b614	-0.48381102
205	0x3e97a852	0.29620606
206	0xbc17de09	-0.009269246
207	0x3ccdb9c4	0.025112994
208	0xbe922968	-0.28547215
209	0xbc902741	-0.017596843
210	0xbdcc48f8	-0.09974855
211	0xbe9f2bb1	-0.3108802
212	0x3d810a6a	0.063008144
213	0x3d9ec4e0	0.07752395
214	0x3d1ed7f8	0.038780183
215	0xbd350e02	-0.044202812
216	0xbd7ef765	-0.062247653
217	0xbe171e46	-0.14757642
218	0xbe5217b1	-0.2051685
219	0xbe8cb8f5	-0.2748486
220	0x3eb8d338	0.36098647
221	0x3d914a5a	0.070942596
222	0x3e0db9ab	0.13840358
223	0xbeee7f8a	-0.4658168
224	0x3e0f9b2b	0.14024036
225	0xbe90b91a	-0.2826622
226	0xbe447b3f	-0.1918764
227	0xbe143267	-0.14472352
228	0xbde20b66	-0.1103733
229	0x3e1c79f1	0.15280892
230	0x3d9f2b2f	0.077719085
231	0x3e433e3e	0.19066712
232	0xbec760c1	-0.38941005
233	0x3e1906b1	0.14943959
234	0xbe140c1e	-0.14457747
235	0xbcd1484b	-0.025547167
236	0xbe2a6d65	-0.16643293
237	0x3d547875	0.05187269
238	0xbdea38f0	-0.11436641
239	0x3cd485e4	0.02594275
240	0x3dedfc36	0.11620371
241	0x3e231078	0.15924251
242	0xbe5e3075	-0.21698172
243	0xbe2060f7	-0.15661989
244	0x3d5ac6d7	0.053412285
245	0x3ce6153e	0.028086301
246	0xbe33654e	-0.17519113
247	0xbd1d4512	-0.03839595
248	0x3d2ff1c8	0.04295519
249	0xbe16f21b	-0.14740793
250	0x3e87edd7	0.26548645
251	0x3dc6a38d	0.096991636
252	0xbcecd3c0	-0.028909564
253	0xbe1cd374	-0.15315038
254	0x3e59be08	0.21263897
255	0x3bc57da2	0.0060269395

linear_relu_stack.0.bias f4 [256]
0	0x3b8ec0ec	0.004356494
1	0x3f049a7f	0.5179824
2	0x3ee54a47	0.44783232
3	0x3ea0d51c	0.3141259
4	0x3ea2b356	0.31777447
5	0xbec937c5	-0.3930036
6	0xbd02aec2	-0.031904943
7	0x3e67003f	0.22558688
8	0xbd1ebc57	-0.038753834
9	0x3d4d572f	0.050131973
10	0x3ea7615b	0.32691464
11	0x3e1927db	0.1495661
12	0x3d98f7df	0.07469153
13	0xbeee335d	-0.46523562
14	0xbe074865	-0.1321121
15	0xbeb23900	-0.34809113
16	0xbe4c3219	-0.19940986
17	0xbe81adb1	-0.2532783
18	0xbe8007e7	-0.2500603
19	0x3d882e04	0.06649402
20	0x3d096f30	0.033553302
21	0xbecde7d5	-0.40215936
22	0x3e267bd2	0.16258171
23	0xbe952b4d	-0.29134598
24	0x3ecdb2dd	0.40175524
25	0xbeebb54f	-0.46036765
26	0x3e87658e	0.26444668
27	0xbd6c3104	-0.057663932
28	0xbd86d7d3	-0.06584134
29	0x3e83880f	0.25689742
30	0x3e2b9c6a	0.16758886
31	0x3e8dab30	0.27669668
32	0x3def315b	0.11679336
33	0x3e2ba99b	0.16763918
34	0x3e713c76	0.2355822
35	0xbeb95190	-0.3619504
36	0xbf08ba56	-0.53409326
37	0x3e306f89	0.17230047
38	0xbe7744ec	-0.24147385
39	0xbe8e491d	-0.27790156
40	0xbf0358d3	-0.5130741
41	0xbd537854	-0.051628426
42	0xbe706630	-0.23476481
43	0xbd977e7d	-0.073971726
44	0xbf03afca	-0.5144011
45	0xbea00fd8	-0.31262088
46	0xbe0d6422	-0.13807729
47	0xbef9edaf	-0.4881415
48	0x3e2a5933	0.1663559
49	0xbe2a4845	-0.16629131
50	0x3e639a9f	0.22226952
51	0x3e778192	0.24170521
52	0xbeffaa5b	-0.49934658
53	0x3eac2f52	0.33629853
54	0x3e8042e0	0.25051022
55	0xbe4203d0	-0.18946767
56	0xbdf1660f	-0.11787044
57	0xbf17add2	-0.59249604
58	0xbd4020e1	-0.046906356
59	0xbf1e8d39	-0.6193424
60	0x3ec20c55	0.37900034
61	0xbe841e9c	-0.25804603
62	0x3e7f27a5	0.24917467
63	0xbd84d916	-0.06486718
64	0xbedf1393	-0.4356962
65	0xbe449ee5	-0.19201238
66	0xbeeefdd1	-0.46678022
67	0x3e99fd07	0.30075857
68	0xbef556c2	-0.47917753
69	0xb9794541	-0.0002377229
70	0xbe1ae2a6	-0.15125522
71	0xbeefe66c	-0.46855485
72	0x3e30cd7b	0.17265885
73	0xbf0512e5	-0.51981956
74	0xbed601e4	-0.41798317
75	0x3ea7cc66	0.3277313
76	0x3d31e08e	0.043427043
77	0xbc63e6e9	-0.013910034
78	0x3e149108	0.1450845
79	0xbf04c575	-0.51863796
80	0x3d693ce5	0.05694284
81	0x3da0be16	0.07848756
82	0xbe4bd3dc	-0.19905037
83	0xbbc2b34a	-0.005941783
84	0xbe144397	-0.14478908
85	0x3eaa8961	0.33307937
86	0xbe3b81a7	-0.18311177
87	0x3d8d60c8	0.06903225
88	0xbe383ef3	-0.17992763
89	0x3eab645e	0.33475012
90	0x3e71c249	0.2360927
91	0x3d64d85e	0.055870406
92	0xbe0ae095	-0.13562234
93	0xbdb6a81b	-0.08918782
94	0xbe198dad	-0.14995451
95	0xbe7978af	-0.24362443
96	0x3e9efb02	0.3105088
97	0x3d1c4046	0.038147233
98	0xbe8dc2fc	-0.27687824
99	0xbe78c145	-0.24292476
100	0x3ea88d30	0.32920218
101	0xbd3e6f2b	-0.046492737
102	0x3da1a62c	0.07893023
103	0x3ec630f3	0.3870922
104	0x3e1b0e3d	0.1514215
105	0xbd9e1131	-0.07718123
106	0xbe63cd73	-0.22246341
107	0xbf03d82b	-0.5150172
108	0xbf011c5c	-0.504339
109	0x3ea27df3	0.31736717
110	0xbf05ab5d	-0.52214605
111	0xbd8f8254	-0.0700728
112	0x3e23ce21	0.159966
113	0xbe0b3ef9	-0.13598241
114	0x3dd52c8a	0.10408886
115	0xbdd0bf9c	-0.101927966
116	0x3e8198ce	0.25311893
117	0xbe819760	-0.25310802
118	0xbd9e3027	-0.07724028
119	0xbebac5e3	-0.364791
120	0xbd38401b	-0.04498301
121	0xbe1d34ea	-0.15352216
122	0xbe2a866f	-0.16652845
123	0xbede95de	-0.43473715
124	0x3ea98cca	0.33115226
125	0x3e16be99	0.14721145
126	0x3e5ef9bd	0.21774955
127	0xbe871fa7	-0.26391336
128	0xbd597dc7	-0.053098466
129	0x3e964add	0.2935399
130	0xbeb43397	-0.3519561
131	0x3eed64df	0.4636602
132	0xbee139d5	-0.43989435
133	0x3ec0f462	0.3768645
134	0xbf0d961c	-0.55307174
135	0xbebc0e0d	-0.3672947
136	0xbd8ff7f3	-0.070297144
137	0x3ee41fef	0.44555613
138	0xbd6ba427	-0.057529595
139	0xbeeb80b7	-0.4599664
140	0x3d1058e7	0.035241034
141	0x3eadb0b1	0.33923867
142	0xbdeab057	-0.114594154
143	0x3de3a0ab	0.11114629
144	0xbf131091	-0.57447153
145	0x3e69f3c1	0.22846891
146	0xbe81e00c	-0.25366247
147	0xbec04c89	-0.37558392
148	0x3db9756b	0.09055599
149	0xbe6bdc24	-0.23033196
150	0xbf01a80f	-0.5064706
151	0xbd5a3ca8	-0.053280503
152	0xbe0d2998	-0.13785398
153	0x3ea9ce36	0.3316514
154	0xbebf725a	-0.3739193
155	0x3efe4182	0.49659353
156	0xbe05443b	-0.13014309
157	0x3ef65be2	0.48116976
158	0x3edd1272	0.43178135
159	0xbde110b8	-0.10989517
160	0xbee6de43	-0.45091447
161	0xbef059f6	-0.46943635
162	0xbe9b53ef	-0.30337474
163	0xbef8f0bf	-0.48621175
164	0x3f1f0537	0.6211733
165	0xbe1b3f38	-0.15160835
166	0xbe27cdf4	-0.16387159
167	0x3e894a52	0.26814514
168	0xbde083e5	-0.10962657
169	0x3e0708b0	0.13186908
170	0xbcbffe4e	-0.023436692
171	0xbec7e845	-0.39044395
172	0xbe212526	-0.15736827
173	0xbe112a86	-0.14176378
174	0x3e338aa8	0.17533362
175	0x3d567350	0.052356064
176	0x3c0a6854	0.008447725
177	0xbeda63f0	-0.4265437
178	0x3e830e76	0.2559697
179	0xbd878376	-0.06616871
180	0xbf023100	-0.5085602
181	0xbed9d2f6	-0.42543763
182	0x3cec3738	0.028834924
183	0x3de5eb5a	0.112265304
184	0xbe2d4b3a	-0.16923228
185	0xbe9d3386	-0.30703372
186	0xbf0012d9	-0.5002876
187	0xbec0ef52	-0.37682587
188	0xbe0877b0	-0.13326907
189	0xbf20d863	-0.6283018
190	0xbe6cba3e	-0.23117921
191	0xbe1ae539	-0.15126504
192	0x3e9c89f0	0.30573988
193	0x3d2c68ad	0.042092014
194	0x3e271257	0.1631559
195	0xbed897cf	-0.4230332
196	0xbeed83e7	-0.46389696
197	0xbe8a6922	-0.27033335
198	0xbd9eff4a	-0.07763536
199	0xbecab3c9	-0.3959029
200	0xbed6a992	-0.41926247
201	0x3e9dc25a	0.3081234
202	0x3e01ab70	0.12663054
203	0x3ea34734	0.3189026
204	0xbe4857df	-0.1956477
205	0xbf1762aa	-0.59134924
206	0xbe083c79	-0.13304318
207	0x3ef81843	0.4845601
208	0xbea47d4a	-0.32126838
209	0x3d2d2a7a	0.042276837
210	0x3e560e4e	0.20903894
211	0xbe94f005	-0.2908937
212	0xbcdcc873	-0.02695105
213	0xbef46660	-0.47734356
214	0x3d093a5a	0.033502914
215	0x3e93f58c	0.28898275
216	0xbde4b1fd	-0.11166761
217	0xbcb5bc46	-0.022184502
218	0x3cd73ae9	0.026273208
219	0xbf1f12c8	-0.6213803
220	0xbeb31b8a	-0.34981948
221	0xbebb518c	-0.36585653
222	0x3e90e829	0.28302124
223	0x3c23c441	0.009995521
224	0xbe64d33e	-0.22346207
225	0x3cea5e4e	0.028609421
226	0xbf09a989	-0.53774315
227	0x3d8e8dd9	0.06960649
228	0xbe4bf06e	-0.19915935
229	0x3c12839c	0.008942511
230	0x3df9ab4d	0.12190876
231	0x3e983d8a	0.2973445
232	0xbdf03727	-0.117292695
233	0x3e32ea4c	0.1747219
234	0x3bbe6b15	0.005811105
235	0xbd396fef	-0.045272764
236	0x3dc24c6a	0.09487231
237	0x3e60894e	0.21927378
238	0x3ec98291	0.39357427
239	0xbe9da8f5	-0.30792966
240	0x3da370de	0.07980512
241	0x3e66cda7	0.22539388
242	0x3e820f3c	0.25402248
243	0xbcddb992	-0.027066026
244	0x3e0bc3fb	0.1364898
245	0x3d1915c0	0.037374258
246	0xbd2e7608	-0.042593032
247	0xbebf5bf6	-0.37374848
248	0x3d925f24	0.07147053
249	0x3df4d3b5	0.119544424
250	0xbec0e9db	-0.37678418
251	0x3d0c52df	0.03425872
252	0x3e38c40e	0.18043539
253	0x3e98e723	0.29863843
254	0xbe67bdf2	-0.22631052
255	0x3e495f1c	0.19665188

linear_relu_stack.3.weight f4 [256, 256]
0	0xbd8cf841	-0.06883288
1	0x3c3f2c4e	0.011668278
2	0xbc2dd47a	-0.01060974
3	0x3daad17f	0.083407395
4	0xbde51dab	-0.11187299
5	0xbdad2733	-0.08454742
6	0xbc7fc9ca	-0.015612075
7	0x3d840deb	0.06447967
8	0x3c569c60	0.013098806
9	0x3e2dc8e7	0.1697117
10	0x3cddb8fd	0.027065748
11	0xbd744901	-0.059639934
12	0xbd8ac2e3	-0.06775453
13	0x3d6571d5	0.05601676
14	0xbce4cdd2	-0.027930174
15	0xbd41d4c3	-0.047322046
16	0x3df953fd	0.121742226
17	0xbd827ea1	-0.06371809
18	0x3dbee9da	0.093219474
19	0xbd53f0e5	-0.051743407
20	0x3d4b5432	0.04964084
21	0x3a8f2c66	0.0010923266
22	0xbc8b207a	-0.01698326
23	0xbe069875	-0.13144095
24	0x3c981c5e	0.018568214
25	0x3dd6a893	0.10481372
26	0xbbcc5dff	-0.006236791
27	0xbd8b16ba	-0.06791444
28	0xbd580fec	-0.05274956
29	0xbd5e6aba	-0.054301
30	0xbd3753ca	-0.04475764
31	0x3bee0aa5	0.0072644525
32	0x3db66c49	0.089073725
33	0x3c9cf375	0.019159058
34	0x3da23a1b	0.07921239
35	0x3d32e20f	0.043672618
36	0xbd67a4a9	-0.056553517
37	0xbd262003	-0.040557873
38	0xbd8b4f08	-0.068021834
39	0x3dc3bfb5	0.095580496
40	0x3c88ee14	0.016715087
41	0x3b55fe16	0.0032652668
42	0x3de75f56	0.11297481
43	0xbd9f59a0	-0.077807665
44	0x3dc78311	0.09741796
45	0xbe0ff41a	-0.14057961
46	0x3d8f416e	0.069949016
47	0xbc48a94c	-0.012247395
48	0xbd93ce2a	-0.07217057
49	0x3d98d8d9	0.074632354
50	0x3c27d1ad	0.010242862
51	0x3d37c6f9	0.04486749
52	0xbbbdbe85	-0.005790534
53	0x3b107414	0.0022041844
54	0xbc028d2e	-0.00796823
55	0xbc47e7c3	-0.012201252
56	0xbc2c2921	-0.010507853
57	0xbd3c8046	-0.04602077
58	0x3d5c9da7	0.053861286
59	0x3d758a09	0.059946094
60	0x3d6e94b9	0.0582473
61	0xbcb73993	-0.02236632
62	0x3c32b899	0.010908269
63	0xbe32653e	-0.17421433
64	0xbcd87bde	-0.026426252
65	0xbc973ade	-0.018460687
66	0xbd22908b	-0.03968863
67	0xbcb42abf	-0.02199304
68	0xbdc6a39d	-0.096991755
69	0xbbe71204	-0.007051708
70	0x3dc9dd2c	0.09856638
71	0x3cca2eaf	0.024680464
72	0xbd2d5d37	-0.042325225
73	0x3daf8105	0.085695304
74	0x3d9d4ab9	0.07680268
75	0xbd8aebfe	-0.06783293
76	0xbd376645	-0.044775266
77	0xbd6b25d1	-0.05740911
78	0xbcef7da8	-0.029234722
79	0x3da1fdeb	0.07909759
80	0xbd98539a	-0.07437821
81	0xbd34927a	-0.044085003
82	0x3dbcd631	0.09220541
83	0xbda11287	-0.07864862
84	0xbcfc285b	-0.030780962
85	0x3ddd7c48	0.108147204
86	0xbde716df	-0.11283659
87	0x38ee76a8	0.00011370826
88	0xbd57375e	-0.052543037
89	0xbc8871c3	-0.016655808
90	0xbb79056a	-0.0037997612
91	0xbc971f73	-0.018447613
92	0xbb6bafac	-0.0035962863
93	0xb80d93fb	-3.3754837e-05
94	0xbd21cac9	-0.03950003
95	0xbbc8a8fc	-0.00612366
96	0xbdc5cdee	-0.096584186
97	0xbdbac7cf	-0.09120142
98	0xbd680b20	-0.056651235
99	0xbccc36e9	-0.024928527
100	0xbb0c1944	-0.0021377364
101	0x3e55764d	0.2084591
102	0xbdf434ab	-0.11924108
103	0xbd8a22ac	-0.067448944
104	0x3c72f6b4	0.014829326
105	0x3df22d29	0.1182502
106	0xbd192c83	-0.037395965
107	0xbdf85f1a	-0.12127514
108	0xbdcb1ae4	-0.09917238
109	0xbd6694c2	-0.05629421
110	0x3c787b0f	0.015166058
111	0xbd26d730	-0.040732563
112	0x3bbdea53	0.005795756
113	0xbccb5259	-0.02481954
114	0xbe148d84	-0.14507109
115	0x3cc63d93	0.024199283
116	0xbd9bce22	-0.07607676
117	0x3c551396	0.013005158
118	0xbcf5dcee	-0.030012574
119	0xbd5a370e	-0.05327516
120	0xbd8177db	-0.06321689
121	0x3cb650d0	0.022255331
122	0x3d9f872b	0.07789453
123	0xbda66e25	-0.08126477
124	0xbd092886	-0.03348591
125	0x3c5ab2bc	0.013348278
126	0xbdcb9c6a	-0.09941943
127	0xbda670b6	-0.08126967
128	0xbdb58cef	-0.088647716
129	0x3cd46d75	0.0259311
130	0x3d23442e	0.039859943
131	0xbdc8592f	-0.097826354
132	0x3c111838	0.008855872
133	0xbd3a020b	-0.045412105
134	0xbad80e95	-0.0016483838
135	0xbd35e7a6	-0.04441037
136	0xbe0b46ae	-0.13601181
137	0x3bdd9aa6	0.0067628203
138	0x3d484155	0.04889043
139	0xbd82e56c	-0.06391415
140	0x3dc6f9a3	0.09715583
141	0x3d9b6857	0.075882606
142	0xbd31623d	-0.043306578
143	0xbd968dfa	-0.07351299
144	0xbc6d466c	-0.014482122
145	0xbd58179a	-0.052756883
146	0xbdb7ede8	-0.08980924
147	0xbd040ecb	-0.03224067
148	0xbdd3aad4	-0.10335317
149	0x3ce123db	0.027482918
150	0x3d0455a7	0.032308247
151	0xbd8fc48e	-0.07019912
152	0xbc562907	-0.013071305
153	0x3d002f53	0.031295132
154	0xbd7e266b	-0.062048357
155	0xbe084c66	-0.13310394
156	0xbbc4e4b0	-0.006008707
157	0x3c06af4d	0.008220506
158	0xbc961ad4	-0.01832334
159	0x3d923b61	0.07140232
160	0xbd4dbe5f	-0.05023038
161	0x3b4a78e7	0.0030894817
162	0xbd65143c	-0.0559275
163	0xbd2ca8e2	-0.042153247
164	0xbd577497	-0.052601423
165	0xbceafad5	-0.02868406
166	0x3d382749	0.04495934
167	0xbdb78929	-0.08961708
168	0xbc24bc57	-0.010054669
169	0xbd7ed5f8	-0.062215775
170	0x3dcf6539	0.101267286
171	0xbd8a5c81	-0.06755925
172	0xbcaa2dc6	-0.02077378
173	0xbb40a4ea	-0.0029395171
174	0xbd8aaf12	-0.06771673
175	0x3d4ffb6b	0.05077688
176	0x3d0b60e3	0.034027945
177	0x3c8318e2	0.016003076
178	0xbdb3acdf	-0.08773207
179	0xbdba51a2	-0.090976015
180	0xbc65ddce	-0.014029933
181	0x3d2b2900	0.041787148
182	0xbcf323bd	-0.029680127
183	0xbd9da959	-0.07698316
184	0xbcd9f5ca	-0.02660646
185	0x3e0ec4a0	0.13942194
186	0xbaf48d5e	-0.0018657853
187	0xbbec921d	-0.0072195665
188	0x3dc08265	0.09399871
189	0x3d84b0b0	0.06479013
190	0x3cc79bad	0.024366224
191	0xbcbf1bc4	-0.02332867
192	0xbd321468	-0.043476492
193	0xbc3bfb6b	-0.011473517
194	0xbdd0d44e	-0.10196744
195	0x3bd04118	0.006355416
196	0x3d35fd2c	0.044430897
197	0xbd84b2df	-0.064794295
198	0x3afa3625	0.0019089623
199	0xbd48c551	-0.0490163
200	0x3c920a2b	0.017827114
201	0xbd9e1dd3	-0.07720532
202	0x3c9a1264	0.018807597
203	0x3c3811e4	0.011234734
204	0xbd2dca2b	-0.04242913
205	0xbc98f116	-0.018669646
206	0xbca685db	-0.0203275
207	0x3d244f1f	0.04011452
208	0x3d4061a4	0.046968117
209	0xbd15c2f2	-0.036562867
210	0x3dfec7f1	0.124404795
211	0xbce18b86	-0.02753235
212	0xbd7b5d3f	-0.061368223
213	0x3c2ce139	0.010551744
214	0xbd89d076	-0.06729214
215	0xbe0b8ee3	-0.13628726
216	0xbd2b6484	-0.041843906
217	0xbcc54742	-0.02408183
218	0xbd81948d	-0.06327162
219	0x3dbf3a03	0.09337237
220	0x3db642d8	0.08899468
221	0xbd03beac	-0.03216426
222	0xbc026d2c	-0.007960599
223	0xbc39e364	-0.011345718
224	0xbd24ca2f	-0.04023188
225	0x3d96775e	0.07346986
226	0x3d980254	0.07422319
227	0x3de57017	0.1120302
228	0x3e006ae8	0.12540781
229	0xbe0b9a75	-0.1363314
230	0x3d10231f	0.035189744
231	0xbd0378e4	-0.032097712
232	0x3ac1763b	0.0014759967
233	0x3dbce122	0.09222628
234	0xbd003fea	-0.031310953
235	0xbc778e1e	-0.015109567
236	0x3d510d92	0.051038332
237	0xbd8fc0ce	-0.070191965
238	0xbdd69dc0	-0.10479307
239	0xbd9d2304	-0.07672694
240	0xbdf3d63c	-0.11906096
241	0xbc89747c	-0.016779177
242	0xbca195a0	-0.019724667
243	0xbcae0351	-0.021241816
244	0x3c270e3b	0.010196264
245	0xbd9e8789	-0.07740695
246	0x3e250838	0.16116416
247	0xbca1e4bc	-0.01976239
248	0xbd0c450b	-0.034245532
249	0x3dc5779a	0.09641953
250	0xbd2a0b3f	-0.04151463
251	0x3cdb3177	0.026756985
252	0xbc973096	-0.018455785
253	0xbd9e308c	-0.07724103
254	0x3d77247a	0.06033752
255	0xbdca3445	-0.09873251

linear_relu_stack.3.bias f4 [256]
0	0xbd3e0e2e	-0.04640024
1	0x3c487e90	0.012237206
2	0xbd029f7a	-0.03189037
3	0xbdb921cf	-0.090396516
4	0x3cef3d55	0.02920405
5	0xbdbbcd1f	-0.09169983
6	0x3d128288	0.035769016
7	0xbd8341b3	-0.064090155
8	0x3c76a49b	0.015053893
9	0x3d3dce60	0.046339393
10	0x3ddb45a5	0.10706643
11	0x3ccfd822	0.025371615
12	0xbd527e42	-0.05138994
13	0x3c104bba	0.008807117
14	0x3c7da4f6	0.015481224
15	0xbccd304f	-0.02504745
16	0xbd024816	-0.031807028
17	0x3cd037a8	0.025417164
18	0x3c47cb8b	0.0121945245
19	0x3b0882b6	0.0020829863
20	0xbbdece08	-0.006799463
21	0x3d2aff9e	0.04174768
22	0xbca74cd8	-0.020422384
23	0xbcc45eb4	-0.02397094
24	0xbd87062d	-0.06592975
25	0xbda1415d	-0.07873795
26	0x3c94223e	0.018082734
27	0xbdb3cda6	-0.08779459
28	0x3deebf20	0.11657548
29	0x3c2256a4	0.009908352
30	0x3d034778	0.03205058
31	0xbcd2475d	-0.025668794
32	0xbd41e9ef	-0.047342237
33	0x3e4ae378	0.19813335
34	0xbd3bd9c9	-0.045861993
35	0x3d0c8836	0.03430959
36	0x3e1ec822	0.15506032
37	0xbd05cfe4	-0.032668963
38	0x3d45511c	0.048173055
39	0x3c8523f1	0.01625249
40	0xbcaf1969	-0.021374421
41	0x3b4e3e42	0.0031470214
42	0xbd2cd5d2	-0.042196102
43	0x3d4f3d48	0.05059555
44	0x3de8ac6a	0.113610104
45	0x3d2d8822	0.042366154
46	0xbca61ab5	-0.020276407
47	0xbbd79c0c	-0.0065798815
48	0xbaaa1b28	-0.0012978064
49	0xbc003012	-0.007823961
50	0xbce3dd81	-0.027815582
51	0xbd198153	-0.03747685
52	0xbd92aebd	-0.07162235
53	0x3ba114ae	0.0049157953
54	0x3d2a6923	0.041604172
55	0xbd6ffc6f	-0.05859035
56	0x3d90549d	0.07047389
57	0xbd844ea2	-0.064603105
58	0x3c4ddf2a	0.0125654135
59	0xbcfad794	-0.030620374
60	0xbc22cf2c	-0.009937089
61	0xbce89d66	-0.028395366
62	0xbc92a3f5	-0.017900446
63	0xbd14ca6e	-0.036325864
64	0xbd9a6472	-0.0753869
65	0x3d062167	0.0327467
66	0x3c0f00d9	0.008728229
67	0xbd918751	-0.07105888
68	0x3e00500b	0.12530534
69	0x3d049363	0.03236712
70	0xbc1dae85	-0.009624128
71	0xbca27544	-0.019831307
72	0xbd39f3ee	-0.045398645
73	0x3db6fbdf	0.08934759
74	0xbd265a85	-0.04061367
75	0x3d11a13b	0.035554152
76	0xbd8dfb21	-0.06932665
77	0xbd86cbc8	-0.06581837
78	0xbd884421	-0.066536196
79	0xbc199707	-0.009374387
80	0xbce59f0e	-0.028029945
81	0x3d8a8659	0.06763906
82	0x3d423c04	0.047420517
83	0xbd356c2d	-0.044292618
84	0xbd4be3da	-0.049777843
85	0xbbc6660d	-0.006054646
86	0x3cf93a40	0.030423284
87	0xbd119b0b	-0.03554825
88	0xbc85cb0f	-0.016332177
89	0x3d0c1445	0.034199018
90	0x3e7c2385	0.24622925
91	0x3b6d3092	0.003619228
92	0xbb18d159	-0.002331814
93	0xbccdda53	-0.02512852
94	0xbdfba912	-0.12288107
95	0xbd16fc46	-0.03686168
96	0x3ca240e9	0.019806342
97	0xbd838661	-0.06422115
98	0xbdfd97ba	-0.12382455
99	0xbd9983f5	-0.07495872
100	0xbdcd419f	-0.10022282
101	0x3cd3db66	0.025861453
102	0xbd9ce6ef	-0.076612346
103	0x3c90ca5b	0.017674616
104	0xbd74ebf7	-0.059795346
105	0xbd672c4d	-0.056438733
106	0xbcca801f	-0.024719296
107	0xbca9d646	-0.020732056
108	0xbdc5f21e	-0.09665321
109	0xbda29034	-0.07937661
110	0x3c624d95	0.013812442
111	0xbde1673e	-0.1100602
112	0xbcdfca15	-0.02731804
113	0xbdab4e57	-0.083645515
114	0xbc8dcbc0	-0.01730907
115	0x3c188d78	0.0093110725
116	0xbd8e1a92	-0.06938662
117	0xbd50212f	-0.050812896
118	0x3c8a6d26	0.01689775
119	0x3cecef29	0.028922634
120	0xbba7e5e4	-0.0051238406
121	0xbbeb20f9	-0.0071755615
122	0x3d2fe891	0.042946402
123	0x3e39ef9e	0.18157813
124	0x3d2fef13	0.04295261
125	0xbd4e0593	-0.050298285
126	0xbdc17364	-0.09445837
127	0x3b1b7c8d	0.002372536
128	0x3d117793	0.035514425
129	0xbd158ac2	-0.036509283
130	0x3c8d18ca	0.017223734
131	0xbd75989b	-0.05995999
132	0x3c6db5ac	0.014508646
133	0xbc2e8ae0	-0.010653228
134	0x3c954bd5	0.018224636
135	0xbd0aae57	-0.03385767
136	0xbca84c7e	-0.020544287
137	0x3ca14819	0.0196877
138	0x3a76925a	0.00094059634
139	0xbd8ec28b	-0.069707
140	0xbd8b9bf1	-0.06816853
141	0x3d12579f	0.035728093
142	0x3cc266e2	0.023730699
143	0xbd295c87	-0.041348007
144	0xbc5f929d	-0.013645795
145	0x3df1b860	0.11802745
146	0x3c8effe5	0.017456004
147	0xbc56f838	-0.013120703
148	0x3cacf72e	0.021113958
149	0xbd245a44	-0.040125147
150	0xbd2c0919	-0.042000864
151	0xbd0110ec	-0.03151028
152	0x3b626eb6	0.0034550852
153	0xbd9ce074	-0.076599985
154	0xbcba7161	-0.022759141
155	0xbca5b6d8	-0.020228788
156	0xbd9063d3	-0.0705029
157	0xbd30a425	-0.04312529
158	0xbdb87bcb	-0.09007987
159	0xbd8ec0ba	-0.069703534
160	0xbdac0045	-0.08398489
161	0x3d116c22	0.035503514
162	0x3d3897f1	0.045066778
163	0xbd9fc4b8	-0.07801193
164	0x3e08936d	0.13337488
165	0x3c40ada1	0.011760146
166	0xbda1549d	-0.07877467
167	0xbd4a00b1	-0.049317066
168	0xbb283af7	-0.0025669911
169	0x3de83192	0.1133758
170	0xbd576529	-0.05258671
171	0xbd553512	-0.052052565
172	0xbddf8466	-0.10913925
173	0xbd7107eb	-0.05884544
174	0xbbb1d2f4	-0.005426759
175	0x3d32750e	0.043568663
176	0x3da285fb	0.07935711
177	0x3d6e9133	0.05824394
178	0xbd7a1f3b	-0.06106494
179	0xbbd567ae	-0.0065126037
180	0xb8c05dde	-9.1727576e-05
181	0x3c434629	0.011918583
182	0x3d78d9da	0.060754634
183	0xbd7925ba	-0.060826994
184	0x3b8eede7	0.0043618563
185	0xbd847c58	-0.06469029
186	0xbc3ce2db	-0.011528696
187	0xbdb99822	-0.0906222
188	0xbc8cd5e8	-0.017191842
189	0x3be77335	0.0070632943
190	0x3c8a5855	0.016887823
191	0x3c039e2e	0.008033318
192	0x3b735379	0.003712861
193	0x3d5e0c0f	0.05421072
194	0xbd4a4c16	-0.049388967
195	0xbc96f28f	-0.018426208
196	0xbd320206	-0.04345896
197	0x3dc8a311	0.097967274
198	0x3cd9aceb	0.026571712
199	0xbd14ad74	-0.03629823
200	0xbd2ba777	-0.041907754
201	0xbd6e37dd	-0.058158744
202	0xbd0e90d6	-0.034806095
203	0x3c1d4e9c	0.0096012615
204	0xbd699aec	-0.05703251
205	0xbd6fa332	-0.058505245
206	0x3d03dbca	0.03219203
207	0xbd97cb7c	-0.074118584
208	0x3bfda72f	0.007740877
209	0xbdfce0ad	-0.12347541
210	0xbd2a3d59	-0.041562412
211	0xbd81962d	-0.06327472
212	0xbc7f09ec	-0.01556633
213	0xbd1923b0	-0.03738755
214	0x3d0519ad	0.03249519
215	0xbd886e55	-0.06661669
216	0xbbd2a3ce	-0.0064282184
217	0xbb2091fb	-0.0024501074
218	0xbd101c3b	-0.035183173
219	0xbd169ccb	-0.036770623
220	0xbd3321ca	-0.043733396
221	0xbcc69dc8	-0.024245158
222	0xbcb6570e	-0.022258308
223	0xbc894c78	-0.016760096
224	0x3acea88c	0.0015766784
225	0xbcd8d4e6	-0.026468705
226	0xbc1189f8	-0.008882992
227	0x3c0a8ad8	0.0084559545
228	0x3d5efe14	0.054441527
229	0xbd28f7a0	-0.04125178
230	0xbd58b6f3	-0.05290885
231	0xbc552e03	-0.013011458
232	0xbc4d0891	-0.012514249
233	0xbdb8aa52	-0.09016861
234	0x3bd0e90d	0.006375438
235	0xbd8004f6	-0.06250946
236	0xbcb9e742	-0.02269328
237	0xbd6355d3	-0.05550177
238	0x3c25b09e	0.01011291
239	0x3dc23769	0.09483225
240	0xbda26778	-0.07929891
241	0xbd365197	-0.044511404
242	0xbbaaa432	-0.005207562
243	0xbdc3fff4	-0.095703036
244	0xbd580e5e	-0.052748077
245	0xbdc70b07	-0.097189
246	0x3c7729ed	0.0150856795
247	0x3d2e4c76	0.042553388
248	0xbc003ca9	-0.0078269625
249	0x3c30a1c5	0.010780756
250	0xbb4d1153	-0.0031290844
251	0xbd85e7b4	-0.065383345
252	0x3bc3b088	0.005971972
253	0x3da4e44f	0.08051359
254	0x3c82c17f	0.015961407
255	0x3c9e570a	0.019328613

linear_relu_stack.6.weight f4 [2, 256]
0	0x3c06b48b	0.008221756
1	0xbc7dcef0	-0.015491232
2	0xbc19cfd9	-0.009387934
3	0x3c067778	0.0082071945
4	0xbc6b80bc	-0.014373954
5	0x3c5f81d2	0.013641791
6	0xbc4d072f	-0.01251392
7	0xbd0b9cdb	-0.034085136
8	0x3c031ac6	0.008001989
9	0xbd0ec130	-0.034852207
10	0x3c8a05cc	0.016848467
11	0xb9d95203	-0.0004145057
12	0xbcb258b1	-0.021770807
13	0x3bcefc17	0.0063166725
14	0xbd36c6a0	-0.044623017
15	0x3bd2c380	0.006431997
16	0x3cb18529	0.021669941
17	0x3c639e3e	0.013892708
18	0xbcaf6092	-0.021408353
19	0xbb73c90d	-0.0037198693
20	0x3c8df47e	0.017328497
21	0x3928a4a4	0.00016083062
22	0x3ac01151	0.0014653598
23	0x3c5fd703	0.013662103
24	0x3acf416e	0.0015812346
25	0xba5da605	-0.000845522
26	0x3c99634d	0.018724108
27	0x3a898808	0.0010492811
28	0x3d07abca	0.033122815
29	0xbd522be4	-0.05131139
30	0x3cd85ea0	0.026412308
31	0xbca69fa2	-0.02033979
32	0xbbadf158	-0.0053083114
33	0x3deb2d71	0.11483277
34	0xbbbe1446	-0.0058007566
35	0xbb2f6eb2	-0.002676886
36	0xbe9fe762	-0.3123122
37	0xbd61c594	-0.055120066
38	0xbc1999d6	-0.009375056
39	0x3baa75be	0.0052020242
40	0xbbeb6669	-0.007183839
41	0xbd458fb5	-0.048232753
42	0xbcf66b13	-0.030080354
43	0xbce3bcb5	-0.027799943
44	0x3c5d171f	0.013494282
45	0x3bd25058	0.006418269
46	0xbb6c7035	-0.0036077623
47	0x3c161e8b	0.009162555
48	0xbbec2238	-0.0072062276
49	0x3cb5c5ab	0.022188982
50	0xbbda1fc5	-0.0066566193
51	0xbcc6bc97	-0.024259849
52	0xbd596c20	-0.05308163
53	0x3d100d73	0.035169076
54	0x3c070744	0.008241478
55	0x3c0b41e7	0.008499599
56	0x3c3c9f8b	0.011512647
57	0x3ba8a9d7	0.0051471996
58	0xbc281cf3	-0.010260808
59	0xbc981919	-0.018566655
60	0x3c3b3031	0.011425064
61	0xbd290031	-0.04125995
62	0xbd3f1e71	-0.04665989
63	0xbd7a79f3	-0.061151456
64	0xbc9d6b41	-0.019216182
65	0xbc577c02	-0.013152124
66	0xbd2eca39	-0.042673323
67	0xbcacbac7	-0.021085156
68	0x3c0c68e3	0.008569929
69	0xbd5dfd3d	-0.054196585
70	0xbd37b120	-0.044846654
71	0xbc489b81	-0.012244106
72	0xbcf7c9d0	-0.030247599
73	0x3c8ba4a9	0.01704629
74	0x3c36a6f8	0.011148207
75	0xbbb08c8b	-0.005387848
76	0x3c923630	0.017848104
77	0x3d70097e	0.058602802
78	0xbb83a5c0	-0.0040175617
79	0xbd850ae8	-0.06496221
80	0xbce1870f	-0.027530221
81	0x3cf250a6	0.029579472
82	0x3d4162e3	0.047213446
83	0xbc1481ce	-0.009064151
84	0x3d634c10	0.05549246
85	0x3c8728e2	0.016498987
86	0xbc44ef89	-0.01202
87	0x3d0580cf	0.032593545
88	0xbd29c7a7	-0.04145017
89	0x3ca013f2	0.01954076
90	0x3e139ae3	0.14414553
91	0x3bbd8d2f	0.0057846527
92	0xbc0c698c	-0.008570086
93	0xbcc847b0	-0.024448246
94	0xbc077a23	-0.008268866
95	0xbcdbe154	-0.026840843
96	0xbc76678f	-0.015039339
97	0x3bf9070d	0.0075997175
98	0xbcdabe57	-0.02670209
99	0xbd4a1f12	-0.049346037
100	0xbb4bc6f6	-0.0031093932
101	0x3ba06744	0.0048951227
102	0xbd38f83f	-0.04515862
103	0x3c57ee6f	0.013179406
104	0x3d057b7e	0.032588474
105	0x3d2145cd	0.039373208
106	0x39eba795	0.0004494755
107	0xbca4540b	-0.020059606
108	0xbd08854c	-0.033330247
109	0x3b229245	0.0024806422
110	0xbbac15ee	-0.0052516377
111	0x3c2e7aa5	0.010649358
112	0xbd323490	-0.04350716
113	0xbc431969	-0.011907914
114	0xbc147e46	-0.009063309
115	0x3d28867a	0.04114387
116	0xbba35608	-0.004984621
117	0xbccb332d	-0.024804676
118	0xbcef6613	-0.029223477
119	0xbd12cb9d	-0.035838712
120	0xbc3d359d	-0.011548427
121	0x3c303000	0.010753632
122	0x3d04d8d8	0.03243336
123	0x3c8ad83d	0.016948814
124	0xbccaf7be	-0.024776336
125	0x3caca02e	0.021072473
126	0xbd0f7aca	-0.03502921
127	0x3d259860	0.04042852
128	0xbcb0ded4	-0.021590628
129	0x39b4c5d2	0.00034479663
130	0x3c43fd37	0.011962227
131	0xbc8be247	-0.01707567
132	0xbc3e2c60	-0.0116072595
133	0x3bed1594	0.0072352383
134	0x3c4bd8c0	0.012441814
135	0x3cedcd7a	0.029028643
136	0x3b844ce9	0.0040374887
137	0x3c8d08d2	0.01721612
138	0xbd4ad472	-0.04951901
139	0x3c92be3f	0.017912982
140	0xbc44f03f	-0.01202017
141	0x3b4125e8	0.0029472057
142	0xbbbacfc5	-0.0057010376
143	0xbc8bcb4a	-0.01706471
144	0xbcd26853	-0.025684511
145	0x3d1401cd	0.03613453
146	0x3c8aea4a	0.01695742
147	0x3d06ee8e	0.032942347
148	0xba8c329d	-0.0010696236
149	0x3ba05a24	0.004893558
150	0xbc96b508	-0.01839687
151	0xbd2045b9	-0.039128993
152	0xbb5bc485	-0.0033533883
153	0xbd0a502c	-0.033767864
154	0xbb64578c	-0.003484222
155	0xbd3fd49e	-0.046833627
156	0xbd448c74	-0.04798551
157	0xbc14bd32	-0.009078311
158	0xbbd509f6	-0.0065014316
159	0x3cd21eb2	0.025649402
160	0xbb871630	-0.004122518
161	0x3cd93876	0.02651618
162	0x3cacf4b4	0.021112777
163	0x3c3a2aba	0.011362726
164	0x3d2144bc	0.03937219
165	0xbd1007cd	-0.03516369
166	0xbc7d9f14	-0.015479822
167	0xbcb070e8	-0.021538213
168	0x3bc7c870	0.006096892
169	0x3bdee3b0	0.006802045
170	0xbcb981e0	-0.022644937
171	0x3d245b32	0.040126033
172	0xbd168c31	-0.03675479
173	0xbd38bffc	-0.045104966
174	0xbcc555a0	-0.02408868
175	0xbd2fc1ae	-0.042909317
176	0x3b8b958a	0.00425977
177	0x3cc50c06	0.024053585
178	0xbd038718	-0.032111257
179	0xbc761da4	-0.015021715
180	0x3bb35849	0.005473171
181	0x3d0ff38a	0.035144366
182	0x3ceacf43	0.028663283
183	0x3be67ab9	0.0070336726
184	0x3c6efa04	0.014585976
185	0xbbd55d0a	-0.0065113353
186	0xbc1e412a	-0.009659091
187	0xbd0d89cd	-0.034555245
188	0xbc77aafe	-0.015116451
189	0x3d91eff2	0.07125844
190	0x3c03c8fe	0.008043526
191	0xbc319fec	-0.010841351
192	0xbd420787	-0.04737046
193	0xbd4dc4c9	-0.050236497
194	0x3c82db8d	0.01597383
195	0x3d336c2c	0.043804333
196	0xbc59f8f0	-0.01330398
197	0xbb85ce29	-0.004083414
198	0x3c8f59df	0.017498909
199	0x3d44762f	0.04796427
200	0xbc2229b2	-0.009897636
201	0xbd3c7269	-0.046007548
202	0x3c1bb0d4	0.009502608
203	0xba148cb7	-0.000566672
204	0xbbdcb8f0	-0.0067359135
205	0xbc4be5e0	-0.012444943
206	0x3c0e0ae8	0.008669592
207	0xbc78c623	-0.015183958
208	0x3d261aaf	0.04055279
209	0xbd5ecfba	-0.054397322
210	0x3cd54c3a	0.026037324
211	0x3b854db3	0.0040681004
212	0xbc5408a0	-0.0129415095
213	0xbc560388	-0.013062365
214	0x3b4e8357	0.003151139
215	0xbd31acd2	-0.043377705
216	0x3c77ef14	0.015132684
217	0x3c023928	0.007948197
218	0xbd4fe94f	-0.05075961
219	0x3ad7f220	0.0016475357
220	0xbc14d924	-0.0090849735
221	0xbd0ed243	-0.03486849
222	0xbc8ae222	-0.016953532
223	0xbd476d5c	-0.048688278
224	0x3d305121	0.04304612
225	0xbc0d9378	-0.008641116
226	0xbc8db02a	-0.017295916
227	0xbc563a07	-0.013075358
228	0x3d59afb5	0.053146083
229	0x3bef5db5	0.007304872
230	0x3d0251ca	0.03181628
231	0x3ccc688e	0.0249522
232	0x3bae1703	0.005312802
233	0x3c4354c6	0.011922067
234	0x3bb2c285	0.0054553174
235	0x3c554bb8	0.013018541
236	0x3c3b84af	0.011445208
237	0x3cc1b8ad	0.02364763
238	0xbb0728a1	-0.0020623582
239	0xbbc445fe	-0.005989789
240	0xbcca26dc	-0.024676733
241	0xbd014410	-0.03155905
242	0xbd3ec420	-0.046573758
243	0xbd5a367a	-0.05327461
244	0x3d28c3b9	0.04120228
245	0xbcf7525e	-0.030190643
246	0x3c38a8cb	0.011270712
247	0x3c8a70b2	0.01689944
248	0x3d32bc2f	0.043636497
249	0xba90c7c4	-0.0011045863
250	0x3d0395a9	0.03212515
251	0xbd8d0bf3	-0.06887045
252	0xbd600a29	-0.05469719
253	0x3cc00114	0.023438014
254	0x3d5c6e62	0.053816207
255	0xbc0f1810	-0.008733764

linear_relu_stack.6.bias f4 [2]
0	0x3ed1d9d2	0.40986496
1	0x3dfe8199	0.124270625
